onnx/Proposed/antikaon.onnx (onnx, 180401 bytes, 35 tensors)

emb.layers.0.bias f4 [128]
00000000: 3c80 d93d 3da0 4d3d 0bc3 933c b1ea 293d
00000010: 688e 363e c71b 50be 0708 61be f3e2 d83d
00000020: 2b58 40be 4866 df3c 96c6 e73d a018 80be
00000030: 8a41 013e 7e1d acbd 27e7 92bd 42be 08be
00000040: 507e b3bd 5d9c 40be ec38 2e3d ae35 c0bd
00000050: 4bd3 6ebc 30d4 9bbd 1b74 563d 36f3 a7bd
00000060: 7088 66bd 4644 fab9 34db 423e e575 423c
00000070: 2408 ce3d fc7b 88bc 5879 f2bd 7a64 873c
00000080: 23f2 be3d e3b0 9dbd 3700 c0be ef20 a83d
00000090: db7c ddbc 590e f9bc a22b b5be 669f 633e
000000a0: dece f2bc 1448 a1bc 6c84 7b3e f11d d6bd
000000b0: 9b7b 483e 15d8 41be f463 30be d1ab 6b3b
000000c0: cae9 43bd d2e4 043e 8dd1 f7bd 065f ae3d
000000d0: fa15 fbbd e0ff fe3c 4166 b1bd 36c1 20bd
000000e0: ec4c c7bd 25f9 afbd 0b05 7eba 3349 0abd
000000f0: 8d99 2abd 0088 20be 71e4 2f3e 2f51 333e
00000100: 9d6f 8bbd 4112 81be 738a 873d b830 b3bd
00000110: b6d3 223d 96fb 8cbc 40d6 123e 849b 793d
00000120: 171c 363e d37a 453e 3ac7 1b3b 5fc0 c33d
00000130: 3781 3cbe b791 c1bd ab28 cebd 9e0d d7bd
00000140: c740 b83c 214d 823c 2c30 853d 6684 84bd
00000150: 1285 ab3d 834b ae3d bdbf 343e bb99 643b
00000160: 162b 89bc 5b4e 15bd f8a2 34bd 8b3a 86be
00000170: 68c0 bebd db8e 1bbe ca55 81bd 9879 3f3e
00000180: d31a d23d be07 bebc 7d51 6fbe c08d 8abd
00000190: e2fa 463d 80a3 44be 9361 c63d 87cb f73d
000001a0: 77b4 adbd 5bf4 f4bd 2503 c0bd db27 6bbd
000001b0: 64fa f3bd e441 c7bd c3e7 303d c53c 1dbe
000001c0: f9b2 9dbc d9d8 87be 8fa3 a63d 0c86 8abe
000001d0: b365 61be fb96 bcbd 23a5 223d 76c4 12be
000001e0: 0609 c1bd 6980 aa3b 29e4 8bbd f070 d0bd
000001f0: 7727 6c3d e3cc b73d 2d91 9b3d 0879 bcbd
0.10620162 0.050201643 0.01803734 0.041483585 0.17827761 -0.20323096 -0.21975718 0.10590162
-0.18783633 0.027270451 0.11317174 -0.25018787 0.12622657 -0.08404063 -0.07172995 -0.13353828
-0.087643266 -0.18809648 0.042534754 -0.093852386 -0.014576743 -0.07608831 0.05235682 -0.08200686
-0.05628246 -0.00047734583 0.19028932 0.011868929 0.100601465 -0.016660683 -0.11839551 0.016527403
0.09323528 -0.07699754 -0.37500164 0.082094066 -0.027037075 -0.03040235 -0.35384852 0.22228774
-0.029639658 -0.01968769 0.24562234 -0.104549296 0.19578402 -0.18930085 -0.17225629 0.0035960565
-0.04783038 0.12977913 -0.121005155 0.08514218 -0.12260051 0.03112787 -0.086620815 -0.03924676
-0.097314686 -0.085924424 -0.00096900825 -0.033761214 -0.041650344 -0.1567688 0.17176987 0.17511438
-0.06808398 -0.2520924 0.06618204 -0.08749527 0.039752685 -0.01720981 0.14339542 0.060939327
0.17784153 0.19285135 0.0023769871 0.09558176 -0.18408667 -0.09451621 -0.100663505 -0.10500644
0.022491826 0.015905919 0.06503329 -0.064705655 0.083749905 0.085104965 0.17651267 0.003488167
-0.016744178 -0.03645168 -0.04410073 -0.2621654 -0.09314042 -0.15191214 -0.06315191 0.18698728
0.102590226 -0.023197051 -0.23370929 -0.06765318 0.048579104 -0.19202995 0.096865796 0.12099367
-0.084816866 -0.119606696 -0.093756 -0.057411056 -0.119129926 -0.097293645 0.043189775 -0.15355213
-0.01925038 -0.2653263 0.08136665 -0.27055395 -0.22011451 -0.09208485 0.039708268 -0.14332756
-0.09425549 0.005203296 -0.068306275 -0.10177791 0.057654824 0.08974626 0.075960495 -0.092027724

emb.layers.2.bias f4 [32]
00000000: d719 f13c f335 c23c b44e d63c e3d3 83bd
00000010: e50f aabc b647 e1bc d0fc 3fbd bac9 383c
00000020: 410a 5cbd 23fb 90bd 22b5 7fbd dc50 8b3c
00000030: 2ff7 a8bd f2f0 623c c874 62bd a160 243d
00000040: 7862 4a3d b8db 54bc afba 23bb 5d62 693d
00000050: bc1d 173c 28fb aa3d 1c92 bf3c ff43 51bd
00000060: a7bc 4fbd 58a1 c1bd 0240 f93c b0af 32bd
00000070: af53 bfbc 0207 b6bb a286 663d c8b7 3e3d
0.029431267 0.023707366 0.026160575 -0.064368986 -0.020759532 -0.027500015 -0.04687196 0.011278564
-0.053720716 -0.070791505 -0.0624286 0.01700633 -0.082502715 0.013851391 -0.055287153 0.040131215
0.049410313 -0.012991838 -0.0024983098 0.056978572 0.009223398 0.083486855 0.0233851 -0.051090237
-0.050717022 -0.09454602 0.03042603 -0.04362458 -0.023355333 -0.0055550346 0.05628074 0.046561986

encoder.layers.0.self_attn.in_proj_bias f4 [96]
00000000: 4b6f 373e 473b 34be 6a65 55be 5c3b 223e
00000010: 9153 31be f36d 0f3e 8a2a 573e 33b6 093e
00000020: 2ae7 f4bc f412 d73d 75ca 0ebe 3e9d 11be
00000030: 0135 15be f9a4 993d ea88 0dbe 7a17 2c3e
00000040: 7b61 e7bd b8ab 00be da75 cf3d 27f6 f03d
00000050: e2ea ee3d fc71 f13c 3860 e5bd 79b4 f03d
00000060: 0749 e9bd f525 f1bd efa8 8ebd 01e1 c33d
00000070: c219 c7bd 5d61 16be 1c87 d6bd 9b13 9f3d
00000080: c246 c2b8 b03b 7f39 74fc 8a39 7c68 edb8
00000090: f129 1039 65de 17b9 c80a 39b9 785b 17b9
000000a0: 2811 b7b6 98e9 1fb9 a25a be38 8166 6d39
000000b0: 8a47 3b39 cf0f a1b7 e6fd ee38 46fe 45b9
000000c0: 7d6f 9ab8 0f87 b7b8 8123 9e38 42b6 8838
000000d0: 2ed8 1bb8 0529 3138 20ba f337 af01 b637
000000e0: 6de8 05b8 509f 72b8 e9b3 6638 4806 9938
000000f0: 50e9 b138 2a87 f9b8 09c7 0c38 8ba7 1838
00000100: 4182 66b8 9d47 57bc e679 93bc b9c3 e3bb
00000110: 982c ab3b 3682 ddb9 fd73 2cbb 34a5 f13b
00000120: 7446 64bb 2608 1dba e200 a8bc c825 043b
00000130: b79c d03b 99ed 1d3b 7c1e 3ebc fd78 cabc
00000140: 4fd5 f9bc f418 08bc 81aa b93c 8610 acbb
00000150: 3052 e7bc 838b 35bb 5bc0 77ba 5dcc 97bb
00000160: 09e0 84bb 3323 0dbd a465 16bc 8a43 4fbc
00000170: 9da6 473b 5704 fbbb 9299 29bc 29e8 92bc
0.17913549 -0.17600738 -0.20839468 0.15842956 -0.17317034 0.14006786 0.21012321 0.1344841
-0.029895384 0.10501662 -0.13944419 -0.1422014 -0.14571 0.07502169 -0.1382176 0.1680583
-0.1129789 -0.12565506 0.101299 0.117657 0.11665894 0.029473297 -0.11199993 0.117531724
-0.11390882 -0.11774818 -0.06965815 0.095644005 -0.0972171 -0.14685579 -0.10474989 0.07767411
-9.2638205e-05 0.0002434093 0.00026509503 -0.000113205024 0.00013748535 -0.0001448333 -0.00017646991 -0.00014434557
-5.4558222e-06 -0.00015250442 9.076788e-05 0.00022640267 0.0001786036 -1.9200057e-05 0.000113960166 -0.00018882108
-7.3640585e-05 -8.7512766e-05 7.54064e-05 6.5189335e-05 -3.7156213e-05 4.223829e-05 2.9054529e-05 2.1696875e-05
-3.1926134e-05 -5.7845667e-05 5.5003828e-05 7.2967785e-05 8.4834755e-05 -0.000118984215 3.3563967e-05 3.639566e-05
-5.495758e-05 -0.0131396325 -0.018002462 -0.006950822 0.005223822 -0.0004224942 -0.0026314252 0.00737443
-0.0034832032 -0.0005990289 -0.020508233 0.002016412 0.006366338 0.0024097918 -0.011603948 -0.024715895
-0.030497221 -0.008306731 0.02266431 -0.005250993 -0.028237432 -0.0027701564 -0.00094509654 -0.0046325163
-0.0040550274 -0.034457397 -0.009179506 -0.01265038 0.00304643 -0.0076604295 -0.010351555 -0.017932968

encoder.layers.0.self_attn.out_proj.weight f4 [32, 32]
00000000: fa0d 233e 6c5e 1a3d 46cd 0fbe 1ba0 c0bb
00000010: d661 0c3e fb26 bbbd bfdb 933d c1a0 c1bd
00000020: a66b 07be 7deb 6f3d 80c0 47bd 29b6 fabd
00000030: 292d 743d 7456 e43d a345 963d 3f2e ad3c
00000040: 2f04 41be 405d cfbc 095b aabd 3ff5 5b3c
00000050: 78ca 0c3e 48b1 163d e4be 5fbd d06e 05be
00000060: ec42 5fbd 3932 02be 0ab7 acbc c90d 013e
00000070: b901 b5bd 5a07 153d 0bcd bebd 5d1f 1c3e
00000080: 1016 febc c22b a53d f6c2 5c3c b0f3 9ebd
00000090: 8019 6bbd 2a22 d8bd cfd4 283d 0667 07be
000000a0: a07d 133c 384d e8bd e0d6 fd3d 04f8 aa3a
000000b0: 50a5 143d e859 11be 542a 07be e0de 17be
000000c0: 416d 113e cc2e a3bd ca68 0b3e 77ac 8cbc
000000d0: 015e 05be c9b5 f53d ebf3 2abe 63b6 00be
000000e0: 156c c33d 4579 0dbe cd16 23be e540 1bbe
000000f0: 449e 01bb 524a c0bd a473 c83a 5453 823d
00000100: 4d3a 6b3d 1b12 fb3c cb89 77bd 3ae7 1e3e
00000110: 9ebb 8c3d fac4 a9bd 5a83 1d3d ffeb 89bb
00000120: e47d 1a3e 0b56 98bd 76cd 463d 7a56 96bd
00000130: 7d82 2c3e fe69 9bbd 26e4 c43c b64d ab3d
00000140: 6d56 53bd 5d61 0cbe 3691 133e d460 04bb
00000150: ca6d dabd 8a01 62bd 3b97 5a3c cc20 ffbd
00000160: 680d c23d 7bd3 d4bd cc20 1a3c 886e 363d
00000170: 8cc9 52bd 1b27 9f3d dc86 103b 5e54 e53d
00000180: dab4 1dbe de42 e93d e2f2 603d 1b45 1cbd
00000190: 2101 02bd d73d 263d aa3d 283e a0dd 09bd
000001a0: cbf5 6f3d 2a25 acbd 7803 28bc 5cf1 a1bd
000001b0: 1cb8 143e b11a b43d 85d8 f03d 8987 c3bd
000001c0: fd22 f03d 5d65 be3d a64b 003e 4caf 613d
000001d0: d3f4 193e 0206 4b3e bf6d 113d 166a 0cbd
000001e0: a25f 633d eb29 e6bd 765d e5bd 02c6 433d
000001f0: 8028 f2bd 1c1e c2bd a59f 52bd c638 023e
00000200: dcd3 4e3d 7cba 88bd e4b2 bfbc 3cde f5bd
00000210: 7f12 d93d 4acf 1bbe 7daf 15be b938 d5bd
00000220: bbd8 563d 803b bfbd e5e2 983d bdc9 ba3d
00000230: e3ac 93bc 7f57 103e 68e8 24be 5b57 133d
00000240: 5636 9c3d a0f6 a6bd b8be 88bb e180 a2bd
00000250: 39ce 6fbd 0646 f6bd e876 103e f486 c5bd
00000260: 4e9d 833d 18c9 21bd 285f 12be a36d a6bd
00000270: 49bc 163e 5ad2 873d 08af 88bd 94cf bbbb
00000280: 015b 15bd 8d2a 0ebe 4e10 0bbe bfbe c8bd
00000290: 867f 17bd 55f9 22bd 9af8 22bd 2b64 da3d
000002a0: 1d4d d6bd e56f 97bd cb56 d83d 675f 09be
000002b0: 4dcd 7c3d d513 ab3a 8af8 f4bd 1bbf e13d
000002c0: 7682 413d 22b4 103e 4313 853d 6484 b0bd
000002d0: 6a80 fb3d 30f5 c2bc 1972 c33d d2e2 153e
000002e0: fe42 b5bd 3093 133e 7d67 36be 40f9 c23d
000002f0: 4c48 0bbe 7a83 86bd 5fac b43c 3d48 d73d
00000300: c375 183e 52e9 193d f905 9cbd 079f a43d
00000310: 4b51 6bbd 0eed b63d 1bf3 813d ec63 89bd
00000320: 21f4 d4bd 4649 5b3b e90f 84bd 3ce3 0b3e
00000330: 015a dbbd 2e12 b23d 636d 14be 1444 543d
00000340: 493c 4c3d 53b7 133e 9c85 5e3d 26e9 253d
00000350: 395a dfbd dbc0 de3d f24a ffbd 26b1 5fbd
00000360: b370 2c3d 6a28 ffbd 3e2f 29ba 907c 8fbd
00000370: ae0e 51bb e43c a63b 25ca 003d 22da ec3d
00000380: 582e 5c3d 8041 0fbe a160 c3ba 53b1 babd
00000390: 8a34 493e 0cb6 83bd d559 933b 73e5 f83d
000003a0: 1d08 e7bd 5f4f 1b3e 0891 703d e044 30be
000003b0: f2e2 6fbc f921 a0bc 057a 063e d034 97bb
000003c0: c7f0 e8bc b4f2 c8bd 9ab0 1c3e 3edd 013e
000003d0: b2c5 5abd c102 e7bd 0d82 07be 4120 50bd
000003e0: dd33 de3d 2bbd f5bd bbd3 15be e15a 693d
000003f0: a168 1bbe 0035 023e 69b9 c73d 5d3d f03d
0.159233 0.037687704 -0.1404315 -0.005878461 0.13709196 -0.09138294 0.072196476 -0.094544895
-0.13224658 0.05857419 -0.048767567 -0.122417755 0.05961338 0.11149302 0.07337501 0.021140216
-0.18849252 -0.02531302 -0.08318145 0.01342517 0.1374911 0.036790162 -0.054625407 -0.13030553
-0.05450718 -0.12714471 -0.021083374 0.12602915 -0.08838219 0.036383964 -0.093164526 0.15246339
-0.03101638 0.08064987 0.013474217 -0.077613235 -0.057397366 -0.10553391 0.041218575 -0.13222894
0.009002119 -0.11342853 0.123945 0.0013043885 0.036290467 -0.14194453 -0.1319974 -0.14831114
0.14201833 -0.0796791 0.13614193 -0.017172081 -0.13024141 0.119975634 -0.1669461 -0.12569575
0.095420994 -0.13815792 -0.15926667 -0.15161474 -0.0019778172 -0.093891755 0.0015293253 0.0636355
0.057428647 0.030648282 -0.060434144 0.15517893 0.06871723 -0.082895234 0.038455345 -0.004209041
0.15087086 -0.074382864 0.048535787 -0.07340713 0.16846652 -0.07588576 0.02403457 0.083644316
-0.051596094 -0.13709016 0.14410862 -0.0020199316 -0.10665472 -0.05517725 0.01334172 -0.124574274
0.09475213 -0.10391899 0.009407233 0.044539005 -0.05146174 0.07771131 0.0022053039 0.111977324
-0.1540102 0.11389707 0.05491913 -0.03815184 -0.031739358 0.04058632 0.16429773 -0.033658624
0.058584016 -0.08405526 -0.010254733 -0.07907364 0.14523357 0.087941535 0.11760048 -0.09547336
0.117254235 0.09296677 0.12528858 0.055098817 0.150348 0.1982651 0.035505053 -0.03428086
0.055511124 -0.11238464 -0.11199467 0.047796257 -0.11824131 -0.09478399 -0.05142178 0.1271697
0.050495014 -0.06676194 -0.023400731 -0.120052785 0.10599231 -0.15215793 -0.14617725 -0.104112096
0.052452784 -0.093375206 0.07465152 0.0912051 -0.018026775 0.14095877 -0.16104281 0.03597198
0.07627551 -0.08152509 -0.004173126 -0.07934738 -0.05854628 -0.12025075 0.14107859 -0.09644881
0.06426488 -0.03949842 -0.14294112 -0.0812638 0.14720263 0.06631918 -0.066740096 -0.0057315324
-0.03646374 -0.1388342 -0.13580438 -0.09802007 -0.03698685 -0.039788563 -0.039787866 0.10663637
-0.10463927 -0.07394389 0.105634294 -0.134153 0.061719228 0.0013052175 -0.119614676 0.110227786
0.047243558 0.14131215 0.064978145 -0.086190015 0.122803524 -0.023798555 0.09543247 0.14637306
-0.08850668 0.14411616 -0.17812915 0.09520197 -0.13601798 -0.06568046 0.02205485 0.10511825
0.14888673 0.037576027 -0.07618327 0.080381446 -0.057450574 0.08931933 0.06345197 -0.06708512
-0.103981264 0.0033460422 -0.06448347 0.13660902 -0.10710526 0.08694874 -0.14494853 0.051822737
0.04986218 0.14425401 0.05432664 0.04050555 -0.109058805 0.10876628 -0.124654666 -0.0546123
0.042099666 -0.1245888 -0.0006453878 -0.0700618 -0.003189962 0.0050731767 0.03144278 0.11565043
0.053755134 -0.1398983 -0.0014906117 -0.09115853 0.19648948 -0.06431207 0.004496793 0.12153139
-0.11280844 0.15166996 0.058732063 -0.17213774 -0.01464151 -0.01954745 0.13132484 -0.00461445
-0.028435124 -0.09811917 0.15301743 0.12682053 -0.053411193 -0.11279822 -0.13233204 -0.05081201
0.10849736 -0.119989716 -0.1463155 0.056971435 -0.15176632 0.1271553 0.09752161 0.11730454

encoder.layers.0.self_attn.out_proj.bias f4 [32]
00000000: 09cb c9bb e405 6c3a b188 323c bb7e 9bbb
00000010: 0ac9 4839 8cbe 2e3b b9c7 293c 6cb8 533a
00000020: f409 67b8 7eef 1e3c a407 b5bc 4d0c ba3b
00000030: 96c5 743b d219 323c 19a0 e03b 839a 4cbb
00000040: 0428 0bbd 0404 cdbb 55d2 dc3c 6447 ed3b
00000050: f603 c1bc 3c46 983c 0785 90bc ac7f 0b3d
00000060: ee42 38bc dcc1 4dbc b816 95b8 9ded 643b
00000070: a076 b4bc 28f9 413c cfa3 d6bc acde ee3a
-0.006158237 0.00090035633 0.010896848 -0.004745332 0.00019148379 0.0026663868 0.010362559 0.0008076492
-5.508396e-05 0.009700654 -0.02209837 0.005677736 0.0037349216 0.010870414 0.0068550226 -0.0031220026
-0.03397371 -0.006256582 0.026955763 0.0072411764 -0.023561459 0.018588178 -0.017641557 0.034057304
-0.011246426 -0.012558427 -7.109105e-05 0.0034931668 -0.022029221 0.011839189 -0.026201157 0.001822432

encoder.layers.0.linear1.bias f4 [128]
00000000: dd62 833c 2517 543d 8e94 79bd 23c5 a13d
00000010: 58c4 a63d abd5 12be 7eae e53d 2bae e63d
00000020: b6bf 353d 72f2 bebd 4b73 66bd b6b5 2c3d
00000030: 9b96 ae3d 1d85 823d e9c9 31be 5845 323d
00000040: 24ea 0a3e a64b 223c 77f9 f0bc 7b11 e03d
00000050: 38e8 c63d 198b 5ebd 748b 01bd e076 4ebe
00000060: eb5e 30bd 4055 093e 9f54 d23d 90e4 d23c
00000070: 7ff9 863b fea5 d23c 1aed 2abe e4be 27be
00000080: 85b8 16bb 07a6 89bd c46c 29bd 42db 3d3d
00000090: dc3d 1cbd 3553 5fbe 4fed 0dbe b278 d63d
000000a0: 1574 6c3b 9748 933d 29a8 16be b444 b4bd
000000b0: 2e24 26be 2cba acbd a91e 75bc 6345 73bd
000000c0: cedd a03d f01e 063e d7dc c23c c0aa 0fbe
000000d0: 0a69 aeba 8a6a 5c3c 547f 013e 7f32 12be
000000e0: 0c26 41be dd57 31be 2291 1e3d fccc 11be
000000f0: aef1 f9bd 5aca 08be 9fff c33d 72f5 b9bc
00000100: 1da5 133e 64a2 1ebe 86f8 17be be46 e53d
00000110: d39f e1bb 408f bcbd e4d1 f53d b4a9 23be
00000120: 8c14 0a3d e573 57be 85b9 88bc 268b 5cbb
00000130: 533b 12bd 60f5 c3bd 4263 ef3c 45e8 e83c
00000140: 5327 03be 0235 9fbd 561d b5bd eada 083e
00000150: 0770 4cbb 917b e6bd 6a1e d03d 88c2 9b3d
00000160: 3a2c 023d db94 75bd 3159 ae3d 9452 7ebc
00000170: a424 5ebd db38 15be cbed 04bd 1d87 143e
00000180: 93ba 1b3e 440f f63d 7f5b cdbd f53c ab3d
00000190: 4153 02bd 696a c43d a93b 17be 11e0 f93d
000001a0: c307 01be 0b67 b7bd 27d3 26bd 60bf 2ebe
000001b0: 0ba4 0c3e 3b84 29be 3a9d b8bb aa61 0abd
000001c0: 3e6a 03be 7614 39bd 9fe6 3f3c a5c3 063e
000001d0: 1e12 193e 1b34 1fbe 7a49 53bd 8f05 fabd
000001e0: 9d3a 4ebd 8241 683c f827 bcbd 827e 85bd
000001f0: 29e4 b5bd 41a1 25be 53d1 413b b85f 19be
0.016038353 0.051779885 -0.06093269 0.07898929 0.08142918 -0.1433932 0.11214922 0.11263689
0.044372283 -0.093235865 -0.056262296 0.04216548 0.085248195 0.063730456 -0.17362179 0.043523163
0.1356588 0.009905731 -0.02941583 0.10940834 0.09712261 -0.054331873 -0.031627133 -0.20162535
-0.04305927 0.13411427 0.102700464 0.025743753 0.0041190977 0.025713917 -0.1669201 -0.16381413
-0.0022998166 -0.0672112 -0.041363493 0.04635168 -0.03814493 -0.21809085 -0.13860057 0.104722396
0.0036079932 0.0719158 -0.14712586 -0.088021666 -0.16224739 -0.08433947 -0.014960923 -0.059392344
0.07854806 0.13097739 0.023786945 -0.1402998 -0.001330645 0.013453135 0.12646228 -0.14277075
-0.1886217 -0.17318673 0.03871263 -0.14238352 -0.122043 -0.13358441 0.0957024 -0.022700045
0.14418454 -0.15491635 -0.14840898 0.111951336 -0.0068855076 -0.0920701 0.12002924 -0.15982705
0.033711 -0.21040304 -0.016690025 -0.0033652275 -0.035701107 -0.09568286 0.029222135 0.028431067
-0.1280797 -0.07773782 -0.08843486 0.13364759 -0.0031194703 -0.11254037 0.10162051 0.07605463
0.03178046 -0.059956413 0.08513106 -0.015522618 -0.054234162 -0.1457247 -0.03245334 0.14504667
0.15207891 0.120146304 -0.10027217 0.08361236 -0.03181768 0.095906086 -0.14768852 0.122009404
-0.12600617 -0.08955201 -0.040728714 -0.17065191 0.13734452 -0.16554348 -0.0056339772 -0.033784546
-0.12833497 -0.04518553 0.011712699 0.1316057 0.14948317 -0.1554722 -0.051583745 -0.122080915
-0.050348867 0.0141757745 -0.09187311 -0.0651827 -0.08881409 -0.16174795 0.002957423 -0.1497792

encoder.layers.0.linear2.bias f4 [32]
00000000: 5943 fb3c 03b0 9d3d be4f 21bd 0e0a 103d
00000010: 2ee3 913d 64d4 30bc dd3c 5bbc b04f 873d
00000020: 2c78 83bd 9d06 813d c451 b1bd b91d 44bd
00000030: b0b1 60bd 888d 6e3d 0eb5 16bd 64ab 6f3b
00000040: 6dab 193c 8936 3f3d ce16 99bd e07c 89bd
00000050: b7a6 88bc daec 3cbd ce91 913a 17bb 1dbd
00000060: 4a40 1bbb 1fb8 753d 9793 2c3d 0bbb a03c
00000070: b7cf 603d 9e0c 09bd e27d f4ba c3cf febb
0.030671762 0.07699587 -0.03938269 0.03516584 0.07123409 -0.010792825 -0.01338121 0.06606996
-0.06419405 0.063000895 -0.08658174 -0.04787991 -0.054856956 0.058240443 -0.03679376 0.0036570663
0.00937925 0.04668287 -0.07475053 -0.06713271 -0.016681058 -0.046124317 0.0011106075 -0.0385085
-0.0023689442 0.059990045 0.04213294 0.019620439 0.054885592 -0.0334593 -0.0018653239 -0.007776232

encoder.layers.0.norm1.weight f4 [32]
00000000: 079a 7d3f a19a 853f dbf4 7a3f adb1 743f
00000010: 8a69 8c3f d8d5 6f3f 1ec7 843f 1aa8 8c3f
00000020: 5197 803f 0214 7f3f 74a2 6f3f f8dc 873f
00000030: f29a 873f 4d30 7f3f 6671 813f 2613 733f
00000040: 4656 753f a1f0 803f 1521 813f a6c9 753f
00000050: 541a 783f 5a63 793f 02db 803f 1770 853f
00000060: 1cf1 823f eed5 7c3f 60a4 8a3f 31f4 823f
00000070: 28db 7a3f 56e1 7d3f 29d3 733f e2c2 7b3f
0.9906315 1.0437814 0.9802987 0.9558361 1.0969708 0.93685675 1.0373266 1.09888
1.0046178 0.99639904 0.9360726 1.0614309 1.059416 0.99683076 1.0112731 0.94951093
0.9583477 1.0073434 1.0088221 0.96010816 0.96915174 0.97417223 1.0066836 1.0424832
1.0229831 0.9876393 1.0831413 1.0230771 0.97990656 0.9917196 0.9524408 0.9834424

encoder.layers.0.norm1.bias f4 [32]
00000000: 7406 8bbc 4318 293b d433 adbc 1a8b 843b
00000010: 2a0c 03bd 02b9 233d 5cd9 abbc c9ba ad3b
00000020: d367 a83c 135c d73c 2b29 833c e765 1cbd
00000030: 463b ea3b f72f 17bb c9bf ab3c 8577 e93c
00000040: c9c2 3c3c 5f1c c5bc 2835 4d3c 5ec9 db3c
00000050: 71e0 51bb ea13 2ebc 0e59 a83a 544b 74bb
00000060: ce70 25bc d174 6bbd 0f5f bb3c 063f d4bc
00000070: 89b3 67b9 6d73 3e3d 034a 7e3c 6d4c 3dbc
-0.01697085 0.0025801815 -0.021142878 0.0040449025 -0.031994022 0.03997136 -0.020977668 0.0053018075
0.02055732 0.026289022 0.016010841 -0.03818312 0.007148179 -0.002306936 0.020965474 0.028499374
0.01152105 -0.02406138 0.0125248805 0.026829418 -0.0032024647 -0.010624865 0.0012843923 -0.0037276344
-0.0100976955 -0.05748445 0.022872476 -0.025908958 -0.00022096759 0.046496797 0.015520575 -0.011553866

encoder.layers.0.norm2.weight f4 [32]
00000000: d51e 7f3f 7ada 823f 0cad 813f 64ab 833f
00000010: e175 893f 4307 7b3f cb8a 873f f181 873f
00000020: 0341 843f 1f55 7b3f a727 783f a0a9 853f
00000030: 0cd9 823f 32aa 7a3f 80c0 823f 6563 7f3f
00000040: b0b7 7b3f 6ef1 7a3f 0d3a 803f 87e4 763f
00000050: cde2 843f 3841 7f3f a097 853f bc9e 843f
00000060: b19e 7f3f 212b 773f 0e54 833f 41c4 843f
00000070: 64b6 823f 8d53 823f 9172 7a3f 6c2a 823f
0.9965642 1.0222924 1.0130935 1.0286679 1.0739099 0.98057956 1.0589231 1.058653
1.033234 0.9817676 0.96935505 1.044239 1.0222487 0.9791595 1.0214996 0.9976104
0.9832716 0.9802464 1.0017716 0.96442455 1.0381714 0.9970889 1.0436897 1.0360942
0.9985152 0.96550184 1.0260026 1.0372392 1.0211911 1.0181748 0.97831064 1.0169196

encoder.layers.0.norm2.bias f4 [32]
00000000: e1a6 26bd 7134 c9ba 1dc5 343c c7bf 04bd
00000010: bca5 2fbd 8ca6 813c 66f0 d63a 0d32 963c
00000020: 15fa 533d de36 d53c 1eab d5bb 3676 39bc
00000030: 1166 023d 9b54 d2bc bc04 933c c8e5 be3b
00000040: 107a 4a3a c21a 09bd 6725 ab3c bb87 9d3c
00000050: 7a5e 25bd 744c 2f3c 28dd f5bc 7128 183d
00000060: c43c e53b 22d2 12bd 2fe3 9dbc 53da 53bd
00000070: ab45 81bc af50 863d dd68 9eba 4b82 07bc
-0.040686492 -0.0015350712 0.011033324 -0.032409456 -0.042882666 0.015826486 0.0016398549 0.018334413
0.05175217 0.02602714 -0.006520643 -0.011319688 0.03183562 -0.025675109 0.017946593 0.005825732
0.0007723877 -0.033472784 0.020891858 0.01922976 -0.040373303 0.01069938 -0.030012682 0.037147943
0.006995769 -0.03584493 -0.019273369 -0.051721882 -0.01578029 0.06558358 -0.0012085695 -0.00827081

encoder.layers.1.self_attn.in_proj_bias f4 [96]
00000000: 7e94 4e3d 708d 94bd 2a60 1b3c 035b 303d
00000010: fdba 2a3d 4831 fb3c bfe5 d63d 9f06 c2bc
00000020: f316 9fbd e617 c43c 89d6 75bc 4325 a3bd
00000030: 373f 12bd 7933 5dbb 835e 32bd 36c8 883d
00000040: 8695 82bc 76e5 1c3d faea 353c 06c3 43bd
00000050: 7d91 103b 708d 56bb 9cce 60bd fa26 bc3d
00000060: 0103 47bd d665 82bd 3e8d 7dbd a552 343d
00000070: f7e6 3fbd 09e9 b23d b1e0 49bc a201 283d
00000080: 6dda bbbb 6258 0f3c 3eb2 de37 597b a9bb
00000090: cb52 06bc 635b cfbb 0a79 0ebc 8e9e 8839
000000a0: 8c16 983a a7d4 d4bb 27ae 8ebb 11d8 673b
000000b0: e4ba 97ba a346 303a 78c6 1b3b 1b52 9fbb
000000c0: 4847 013b bb54 c63a 4b4b c4bb e599 0d3b
000000d0: 4997 c3ba 9411 c23a 7d9e 043c 73a6 16bc
000000e0: f423 913b 01a2 023c cce5 9e3b e788 48bc
000000f0: c8f5 053c 3687 7ebc fcce 143b 92bb 13bc
00000100: fe5c 21bd 1342 d0bc 088b 0ebd 2efe 6e3b
00000110: c8ac 273d f31d 30bd e2a6 15bd 71f2 9dbc
00000120: c714 f8bc 2bce 09bd ec7f 31bd 2f39 06bd
00000130: e7b3 e13c 387f 903c 3ef6 91bc 4716 14bd
00000140: 80c5 59bc 2fad 2e3c 23a6 5a3c 7a29 ac3b
00000150: 008e 63bd 4f7a b73c 15a9 cdbb 094e 5ebb
00000160: ad7e 3dbc 47fe 0c3b 152d a039 af14 ba3c
00000170: 47bd 98b9 5157 e2b8 f77c 263c 9fb0 6cba
0.050434582 -0.072535396 0.0094833765 0.043055546 0.041682232 0.030663148 0.10493039 -0.023684798
-0.07768049 0.023937177 -0.015004762 -0.079660915 -0.035704818 -0.0033752604 -0.043547165 0.06678812
-0.015940439 0.03830477 0.011103386 -0.04779341 0.0022059374 -0.0032738112 -0.054884538 0.09187122
-0.04858685 -0.0636708 -0.061902277 0.04402413 -0.046851125 0.08735854 -0.012321637 0.041017182
-0.0057328255 0.008749099 2.6547463e-05 -0.005172175 -0.00819845 -0.006328033 -0.00869585 0.00026058074
0.0011603399 -0.0064950767 -0.0043542567 0.0035376588 -0.0011576083 0.0006724393 0.002376942 -0.0048620827
0.0019726325 0.0015131453 -0.005990421 0.002160662 -0.0014922406 0.0014806264 0.008094427 -0.009194958
0.004429335 0.007973195 0.0048491713 -0.012239671 0.008176275 -0.0155351665 0.002270638 -0.009016888
-0.039395325 -0.025422132 -0.03480056 0.003646742 0.04093626 -0.04299731 -0.036536105 -0.019280644
-0.030283345 -0.033643883 -0.043334886 -0.03276938 0.027551604 0.017638788 -0.017817613 -0.036154058
-0.013291717 0.010661407 0.013345274 0.005253968 -0.055555344 0.022397188 -0.0062762597 -0.0033921024
-0.011565846 0.0021513866 0.00030551167 0.02271494 -0.00029132722 -0.00010792784 0.01016163 -0.0009029004

encoder.layers.1.self_attn.out_proj.weight f4 [32, 32]
00000000: 3112 353e c5a7 e7bc a745 17be 5fc9 90bc
00000010: ba71 333e 3097 03be d802 533c 4fbd aabd
00000020: bfbe 0abe a777 983d 809a bcbd 0800 24be
00000030: 498e 803d 6c71 043e dbef 153e 3f5f d039
00000040: 196f 26be ff05 0e3d dc65 bebd df14 69bb
00000050: 1f3f 0f3e 7289 ca3d 33f3 8cbd d520 efbd
00000060: 11a7 abbd 5629 e9bd ff6a 0cbd b033 053c
00000070: 8e8a a9bd bf02 34bc c281 a4bd 848f 1a3e
00000080: baa5 17bd 9b24 a93d 432c 653c aab6 95bd
00000090: cf6e 503b 7b04 27be 7bb9 d23c 07b3 30be
000000a0: b45b 303c 34af b7bd b413 293d eb0a cbbc
000000b0: 09a8 d73d fb97 09be 3908 09be b1fc 1fbe
000000c0: b440 5a3d b5b5 83bd 2e75 123e b925 f4bd
000000d0: 52e5 1bbe 92b0 8d3e 5690 33be aeb4 3bbe
000000e0: 8570 d63d 5d0c c9bd ed19 4cbe 0eb2 36be
000000f0: b7fc a5bc 688f abbd 6881 103d 095d fe3c
00000100: c03b a8ba 00cc 2dbd 4caa 45bd 2df2 ef3d
00000110: 4f46 e53d ac48 0abe a0c3 bebc bce2 8cbb
00000120: 96ad e23d 370a 01be d679 9b3b bb5d 19be
00000130: 900b 0d3e 0984 70bd 8e89 f23d b3a2 1b3c
00000140: a528 bcbd 5ad3 8dbe 05df 093e 47ec debb
00000150: 07ce abbd fe92 e4bd 067a 983d 40d2 4ebe
00000160: a443 d43c e983 24be 5583 a0bc b7ea 243e
00000170: f966 1abe 3bf0 6b3d f77e b3bd 8384 c33d
00000180: c172 d4bd 691f b33d 99fa 86bb e1f1 87bd
00000190: 8ce8 48bd cd7a 303d 1dba 193e 3839 3f3c
000001a0: c3ad 543d 9fb9 05be 5d9c bd3c f40c 62bd
000001b0: 5cba 103e 0f6d 0e3e c29f b13d d375 19be
000001c0: 8833 c53d 9133 0a3e ce84 123e e137 af3d
000001d0: bf4d 203e 535b 143e 67a9 be3d b263 50bd
000001e0: 9b6b 613c 573d c8bd 954e 36be 7486 4fbc
000001f0: 77e9 c9bd 669e fcbd 539f 46bd 972f f33d
00000200: 9759 473c 9200 f0bd 234f 24bd e965 12be
00000210: bc2b 273e 680b 3ebe e05a 54be 3f08 b6bd
00000220: 2441 833d b84c e5bd 972a 0b3d ab81 933d
00000230: 40b6 9abb 0170 f43d a0c3 f5bd f496 593d
00000240: 99a8 2d3e 7195 3bbd eb25 ce3c 0371 eebd
00000250: a28b a3bd 2acf c6bd a308 8d3d 0bcb d6bc
00000260: e1f1 2c3d 91f7 93bd 5256 cfbd 4da5 5dbe
00000270: a4ec 503e 614d 9e3c 77fe cfbc 2e5a 33bd
00000280: dfae 11be 0a7b 14be fcde 0abe 1a60 c1bd
00000290: 45d8 0c3e be80 acbd 55b0 10be d227 b63d
000002a0: bcf8 19be 73b1 2dbd b295 803d 6ff7 19be
000002b0: 0d0c d1bc 990b 43bd b412 5ebd ab54 6d3d
000002c0: e25c e9bc 9027 dc3d c405 a83d d1b9 31be
000002d0: 406f 0b3e b746 c1bc 5c1e 023e 72fa d13d
000002e0: 748e 04be 72c0 ea3d bae4 3bbe d473 053e
000002f0: 69bd 3abe e20e 06be 95ef 5b3d c6b1 df3d
00000300: bf39 2e3e 34d0 8f3d 4949 90bd ca89 923d
00000310: 8260 e2bd 423a 0f3e eef9 a13d b011 4dbd
00000320: c8c2 c4bd 222e 29bb 148f 31bd 0d91 2b3e
00000330: f3bd 01be fef9 983c a3b4 45be 6d0b 343d
00000340: b17f 223e afc0 393d 2e1e ca3b b300 893d
00000350: 9446 5fbd ec5e f13c 6f18 2fbe 05bf fd3b
00000360: 8adc 9d3d 887e 0ebe 79f7 3d3d 791c 11be
00000370: 82bc cd3b dc7b f1bc 121c 353c 9bab 323e
00000380: fb4b dcbc aa69 13be 0191 8fbc 48c6 d5bd
00000390: adb0 713e ddd3 8cbd d0bc 9b3c ce4f 363e
000003a0: 4dae bdbd 9178 343e d0e0 cf3c 810b 3ebe
000003b0: 406b 7dbc 6c50 0e3c 50c1 f23d 701e 75bd
000003c0: d0d1 21bc f46c 02be f563 2f3e 59b9 443e
000003d0: e6de 82bd 331e 4bbe 1ddb cbbd b46e f2bd
000003e0: 568f d6bb 65e1 41be 1f1e 27be ab31 993d
000003f0: a61f 13be 9e56 1f3d 7d65 973d 84c7 cd3d
0.1768272 -0.028278241 -0.14772664 -0.017674146 0.17523852 -0.12850642 0.012879096 -0.08336889
-0.13549326 0.07444697 -0.09209156 -0.16015637 0.06277139 0.12933892 0.14642279 0.00039743815
-0.16253318 0.034673687 -0.09296772 -0.0035565419 0.13988923 0.09889497 -0.06882324 -0.11676184
-0.08381475 -0.11384837 -0.034281727 0.008129999 -0.0827838 -0.010986983 -0.08032562 0.1509381
-0.037023284 0.08258935 0.013987604 -0.07310231 0.0031804328 -0.16310303 0.02572321 -0.17255794
0.010764051 -0.08968964 0.041278556 -0.02478548 0.10530097 -0.13436882 -0.13382043 -0.15623738
0.053284362 -0.06431142 0.14302513 -0.119212575 -0.15224198 0.27673775 -0.17535529 -0.18330643
0.1047068 -0.09816811 -0.19931765 -0.1784136 -0.020262105 -0.08376962 0.03527966 0.031050222
-0.001283519 -0.042430878 -0.04825811 0.11716113 0.11195051 -0.13504285 -0.02328664 -0.00429949
0.11068265 -0.12601553 0.0047447486 -0.14977162 0.13773942 -0.05871967 0.11842643 0.00949924
-0.0918744 -0.2770031 0.13463981 -0.006803069 -0.08388906 -0.11160849 0.07445149 -0.20197392
0.02591116 -0.16065945 -0.019593874 0.16105162 -0.15078343 0.05760215 -0.08764451 0.09546759
-0.1037345 0.087462254 -0.004119229 -0.066379316 -0.0490499 0.043085862 0.15012403 0.011671357
0.051923525 -0.1305909 0.023145849 -0.055188134 0.1413359 0.1390879 0.086730495 -0.14986353
0.096289694 0.13496234 0.14308473 0.0855558 0.15654658 0.14487962 0.09309655 -0.050876327
0.013758565 -0.09777325 -0.17803414 -0.0126663335 -0.09858983 -0.123348996 -0.048491787 0.118743114
0.012167356 -0.11718859 -0.040114533 -0.14296688 0.16325277 -0.18559039 -0.20737791 -0.088882916
0.06408909 -0.111962736 0.033976164 0.072024666 -0.004721433 0.119354255 -0.12000203 0.053122476
0.16958846 -0.045796815 0.025164565 -0.11642649 -0.07985617 -0.09707482 0.06886413 -0.026219865
0.04222286 -0.07224954 -0.10123886 -0.21645088 0.20402771 0.019324007 -0.025389893 -0.043787174
-0.14226864 -0.1450006 -0.13561624 -0.09442158 0.13754375 -0.08422993 -0.14129765 0.08894314
-0.15036291 -0.042405557 0.06278552 -0.15035795 -0.025518442 -0.047618482 -0.054217055 0.057942074
-0.028486673 0.107497334 0.08204225 -0.1735604 0.13616657 -0.02359329 0.12706894 0.10252847
-0.12944967 0.11462487 -0.18348971 0.13032466 -0.18236317 -0.13091615 0.05369528 0.109225795
0.17014216 0.070221335 -0.07045228 0.071551874 -0.11053564 0.13987067 0.079089984 -0.050065696
-0.09607464 -0.002581485 -0.04334934 0.16754551 -0.12670116 0.018673893 -0.19307189 0.04395621
0.15869023 0.045349773 0.0061681485 0.066895865 -0.054510668 0.029464208 -0.17099164 0.0077437186
0.0770808 -0.13915455 0.046378586 -0.14171018 0.0062785754 -0.029478006 0.011054056 0.17448275
-0.026891699 -0.14395776 -0.017525198 -0.1043821 0.23602553 -0.06876347 0.019010931 0.1780388
-0.09261761 0.17624117 0.025375754 -0.18559076 -0.015467465 0.008686166 0.11853278 -0.05984348
-0.009876683 -0.12736875 0.17127974 0.1921133 -0.06390171 -0.19835739 -0.09953902 -0.11837521
-0.0065478487 -0.18933637 -0.16320084 0.074801765 -0.14367542 0.038900964 0.07392404 0.1004782

encoder.layers.1.self_attn.out_proj.bias f4 [32]
00000000: 06da 5abd e1d8 bf3b 9a47 6a3c 2d23 80bc
00000010: 7cd5 5dbd 9134 c23a 354f b33c fa13 6cba
00000020: 1f79 f73c 2cce 113d 61ca 2cbc 4584 043c
00000030: 16c5 f03c 6ca2 26bd 9d4e fe3b d040 0bbb
00000040: 27a3 b03c f556 c2ba c05a 0ebd 26e5 923c
00000050: 7ca4 89bb b769 cebc d54e 2ebd bac5 0c3d
00000060: 46ff 023c 2881 7e3d e4cc 8d3a d97f c2bc
00000070: c08f 913c fbd5 a73c d2bb 0f3b 7c75 d03b
-0.05343058 0.0058547114 0.014299298 -0.015641773 -0.054158673 0.0014816691 0.021888355 -0.0009005662
0.030209122 0.03559701 -0.010546298 0.008088176 0.029390853 -0.04068224 0.0077608363 -0.0021248348
0.021562172 -0.0014826941 -0.034754515 0.017931532 -0.0042005163 -0.025196893 -0.04255565 0.034368254
0.007995432 0.06213489 0.0010818508 -0.023742603 0.01776874 0.020487776 0.0021932018 0.0063616615

encoder.layers.1.linear1.bias f4 [128]
00000000: 3924 6d3d da5c 8f3d d292 1ebd 23d2 9f3d
00000010: 3c58 d93d 51e3 e1bd c521 e03d 2655 ca3d
00000020: 2a6e 373d ff78 ecbd ef98 8ebd 15fc 943d
00000030: ecfd 2b3d caab 663d 1707 3bbe 9ee4 c23d
00000040: 79aa 133e 44e6 edbb f61c ec3b ec85 043e
00000050: d83e df3d add7 4cbd 7d16 2bbd 9b02 25be
00000060: 4d76 2dbd 0c85 113e 729c 233e ab33 4fbc
00000070: 68c4 ccbb f871 e63c fd56 17be 5aca 1ebe
00000080: a8dc d039 ece6 43bd daae afbd 3ab7 2a3d
00000090: f231 003b 1ee7 5bbe eed1 cfbd c564 0b3e
000000a0: 7a3e fd3b bf82 763d 3e4e afbd d7f4 4ebd
000000b0: a752 2cbe 937c 71bd b96d 83bb 376b 52bd
000000c0: 8867 d23d 8f9f 1c3e 6c83 003d 0e3c 0ebe
000000d0: ad83 1a3d e20c b23b 78e3 143e c0ce f6bd
000000e0: f168 54be a40d 32be b4ff 4b3d 5183 1abe
000000f0: ab32 aabd 6506 12be f32f 9b3d af25 a53c
00000100: 8e1a 073e 8838 0abe da1d bbbd 0d8d 0c3e
00000110: 4957 f6bc 58d0 18bd fcfb 033e 4425 41be
00000120: c232 ec3c cc5e 1ebe 2eaf 913a 63a5 553c
00000130: 235c f4bc ea59 b7bd 2109 a33d dc6c 4d3d
00000140: 61ae fabd 75d7 e3bd 9f5f 0cbe 16c9 3b3e
00000150: 1884 c43c b85a 06be 65f3 d83d a413 943d
00000160: 28ab c03c c1c7 16bd 0918 fc3c b22a 7cbc
00000170: d5aa 85bb 538b 0fbe 7f73 2bbd c946 233e
00000180: 60aa 163e cb17 123e 30f8 71bd a444 d73d
00000190: dac7 90bd f5b2 dc3d 5d85 0bbe 0164 e33d
000001a0: 22e5 debd 067f c4bd 8980 a2bd 2740 1cbe
000001b0: 6485 063e 4466 50be a079 e53c 82fd 613b
000001c0: 4abb 1fbe ca96 76bd 67ef ea3c 67ee 043e
000001d0: 3411 983d 3406 cabd b931 acbc ce9a e0bd
000001e0: 50ed 3fbd ec95 573d 221d 02be fbc5 6abd
000001f0: a3d9 abbd 4cb2 19be 4b7b 82bc 2f94 0dbe
0.057895873 0.07000132 -0.038714238 0.07803752 0.106125325 -0.11029685 0.10943941 0.09879522
0.044782795 -0.11546516 -0.069627635 0.07274643 0.041990206 0.056316175 -0.18264423 0.095162615
0.14420499 -0.007260116 0.007205601 0.12941712 0.10900658 -0.050010372 -0.041769493 -0.16114275
-0.04234915 0.1421091 0.15977648 -0.012646596 -0.0062489994 0.028130516 -0.14779277 -0.15506878
0.00039837253 -0.047827646 -0.08578272 0.041678645 0.001956102 -0.21474883 -0.10147463 0.1361266
0.007728395 0.060183283 -0.085598454 -0.050526466 -0.16828404 -0.058956694 -0.0040108827 -0.05137178
0.10273653 0.15295242 0.031375334 -0.13890097 0.037723232 0.0054336647 0.14539897 -0.12051153
-0.20743157 -0.17388016 0.049804404 -0.15089156 -0.083104454 -0.14260252 0.07577505 0.02015957
0.13193724 -0.13498127 -0.09136553 0.13725682 -0.030070918 -0.037308067 0.12889093 -0.18861872
0.028832797 -0.1546585 0.001111483 0.01303992 -0.02982909 -0.089526966 0.079607256 0.050152645
-0.122402914 -0.111250795 -0.13708352 0.18338427 0.023988768 -0.13120544 0.10593299 0.07230309
0.023519114 -0.036811594 0.03077318 -0.015391039 -0.0040792027 -0.14017992 -0.041858193 0.15944971
0.1471343 0.14266889 -0.05907458 0.10511139 -0.07069369 0.10776321 -0.13625093 0.111030586
-0.10883547 -0.0959454 -0.079346724 -0.15258847 0.13136822 -0.20351511 0.028012097 0.0034483378
-0.15598789 -0.060202397 0.028678609 0.12981568 0.07425156 -0.098644644 -0.021019803 -0.10967027
-0.04685718 0.05263321 -0.12706426 -0.057317715 -0.0839112 -0.15009421 -0.015927931 -0.13826059

encoder.layers.1.linear2.bias f4 [32]
00000000: a987 0f3d e5a5 aa3d 9d99 ecbc 6823 af3c
00000010: 325c 6b3d 5090 8f3b d279 383b 0441 943d
00000020: 29f1 87bd 707c 7a3d 3ab3 bebd 5ed6 54bd
00000030: 95ed 74bd dc87 6d3d 6baa dfbc 0ca3 5f3d
00000040: ddac 39bb 4d30 783d 152e 95bd 08db 78bd
00000050: cae3 40bc 18fe 6ebd c0a1 673c 5b9d e8bc
00000060: 2d98 8bbb aeea 8d3d 54c1 c03c aeba af3b
00000070: e8e9 853d a869 cfbc 3410 af3b d865 113c
0.035041485 0.08332423 -0.028881842 0.021379188 0.05746097 0.004381217 0.0028148782 0.07238963
-0.066377945 0.06115383 -0.093115285 -0.05196225 -0.05979689 0.057990894 -0.027302941 0.054598853
-0.0028331794 0.06059294 -0.0728418 -0.06075576 -0.011773059 -0.05834779 0.014137685 -0.028395345
-0.004260084 0.06929527 0.023529686 0.00536283 0.06538755 -0.025318936 0.0053425077 0.008874379

encoder.layers.1.norm1.weight f4 [32]
00000000: 5e22 6f3f 9438 893f c632 6a3f e664 813f
00000010: cca5 903f f236 783f d0c0 833f 50d6 803f
00000020: 9406 863f 5beb 693f 73ad 7a3f 323f 843f
00000030: 46c6 823f 061b 7c3f b87e 813f 41d7 6a3f
00000040: 59c4 733f 3f45 803f 1a62 7f3f 0045 803f
00000050: a6ea 7f3f 5cbe 723f 353e 913f c93a 8f3f
00000060: 7304 863f a20b 7d3f 4023 813f 9351 793f
00000070: c051 803f 1e57 7e3f a751 7a3f 11eb 803f
0.93411815 1.0720391 0.91483724 1.0108917 1.1300597 0.9695884 1.0293217 1.0065403
1.0470757 0.9137475 0.9792091 1.0331786 1.0216758 0.98478734 1.0116796 0.917347
0.9522148 1.0021132 0.99759066 1.0021057 0.9996742 0.94821715 1.1347109 1.1189815
1.0470108 0.98845875 1.0088882 0.973901 1.0024948 0.9935168 0.9778084 1.0071737

encoder.layers.1.norm1.bias f4 [32]
00000000: 8dd5 a3bc 302e 93bc 85a3 92bc 7ad5 bebc
00000010: 4aaf 7abd a51b 993b 5d2f 4d3c e7b3 a6bb
00000020: e08a b33c 4a9d 6ebb beb5 ca3c be72 debc
00000030: 2eec e43b ee49 17bd a772 8b3c e735 393d
00000040: 2ba7 263d 9439 8c3c 7023 1fbb e0b6 d33c
00000050: 1723 863c 7c1a 04bc d098 8839 e063 68bc
00000060: 180b b73c 5c81 c83c 4a33 ba3b 38af 4fbc
00000070: 9627 873c bdff 043c 1058 2c3c 58ce 05bc
-0.01999929 -0.01796636 -0.017900238 -0.023295153 -0.061202325 0.004672485 0.012523499 -0.005087364
0.021916807 -0.003640967 0.024744865 -0.027154323 0.0069861626 -0.03693574 0.017022444 0.04521742
0.040686768 0.0171173 -0.0024282597 0.025844038 0.016374154 -0.008062955 0.00026053796 -0.014183968
0.022344157 0.024475746 0.0056823837 -0.012676053 0.016498368 0.008117613 0.010519043 -0.008166872

encoder.layers.1.norm2.weight f4 [32]
00000000: e706 8a3f 9859 8f3f 7cda 913f 70ed 8e3f
00000010: d79b 963f 2b30 933f 0a3c 963f e6d4 8f3f
00000020: d32f 8d3f 8185 953f 3e5a 8f3f be9a 8a3f
00000030: 62d1 933f 17db 8c3f ba3b 933f 8e7a 903f
00000040: 21e3 893f da06 903f 086a 9f3f a9c3 8c3f
00000050: 0dfc 923f 5572 8c3f fdbf 8c3f 5b12 9a3f
00000060: 04c2 953f 902b 8c3f 4b80 8d3f e6aa 943f
00000070: c874 903f 5cdd 863f 7bd3 923f eb63 913f
1.0783356 1.1199217 1.1394801 1.116621 1.1766309 1.1499075 1.1737072 1.1236846
1.103022 1.1681367 1.1199415 1.0828474 1.1548274 1.1004361 1.1502602 1.1287401
1.0772439 1.1252091 1.2454233 1.0997211 1.148317 1.0972391 1.099609 1.2036852
1.1699834 1.0950794 1.1054777 1.1614654 1.1285639 1.0536304 1.1470789 1.1358618

encoder.layers.1.norm2.bias f4 [32]
00000000: c8b1 d03c 3f84 4ebd 2b3b 2a3d 5b09 803c
00000010: 198a 5d3d 10aa 0c3d d64c 723d 695c 273d
00000020: 18fb 5bbb d8ef 7c3d 158b 19bd 5099 3dbc
00000030: a276 45bd bfc8 363d 66f0 b9bc ed56 c73d
00000040: ae02 60bd 6b81 463d cbdb 8d3d b13c 3ebd
00000050: 546f 32bd 625e d5bd cda3 243c c27a 76bd
00000060: b15d af3c 10e5 d5bc 37b9 0f3d b96a 423d
00000070: 8336 01bd 124e 383c 335c 65bd 1ce5 cabd
0.025475398 -0.05041909 0.041560333 0.015629461 0.05408678 0.03434187 0.059155308 0.040859614
-0.0033566412 0.06175217 -0.037486155 -0.011572197 -0.04820884 0.04462504 -0.022697639 0.09733377
-0.054690056 0.048463266 0.06926688 -0.0464446 -0.043563202 -0.10418393 0.010048819 -0.060175665
0.02140698 -0.026110202 0.035088744 0.04746506 -0.031546127 0.011249082 -0.05599613 -0.099069804

pool.net.layers.0.bias f4 [64]
00000000: e550 2dbd 78d2 80be c2d1 acbd e60d 35bb
00000010: 67e9 003d 962c 523d b8f7 c23c aaef 1b3e
00000020: b813 013e e319 193e 22c2 8ebd 3652 0fbe
00000030: e511 bdbd 3a93 38be ae15 f93d 5d57 393e
00000040: 816e 1bbe adbb 2c3e bd2c 913d a8d5 8f3c
00000050: e317 c93d 04fd 943e 161d bc3d ef1d 92bc
00000060: bd0c 2e3d 708d 453e f070 2a3e a8db 583d
00000070: c50a b43d 91ae 6a3c a81b f23d 106e f0bd
00000080: a1aa 133d cd6b bcbb dee9 233e e49e 10be
00000090: 978a 803e 7de0 97ba 9d9c 61bd c68a 82bc
000000a0: d7f2 353d 3807 863d 367a ec3d 9ba3 873c
000000b0: 1451 fc3d 2146 d7bd bdb2 773d 10d1 bc3d
000000c0: d5ee b93d ac1c 223d a26c a93d 43a3 05be
000000d0: 17dc a9bc d34e 193d 71ec 62bd ab80 cdbc
000000e0: 6ffd 8d3c 1ffe 5ebc d94a b83d 308c 3c3e
000000f0: 4c4c 00be 023c 4a3e b524 2e3d ca4f d3bd
-0.042313475 -0.25160575 -0.08438446 -0.0027626692 0.03147259 0.05131205 0.023799762 0.15228143
0.12605178 0.14951281 -0.06970622 -0.13996205 -0.09231929 -0.18024912 0.12162338 0.18099733
-0.15178873 0.16868468 0.07088611 0.017557934 0.09819009 0.29099286 0.09185235 -0.01783654
0.042492617 0.19292235 0.16644645 0.052943856 0.087911166 0.014323846 0.11821681 -0.11739743
0.036051396 -0.0057501555 0.16007182 -0.14123112 0.25105736 -0.0011587288 -0.055081 -0.015935313
0.044421043 0.065443456 0.115467474 0.016557505 0.12320152 -0.10511423 0.060473192 0.09219563
0.09078757 0.039578125 0.08272673 -0.1305056 -0.02073483 0.03742869 -0.05540127 -0.025085768
0.01733276 -0.013610392 0.08998651 0.18412852 -0.12529105 0.19749454 0.042515475 -0.10317953

pool.net.layers.2.bias f4 [32]
00000000: 0c14 07b9 307e a7bd a448 2bbd 0aa4 623d
00000010: 00ef b0bb f3de 7f3c 0b2c bcbd 8398 ad3b
00000020: beb1 4abc f1ed 833c 05a0 e53d 0d02 e03d
00000030: 128d a0bd 42cf e4bd 1178 c6bd 3a49 b83d
00000040: 4317 06bd a5b3 de3d 0e7f cbbd 7a39 92bc
00000050: 83b4 7b3d 0823 27bd c292 513d 0835 583c
00000060: ca49 9dbd d9b2 e93d 188c 653d 95d1 043c
00000070: 343d cb3c 5411 b93b 1f14 893d ac7f 1f3c
-0.00012882071 -0.08178365 -0.041817322 0.05533222 -0.005399585 0.01561712 -0.09188088 0.005297722
-0.012371479 0.01610467 0.11212162 0.10937891 -0.07839407 -0.11172344 -0.096908696 0.08998342
-0.032737028 0.10874108 -0.09936343 -0.017849673 0.061451446 -0.040804893 0.05116535 0.013196237
-0.0768009 0.114110656 0.056041807 0.008106609 0.024809457 0.0056478176 0.06693291 0.009735029

net.layers.0.weight f4 [64, 32]
00000000: b647 26be e331 07be 8710 5abc eb22 4c3d
00000010: dc88 053d a24d a83d 1b62 883d b490 3bbe
00000020: f65d e6bd 5382 d63d 4539 1e3e 8328 95bd
00000030: 9afd f4bd b138 2d3e d183 1dbc 27a0 af3c
00000040: d7ef b83d 9b32 35be 3dd0 0abb 7700 033e
00000050: 6a7c 73bc 04f2 a8bc 6c08 f03d 4cde 2abd
00000060: ed63 9b3d 8aee 11be 53c2 073e 77a9 6abd
00000070: 68c8 563e bc6b 21be 3153 463e e90e aebc
00000080: f58d c83d 86a9 1f3e afc8 dabd 5b70 b6bc
00000090: 897c 1fbe b43f f63d e0df c03d 9333 b3bc
000000a0: 8d8d 813c b89f 7c39 c5b1 f03d 1153 063e
000000b0: 90c1 acbd f135 8fbd b5b4 873c e037 38bd
000000c0: b177 21be 9f0b 59be 3147 32be 0bbd 4a3e
000000d0: 7001 f4bd c6ff a6bd c154 5cbe 3ab8 8f3c
000000e0: c0da 41be d319 e83d a39c 1a3d b4a7 02be
000000f0: 4cc1 3dbd 402a c2bb 923d d2bd f350 813c
00000100: 187b 8e3d ad0c 3cbe eed2 3d3e d02c e6bd
00000110: ca55 6c3e 872d 333e 57cf dfbd bcec 573e
00000120: ae01 24be 3c48 ad3c 99c0 1ebe 3c9a 983c
00000130: 5aa4 3ebe ae60 8d3e e05d c33d 6641 dabd
00000140: cf95 ac3d a098 92bd a33f 403e 4275 1fbe
00000150: 5211 e9bd f819 53be 72cb 1dbd 60ad 10ba
00000160: 2121 073d 64ac 12be b1f6 4b3e c1ed a1bb
00000170: 4dd6 67be 2d4e a3bc 3dad 67be b285 0ebd
00000180: 6e6c a8bc 5aa7 bbbc 06b7 373d 9275 b7be
00000190: 98b3 09be d059 233e db0e f93d 452e 3bbd
000001a0: 5bc0 253e 46e5 3c3e e4c3 16be 1815 c23d
000001b0: aef4 4f3e 7c1d 8abc df6e 3abe 1770 683d
000001c0: 8153 3f3c 0e42 c23c 2304 333d 0e26 453e
000001d0: 39bc ee3b ba65 31be 7024 31be d0ac 9a3e
000001e0: e5d5 3fbe d069 163e affd 4bbe b8ee f53d
000001f0: b0fe 59bc 1bf1 4abd 370f 1bbe 0d8e 57bd
00000200: 1505 3fbc 1201 1a3e 2573 453e 54b6 833d
00000210: 7a54 fb3a e5ab e1bd 0407 cabd 0279 b9bd
00000220: d203 ad3b 95e2 10bd 5e45 d63d 6186 83be
00000230: 9dad 333d 7232 d5bd 9eca 2d3e e6ee 3cbe
00000240: 6401 c23e 04d7 3e3e 2ffc 86bc 70c2 3cbc
00000250: ee97 923d 3560 00be baae 093d fc18 00be
00000260: f1e4 163e 9d04 c2bd fa68 103d f466 b2bd
00000270: 95cf 5fbe 61ff cfbc 4219 063d 2b96 09be
00000280: a647 10be cdd6 36be 279e 103e 3889 a0be
00000290: 71dd 50be be12 7e3e e9eb 49bd 7d1d 443d
000002a0: 1b15 493c efb1 70bc 0748 07be 9498 823e
000002b0: 2ec6 c83d 306d 73be ab2a f43d 82f6 d3bc
000002c0: 4c83 34be fb09 32be a24a dd3d c5e7 d53d
000002d0: 55c8 babd 4d8f a2bd a697 c5be 679c a83e
000002e0: e41e 26be b68c adbd 975f 05be ad67 d03c
000002f0: a869 53be 6526 5b3e 6386 d5bd 2e73 543d
00000300: 5706 473e 57cc 33be c5cc 373e dc41 5e3d
00000310: 2358 bc3d cef9 133e 0412 79bc caa6 ce3d
00000320: ed48 fb3d 1e6a b8bd 5e46 493c a870 e4bc
00000330: 2c92 29be 74bd 843e 1e77 87be 4e04 7c3e
00000340: cb19 0cbe 5aca 153d 475c 743e b8ba 37be
00000350: de29 2bbe 290d 15bd 2303 643d b55a 66be
00000360: 7663 023e 4844 54bd 4f0f 96bd d8bb 903e
00000370: d569 de3d 26fa 983d 3ec0 c9bd 1b45 f5bd
00000380: 5fec 8c3d ccd7 ecbd 5c4a e43c 4068 563d
00000390: 0061 c33d 07e2 173e a8dd d63d 9ba7 0d3d
000003a0: 4964 29bd c84c b93d a910 17be 13f3 d93c
000003b0: e729 b5bd fde9 43bd 4e0c 033d d7dc 153e
000003c0: 65ca 233d e939 3abe 856b 27be fa0c bf3d
000003d0: 6c9b 333e bafe f03c 6ea8 76be c883 b9bb
000003e0: d7f1 55be 25e5 4d3e 62a0 d73d f13e a33c
000003f0: 60b3 273e 6108 b7bd 2e67 153e a419 1e3e
-0.16238293 -0.13202624 -0.0133096045 0.049837988 0.032601222 0.08217932 0.06659337 -0.18316919
-0.112483904 0.10474076 0.15451534 -0.072831176 -0.11962433 0.16916157 -0.009613947 0.021438671
0.09030121 -0.17695086 -0.0021181249 0.12793146 -0.014861206 -0.020623215 0.11720356 -0.041715905
0.07587419 -0.14251152 0.13257723 -0.05729052 0.20974886 -0.15763754 0.19367673 -0.021247344
0.09792701 0.15592012 -0.106828086 -0.022270372 -0.1557485 0.12023869 0.09417701 -0.021875178
0.015814567 0.00024092093 0.11752657 0.13117625 -0.084353566 -0.069927104 0.01656566 -0.04497516
-0.15768315 -0.2119584 -0.1740997 0.19798677 -0.11914337 -0.08154254 -0.21516706 0.0175439
-0.18931103 0.113330506 0.037747037 -0.12759286 -0.04632692 -0.0059254467 -0.1026565 0.01578567
0.06957072 -0.1836421 0.18537495 -0.11239016 0.23079601 0.17497836 -0.10928219 0.21086401
-0.16016266 0.021152608 -0.15503158 0.018628232 -0.18617383 0.27612823 0.095393896 -0.10657005
0.08427011 -0.07158017 0.18774275 -0.15572074 -0.11380257 -0.20615375 -0.0385241 -0.0005518999
0.03299058 -0.14323574 0.19918324 -0.0049416726 -0.22640343 -0.019934738 -0.22624679 -0.03479547
-0.020559516 -0.022906948 0.04485228 -0.35831887 -0.13447416 0.1595223 0.121610366 -0.045698423
0.16186659 0.18446836 -0.14723164 0.094766796 0.20308182 -0.016859762 -0.18206356 0.056747522
0.011677624 0.023713138 0.043705117 0.19252798 0.0072856215 -0.17323962 -0.17299056 0.3020997
-0.18733938 0.14688802 -0.19920991 0.120084226 -0.013305351 -0.049546342 -0.15142523 -0.052625705
-0.0116589265 0.15039471 0.19282205 0.06431261 0.0019174956 -0.110191144 -0.098646194 -0.090562835
0.0052799964 -0.035372335 0.104624495 -0.2568846 0.043866742 -0.10410012 0.16971824 -0.18450508
0.37891686 0.1863671 -0.016477672 -0.011520967 0.071578845 -0.125367 0.033613898 -0.12509531
0.14735772 -0.09473536 0.035256363 -0.08711043 -0.2185653 -0.025390329 0.03273893 -0.13436191
-0.14089832 -0.17855377 0.1412283 -0.3135469 -0.20396973 0.24811837 -0.049297247 0.047879685
0.012273098 -0.01469086 -0.1321107 0.25507033 0.09803425 -0.2377212 0.11922201 -0.02587438
-0.17628211 -0.1738662 0.10805251 0.10444597 -0.091202416 -0.07937489 -0.3859226 0.32931826
-0.16222721 -0.08474104 -0.13024746 0.025440061 -0.20645773 0.21401365 -0.10426023 0.051867656
0.19436012 -0.17558418 0.17949207 0.054262027 0.09196498 0.14450762 -0.015202049 0.10090406
0.12269769 -0.09004615 0.012284843 -0.02788575 -0.16559666 0.2592579 -0.26458067 0.24611017
-0.13681714 0.03656993 0.23863326 -0.17942321 -0.1671519 -0.036389504 0.055667054 -0.2249554
0.12733254 -0.05182293 -0.07327139 0.28268313 0.108600296 0.07469587 -0.098511204 -0.119760714
0.06881022 -0.115645975 0.027867489 0.052345514 0.09539986 0.14832316 0.10491496 0.03458367
-0.041355405 0.09047848 -0.14752449 0.026605165 -0.08845883 -0.04783057 0.031994157 0.14635025
0.03998794 -0.18186153 -0.16349609 0.09328647 0.17539757 0.029418338 -0.24087688 -0.0056614615
-0.20893036 0.20106943 0.105286375 0.019927474 0.1637702 -0.08937145 0.14590141 0.15439469

net.layers.0.bias f4 [64]
00000000: f648 233e 25be c4bc c91f dfbd 61a6 fa3d
00000010: d65c 2abd 21b0 003e a816 6a3c e9dd 113e
00000020: 6cc0 973d ba5f e3bd df12 323e 4de6 ecbc
00000030: de9f 82bd 33ac f83c 7c3b e63d d6e6 1abe
00000040: 5272 e8bd 7d56 b3bc 2d3b 2b3d 3e90 e63d
00000050: 5f81 18be a4b2 8dbb 3276 4abd b4d1 ff3b
00000060: 73f4 07be 2188 c2bd 1873 0c3e 17bd 3a3e
00000070: 54e1 98bb a086 13bd 8e0c 12bd efa1 2c3d
00000080: 93f1 3f3e 4c4a 2d3e 6e3d 283b 14e4 333d
00000090: 6bc6 a6bd 2c55 8fbd 047e ccbc df9c 553e
000000a0: 52ec 7dbd 0696 2e3e a6fa a5bc 23fa d2bd
000000b0: e573 cbbd a8d0 0b3e 3231 dabd 4464 e53d
000000c0: 8173 15bd 1931 693e 70c7 e53d 766a e23d
000000d0: ae6f 2abe 81a1 27bd 9005 3f3e 8714 0bbe
000000e0: 747a 01be cde0 0e3e 09e3 e03d 64dd 453d
000000f0: 80a9 67bb 6ab0 373e bee2 473e e797 183b
0.15945801 -0.02401645 -0.108947344 0.122387655 -0.04159244 0.12567188 0.014287628 0.14244808
0.074097484 -0.11102243 0.17390011 -0.02891841 -0.063781485 0.030355548 0.112418145 -0.1512712
-0.1134993 -0.021891827 0.04180448 0.11257981 -0.14893101 -0.004324274 -0.049429126 0.007806981
-0.13276844 -0.09498621 0.1371578 0.18236195 -0.004665533 -0.03601706 -0.035656504 0.04214662
0.18744497 0.16922873 0.002567138 0.043918684 -0.08143314 -0.06998667 -0.024962433 0.20860623
-0.06199295 0.17049417 -0.02026112 -0.10301616 -0.099342145 0.13653815 -0.106539145 0.11200765
-0.036487106 0.22772636 0.1121968 0.11055462 -0.16644165 -0.040925507 0.18654466 -0.1358205
-0.12644368 0.13952942 0.109808035 0.048306838 -0.0035348833 0.1793839 0.19520089 0.00232839

net.layers.2.weight f4 [1, 64]
00000000: 258b 1dbe f9a3 203e 440c 10be fbc3 343e
00000010: 6e07 6a3e 4b5d 7c3e e0b2 89be 04f2 093e
00000020: 771f 35be 9b0d 8b3e e0c3 b43c 6c3d 0cbe
00000030: 2cfe 36be 66d8 09be a42f f2be 0026 91be
00000040: 361d 97be 9078 c03e 018a debe 2102 1c3e
00000050: e400 313e baf2 e23e 043e 623e 469d 383e
00000060: d906 a1be 306a 1cbe e2b7 85be da1e abbd
00000070: 719a 0ebe b0c7 573e 177b 3d3e 7f1d 943d
00000080: ca98 813e 4221 223e f9f6 8abe ca88 393e
00000090: 605a 813e a00d bbbd 3d0e ebbd 630d b5be
000000a0: f880 cabe d73d 0fbe f8df 423e 594f 22be
000000b0: 7007 74be 49da 8abe 59f3 5b3e d371 123e
000000c0: a2fc 6a3e c071 35be 80b9 84be 1b9d 18be
000000d0: 3aa8 833d 935c a9bd 940d 01be f4a6 acbe
000000e0: df46 09bb 93fb b7be 97e4 95be 0782 863e
000000f0: 1d0f 7d3e f32f 12be 962f 1ebe dea6 3dbe
-0.1538511 0.1568755 -0.14067179 0.17652886 0.22854397 0.24644963 -0.26894283 0.13471228
-0.17687784 0.27158818 0.022066057 -0.13695306 -0.17870396 -0.13461456 -0.47301972 -0.28349304
-0.29514474 0.37591982 -0.43464664 0.15235187 0.17285496 0.4432581 0.2209397 0.18028745
-0.31450537 -0.15274882 -0.26116854 -0.08355494 -0.13926102 0.21072268 0.18503986 0.072321884
0.2531188 0.15833 -0.2714155 0.18118587 0.25264263 -0.09133458 -0.11477325 -0.35361776
-0.3955152 -0.13988434 0.1903075 -0.15850581 -0.23830962 -0.27119663 0.21479549 0.14301233
0.22947934 -0.17719173 -0.25922775 -0.14903681 0.06428571 -0.0826961 -0.12602836 -0.33721125
-0.0020946783 -0.35934123 -0.29275963 0.26271078 0.24712797 -0.14276104 -0.1544784 -0.18520686
