onnx/Proposed/antipion.onnx (onnx, 180401 bytes, 35 tensors)

emb.layers.0.bias f4 [128]
0.11555567 0.123515636 -0.029154206 -0.09616131 -0.076990105 -0.063941 -0.10476975 0.017833514
0.0597394 0.017315188 -0.109390765 0.0435015 0.015555903 -0.021083662 0.16789559 0.10364027
-0.16283906 0.10606648 0.04005589 0.022841124 -0.13640234 -0.16987659 0.03539279 -0.039331872
0.20317508 -0.015737759 -0.082219385 0.07160373 0.02977639 -0.015222686 -0.27925605 0.108788244
-0.03993802 0.06323403 -0.08797713 -0.13138121 -0.010085926 0.10487511 0.2191707 0.059243113
-0.123883784 0.110228695 0.05966183 -0.11185997 -0.016030595 0.06124248 -0.104883134 -0.0017967315
0.20890597 0.12652491 -0.0028933247 0.14081092 0.15439771 -0.0017929064 0.17315966 -0.05893207
-0.10096153 0.15948261 -0.00032867 -0.036972117 0.058711004 -0.21589482 -0.018700184 0.19481255
-0.16586402 -0.17203355 6.5370485e-05 0.074152365 -0.02859296 -0.19638497 0.12105924 0.1454813
-0.10715383 -0.16496155 -0.11950779 0.04492919 -0.13755894 0.20491788 -0.10277009 -0.00253224
-0.16030718 0.035751976 -0.15456752 0.16891383 0.19140953 -0.059945483 0.15354885 0.027000817
-0.04770349 0.08795137 -0.09100283 -0.18124057 -0.19474427 0.112558715 -0.07886107 -0.10274263
0.083714 0.1794373 -0.012301706 -0.0353834 0.055110265 0.1564926 -0.048879668 0.19136485
0.030739386 0.15724246 -0.17649968 -0.3064847 0.008408487 -0.20968984 -0.04517034 -0.0098016495
0.06525866 0.18553208 0.15169333 -0.17119443 -0.051094733 0.10397365 -0.14957674 0.081903055
0.0753854 -0.2094216 0.17625615 0.10781609 -0.036311448 -0.16134956 0.1639605 0.05936113
00000000: 73a8 ec3d c4f5 fc3d cdd4 eebc 39f0 c4bd
00000010: fdac 9dbd 80f3 82bd 8691 d6bd 9717 923c
00000020: 4db1 743d 95d8 8d3c 4408 e0bd a12e 323d
00000030: 30de 7e3c a5b7 acbc d2ec 2b3e 5a41 d43d
00000040: 48bf 26be 6239 d93d a511 243d 4f1d bb3c
00000050: 0ead 0bbe 21f4 2dbe 08f8 103d 751a 21bd
00000060: 210d 503e 79ec 80bc a362 a8bd faa4 923d
00000070: 9eed f33c 9368 79bc a6fa 8ebe 5fcc de3d
00000080: 0d96 23bd d880 813d 5b2d b4bd cc88 06be
00000090: 713f 25bc c3c8 d63d 496e 603e e8a8 723d
000000a0: c8b6 fdbd 95bf e13d f75f 743d d716 e5bd
000000b0: 9852 83bc 65d9 7a3d f8cc d6bd 4e80 ebba
000000c0: 72eb 553e bf8f 013e ef9d 3dbb bd30 103e
000000d0: 6f1a 1e3e f5ff eaba c450 313e c162 71bd
000000e0: ebc4 cebd 694f 233e 5751 acb9 1370 17bd
000000f0: f37a 703d 8813 5dbe 2131 99bc f17c 473e
00000100: 42d8 29be 9029 30be 8317 8938 32dd 973d
00000110: c93b eabc 2419 49be e8ed f73d 0df9 143e
00000120: 7873 dbbd aeeb 28be 80c0 f4bd ac07 383d
00000130: 40dc 0cbe fed5 513e 2079 d2bd f0f3 25bb
00000140: 9127 24be aa70 123d f346 1ebe bff7 2c3e
00000150: dc00 443e 6589 75bd e93b 1d3e d130 dd3c
00000160: bc64 43bd d91f b43d b15f babd 2197 39be
00000170: 0b6b 47be 2f85 e63d ea81 a1bd ba6a d2bd
00000180: 3f72 ab3d 69be 373e 188d 49bc 2fee 10bd
00000190: 4dbb 613d 993f 203e 0c36 48bd 26f5 433e
000001a0: 2ad1 fb3c 2b04 213e 55bc 34be 90eb 9cbe
000001b0: c0c3 093c efb8 56be 8904 39bd 1997 20bc
000001c0: 55a6 853d 1ffc 3d3e 7f55 1b3e 984d 2fbe
000001d0: b648 51bd 23f0 d43d a52a 19be cabc a73d
000001e0: a963 9a3d 9e72 56be 7e7c 343e afce dc3d
000001f0: 50bb 14bd d238 25be 43e5 273e a824 733d

emb.layers.2.bias f4 [32]
-0.050609313 0.01954076 -0.072215095 0.007436319 0.036204964 -0.0135947615 -0.0283468 0.01773242
-0.07522043 -0.017083872 0.027819041 0.06217596 -0.070702426 -0.034432873 0.07871183 0.008297701
-0.057086647 -0.036561247 0.065963365 0.031054605 0.062688395 -0.04677593 0.0465498 -0.05848446
-0.07460428 0.047906306 0.05142416 0.062170353 -0.07500318 -0.020166738 -0.026321197 -0.04785248
00000000: b64b 4fbd f213 a03c 82e5 93bd 5dac f33b
00000010: a84b 143d 90bc 5ebc 8c37 e8bc 9443 913c
00000020: 2b0d 9abd 7af3 8bbc c2e4 e33c 38ac 7e3d
00000030: 6fcc 90bd 7c09 0dbd ab33 a13d 15f3 073c
00000040: b0d3 69bd 3fc1 15bd cd17 873d 3a66 fe3c
00000050: c662 803d 1e98 3fbd 01ab 3e3d 678d 6fbd
00000060: 21ca 98bd 6739 443d 24a2 523d 57a6 7e3d
00000070: 449b 99bd b734 a5bc 8d9f d7bc f600 44bd

encoder.layers.0.self_attn.in_proj_bias f4 [96]
-0.18088335 -0.16826232 -0.17245683 -0.18660405 -0.17793454 0.17439824 0.18747711 0.14851834
-0.18337208 0.16546845 0.03491827 0.10570737 -0.16729032 -0.16480322 0.17193994 0.16289464
0.09007288 0.06560358 -0.095751345 -0.12421975 0.09067139 -0.0920037 0.08626215 0.10312392
0.10977607 0.09541645 -0.08716172 0.1311903 0.076699406 0.113738075 0.09256055 0.09793772
9.613341e-06 3.5548706e-05 1.3723725e-05 1.971036e-05 3.7674632e-05 -1.1869479e-05 1.6986e-05 -2.3051358e-05
3.1008407e-05 -1.707531e-05 -2.5470521e-05 -1.1031055e-05 3.150433e-05 1.7843635e-05 8.608461e-08 1.8994802e-05
-2.0172703e-05 3.1839492e-05 1.173076e-05 -3.0475278e-05 2.6360327e-05 2.3075707e-05 6.0867118e-05 -4.7927773e-05
2.9295286e-05 1.3850282e-05 5.5978296e-07 -2.851659e-06 2.1599506e-05 3.8101596e-05 3.318852e-05 1.4252329e-05
0.0026814565 0.022261804 -0.011424528 0.0031957899 -0.0034605276 -0.019505577 -0.004500947 0.001379062
-0.00026234513 -0.00793986 0.01870978 -0.00037526074 0.0034503832 -0.010654948 -0.014381033 0.003930556
0.0286391 -0.0078000077 0.008911658 -0.0056687132 -0.0033543084 -0.0067315674 -0.01218577 0.00027614943
-0.0026903383 -0.019708555 -0.009905733 -0.0016106637 0.009067986 -0.016441047 0.0017737272 -0.015593448
00000000: 7c39 39be f54c 2cbe 8698 30be 2215 3fbe
00000010: 7934 36be 7495 323e 00fa 3f3e 3115 183e
00000020: e4c5 3bbe 9070 293e 7606 0f3d 1b7d d83d
00000030: 274e 2bbe 2dc2 28be 0611 303e dacd 263e
00000040: 2178 b83d 2b5b 863d 4819 c4bd ed66 febd
00000050: ecb1 b93d 706c bcbd 36aa b03d a232 d33d
00000060: 47d2 e03d b369 c33d d881 b2bd c056 063e
00000070: 9414 9d3d 82ef e83d 6390 bd3d 9293 c83d
00000080: fc48 2137 221a 1538 f33e 6637 ad57 a537
00000090: d404 1e38 0623 47b7 287d 8e37 6a5e c1b7
000000a0: 060f 0238 f33c 8fb7 87a9 d5b7 0512 39b7
000000b0: 8423 0438 eaae 9537 84dd b833 0757 9f37
000000c0: 8d38 a9b7 658b 0538 3bcf 4437 29a5 ffb7
000000d0: 5f20 dd37 b492 c137 924b 7f38 0e06 49b8
000000e0: 26bf f537 825e 6837 fe43 1635 215f 3fb6
000000f0: 9630 b537 47cf 1f38 e733 0b38 491d 6f37
00000100: 60bb 2f3b 635e b63c f22d 3bbc 7570 513b
00000110: 05ca 62bb 29ca 9fbc ae7c 93bb a4c1 b43a
00000120: 5e8b 89b9 3016 02bc 4145 993c a5be c4b9
00000130: d31f 623b 1792 2ebc 6d9e 6bbc e5cb 803b
00000140: 8c9c ea3c 3597 ffbb 3402 123c 9dc0 b9bb
00000150: f5d3 5bbb 7b94 dcbb d3a6 47bc 26c8 9039
00000160: 6350 30bb d673 a1bc a84b 22bc e81c d3ba
00000170: e491 143c 60af 86bc 697c e83a a97b 7fbc

encoder.layers.0.self_attn.out_proj.weight f4 [32, 32]
-0.065386854 0.09951489 -0.07024215 0.029564694 0.0655957 0.11062249 -0.11794699 -0.112572
-0.014181314 -0.12713961 -0.13437065 -0.1200533 0.103888 -0.04208684 -0.029035803 -0.10799243
0.050107457 0.093359984 -0.09213472 -0.14668502 -0.11386181 -0.07832769 -0.14461555 0.122745946
0.031969696 -0.052482516 0.10573566 -0.0044974727 0.032688998 -0.062502265 0.008878545 0.08381292
-0.014005529 -0.15213124 -0.13369848 0.008139981 -0.13099863 -0.0057137166 0.051418822 -0.12762432
-0.020255549 -0.0074504325 -0.054351624 0.029186893 0.03843929 0.11173739 0.15059233 -0.08862163
0.02342039 -0.13947263 -0.10307126 0.15462539 0.13454029 -0.026073296 0.03491283 -0.095458396
-0.1550466 0.083756834 0.099129595 -0.13465579 -0.022934655 -0.035036698 -0.13665004 0.09269456
0.023044007 0.0699606 0.07226081 0.0019961693 0.17417629 0.13325997 0.2133564 0.07484531
-0.03625134 -0.03311273 -0.019997327 -0.05867463 0.04580195 -0.07162519 -0.15716463 -0.10058795
-0.11651521 -0.17001516 0.00817869 -0.031629276 0.026046662 0.11935933 -0.054024287 -0.19494702
0.15556376 0.16977206 0.082912765 0.18814032 0.011506016 -0.08217019 0.021840755 0.12076221
-0.12890217 -0.13101773 -0.071792394 -0.091389515 -0.09636123 0.006601519 -0.08905269 0.030507516
0.0041701794 0.090815395 0.20463648 0.025603304 0.06641701 -0.11473092 -0.0071085766 0.10271809
-0.012913908 0.010304323 -0.06283892 0.11425494 -0.12145128 -0.07655933 0.0848099 -0.08372953
0.08606578 0.027245238 -0.09077905 0.00444105 0.02391306 0.059537053 -0.0067461827 -0.015584751
-0.05001642 0.09912239 -0.0705389 -0.14885354 0.057238072 -0.13717926 -0.13956036 0.07102895
0.048947975 -0.038946044 -0.03569752 -0.03762604 -0.16820958 0.10022503 0.07646406 -0.11105439
-0.05012647 -0.003707715 0.080195084 0.021926308 0.027474735 0.016793929 -0.11835518 0.060314
0.10497128 0.12899727 0.039707337 0.084957466 0.034884196 -0.06498895 -0.09906605 -0.11829715
0.08737723 -0.14592923 -0.029647725 -0.13101506 -0.03384047 -0.04367122 0.13257602 -0.12150134
0.1131359 0.09033333 0.15804331 -0.0009953165 -0.04505023 -0.0882351 -0.103661716 -0.00775404
0.1438205 -0.048423667 0.015040583 -0.06088705 -0.058514692 -0.058557965 -0.10559021 -0.116923764
0.06473278 0.12982783 0.1040001 -0.15868975 -0.08339315 0.06549958 0.06347797 0.0297535
-0.07489079 -0.09025677 0.042493917 -0.057629164 -0.13466418 -0.031044716 0.07400212 0.11780444
-0.14741784 -0.051245473 -0.104087144 -0.05338304 0.033404842 -0.11643642 0.06804443 -0.112247474
0.13057731 -0.13134256 0.12140279 -0.06123613 -0.054639563 0.0851656 0.07906995 0.08757034
0.12752515 -0.10764246 -0.11352263 0.11225482 0.10689464 -0.06451717 0.09104565 0.055165682
-0.05364696 0.0021182017 0.033727493 0.00832894 0.032470807 0.053687405 0.14708388 -0.0011489552
-0.07350646 -0.080691814 0.13494763 -0.07919876 0.0291401 0.03225001 -0.10641829 -0.03905599
0.022333415 -0.15463327 0.12988773 0.019513888 0.086352386 0.05298728 -0.10565188 0.12142604
0.122374184 0.0183878 0.086539134 0.0730407 0.0918877 -0.15013063 -0.034443878 -0.01877839
00000000: 8be9 85bd 76ce cb3d 1edb 8fbd a831 f23c
00000010: 0a57 863d 0b8e e23d 318e f1bd 268c e6bd
00000020: be58 68bc e330 02be 7698 09be 81de f5bd
00000030: 3bc3 d43d 4063 2cbd 7edc edbc 232b ddbd
00000040: 7a3d 4d3d 8533 bf3d 21b1 bcbd 9934 16be
00000050: 6130 e9bd 456a a0bd 1916 14be 3a62 fb3d
00000060: a8f2 023d e8f7 56bd f08b d83d 895f 93bb
00000070: e6e4 053d 3001 80bd 5177 113c 1ca6 ab3d
00000080: 7277 65bc 4bc8 1bbe 41e8 08be 8e5d 053c
00000090: 8124 06be 213a bbbb 8b9c 523d f3af 02be
000000a0: f7ee a5bc c222 f4bb cf9f 5ebd 5a19 ef3c
000000b0: 8472 1d3d 93d6 e43d e034 1a3e 427f b5bd
000000c0: 1edc bf3c ead1 0ebe 0617 d3bd 1e56 1e3e
000000d0: eec4 093e aa97 d5bc c100 0f3d b17f c3bd
000000e0: 89c4 1ebe b488 ab3d 7504 cb3d 35e3 09be
000000f0: 75e1 bbbc a482 0fbd fded 0bbe a5d6 bd3d
00000100: c9c6 bc3c 8147 8f3d 7afd 933d 2ad2 023b
00000110: 455b 323e 4d75 083e 1a7a 5a3e 7f48 993d
00000120: 497c 14bd 37a1 07bd 6fd1 a3bc cf54 70bd
00000130: d39a 3b3d 3ab0 92bd c4ef 20be 0e01 cebd
00000140: 879f eebd 7418 2ebe eaff 053c b38d 01bd
00000150: cf5f d53c aa72 f43d 9248 5dbd 31a0 47be
00000160: 1b4c 1f3e bad8 2d3e 2bce a93d dba7 403e
00000170: bb83 3c3c d848 a8bd 62eb b23c 2d52 f73d
00000180: eefe 03be 8329 06be e407 93bd 6d2a bbbd
00000190: 0959 c5bd 8e51 d83b 4261 b6bd e6ea f93c
000001a0: 00a6 883b 6cfd b93d 3a8c 513e 05be d13c
000001b0: a405 883d 0bf8 eabd 10ef e8bb dd5d d23d
000001c0: db94 53bc 77d3 283c b1b1 80bd 7efe e93d
000001d0: 73bb f8bd 23cb 9cbd d0b0 ad3d 637a abbd
000001e0: 4143 b03d 6831 df3c 5eea b9bd 3a86 913b
000001f0: 52e5 c33c 20dd 733d 150f ddbb 2f57 7fbc
00000200: 05de 4cbd ae00 cb3d b376 90bd 106d 18be
00000210: 7872 6a3d b878 0cbe e9e8 0ebe a077 913d
00000220: ac7d 483d e385 1fbd 9037 12bd c31d 1abd
00000230: 223f 2cbe c842 cd3d 3099 9c3d 7c70 e3bd
00000240: 6a51 4dbd 23fd 72bb 523d a43d cd9e b33c
00000250: b212 e13c 6c93 893c 3364 f2bd d00b 773d
00000260: 2ffb d63d dc17 043e 29a4 223d 2efe ad3d
00000270: bbe2 0e3d ed18 85bd 24e3 cabd c745 f2bd
00000280: d5f2 b23d 796e 15be c9df f2bc d028 06be
00000290: 4e9c 0abd 98e0 32bd 02c2 073e b2d5 f8bd
000002a0: cbb3 e73d ae00 b93d 1bd6 213e 4875 82ba
000002b0: 9786 38bd 9bb4 b4bd 984c d4bd 9a15 febb
000002c0: ae45 133e e557 46bd c76c 763c b364 79bd
000002d0: 1aad 6fbd 7ada 6fbd ae3f d8bd ba75 efbd
000002e0: 9f92 843d 96f1 043e 01fe d43d 917f 22be
000002f0: 07ca aabd a524 863d bd00 823d 9dbd f33c
00000300: 5860 99bd 8bd8 b8bd 1a0e 2e3d 8f0c 6cbd
00000310: 68e5 09be 7d51 febc 6c8e 973d 7443 f13d
00000320: b4f4 16be c6e6 51bd a42b d5bd 2da8 5abd
00000330: 84d3 083d 3876 eebd e15a 8b3d 01e2 e5bd
00000340: 0fb6 053e aa7e 06be 07a2 f83d bcd2 7abd
00000350: bccd 5fbd 4d6b ae3d 6def a13d 1458 b33d
00000360: f495 023e a673 dcbd 8d7e e8bd dbe5 e53d
00000370: 94eb da3d 9421 84bd 2476 ba3d 69f5 613d
00000380: eabc 5bbd 87d1 0a3b d725 0a3d 1b76 083c
00000390: 1c00 053d 53e7 5b3d 289d 163e 8a98 96ba
000003a0: 8e8a 96bd c041 a5bd b62f 0a3e f632 a2bd
000003b0: 38b7 ee3c 9618 043d d5f1 d9bd 2cf9 1fbd
000003c0: 91f4 b63c 2f58 1ebe 4a01 053e 97db 9f3c
000003d0: 85d9 b03d 3109 593d 0360 d8bd 37ae f83d
000003e0: 519f fa3d 03a2 963c 6e3b b13d 5d96 953d
000003f0: 9e2f bc3d d8bb 19be 0615 0dbd 23d5 99bc

encoder.layers.0.self_attn.out_proj.bias f4 [32]
-0.0046090586 -0.006952036 -0.0057357578 -0.0033870887 0.0071055563 0.0025088496 0.0007231733 0.008147296
-0.00034873286 0.00076039357 0.008150452 -0.010665129 -0.0010788955 -0.00077711587 0.0018962555 0.0052320403
-0.007543329 -0.0042605246 0.008022281 -0.0056646275 -0.0012432846 -0.0049092304 0.0056249215 0.009733575
-0.0069167577 0.013465947 0.0015113022 0.0005680937 0.010419982 0.0006476789 0.0040532663 0.0005329098
00000000: 9607 97bb e8cd e3bb 06f3 bbbb ebf9 5dbb
00000010: bad5 e83b 836b 243b 5793 3d3a 3c7c 053c
00000020: 22d6 b6b9 2655 473a 7989 053c cbbc 2ebc
00000030: ba69 8dba 5db7 4bba c78b f83a 8971 ab3b
00000040: 082e f7bb df9b 8bbb e36f 033c 579e b9bb
00000050: b5f5 a2ba 9cdd a0bb 4351 b83b 9379 1f3c
00000060: f8a5 e2bb 46a0 5c3c e316 c63a 1fec 143a
00000070: 92b8 2a3c ffc8 293a 43d1 843b f9b2 0b3a

encoder.layers.0.linear1.bias f4 [128]
0.06316122 -0.026370393 -0.12121675 -0.19234987 -0.07065295 -0.11759416 -0.1737515 -0.013231588
-0.08901667 -0.030183429 -0.08708669 -0.17829876 -0.23158038 -0.037755977 -0.24780823 -0.13658735
-0.1308985 0.07306287 -0.20100777 -0.011978133 0.100709185 -0.17007016 0.07363981 -0.04479434
-0.06940887 0.10576765 -0.0474257 -0.13008836 -0.029503154 0.0019054859 -0.0814467 0.0013008724
0.1279451 -0.060941566 -0.123816274 -0.029945375 0.112832844 -0.06261855 0.0011323465 0.12004552
-0.07790835 0.09817932 0.024715107 -0.19029638 -0.0856144 -0.039786004 0.092384055 0.16060068
0.135396 -0.010881239 -0.0059579383 -0.06206301 -0.12575929 -0.032894243 -0.04167937 0.04717455
0.020518223 -0.15840587 0.119190514 -0.043055095 0.12168606 -0.11931691 -0.17562337 -0.13445309
0.014212773 0.05051172 -0.1250826 -0.11468266 0.09529796 0.0631164 -0.08004835 -0.005744116
-0.07277786 0.14184627 0.11563545 -0.20560357 -0.13725331 -0.047806803 -0.20638601 -0.057817973
-0.006453637 0.084234536 -0.062311865 0.0003081408 -0.18232097 0.01196646 -0.10927007 0.060822275
-0.10279162 -0.00537978 -0.10128777 0.05268008 -0.13251144 -0.018757299 -0.16113198 -0.0634193
-0.11161567 0.0486405 -0.10723696 0.079342015 -0.19122767 0.031068811 -0.049058728 0.17461582
-0.103145026 0.07872094 0.10063067 -0.15656391 0.12903082 -0.135118 0.03757141 -0.07642532
-0.17386389 0.13054134 -0.033463873 0.07458071 -0.09041963 -0.0067273467 0.08273826 -0.12886415
-0.12669998 -0.11599267 -0.13571958 0.04111474 -0.058290515 0.00786212 -0.020416452 0.033056248
00000000: ab5a 813d b906 d8bc 7d40 f8bd 5df7 44be
00000010: 7eb2 90bd 35d5 f0bd eaeb 31be 4dc9 58bc
00000020: 5f4e b6bd 3d43 f7bc 825a b2bd f393 36be
00000030: 6823 6dbe 03a6 1abd 71c1 7dbe 8edd 0bbe
00000040: 420a 06be fca1 953d fbd4 4dbe ee3f 44bc
00000050: 9e40 ce3d df26 2ebe 78d0 963d 457a 37bd
00000060: 3d26 8ebd b69c d83d 7341 42bd e235 05be
00000070: 99b0 f1bc 7fc1 f93a 87cd a6bd 0982 aa3a
00000080: 0a04 033e dd9d 79bd 6393 fdbd 0150 f5bc
00000090: e814 e73d 283e 80bd 3e6b 943a 6dda f53d
000000a0: 6a8e 9fbd 3d12 c93d 5677 ca3c 0edd 42be
000000b0: 9a56 afbd a6f6 22bd da33 bd3d 8174 243e
000000c0: 40a5 0a3e 3947 32bc cf3a c3bb c835 7ebd
000000d0: 0bc7 00be 1dbc 06bd fdb7 2abd 1a3a 413d
000000e0: d515 a83c 2635 22be 281a f43d 8a5a 30bd
000000f0: 8b36 f93d 6d5c f4bd 9dd6 33be 12ae 09be
00000100: b1dc 683c 61e5 4e3d a715 00be bede eabd
00000110: 942b c33d 2c43 813d 64f0 a3bd 2339 bcbb
00000120: 8f0c 95bd 2640 113e 47d2 ec3d be89 52be
00000130: 228c 0cbe 11d1 43bd db56 53be 8ad2 6cbd
00000140: 0879 d3bb 2883 ac3d ba3a 7fbd f58d a139
00000150: 59b2 3abe f90e 443c fdc8 dfbd c720 793d
00000160: 6a84 d2bd de48 b0bb f66f cfbd 11c7 573d
00000170: 14b1 07be e8a8 99bc c8ff 24be fae1 81bd
00000180: c296 e4bd 433b 473d 0d9f dbbd 117e a23d
00000190: 30d1 43be 0584 fe3c cef1 48bd 7dce 323e
000001a0: b33d d3bd 7238 a13d 7417 ce3d 4a52 20be
000001b0: a820 043e 5f5c 0abe 7be4 193d e184 9cbd
000001c0: 6009 32be a1ac 053e 6a11 09bd c5bd 983d
000001d0: ed2d b9bd 1371 dcbb ad72 a93d f7f4 03be
000001e0: a4bd 01be 918d edbd 13fa 0abe ee67 283d
000001f0: 09c2 6ebd 1fd0 003c 6740 a7bc fd65 073d

encoder.layers.0.linear2.bias f4 [32]
-0.042228483 0.082841076 -0.055289358 0.030598417 -0.032786187 0.030136677 -0.016719617 -0.058740404
-0.018469833 -0.033726398 -0.07681137 -0.046051312 -0.013144865 -0.062334217 -0.020824755 0.107496
-0.019376716 0.04237273 -0.08239215 -0.023413545 -0.05559958 -0.08225093 0.071218826 -0.008227407
-0.05879875 -0.04591706 0.02556292 0.0065643596 -0.101132415 0.078316025 0.04554693 0.08665576
00000000: c6f7 2cbd 95a8 a93d 1877 62bd 88a9 fa3c
00000010: cf4a 06bd 31e1 f63c 94f7 88bc c799 70bd
00000020: 0c4e 97bc b124 0abd 484f 9dbd 4da0 3cbd
00000030: 8f5d 57bc 2a52 7fbd ad98 aabc dd26 dc3d
00000040: ebbb 9ebc 078f 2d3d 37bd a8bd c3cd bfbc
00000050: 63bc 63bd 2d73 a8bd 2ddb 913d 3fcc 06bc
00000060: f5d6 70bd 8713 3cbd 5469 d13c d719 d73b
00000070: 831e cfbd 2764 a03d 6b8f 3a3d 9378 b13d

encoder.layers.0.norm1.weight f4 [32]
0.9746552 1.0012941 1.0014102 1.0790511 1.0326513 0.9959399 0.99604934 0.9346368
0.9666383 1.0515326 1.0220584 0.9736021 1.0592316 1.0037098 1.0326394 1.0134002
1.0340564 0.99411374 1.0393019 0.98186404 1.0170172 0.9815631 1.0916365 1.0062047
0.99920106 0.93347406 1.0080619 0.9515419 1.0008452 0.9504778 0.9035995 1.027657
00000000: 0183 793f 682a 803f 362e 803f 591e 8a3f
00000010: eb2d 843f ebf5 7e3f 17fd 7e3f 5b44 6f3f
00000020: 9c75 773f 9f98 863f cfd2 823f fd3d 793f
00000030: e794 873f 9079 803f 872d 843f 19b7 813f
00000040: f65b 843f 3d7e 7e3f d807 853f 715b 7b3f
00000050: 9f2d 823f b847 7b3f bfba 8b3f 51cb 803f
00000060: a4cb 7f3f 28f8 6e3f 2c08 813f 4098 733f
00000070: b21b 803f 8352 733f 4c52 673f 448a 833f

encoder.layers.0.norm1.bias f4 [32]
-0.01471142 0.023852816 -0.03998206 -0.035246644 -0.0017809727 0.02015497 -0.008762712 0.015846571
0.012904972 -0.000802672 0.0048583164 0.036183383 0.034473024 -0.025420096 -0.028565798 -0.021227004
0.013584256 -0.03780921 -0.03622914 0.016735703 0.011307143 -0.0040375604 -0.0031186896 0.0471157
-0.02412026 0.0033435847 -0.00011190314 -0.016389817 -0.026739808 0.020293454 0.0017327442 0.011079868
00000000: 2b08 71bc fb66 c33c 3bc4 23bd c95e 10bd
00000010: 876f e9ba 091c a53c 7a91 0fbc abd0 813c
00000020: 606f 533c 686a 52ba 8332 9f3b 0735 143d
00000030: 9633 0d3d ce3d d0bc d202 eabc 41e4 adbc
00000040: 8090 5e3c d5dd 1abd 0265 14bd 5019 893c
00000050: 9841 393c 834d 84bb ee62 4cbb 64fc 403d
00000060: da97 c5bc 0b20 5b3b 8aad eab8 f043 86bc
00000070: 710d dbbc 753e a63c 3f1d e33a 5688 353c

encoder.layers.0.norm2.weight f4 [32]
1.0489539 1.0942242 1.0402702 1.0608563 1.0298812 1.0676337 1.0644469 1.0434562
1.049768 0.9991724 1.0538414 1.0668155 1.0501571 1.047309 1.092686 1.0242124
1.0343708 0.9824081 1.0894581 1.0641384 1.0172061 0.97142816 1.0357336 0.9963264
1.076033 1.0057763 1.0330259 0.9962903 1.030869 1.0559106 1.0027311 1.070434
00000000: 1f44 863f 8a0f 8c3f 9327 853f 24ca 873f
00000010: 26d3 833f 39a8 883f cc3f 883f f98f 853f
00000020: cc5e 863f c3c9 7f3f 46e4 863f 698d 883f
00000030: 8c6b 863f 390e 863f 23dd 8b3f 6419 833f
00000040: 4366 843f 197f 7b3f 5d73 8b3f b035 883f
00000050: cf33 823f 84af 783f eb92 843f 3f0f 7f3f
00000060: 73bb 893f 47bd 803f 313a 843f e20c 7f3f
00000070: 84f3 833f 1428 873f 7e59 803f fb03 893f

encoder.layers.0.norm2.bias f4 [32]
0.013662105 0.038772613 -0.031566557 -0.015509622 -0.0025948768 0.028761946 -0.022348298 0.0015326543
-0.01633708 0.004378323 -0.02613386 0.027980324 0.010720028 -0.04745324 -0.025044262 -0.029289406
0.059563864 -0.0071543045 -0.020909967 0.0032519582 0.0070864367 0.015597111 -0.022877881 0.023968847
0.0043032286 0.044743992 -0.04593765 -0.011487707 0.036975563 -0.00028349913 -0.013442921 -0.017695727
00000000: 06d7 5f3c 08d0 1e3d ef4b 01bd 121c 7ebc
00000010: cf0e 2abb 2c9e eb3c c713 b7bc 58e3 c83a
00000020: 57d5 85bc 0978 8f3b ad16 d6bc fe36 e53c
00000030: 0ea3 2f3c 545e 42bd a029 cdbc 56f0 efbc
00000040: 3df9 733d a86e eabb 614b abbc ce1e 553b
00000050: 5735 e83b 068b 7f3c 656a bbbc 515a c43c
00000060: 1902 8d3b 7a45 373d 1e29 3cbd ef36 3cbc
00000070: b073 173d 9ca2 94b9 b33f 5cbc a1f6 90bc

encoder.layers.1.self_attn.in_proj_bias f4 [96]
0.016061725 0.04473262 -0.07737594 -0.04361793 0.04050886 0.005245808 -0.052555308 -0.051678866
0.022035968 0.040560406 0.06612749 -0.01104265 -0.04361852 0.055321317 0.027301935 0.024942923
-0.10450472 0.06269925 -0.09085061 -0.0661436 0.0618489 -0.012314737 -0.035128843 -0.075646974
0.11413367 -0.04358215 0.0565422 0.057514224 0.00032212818 0.081463 0.077893995 -0.038934425
-0.0021208995 -0.00097036903 -0.002555883 -0.0037978594 0.0005184527 -4.959722e-05 0.0013494791 0.00022029816
0.00076758437 0.0014346349 0.0034170977 0.0007441511 -0.0026241748 0.0021527356 0.00027397976 -0.00044296513
-0.00591178 0.0043951613 -0.00033171533 8.348993e-05 0.0045957374 0.00086032983 -0.00061712274 -0.0023768328
0.0059892493 -0.0049694595 0.0003107939 -0.00045557675 -0.00060502277 0.0034695284 0.0035390712 0.00011502682
0.048634313 -0.0036611236 0.019982988 -0.0042873933 0.011914383 -0.025891295 -0.00087988446 -0.008737605
0.032970946 0.030882636 0.013980372 0.014469655 0.016639693 0.009704676 -0.029300965 0.037604906
0.00030182392 -0.010497189 0.012769218 -0.00025784122 -0.0019915816 0.011856271 0.0099493945 -0.026452227
0.045570485 0.0035572085 -0.026068171 0.0033531073 0.0030240014 -0.0023838098 0.014288447 0.02117401
00000000: e193 833c 8d39 373d 4777 9ebd b7a8 32bd
00000010: 9eec 253d 07e5 ab3b 3c44 57bd 38ad 53bd
00000020: c684 b43c ab22 263d d96d 873d 3bec 34bc
00000030: 55a9 32bd 9b98 623d 4fa8 df3c 1a55 cc3c
00000040: 9206 d6bd 7768 803d e20f babd 4c76 87bd
00000050: 4655 7d3d c0c3 49bc 43e3 0fbd cdec 9abd
00000060: eabe e93d 3283 32bd cb98 673d 0994 6b3d
00000070: 50e3 a839 13d6 a63d e386 9f3d b479 1fbd
00000080: cafe 0abb 5d60 7eba 9a80 27bb 82e5 78bb
00000090: c6e8 073a 9c06 50b8 01e1 b03a d6ff 6639
000000a0: b737 493a 5c0a bc3a 63f1 5f3b 2313 433a
000000b0: 59fa 2bbb e914 0d3b f1a4 8f39 c63d e8b9
000000c0: 9bb7 c1bb 4905 903b 14ea adb9 5117 af38
000000d0: d797 963b c287 613a 68c6 21ba a3c4 1bbb
000000e0: 7741 c43b d9d6 a2bb 0df2 a239 7ada eeb9
000000f0: 649a 1eba 0761 633b c3ef 673b 8e3a f138
00000100: c634 473d 76ef 6fbb 5db3 a33c 437d 8cbb
00000110: 8b34 433c fb19 d4bc 0ca8 66ba 2c28 0fbc
00000120: 8b0c 073d 95fd fc3c ee0d 653c 2212 6d3c
00000130: f74f 883c 5d00 1f3c 9408 f0bc 9a07 1a3d
00000140: 1f3e 9e39 67fc 2bbc fb35 513c dd2e 87b9
00000150: 3285 02bb ce40 423c c902 233c 57b2 d8bc
00000160: 1ea8 3a3d 0e20 693b eb8c d5bc cebf 5b3b
00000170: 532e 463b b139 1cbb 171a 6a3c 1e75 ad3c

encoder.layers.1.self_attn.out_proj.weight f4 [32, 32]
-0.08074155 0.09393125 -0.090765744 0.068572015 0.0976462 0.14639339 -0.170096 -0.17474689
-0.028225949 -0.09943615 -0.17672464 -0.14636864 0.093976796 -0.061602503 -0.0341305 -0.07941404
0.055472743 0.09481338 -0.13900661 -0.15985881 -0.20021537 -0.07411089 -0.1802469 0.14630982
0.06573965 -0.037084922 0.10532265 0.029208923 0.049426615 -0.081231646 0.037368774 0.041199367
-0.09317905 -0.052255996 -0.34941474 0.04139945 -0.022579769 0.030162381 0.24254094 -0.10497689
-0.16401713 -0.08852065 -0.23919453 -0.0073562865 0.15402208 0.04040683 0.30497572 -0.14067698
0.08812319 -0.24433766 -0.16941541 0.12776731 0.114048496 -0.034752667 -0.0058314735 -0.03526157
-0.2437783 0.013452259 0.004313722 -0.04286268 0.018789157 0.024607835 -0.06728762 0.062103655
-0.002710623 0.04620208 0.071379885 0.02585952 0.20542288 0.1480068 0.16458349 0.10267075
-0.06466169 0.019676756 -0.013015981 -0.039947674 0.031418335 -0.11186139 -0.13432837 -0.1487216
-0.15033166 -0.12367579 -0.099716984 -0.1353611 -0.05151202 0.07925609 -0.2075314 -0.11273449
0.11871293 0.11893421 0.13437496 0.16412918 0.0044566295 0.01793719 0.026673757 0.12121238
-0.102528766 -0.12968652 -0.034996852 -0.13339466 -0.075676784 -0.024812153 -0.14619495 0.036207233
0.05748435 0.13795096 0.15111633 0.08528865 0.15683055 -0.111686766 -0.04660914 0.10985167
0.06745478 -0.080198966 -0.0218122 0.18595329 -0.07351689 -0.032952897 0.15867913 -0.09597277
0.06060831 0.1041033 -0.1689537 -0.002025879 -0.0012206506 0.047264677 -0.045113318 0.015860207
0.0053636837 0.049241666 -0.013469259 -0.15954143 0.08895878 -0.109562464 -0.17918915 0.11623668
0.1229447 -0.034109835 -0.05303788 0.027094733 -0.15657297 0.15243804 0.15895373 -0.031657834
-0.009991577 -0.038999643 0.14076254 0.0509897 0.07085247 0.097395 -0.071261495 0.028574925
0.08670544 0.1480595 0.020907775 0.0689733 0.06314318 -0.11413218 -0.06668191 -0.09908003
0.122418724 -0.14617021 -0.06863138 -0.109532736 0.046989087 -0.017932732 0.21918078 -0.16969302
0.10337132 0.15633082 0.054276854 -0.07030589 -0.007981654 -0.08640611 -0.079004906 0.059839733
0.20400886 -0.048804037 -0.022141172 -0.11138429 -0.184711 -0.1672191 -0.23467246 -0.08110196
0.19125651 0.017482605 0.13047324 -0.09077838 0.0069646295 0.25626278 0.13118738 0.093099445
-0.103518866 -0.12009277 -0.029839333 -0.050625365 -0.06313569 0.09545776 0.10181877 0.14209813
-0.17145632 -0.004145454 -0.16617896 -0.06452572 0.023416178 -0.14005235 0.10384341 -0.18763916
0.19848073 -0.15298735 0.054986898 -0.088294156 -0.100077935 0.102575876 0.062592305 0.1517206
0.16624221 -0.13690186 -0.13523856 0.12244081 0.15137258 -0.018689806 0.15602049 0.05463307
0.022285925 -0.07395824 0.071189165 -0.13147464 -0.011045761 0.15827027 0.1073327 0.037910253
-0.016866038 -0.20098406 0.18780152 0.04815713 -0.061699238 0.040469427 -0.13435279 -0.035550106
0.06452435 -0.18516695 0.20976625 0.08884089 0.18705429 0.11462626 -0.029550403 0.11516843
0.08981729 0.0432648 0.05580523 0.030709356 0.09052081 -0.19228338 -0.025099825 0.0060038026
00000000: d35b a5bd 075f c03d 64e3 b9bd 7c6f 8c3d
00000010: bbfa c73d 26e8 153e a52d 2ebe d9f0 32be
00000020: 1b3a e7bc 2ea5 cbbd 4ef7 34be a9e1 15be
00000030: e876 c03d e852 7cbd 6ccc 0bbd d4a3 a2bd
00000040: 6337 633d 842d c23d c057 0ebe 07b2 23be
00000050: 4205 4dbe 73c7 97bd a592 38be 3ed2 153e
00000060: 82a2 863d 5ce6 17bd 67b3 d73d 8d47 ef3c
00000070: 9073 4a3d c75c a6bd 0010 193d abc0 283d
00000080: a8d4 bebd 620a 56bd 7de6 b2be 7892 293d
00000090: 35f9 b8bc 1917 f73c a75c 783e 20fe d6bd
000000a0: 1bf4 27be 514a b5bd 69ef 74be 010d f1bb
000000b0: f7b7 1d3e a281 253d c725 9c3e a00d 10be
000000c0: ee79 b43d a733 7abe 3c7b 2dbe 6fd5 023e
000000d0: 4292 e93d d058 0ebd f215 bfbb 706e 10bd
000000e0: 05a1 79be dd66 5c3c 1f5a 8d3b c790 2fbd
000000f0: b8eb 993c 5f96 c93c 17ce 89bd 6760 7e3d
00000100: b5a4 31bb 643e 3d3d 9e2f 923d 58d7 d33c
00000110: 605a 523e 188f 173e 9388 283e 0b45 d23d
00000120: 596d 84bd 2631 a13c fb40 55bc 2ca0 23bd
00000130: 83b0 003d 9617 e5bd 608d 09be 7a4a 18be
00000140: 8bf0 19be bc49 fdbd 6b38 ccbd 1a9c 0abe
00000150: 45fe 52bd 0451 a23d 1c83 54be 57e1 e6bd
00000160: c41f f33d c793 f33d 9799 093e 7b11 283e
00000170: eb08 923b 04f1 923c ec82 da3c 323e f83d
00000180: 9afa d1bd 8bcc 04be dc58 0fbd 9c98 08be
00000190: 6efc 9abd db42 cbbc 21b4 15be 094e 143d
000001a0: b674 6b3d 0443 0d3e 3dbe 1a3e d1ab ae3d
000001b0: 3098 203e 08bc e4bd 3ae9 3ebd eaf9 e03d
000001c0: bb25 8a3d 5b3f a4bd 80af b2bc 8a6a 3e3e
000001d0: 0690 96bd 9ef9 06bd c87c 223e 5f8d c4bd
000001e0: 6b40 783d 1c34 d53d 3302 2dbe 9cc4 04bb
000001f0: 3dfe 9fba 9b98 413d bec8 38bd 44ed 813c
00000200: d7c1 af3b a1b1 493d 2bae 5cbc d45e 23be
00000210: 0530 b63d 4962 e0bd 5c7d 37be 7f0d ee3d
00000220: 6eca fb3d c1b6 0bbd 403e 59bd c6f5 dd3c
00000230: aa54 20be b818 1c3e c4c4 223e a5ab 01bd
00000240: b6b3 23bc 17be 1fbd 0e24 103e 93da 503d
00000250: 1a1b 913d 0877 c73d 8cf1 91bd f615 ea3c
00000260: 9f92 b13d e99c 173e c846 ab3c e041 8d3d
00000270: 3651 813d 22be e9bd 8690 88bd 79ea cabd
00000280: abb6 fa3d a5ad 15be 9c8e 8cbd b352 e0bd
00000290: a177 403d aae7 92bc ed70 603e 02c4 2dbe
000002a0: 58b4 d33d 3015 203e 6851 5e3d 89fc 8fbd
000002b0: 7cc5 02bc b0f5 b0bd 53cd a1bd 821a 753d
000002c0: b3e7 503e bee6 47bd 6761 b5bc 721d e4bd
000002d0: e124 3dbe 7c3b 2bbe fa4d 70be c918 a6bd
000002e0: bfd8 433e ae37 8f3c c79a 053e 04ea b9bd
000002f0: 8c37 e43b e034 833e fc55 063e ecaa be3d
00000300: b301 d4bd 33f3 f5bd 9e71 f4bc 8b5c 4fbd
00000310: 494d 81bd 5c7f c33d 5c86 d03d 2c82 113e
00000320: 3f92 2fbe 97d6 87bb d12a 2abe 1026 84bd
00000330: 49d3 bf3c e269 0fbe dbab d43d 7b24 40be
00000340: 883e 4b3e b7a8 1cbe f139 613d 91d3 b4bd
00000350: a9f5 ccbd 4d13 d23d 6530 803d a55c 1b3e
00000360: 663b 2a3e 0030 0cbe fa7b 0abe 3fc2 fa3d
00000370: 6a01 1b3e 5d1b 99bc d6c3 1f3e edc6 5f3d
00000380: f990 b63c 6b77 97bd a0cb 913d 4aa1 06be
00000390: 48f9 34bc 9a11 223e 3fd1 db3d c847 1b3d
000003a0: a52a 8abc c4ce 4dbe 0b4f 403e 6940 453d
000003b0: 57b8 7cbd 45c3 253d c793 09be fd9c 11bd
000003c0: 5825 843d 689c 3dbe f7cc 563e 36f2 b53d
000003d0: 298b 3f3e 2cc1 ea3d b013 f2bc 6ddd eb3d
000003e0: 21f2 b73d 6e36 313d 0694 643d 3092 fb3c
000003f0: f962 b93d efe5 44be 269e cdbc 8cbb c43b

encoder.layers.1.self_attn.out_proj.bias f4 [32]
0.022970619 -0.03289301 0.021760961 -0.005229582 -0.011779752 0.03963104 0.016213859 -0.018243086
-0.009764816 -0.012608855 -0.012807943 0.0054823374 0.014334088 0.006430845 0.005193253 -0.008410859
2.9652618e-05 -0.021594705 -0.0108690625 0.0024091566 0.030198473 0.023908881 0.002950261 0.015333727
-0.0040520234 -0.025067287 -0.0015619516 0.0084794 0.011523313 -0.0055172727 0.011139853 0.012664403
00000000: e12c bc3c d2ba 06bd 0b44 b23c ea5c abbb
00000010: dcff 40bc 2854 223d edd2 843c 8672 95bc
00000020: 9bfc 1fbc 5f95 4ebc 68d8 51bc 2ea5 b33b
00000030: 86d9 6a3c d6b9 d23b 2a2c aa3b b3cd 09bc
00000040: 83be f837 61e7 b0bc 2714 32bc f1e2 1d3b
00000050: ca62 f73c 8fdc c33c 2b59 413b 503a 7b3c
00000060: d6c6 84bb e959 cdbc 66ba ccba 2eed 0a3c
00000070: 47cc 3c3c 3dca b4bb ee83 363c 5b7e 4f3c

encoder.layers.1.linear1.bias f4 [128]
0.06932399 0.0011830807 -0.12907353 -0.1604573 -0.072174214 -0.11683671 -0.15822972 -0.007204804
-0.091735624 -0.024922412 -0.11802284 -0.19546568 -0.17533274 -0.032058027 -0.15361358 -0.13285883
-0.09213566 0.032894906 -0.1784688 0.02382957 0.12807901 -0.17619145 0.06568578 0.021771342
-0.1109313 0.1437533 -0.03621634 -0.12032374 -0.019147707 0.05406225 -0.0031134929 -0.015490674
0.13681976 0.0067060036 -0.07335297 -0.05101287 0.13170196 -0.00074348185 0.04036678 0.150571
-0.119169295 0.06858099 0.01802047 -0.17457458 -0.055229954 -0.09519314 0.08208455 0.12039039
0.16337363 0.029223852 0.027756426 -0.078690484 -0.11436378 0.0038969086 -0.0025714214 -0.016235834
0.053558715 -0.1583651 0.10640376 -0.02769679 0.1346548 -0.060862258 -0.12126859 -0.14964989
-0.03509609 0.0165835 -0.12662801 -0.05650126 0.095695384 0.06957202 -0.014254021 0.00078719814
-0.07105699 0.14324835 0.12876415 -0.20724674 -0.11092821 -0.089652866 -0.18658186 -0.08833368
0.029907439 0.048284348 -0.0022986382 -0.0018059454 -0.19959576 0.08499546 -0.12474811 0.09064459
-0.07375229 -0.00869392 -0.10856493 0.10840071 -0.11296886 0.01381567 -0.12805791 -0.043979008
-0.102901645 0.054357022 -0.085238986 0.07958709 -0.18313657 0.07974048 -0.05127055 0.14039865
-0.039070785 0.0955198 0.13076732 -0.16073032 0.07212469 -0.17620327 0.006262984 -0.01066846
-0.07904267 0.15218157 -0.057106055 0.10000284 -0.08480865 0.008082031 0.06356736 -0.14165047
-0.16072519 -0.083353736 -0.10890115 0.057489038 -0.026295895 -0.020837886 -0.04382052 -0.0033598354
00000000: bcf9 8d3d 9a11 9b3a da2b 04be eb4e 24be
00000010: 13d0 93bd 1648 efbd f906 22be 4716 ecbb
00000020: e3df bbbd 162a ccbc f5b5 f1bd 2828 48be
00000030: 6d8a 33be 474f 03bd e14c 1dbe 250c 08be
00000040: 9fb1 bcbd cfbc 063d 86c0 36be 3b36 c33c
00000050: 2527 033e 886b 34be 4486 863d d059 b23c
00000060: f32f e3bd 1134 133e 9657 14bd 4b6c f6bd
00000070: a7db 9cbc 6170 5d3d be0b 4cbb 99cc 7dbc
00000080: 7b1a 0c3e 09be db3b 153a 96bd dff2 50bd
00000090: e1dc 063e 39e6 42ba a357 253d 492f 1a3e
000000a0: 080f f4bd 3174 8c3d aa9f 933c aec3 32be
000000b0: ce38 62bd 9ff4 c2bd f21b a83d 3d8f f63d
000000c0: 6b4b 273e dc66 ef3c 7261 e33c 7a28 a1bd
000000d0: 8f37 eabd 4763 7f3b 4b85 28bb 0301 85bc
000000e0: 6260 5b3d 762a 22be 37ea d93d 61e4 e2bc
000000f0: f3e2 093e b44a 79bd ab5b f8bd d23d 19be
00000100: ebc0 0fbd 1fda 873c c6aa 01be dd6d 67bd
00000110: f1fb c33d c67b 8e3d b389 69bc f95b 4e3a
00000120: 5486 91bd b2af 123e c0da 033e 7d38 54be
00000130: 542e e3bd ec9b b7bd 510f 3fbe 4ae8 b4bd
00000140: 7200 f53c cfc5 453d c0a4 16bb 79b5 ecba
00000150: d562 4cbe 1a12 ae3d f07b ffbd dfa3 b93d
00000160: 710b 97bd f270 0ebc 4a57 debd 3101 de3d
00000170: 385c e7bd 1f5b 623c 9d21 03be 5523 34bd
00000180: 19be d2bd 78a5 5e3d c791 aebd 8efe a23d
00000190: 2788 3bbe fa4e a33d 1101 52bd aac4 0f3e
000001a0: b008 20bd e39f c33d dee7 053e 7d96 24be
000001b0: 1cb6 933d a16e 34be b839 cd3b c4ca 2ebc
000001c0: 20e1 a1bd 7cd5 1b3e 0ae8 69bd 4ace cc3d
000001d0: 28b0 adbd 7f6a 043c 9b2f 823d d20c 11be
000001e0: 2595 24be 5db5 aabd 9107 dfbd a079 6b3d
000001f0: 7d6a d7bc 37b4 aabc 257d 33bd af30 5cbb

encoder.layers.1.linear2.bias f4 [32]
-0.05055344 0.0818139 -0.038586948 0.043544773 -0.028206984 0.028638301 -0.029143425 -0.06178216
-0.010152975 -0.026277628 -0.08247777 -0.049891733 -0.019379666 -0.06264841 -0.011621479 0.07895675
0.0039101997 0.050470337 -0.058348313 -0.0068034385 -0.05793364 -0.067787744 0.09594825 -0.03398585
-0.053631857 -0.052030463 0.0035469246 -0.0012239834 -0.08491883 0.07244743 0.045263767 0.07520221
00000000: 2011 4fbd 0c8e a73d 590d 1ebd 015c 323d
00000010: 5512 e7bc df9a ea3c 31be eebc 4a0f 7dbd
00000020: aa58 26bc 2e44 d7bc 1bea a8bd 465b 4cbd
00000030: 1bc2 9ebc cf4d 80bd 0468 3ebc 14b4 a13d
00000040: 2221 803b fcb9 4e3d a4fe 6ebd 61ef debb
00000050: d34b 6dbd 4dd4 8abd 8480 c43d bf34 0bbd
00000060: 14ad 5bbd e51d 55bd 8573 683b 116e a0ba
00000070: ece9 adbd 515f 943d 8066 393d 9e03 9a3d

encoder.layers.1.norm1.weight f4 [32]
1.0036758 0.9951878 0.98800075 1.0116069 1.0459771 1.0114127 1.0351098 1.036095
0.9744921 0.9648174 0.9905996 1.0190544 0.9479442 1.0599461 0.97074693 0.99644816
0.9841961 1.0332807 0.9805667 1.0561314 1.0036526 0.93840295 0.957555 0.96239775
1.0993694 0.97658485 1.0130421 0.977509 1.0024725 1.0263512 1.0812395 0.94579166
00000000: 7378 803f a1c4 7e3f 9eed 7c3f 567c 813f
00000010: 94e2 853f f975 813f 7a7e 843f c39e 843f
00000020: 5078 793f 46fe 763f ef97 7d3f 6070 823f
00000030: 79ac 723f 50ac 873f df82 783f 3a17 7f3f
00000040: 47f4 7b3f 8b42 843f 6b06 7b3f 502f 873f
00000050: b077 803f 2d3b 703f 5322 753f b35f 763f
00000060: 23b8 8c3f 7701 7a3f 5dab 813f 083e 7a3f
00000070: 0551 803f 7a5f 833f 0e66 8a3f 671f 723f

encoder.layers.1.norm1.bias f4 [32]
0.00054094434 -0.04351203 0.011106125 0.010932403 0.0123028075 0.025397407 -0.006512226 -0.007620771
0.017538382 -0.00060552487 -0.046003353 0.011425768 0.01586954 -0.00434521 0.013492922 -0.0004149756
-0.025316564 -0.005475653 0.014653369 0.049662177 -0.017363084 -0.00092935865 0.002397409 -0.0174514
0.015006124 -0.043597296 0.010512714 -0.023698295 0.0030915604 -0.023339823 -0.0028992682 -0.025488371
00000000: 29ce 0d3a ac39 32bd 77f6 353c d21d 333c
00000010: b791 493c 390e d03c 8364 d5bb a9b7 f9bb
00000020: a7ac 8f3c 16bc 1eba 036e 3cbd 2533 3b3c
00000030: d600 823c 4362 8ebb 6b11 5d3c 1591 d9b9
00000040: af64 cfbc 1b6d b3bb af14 703c 916a 4b3d
00000050: 073d 8ebc 34a0 73ba d91d 1d3b 3df6 8ebc
00000060: 3fdc 753c 1493 32bd 853d 2c3c ed22 c2bc
00000070: c79b 4a3b 2833 bfbc a601 3ebb fdcc d0bc

encoder.layers.1.norm2.weight f4 [32]
1.0881263 1.1207482 1.0911973 1.1238438 1.1051027 1.2048786 1.1147884 1.1265365
1.0807806 1.1152111 1.1055729 1.0886986 1.1074728 1.1644903 1.1155164 1.1474344
1.1407694 1.1320713 1.2121427 1.1446106 1.1030471 1.2011786 1.0952445 1.1032662
1.1308084 1.1250836 1.1370777 1.1006856 1.1827389 1.1274925 1.1754507 1.1119792
00000000: b947 8b3f ad74 8f3f 5aac 8b3f 1dda 8f3f
00000010: 0174 8d3f 7639 9a3f 63b1 8e3f 5932 903f
00000020: 0557 8a3f 3dbf 8e3f 6a83 8d3f 7a5a 8b3f
00000030: abc1 8d3f 050e 953f 3ec9 8e3f 21df 923f
00000040: bb04 923f b6e7 903f 7e27 9b3f 9a82 923f
00000050: a630 8d3f 38c0 993f f930 8c3f d437 8d3f
00000060: 54be 903f bd02 903f c38b 913f 44e3 8c3f
00000070: fd63 973f ad51 903f 2b75 963f 5655 8e3f

encoder.layers.1.norm2.bias f4 [32]
0.033834025 0.0049994155 -0.0025581024 -0.035026155 0.044877764 0.09106739 0.011301248 -0.020640751
-0.023533652 -0.03699859 -0.05608681 0.032554306 0.011666031 -0.07737303 -0.0152304685 -0.075775534
0.08409694 -0.020365115 -0.050321702 0.0607684 -0.04647687 0.07483864 -0.081223704 0.064526774
-0.01336688 0.030153545 -0.01400207 0.0023588566 0.054930564 0.014228569 0.018012865 -0.020110562
00000000: 8c95 0a3d 23d2 a33b d6a5 27bb 9677 0fbd
00000010: bfd1 373d 8a81 ba3d df28 393c cb16 a9bc
00000020: a5c9 c0bc d58b 17bd 48bb 65bd aa57 053d
00000030: e122 3f3c c075 9ebd 3789 79bc 3430 9bbd
00000040: 043b ac3d bed4 a6bc 211e 4ebd 49e8 783d
00000050: 885e 3ebd 0045 993d 9d58 a6bd 9d26 843d
00000060: c200 5bbc 9104 f73c f068 65bc 0c97 1a3b
00000070: dffe 603d f21e 693c b78f 933c e8be a4bc

pool.net.layers.0.bias f4 [64]
0.034789883 0.022247337 0.040350627 0.1095668 0.1014114 0.1902522 0.20400715 0.04084697
-0.058167763 -0.049123816 0.06080046 -0.13148661 -0.026493259 -0.047152966 0.094244584 0.10747845
0.21605614 0.0790218 -0.03930791 -0.15306069 0.13277961 -0.046842966 0.034661297 -0.09699946
0.19824886 0.2020785 -0.026963187 -0.13749988 -0.04512455 -0.072851285 0.21907015 0.23493926
-0.03810206 -0.06287858 0.08867062 0.20957743 -0.10621599 -0.06298275 0.17344947 -0.105763264
0.13658425 -0.042519398 -0.07914738 0.12101485 -0.093715094 0.12977366 0.16715755 0.106241144
0.16230553 0.1406698 0.15924174 0.2461682 0.09537209 0.04156026 -0.13423614 0.1750413
0.02107115 0.15530477 0.10541732 0.0573259 -0.1329259 -0.0853703 0.14933288 0.0024365888
00000000: d67f 0e3d 0c40 b63c b346 253d 8f64 e03d
00000010: c8b0 cf3d 79d1 423e 40e7 503e 274f 273d
00000020: 5241 6ebd 0e36 49bd e709 793d 6da4 06be
00000030: 6408 d9bc 7823 41bd 4e03 c13d a91d dc3d
00000040: d23d 5d3e 2ed6 a13d 5501 21bd f1bb 1cbe
00000050: 61f7 073e 69de 3fbd 01f9 0d3d a7a7 c6bd
00000060: c001 4b3e abed 4e3e e7e1 dcbc c5cc 0cbe
00000070: 85d4 38bd 0e33 95bd ed53 603e eb93 703e
00000080: e810 1cbd 7cc6 80bd f198 b53d 779b 563e
00000090: c587 d9bd 1afd 80bd bd9c 313e 699a d8bd
000000a0: bedc 0b3e d228 2ebd 0618 a2bd a2d6 f73d
000000b0: b3ed bfbd 63e3 043e 592b 2b3e f594 d93d
000000c0: 6c33 263e be0b 103e 4410 233e 8413 7c3e
000000d0: 7152 c33d 173b 2a3d 3375 09be 073e 333e
000000e0: 689d ac3c 3708 1f3e 09e5 d73d 90ce 6a3d
000000f0: ba1d 08be a0d6 aebd b8ea 183e 2daf 1f3b

pool.net.layers.2.bias f4 [32]
-0.0620748 -0.06457747 0.022626033 -0.07992981 -0.114182256 0.088714175 -0.12018233 0.07164609
-0.09985731 0.09744133 0.06466016 -0.009468389 -0.11813344 0.054489248 -0.010982668 -0.04649115
0.076375596 0.12479082 0.102485664 -0.09982123 0.063141696 -0.061878003 0.10135943 0.117795534
-0.016135726 0.016028045 -0.07063437 -0.12018618 0.010848864 -0.027273688 -0.07064151 0.00772875
00000000: 2542 7ebd 3141 84bd 3b5a b93c 3db2 a3bd
00000010: 63d8 e9bd c7af b53d 2722 f6bd 2fbb 923d
00000020: fd81 ccbd 528f c73d 8c6c 843d 4d21 1bbc
00000030: f2ef f1bd 1e30 5f3d a6f0 33bc 816d 3ebd
00000040: cf6a 9c3d 5492 ff3d 01e4 d13d 136f ccbd
00000050: 6f50 813d ca73 7dbd 8895 cf3d c93e f13d
00000060: 122f 84bc 3f4d 833c c1a8 90bd 2c24 f6bd
00000070: 6fbf 313c 126d dfbc 7fac 90bd 7441 fd3b

net.layers.0.weight f4 [64, 32]
-0.15439093 -0.110453986 -0.15335423 0.27726662 0.045722302 0.047972795 0.16042025 0.069843285
-0.13552114 0.29261988 -0.08488044 -0.17203054 0.13082898 0.34512308 -0.11285632 0.2804485
-0.14950469 0.09694198 0.18446498 0.1524709 0.1924033 -0.29437372 0.07143479 -0.21417625
-0.07305698 -0.10104466 0.16199614 -0.019626291 -0.1715363 -0.16807769 -0.017388435 0.12400303
-0.09358932 -0.08708113 0.0018016332 0.104032345 -0.05809157 0.0024927163 0.010874449 -0.11880839
-0.09036673 0.003965711 -0.21856576 -0.03607265 0.06318094 -0.11225357 -0.12228738 -0.21020903
0.14592466 0.146335 0.097293906 -0.14388284 0.09746012 0.00786974 -0.06408404 0.11567439
-0.15037528 -0.0960756 0.077858835 -0.11704912 0.16429076 -0.14897582 -0.22020479 -0.16788986
0.09824542 0.04005664 -0.087873146 0.17318054 -0.017702099 -0.10501653 0.0376672 0.11755374
0.16652146 -0.041069116 -0.06788068 0.057101138 0.17364472 0.016336737 0.034337834 0.37516785
-0.13286401 0.07157106 0.20747393 0.0143870525 -0.1490115 -0.268897 0.14724341 -0.17515337
0.08296289 -0.26180333 0.102984905 -0.11975532 -0.21870656 -0.15097441 0.09004347 -0.14631172
0.18790968 0.09098591 -0.1536825 -0.034721456 0.09536191 0.11364689 -0.16987447 -0.15891004
-0.10694796 -0.19206518 0.048968747 0.15516056 -0.27082482 0.10992032 -0.0075616087 -0.047329184
0.008533098 -0.09049096 -0.0683605 -0.06661622 -0.063179135 0.05526314 -0.08838869 -0.13582271
0.14394745 -0.059018403 0.14091855 -0.08027584 0.045106906 -0.040525943 -0.13148427 -0.10281002
0.16359897 -0.028300935 -0.048649028 0.013512153 0.11731985 0.22726074 0.07622014 0.1598037
0.1760808 0.07110117 -0.06708863 0.07447489 0.16868435 0.124841794 0.0441474 -0.21558157
-0.05809194 0.11191147 -0.17464349 0.10045235 0.07484179 0.107703544 -0.15601875 0.20636712
-0.1780059 -0.11203596 0.023009015 -0.056145288 0.030469956 -0.032876343 -0.07491227 -0.027976982
-0.009239334 0.035560004 0.0019823231 -0.20069858 -0.19995901 0.09071203 0.033616066 -0.24863732
0.09575005 -0.13189095 -0.13189943 -0.1659138 0.14288193 0.031083407 0.2059028 -0.18718249
-0.0610362 -0.06527798 -0.20538346 0.232998 -0.12828393 0.26061723 0.038211145 0.21250364
0.061928492 0.016641669 -0.19291522 0.23402162 -0.058291893 0.1822333 0.29874656 0.10116122
0.07846281 0.21032247 0.25045422 -0.17075688 -0.18986419 0.1576223 0.31404656 0.031156512
-0.22302864 -0.24574454 0.06442337 -0.18185116 0.067092784 -0.121461146 -0.06388727 -0.18644802
-0.05008432 -0.044015262 -0.13967188 -0.07029799 -0.18285164 -0.077438645 0.05994094 -0.043408755
-0.110215805 -0.06723286 -0.087883316 0.2560121 0.27289358 -0.077594265 0.19701476 -0.054125745
0.14885359 -0.101811655 0.11211768 -0.23183878 0.041536156 0.13968237 -0.02632558 -0.0069373255
-0.10725793 -0.22900212 0.08076086 0.06888275 0.079315946 -0.08061101 -0.068943456 -0.19436122
-0.094034694 -0.15130499 0.08712354 -0.054391876 -0.12966041 -0.09220731 -0.18212178 -0.07172878
0.16808063 0.091613606 -0.12862319 0.17009743 0.03223304 0.1167118 0.11271773 0.11729981
00000000: a818 1ebe b335 e2bd e408 1dbe e4f5 8d3e
00000010: 4f47 3b3d 1f7f 443d 3545 243e ff09 8f3d
00000020: 0ec6 0abe 46d2 953e ccd5 adbd c628 30be
00000030: 08f8 053e f9b3 b03e 3721 e7bd f296 8f3e
00000040: c217 19be 8489 c63d 63e4 3c3e 5521 1c3e
00000050: 5f05 453e 27b8 96be 674c 923d 0551 5bbe
00000060: e69e 95bd 81f0 cebd 51e2 253e 51c7 a0bc
00000070: 36a7 2fbe 8f1c 2cbe 3172 8ebc 4df5 fd3d
00000080: c2ab bfbd 9757 b2bd c724 ec3a e90e d53d
00000090: 6df1 6dbd d75c 233b bf2a 323c d051 f3bd
000000a0: 3112 b9bd ccf2 813b b4cf 5fbe eac0 13bd
000000b0: 0265 813d 33e5 e5bd ce71 fabd 0941 57be
000000c0: 466d 153e d8d8 153e 0742 c73d 0656 13be
000000d0: 2c99 c73d 15f0 003c 7e3e 83bd b2e6 ec3d
000000e0: fafb 19be 49c3 c4bd 7474 9f3d 73b7 efbd
000000f0: d63b 283e 1e8d 18be 5d7d 61be 52eb 2bbe
00000100: e534 c93d 6e12 243d d6f6 b3bd 3d56 313e
00000110: fe03 91bc e812 d7bd ec48 1a3d 04c0 f03d
00000120: 9a84 2a3e 1738 28bd 0705 8bbd e2e2 693d
00000130: eccf 313e 9fd4 853c d4a5 0c3d 0016 c03e
00000140: 810d 08be d993 923d 0c74 543e acb7 6b3c
00000150: 7896 18be deac 89be fac6 163e 685b 33be
00000160: 73e8 a93d 160b 86be c0e9 d23d 4742 f5bd
00000170: 9df4 5fbe 0999 1abe b668 b83d bdd2 15be
00000180: 656b 403e d256 ba3d f25e 1dbe 1638 0ebd
00000190: 1b4d c33d b3bf e83d 93f3 2dbe 50b9 22be
000001a0: 8807 dbbd bcac 44be 7493 483d 69e2 1e3e
000001b0: 8da9 8abe e81d e13d 5fc7 f7bb 3fdc 41bd
000001c0: 68ce 0b3c 5353 b9bd 9700 8cbd 166e 88bd
000001d0: 1064 81bd 9a5b 623d 2105 b5bd 1c15 0bbe
000001e0: f666 133e 48bd 71bd f44c 103e a967 a4bd
000001f0: 05c2 383d 88fe 25bd d0a3 06be 0f8e d2bd
00000200: 7d86 273e 5dd7 e7bc 3444 47bd 1462 5d3c
00000210: 6445 f03d 0ab7 683e 4e19 9c3d 95a3 233e
00000220: 864e 343e 7d9d 913d c365 89bd 4b86 983d
00000230: 97bb 2c3e 0ead ff3d e7d3 343d 6ac1 5cbe
00000240: d0f1 6dbd d731 e53d bed5 32be f6b9 cd3d
00000250: a746 993d ad93 dc3d 61c3 1fbe e751 533e
00000260: 2e47 36be 1c73 e5bd 677d bc3c 9af8 65bd
00000270: 219c f93c 58a9 06bd 9b6b 99bd fc2f e5bc
00000280: 9360 17bc 5ea7 113d dde9 013b ee83 4dbe
00000290: 0ec2 4cbe 3bc7 b93d 00b1 093d c89a 7ebe
000002a0: 9a18 c43d 6c0e 07be a510 07be 4fe5 29be
000002b0: a44f 123e a1a2 fe3c 2fd8 523e c4ac 3fbe
000002c0: 1801 7abd 76b0 85bd 0b50 52be 0797 6e3e
000002d0: dd5c 03be 9f6f 853e 4a83 1c3d 8e9a 593e
000002e0: bba8 7d3d 1c54 883c 918b 45be 5da3 6f3e
000002f0: 7bc3 6ebd 5e9b 3a3e 4ff5 983e 9d2d cf3d
00000300: 1cb1 a03d c65e 573e 893b 803e e4da 2ebe
00000310: c26b 42be bd67 213e b6ca a03e f13b ff3c
00000320: 9f61 64be 75a4 7bbe 66f0 833d 3137 3abe
00000330: f167 893d 9fc0 f8bd 54d7 82bd 3bec 3ebe
00000340: 3725 4dbd 5949 34bd 2506 0fbe 65f8 8fbd
00000350: 763d 3bbe 2798 9ebd a284 753d 61cd 31bd
00000360: d3b8 e1bd 62b1 89bd 2bfc b3bd 0514 833e
00000370: b5b8 8b3e bee9 9ebd 3dbe 493e f5b2 5dbd
00000380: 136d 183e a182 d0bd f49d e53d 2567 6dbe
00000390: d121 2a3d e508 0f3e bea8 d7bc 8152 e3bb
000003a0: 0caa dbbd 887f 6abe f365 a53d 6612 8d3d
000003b0: 6670 a23d 6317 a5bd 3a32 8dbd a106 47be
000003c0: 4395 c0bd b2ef 1abe d46d b23d 04ca 5ebd
000003d0: b3c5 04be 30d7 bcbd 227e 3abe 8ae6 92bd
000003e0: 541d 2c3e ea9f bb3d ccb5 03be 052e 2e3e
000003f0: cb06 043d 9906 ef3d 8ed8 e63d e23a f03d

net.layers.0.bias f4 [64]
0.08963919 0.20362552 0.053350348 -0.028627915 -0.06349222 0.1427276 0.10871534 0.052710466
0.07415544 0.11574605 -0.07387937 0.051306948 -0.020047832 0.068527564 -0.06429435 -0.08566709
0.15718916 0.18325946 0.115838066 0.11157768 -0.15122901 0.115460575 0.027996691 0.14551653
0.036811877 0.00345148 -0.050933488 0.19988072 -0.10296619 0.14840175 0.12039618 -0.0196777
-0.01975856 0.20424254 -0.08352839 0.0709991 -0.031369552 0.20964096 -0.007536375 0.07722117
0.17260462 -0.076237895 -0.018487453 0.15766503 0.0638386 0.09473825 -0.027208893 0.115289584
-0.013433653 0.16931154 -0.019408356 0.0604109 0.062183343 0.073339045 0.1942262 0.098985426
0.07642581 -0.12681536 0.27217424 0.14901184 0.17065383 0.22607106 -0.02139067 0.18393886
00000000: c094 b73d 3583 503e e585 5a3d 1785 eabc
00000010: 3608 82bd 2f27 123e 26a6 de3d eee6 573d
00000020: cfde 973d 440c ed3d 114e 97bd 3c27 523d
00000030: 5a3b a4bc 2e58 8c3d c2ac 83bd 3a72 afbd
00000040: 32f6 203e 5ea8 3b3e 823c ed3d d782 e43d
00000050: c7db 1abe 9876 ec3d 5159 e53c 4902 153e
00000060: 0dc8 163d 3a32 623b a29f 50bd 88ad 4c3e
00000070: f0df d2bd a1f6 173e 4692 f63d 2133 a1bc
00000080: b4dc a1bc f524 513e ef10 abbd fa67 913d
00000090: 5c7d 00bd 1fac 563e b2f3 f6bb 2226 9e3d
000000a0: 44bf 303e 9d22 9cbd 0073 97bc f172 213e
000000b0: d0bd 823d 2106 c23d 2fe5 debc f21c ec3d
000000c0: d318 5cbc 0160 2d3e 46fe 9ebc 6b71 773d
000000d0: f6b3 7e3d c832 963d 3ce3 463e dfb8 ca3d
000000e0: 2385 9c3d e3db 01be 6c5a 8b3e 8f96 183e
000000f0: e1bf 2e3e 2c7f 673e 7d3b afbc 785a 3c3e

net.layers.2.weight f4 [1, 64]
-0.35366082 0.15748715 -0.33019108 0.08984296 0.17805816 -0.23711115 -0.1861054 -0.12650146
0.105152845 -0.1648606 0.09402161 -0.16173574 -0.37270263 0.18291834 -0.15919183 -0.19705635
-0.24433132 0.1748076 0.07857323 -0.33686978 0.06440948 0.16474155 0.097892515 0.07675647
-0.30296126 -0.35005668 0.06400697 -0.09724333 -0.26086402 -0.097025305 0.08605095 -0.14249179
0.17968196 0.16377157 0.14434636 0.17449288 0.16301963 -0.19821312 -0.347435 -0.26156554
-0.2864297 -0.18806942 -0.13671283 0.09733682 -0.3846869 -0.17289245 0.050772417 -0.16901079
0.16548754 -0.16403806 0.26731023 -0.03175096 -0.1554406 -0.14600927 -0.2509597 0.15900019
-0.10682017 0.017264377 -0.17150362 -0.18211715 0.07967426 -0.14536183 -0.20946237 -0.095130846
00000000: 0813 b5be 5044 213e ce0e a9be 96ff b73d
00000010: e154 363e 44cd 72be 6a92 3ebe 9989 01be
00000020: 605a d73d 38d1 28be 678e c03d 0e9e 25be
00000030: e1d2 bebe f24e 3b3e 2f03 23be 24c9 49be
00000040: fd31 7abe c300 333e 00eb a03d 327a acbe
00000050: 1ee9 833d 02b2 283e df7b c83d 7f32 9d3d
00000060: bd1d 9bbe a13a b3be 1616 833d 8327 c7bd
00000070: f88f 85be 34b5 c6bd 7b3b b03d 5ee9 11be
00000080: 8cfe 373e bcb3 273e 88cf 133e 43ae 323e
00000090: 9eee 263e 61f8 4abe 00e3 b1be ebeb 85be
000000a0: eaa6 92be 4595 40be 73fe 0bbe 8758 c73d
000000b0: aef5 c4be b80a 31be bdf6 4f3d 2a11 2dbe
000000c0: 9175 293e 98f9 27be e3dc 883e 4b0d 02bd
000000d0: d22b 1fbe 7483 15be ca7d 80be f2d0 223e
000000e0: 89c4 dabd 066e 8d3c a59e 2fbe eb7c 3abe
000000f0: 422c a33d bbd9 14be 4e7d 56be f6d3 c2bd
