onnx/Proposed/antiproton.onnx (onnx, 180401 bytes, 35 tensors)

emb.layers.0.bias f4 [128]
-0.07684421 0.14708154 0.11262779 0.14218703 -0.056090742 0.08656512 -0.010514898 -0.04455571
-0.13874903 0.09312755 -0.10136886 0.20811582 -0.095941976 -0.17152642 -0.09721547 -0.022518085
-0.020308776 -0.1724141 0.08549121 0.15404387 -0.06835422 -0.094433114 0.10261055 0.030028442
0.20283303 -0.1998948 0.007086482 -0.011431725 -0.39390278 0.029978547 0.002654433 -0.022770528
-0.044347234 0.09522349 0.027071403 -0.19251695 0.16994709 0.049119536 0.13793264 0.058009077
0.19895741 -0.019080343 -0.111183904 -0.11827825 -0.0409049 -0.046453428 0.11333772 -0.024812086
-0.13222802 0.08990338 -0.084839106 -0.20331822 -0.08943067 0.01994843 0.14289458 -0.23759891
-0.15607263 0.15397361 0.016063193 -0.1339698 -0.12042435 0.18529074 -0.040965814 0.09248786
0.08477164 -0.16987517 -0.01625322 -0.032568745 0.027524004 0.16426215 0.06336142 -0.11987177
-0.052248664 0.03767073 -0.036075402 -0.09186847 -0.06421875 0.00814857 0.0045254636 -0.084623
0.11738783 -0.007693189 0.0991952 -0.08160889 0.010616212 0.15394107 -0.21884154 -0.19167511
-0.110865496 -0.25486076 -0.045144018 0.0066853296 0.20754236 -0.02640369 0.020447578 0.076865345
-0.122139916 -0.13561086 -0.040080618 -0.13049765 -0.02217112 -0.020625735 0.018358225 0.12877283
0.1888501 -0.021570312 -0.11352202 0.12224182 0.16504769 -0.18447824 0.11224628 -0.18220854
-0.11352367 -0.12622933 -0.03013914 0.017830387 -0.18270095 0.16029043 -0.13864757 0.03845729
0.2043336 -0.00857915 0.20178434 -0.14206874 0.13583085 0.21771163 -0.3004264 -0.07658321
00000000: 7f60 9dbd 8b9c 163e 66a9 e63d 7a99 113e
00000010: 68bf 65bd 0e49 b13d ae46 2cbc 0c80 36bd
00000020: 3a14 0ebe a8b9 be3d 7a9a cfbd 501c 553e
00000030: 3a7d c4bd 9fa4 2fbe e818 c7bd d977 b8bc
00000040: 975e a6bc 528d 30be 0416 af3d adbd 1d3e
00000050: 4cfd 8bbd 2666 c1bd 7b25 d23d 35fe f53c
00000060: 76b3 4f3e 39b1 4cbe b835 e83b 214c 3bbc
00000070: a0ad c9be 9295 f53c fff5 2d3b 4289 babc
00000080: 72a5 35bd 8804 c33d d9c4 dd3c 2a23 45be
00000090: 9c06 2e3e 9131 493d 373e 0d3e ed9a 6d3d
000000a0: 7ebb 4b3e 614e 9cbc 63b4 e3bd de3b f2bd
000000b0: e58b 27bd f345 3ebd 9b1d e83d b742 cbbc
000000c0: c866 07be 431f b83d 20c0 adbd a732 50be
000000d0: 6d27 b7bd e46a a33c f552 123e 214d 73be
000000e0: 81d1 1fbe 42ab 1d3e f596 833c 612f 09be
000000f0: 0ba1 f6bd dbbc 3d3e c5cb 27bd 466a bd3d
00000100: c19c ad3d c2f3 2dbe 7925 85bc ce66 05bd
00000110: 057a e13c 5634 283e a2c3 813d 557f f5bd
00000120: b202 56bd a04c 1a3d cdc3 13bd 8925 bcbd
00000130: 1f85 83bd 9481 053c 574a 943b d34e adbd
00000140: 0869 f03d 2617 fcbb da26 cb3d 9022 a7bd
00000150: 9fef 2d3c baa2 1d3e ff17 60be 7b46 44be
00000160: 730d e3bd 1c7d 82be efe8 38bd 9c10 db3b
00000170: fc85 543e 8d4c d8bc ae81 a73c 946b 9d3d
00000180: 7e24 fabd 93dd 0abe 932b 24bd 2da1 05be
00000190: 35a0 b5bc 4df7 a8bc fd63 963c 06dd 033e
000001a0: ec61 413e 39b4 b0bc 3c7e e8bd eb59 fa3d
000001b0: 4302 293e dde7 3cbe 61e1 e53d e094 3abe
000001c0: 197f e8bd 4342 01be 5ce6 f6bc 0811 923c
000001d0: f515 3bbe 2d23 243e a1f9 0dbe 6485 1d3d
000001e0: d43c 513e 908f 0cbc 8ea0 4e3e 787a 11be
000001f0: 3e17 0b3e ccef 5e3e 7dd1 99be a8d7 9cbd

emb.layers.2.bias f4 [32]
-0.06570135 -0.07798262 0.025609078 0.06122736 0.059916716 -0.028987616 -0.03762879 -0.08083323
0.009718539 0.02453485 -0.049254064 0.042211358 -0.043864544 -0.07846621 0.024832737 -0.07325727
0.04552329 0.090537004 -0.023119967 0.0720116 0.04644787 -0.04972603 0.05175628 0.046116974
0.07299355 -0.011600699 0.0335563 0.012883484 -0.051236458 -0.031295378 0.044072416 -0.057820447
00000000: 6e8e 86bd 5ab5 9fbd 21ca d13c 8ac9 7a3d
00000010: 3b6b 753d 7077 edbc a520 1abd e48b a5bd
00000020: 823a 1f3c 4ffd c83c a1be 49bd d1e5 2c3d
00000030: 4fab 33bd e4b2 a0bd 066e cb3c e807 96bd
00000040: a176 3a3d 776b b93d 1666 bdbc d17a 933d
00000050: 1f40 3e3d 86ad 4bbd 65fe 533d 27e5 3c3d
00000060: a47d 953d dc10 3ebc 5572 093d 4015 533c
00000070: 52dd 51bd 952f 00bd 4785 343d 22d5 6cbd

encoder.layers.0.self_attn.in_proj_bias f4 [96]
-0.011888832 -0.07968496 0.098089 -0.088090405 -0.08854686 0.061659895 0.020782696 0.09932972
-0.09731588 -0.095136225 0.091806985 -0.08916279 0.090166464 -0.11089856 -0.076601796 -0.08677202
-0.010769297 -0.25301623 0.23518938 -0.11253308 0.2366468 0.24157438 -0.20674531 0.20118992
-0.14771074 -0.23804908 -0.1564141 0.15231101 -0.11377899 -0.21151781 0.22247954 0.03336661
2.4590101e-05 2.0472116e-06 3.0210913e-05 4.5962974e-05 5.5841065e-06 -1.0464408e-05 9.794797e-06 -5.4035612e-05
-1.2941656e-05 2.5195952e-05 4.0582938e-07 1.9077982e-06 -7.767005e-06 2.9132302e-06 7.0597234e-06 3.1283624e-05
2.3907594e-05 4.9049664e-05 4.3361215e-05 3.5757844e-06 -6.572897e-05 -6.187883e-06 -3.152036e-05 -4.1246476e-05
3.8236634e-05 0.00011116475 5.446097e-05 -6.803758e-06 -6.959739e-05 8.830367e-06 -8.2217644e-05 3.319212e-05
-0.018140508 0.0034766297 -0.007513475 -0.0007605851 -0.02919357 0.0075779487 0.013437068 -9.697651e-05
-0.03941462 0.010159073 -0.008812801 -0.010765225 0.030778376 -0.01870682 0.035689678 -0.01191889
0.02489561 0.0049204547 -0.008729207 -0.01109251 0.038398918 0.015245601 -0.007165393 -0.008682711
0.011303484 -0.011448045 -0.0035525698 0.0019056601 -0.009893944 0.023477422 0.01048761 0.0009344541
00000000: 60c9 42bc de31 a3bd e3e2 c83d be68 b4bd
00000010: 0e58 b5bd 168f 7c3d 7940 aa3c 616d cb3d
00000020: 8c4d c7bd c8d6 c2bd 4d05 bc3d fb9a b6bd
00000030: 32a9 b83d c91e e3bd 67e1 9cbd 87b5 b1bd
00000040: b571 30bc 588b 81be 7cd5 703e be77 e6bd
00000050: 8a53 723e 465f 773e 0bb5 53be bb04 4e3e
00000060: 7c41 17be 23c3 73be 052b 20be 6bf7 1b3e
00000070: f604 e9bd 2098 58be add1 633e 6dab 083d
00000080: d746 ce37 d462 0936 716d fd37 5ec8 4038
00000090: 1c5f bb36 4a90 2fb7 5554 2437 4ca4 62b8
000000a0: fd1f 59b7 e55b d337 c4e0 d934 b907 0036
000000b0: 084f 02b7 ea80 4336 90e2 ec36 8936 0338
000000c0: 2b8d c837 adba 4d38 c0de 3538 82f7 6f36
000000d0: f9d7 89b8 83a1 cfb6 bb34 04b8 1100 2db8
000000e0: 4660 2038 1f21 e938 056d 6438 d64b e4b6
000000f0: d0f4 91b8 2326 1437 436c acb8 c437 0b38
00000100: 679b 94bc 2bd8 633b 9933 f6bb 0162 47ba
00000110: 5b27 efbc 7150 f83b 2627 5c3c de5f cbb8
00000120: 3971 21bd 3e72 263c 9163 10bc a060 30bc
00000130: ef22 fc3c 0c3f 99bc 572f 123d 7347 43bc
00000140: e1f1 cb3c c43b a13b f304 0fbc 5cbd 35bc
00000150: 2f48 1d3d afc8 793c accb eabb ee41 0ebc
00000160: 4032 393c 9590 3bbc 3bd2 68bb 58c7 f93a
00000170: 351a 22bc b953 c03c 39d4 2b3c 27f6 743a

encoder.layers.0.self_attn.out_proj.weight f4 [32, 32]
0.135586 0.05464591 -0.042647146 0.058825307 0.05371142 0.05621167 0.04315236 0.0067292033
0.07840234 -0.09370726 -0.19638085 0.02597168 -0.14835522 -0.15423855 0.00682749 -0.031497084
0.032107465 0.04416039 0.013518696 0.11062376 -0.07649072 0.115825064 0.0061393427 -0.12201915
-0.10714581 -0.00067713205 0.022835184 -0.094749525 0.15669245 0.13298221 0.067302845 -0.09281977
-0.12696393 -0.02492615 0.040106535 -0.13916653 0.04247079 -0.00357047 0.10105957 -0.14144671
-0.038867027 -0.08774887 0.04494823 0.1358529 0.009208077 -0.04176783 0.069757424 0.0974369
-0.028764548 0.040923063 0.15104432 -0.02331193 0.1687308 0.14543517 0.046359483 -0.038471334
0.16667299 0.08082409 -0.13778237 -0.019988311 -0.06051948 -0.06552026 -0.006810448 0.114806995
-0.054175284 0.08559694 -0.14266713 -0.11847497 -0.022095352 0.09351922 0.10903664 -0.046500236
0.07418137 -0.11182006 0.106739104 -0.12567164 -0.07527271 0.019651076 0.073549554 -0.07789896
0.10269736 -0.15158783 0.15653071 0.041540407 0.1417681 -0.033615176 -0.001926296 0.074949056
0.05532776 -0.06877843 0.09713868 0.08908046 -0.15158181 -0.14382719 0.04230585 -0.033930317
-0.01670367 -0.030640638 -0.019419977 -0.062443938 0.14225012 0.047993645 0.047744434 -0.023078522
-0.0057117967 -0.07779855 0.032082163 0.18716134 -0.071491815 0.07776089 -0.15243383 -0.008731837
0.0035123867 -0.14484061 -0.12076491 0.04538811 0.122699805 -0.07234947 -0.103642575 -0.13058439
-0.15725662 0.020290183 0.104902364 -0.101053625 -0.09273053 0.11842237 -0.048593607 -0.07422242
0.011491125 0.040493824 -0.10020556 0.16133049 0.05191982 0.09070021 -0.0036129877 0.051925063
-0.007157521 0.094796106 -0.04442547 0.107875235 -0.117561966 -0.0060744667 0.007150311 0.12986794
-0.10706131 0.007419859 0.0046205185 0.14483736 -0.07836511 0.07323034 -0.004304544 -0.06400099
0.15773807 0.115340166 0.09806341 0.09763856 0.011930982 0.029134365 0.086868905 -0.059205662
-0.03112813 -0.123768084 0.044108722 0.020148432 0.009803361 0.005083138 -0.17295983 -0.067896955
0.027785279 0.052019916 0.104310125 0.059862945 -0.15189922 -0.040884867 0.0006897755 0.03924661
0.11098272 0.07915011 -0.12610212 -0.048717782 0.08238026 -0.09402943 -0.045144875 0.032728676
0.06421625 0.12826875 0.014735175 -0.04498564 0.027847625 0.118746705 0.057302527 0.042513493
0.0030355828 0.14231534 0.046120193 -0.061391573 -0.1691983 0.1589904 0.06285815 0.13324724
0.041195363 0.06573329 0.12043139 0.035933744 0.012002844 0.0914888 -0.041129157 0.16800886
-0.014643815 -0.11835482 -0.06272877 -0.01712043 0.056347057 0.06521775 0.08282405 -0.06713408
0.16704829 0.07411126 -0.07265164 0.19491775 -0.059490018 0.05691121 0.11389451 -0.10654329
-0.013611097 0.06784812 -0.050812412 0.12195339 0.09374776 -0.101938374 -0.07390111 -0.12218379
-0.088521846 -0.05745078 0.076829635 0.15425889 0.106232 0.086652644 0.020296961 0.08993634
-0.16399226 0.18592885 -0.05331988 0.074594714 0.0766156 0.09162186 0.049894154 0.1266923
-0.004180467 -0.03296832 -0.12110248 -0.10247906 0.065361865 0.047211133 0.11035294 0.14360307
00000000: 0ed7 0a3e 64d4 5f3d c6ae 2ebd cef2 703d
00000010: 8200 5c3d 353e 663d 87c0 303d a680 dc3b
00000020: 6891 a03d 98e9 bfbd 1018 49be 90c2 d43c
00000030: 6eea 17be b6f0 1dbe 23b9 df3b 1603 01bd
00000040: 1e83 033d 86e1 343d 857d 5d3c b68e e23d
00000050: 2ba7 9cbd b135 ed3d 8a2c c93b 2de5 f9bd
00000060: 436f dbbd 9081 31ba da10 bb3c 0a0c c2bd
00000070: fc73 203e 7d2c 083e 13d6 893d 4b18 bebd
00000080: d502 02be ed31 ccbc c046 243d ac81 0ebe
00000090: daf5 2d3d 8cfe 69bb 52f8 ce3d 68d7 10be
000000a0: 0833 1fbd aeb5 b3bd a31b 383d 061d 0b3e
000000b0: 79dd 163c be14 2bbd fbdc 8e3d ff8c c73d
000000c0: a1a3 ebbc f19e 273d 5dab 1a3e a9f8 bebc
000000d0: c4c7 2c3e f5ec 143e 71e3 3d3d 1e94 1dbd
000000e0: 53ac 2a3e 1a87 a53d d216 0dbe 87be a3bc
000000f0: 46e3 77bd 7c2f 86bd 2e2a dfbb ee1f eb3d
00000100: e7e6 5dbd 734d af3d 5517 12be 01a3 f2bd
00000110: 5001 b5bc 0187 bf3d 9a4e df3d 0877 3ebd
00000120: 67ec 973d ea01 e5bd 089a da3d 11b0 00be
00000130: 9428 9abd 4bfb a03c 26a1 963d 7d89 9fbd
00000140: fe52 d23d d739 1bbe 9649 203e 4626 2a3d
00000150: a82b 113e 11b0 09bd c57b fcba e47e 993d
00000160: 5c9f 623d b5db 8cbd a5f0 c63d d16f b63d
00000170: 4338 1bbe 6f47 13be e648 2d3d 84fa 0abd
00000180: 23d6 88bc 1302 fbbc a516 9fbc 37c5 7fbd
00000190: 04aa 113e fc94 443d ab8f 433d 2b0f bdbc
000001a0: 062a bbbb d954 9fbd 9668 033d 39a7 3f3e
000001b0: 4d6a 92bd 1a41 9f3d 9d17 1cbe fb0f 0fbc
000001c0: 1230 663b 1951 14be 9853 f7bd e2e8 393d
000001d0: 094a fb3d f52b 94bd 8f42 d4bd eab7 05be
000001e0: e107 21be 9937 a63c 0dd7 d63d 34f5 cebd
000001f0: 81e9 bdbd 6d87 f23d 170a 47bd ed01 98bd
00000200: 4645 3c3c dadc 253d 9338 cdbd d233 253e
00000210: e1a9 543d 08c1 b93d e0c7 6cbb 60af 543d
00000220: a389 eabb 7624 c23d 7bf7 35bd b1ed dc3d
00000230: 54c4 f0bd 520c c7bb 284d ea3b 1afc 043e
00000240: f642 dbbd 4a22 f33b b867 973b 3f50 143e
00000250: e37d a0bd caf9 953d 220d 8dbb f312 83bd
00000260: 1786 213e 7737 ec3d 78d5 c83d baf6 c73d
00000270: 2a7a 433c 31ab ee3c 53e8 b13d a381 72bd
00000280: 6c00 ffbc 1f7a fdbd 59ab 343d 530e a53c
00000290: 479e 203c 7490 a63b 621c 31be 8f0d 8bbd
000002a0: f49d e33c d612 553d 8ca0 d53d d932 753d
000002b0: 788b 1bbe e476 27bd 0dd2 343a 0ec1 203d
000002c0: e94a e33d 7419 a23d ea20 01be 4c8c 47bd
000002d0: fbb6 a83d 8092 c0bd d5e9 38bd 810e 063d
000002e0: cf83 833d e258 033e ce6b 713c dd42 38bd
000002f0: b420 e43c 7931 f33d 0eb6 6a3d a122 2e3d
00000300: a1f0 463b 1dbb 113e 87e8 3c3d bb75 7bbd
00000310: 5242 2dbe 61ce 223e c6bb 803d f771 083e
00000320: 78bc 283d 2d9f 863d bca4 f63d 432f 133d
00000330: 94a7 443c 7b5e bb3d 0c77 28bd 840a 2c3e
00000340: 9dec 6fbc 0364 f2bd f177 80bd 2540 8cbc
00000350: 2ccc 663d e290 853d a89f a93d 987d 89bd
00000360: b50e 2b3e a5c7 973d 62ca 94bd 8598 473e
00000370: ceab 73bd bb1b 693d 8641 e93d 5e33 dabd
00000380: 1401 5fbc f5f3 8a3d ad20 50bd b3c2 f93d
00000390: d3fe bf3d 11c5 d0bd 7759 97bd 7f3b fabd
000003a0: f14a b5bd 8251 6bbd db58 9d3d 0bf6 1d3e
000003b0: 2a90 d93d f176 b13d d045 a63c 8b30 b83d
000003c0: 96ed 27be 2264 3e3e f265 5abd 1dc5 983d
000003d0: a4e8 9c3d 3ea4 bb3d d05d 4c3d a0bb 013e
000003e0: 4dfc 88bb ca09 07bd 9404 f8bd 8be0 d1bd
000003f0: 71dc 853d 7660 413d b900 e23d af0c 133e

encoder.layers.0.self_attn.out_proj.bias f4 [32]
-0.005592845 0.0061306143 0.006138163 -0.010145201 0.00942793 -0.015580388 -0.0019898943 0.004305009
0.019024407 0.004056954 0.005456558 0.0011018841 -0.0035608395 -0.00925856 0.011695557 -0.0021519852
0.00027528882 0.017121565 0.004876423 0.007173843 0.012480036 0.015597899 0.039507434 -0.008175878
-0.019825554 -0.0076660677 0.004348252 0.013922712 -0.018562807 -0.022023559 0.013504567 -0.027673477
00000000: 2f44 b7bb 52e3 c83b a522 c93b 0f38 26bc
00000010: 9b77 1a3c e244 7fbc e368 02bb 0811 8d3b
00000020: 13d9 9b3c 32f0 843b edcc b23b 186d 903a
00000030: f95c 69bb 37b1 17bc b99e 3f3c 5208 0dbb
00000040: a454 9039 8642 8c3c 67ca 9f3b 8f12 eb3b
00000050: 1179 4c3c 558e 7f3c 8cd2 213d 1ef4 05bc
00000060: 3369 a2bc a333 fbbb c87b 8e3b 161c 643c
00000070: 0711 98bc c06a b4bc 4242 5d3c 7db3 e2bc

encoder.layers.0.linear1.bias f4 [128]
0.028873602 -0.052210215 -0.06118039 0.08218854 0.10875596 0.057725962 -0.14676078 -0.17795719
-0.12465543 -0.16063786 0.10762747 0.041446485 0.0010626268 0.09975608 -0.10042845 -0.13511366
0.07087634 -0.10054931 0.08396199 -0.12660667 -0.14361943 -0.19804935 -0.13036947 0.025485465
0.041421864 -0.086857244 0.03873121 -0.0924163 0.07243469 0.03370096 -0.10350372 0.08848153
0.063790075 0.06378514 0.12372478 0.09193442 -0.13248499 -0.16350833 -0.093813755 0.027271213
-0.095820665 0.0023815818 -0.018572893 0.00492357 -0.024605751 0.02732937 -0.05820041 -0.1382915
0.085828714 0.10362625 -0.029640371 -0.12214492 0.028826555 0.0025492837 0.077621095 -0.014126901
0.10640459 0.10661947 -0.0777804 -0.043855492 -0.0138977 -0.09731992 0.038283497 0.111645
0.13029155 -0.024067521 0.015826194 -0.015359396 0.029016677 -0.055447735 -0.048104998 -0.007969201
0.06496099 -0.24240893 0.037067316 0.004094202 0.077567436 0.049086165 -0.08357019 -0.025241304
-0.014042779 0.064292334 -0.21022686 -0.06961825 0.07831009 0.069580175 0.033151753 -0.102869235
-0.11416986 -0.18284301 -0.181894 0.071350425 0.050645806 -0.05972663 -0.2212545 -0.18015666
-0.14423135 -0.06423167 -0.19258696 -0.11799206 -0.13571979 0.003362753 0.014632529 0.14185007
0.10701387 0.10213056 -0.07357557 0.03296304 -0.17709239 -0.024790142 -0.14668125 0.11831183
-0.10632173 -0.07329031 0.06333436 0.010015785 -0.058775447 0.0032572309 -0.14613298 0.014619453
-0.06271967 -0.008864242 -0.10461248 -0.12635374 -0.065860786 -0.047119163 -0.08137222 -0.16635717
00000000: 5588 ec3c 61da 55bd 4a98 7abd 7752 a83d
00000010: 72bb de3d 0f72 6c3d 7548 16be 693a 36be
00000020: 594b ffbd 407e 24be ca6b dc3d cac3 293d
00000030: d747 8b3a ea4c cc3d 6ead cdbd 3c5b 0abe
00000040: 9d27 913d ccec cdbd 44f4 ab3d 2ea5 01be
00000050: f910 13be 73cd 4abe 937f 05be e5c6 d03c
00000060: f9a9 293d 36e2 b1bd 9ea4 1e3d c244 bdbd
00000070: a458 943d 050a 0a3d c2f9 d3bd ce35 b53d
00000080: 5fa4 823d c9a1 823d 6b63 fd3d 1d48 bc3d
00000090: 25aa 07be ba6e 27be 6d21 c0bd e167 df3c
000000a0: a03d c4bd 5014 1c3b 2e26 98bc e655 a13b
000000b0: 0092 c9bc d8e1 df3c 8e63 6ebd 499c 0dbe
000000c0: f7c6 af3d 003a d43d 5dd0 f2bc 1e27 fabd
000000d0: ab25 ec3c e211 273b cff7 9e3d 8474 67bc
000000e0: a6ea d93d 4f5b da3d 554b 9fbd d1a1 33bd
000000f0: 2eb3 63bc ab4f c7bd 28cf 1c3d 22a6 e43d
00000100: 266b 053e 4029 c5bc efa5 813c faa5 7bbc
00000110: 62b4 ed3c 2a1d 63bd bf09 45bd 4091 02bc
00000120: 440a 853d 0c3a 78be e6d3 173d a828 863b
00000130: addb 9e3d 930e 493d d926 abbd dac6 cebc
00000140: af13 66bc b3ab 833d b645 57be 0394 8ebd
00000150: 0a61 a03d 0d80 8e3d 22ca 073d 1bad d2bd
00000160: e3d1 e9bd 333b 3bbe 6c42 3abe 2c20 923d
00000170: fa71 4f3d e9a3 74bd 8a90 62be fd7a 38be
00000180: 62b1 13be e58b 83bd 8435 45be d2a5 f1bd
00000190: 21fa 0abe a261 5c3b 46bd 6f3c 2541 113e
000001a0: 162a db3d d429 d13d caae 96bd 4104 073d
000001b0: b557 35be b214 cbbc 9c33 16be 794d f23d
000001c0: 35bf d9bd 3b19 96bd 72b5 813d 3f19 243c
000001d0: 86be 70bd 4477 553b e2a3 15be 6e86 6f3c
000001e0: 2c73 80bd 533b 11bc 113f d6bd e062 01be
000001f0: 05e2 86bd 0600 41bd 7aa6 a6bd 8959 2abe

encoder.layers.0.linear2.bias f4 [32]
-0.0147775635 0.06290719 0.058002565 0.010708256 -0.011089251 -0.07386375 0.05817454 0.060118202
0.04690635 0.0027460556 -0.045777492 -0.060366835 0.0805793 -0.05154215 -0.08391826 -0.029137218
0.0024505726 -0.042221203 0.06977122 -0.060069263 -0.016434664 0.064102024 0.0328713 0.025991429
0.001629268 -0.0834735 -0.05642092 0.035714198 0.04519024 -0.017455908 -0.003786084 -0.025925696
00000000: 981d 72bc 7cd5 803d 1994 6d3d ae71 2f3c
00000010: b1af 35bc e145 97bd 6d48 6e3d 813e 763d
00000020: df20 403d 2bf7 333b 2e81 3bbd 3743 77bd
00000030: c306 a53d dd1d 53bd 56dd abbd 2db1 eebc
00000040: c999 203b 24f0 2cbd 37e4 8e3d 300b 76bd
00000050: fda1 86bc ec47 833d 0ea4 063d faeb d43c
00000060: 2a8d d53a 28f4 aabd 9f19 67bd 0d49 123d
00000070: 6719 393d b1ff 8ebc f31f 78bb 2062 d4bc

encoder.layers.0.norm1.weight f4 [32]
0.9535515 1.037788 1.0249903 0.9822496 0.9259626 1.0441337 1.0213939 1.0391262
0.9514154 1.0265001 1.0438532 0.9814696 0.9390352 1.0892472 0.91682273 0.99748063
1.0185983 0.94374216 0.96838945 1.0353392 1.0066624 0.948586 1.0142385 1.0299778
0.98226076 1.0203276 1.0721935 1.047155 1.0008758 1.0586632 0.9674745 1.0293328
00000000: f31b 743f 3dd6 843f e232 833f b674 7b3f
00000010: e30b 6d3f 2ca6 853f 09bd 823f 1602 853f
00000020: f68f 733f 5b64 833f fb9c 853f 9741 7b3f
00000030: 9c64 703f 746c 8b3f e5b4 6a3f e45a 7f3f
00000040: 6e61 823f 1699 713f 5fe8 773f ff85 843f
00000050: 50da 803f 88d6 723f 91d2 813f 50d6 833f
00000060: 7175 7b3f 189a 823f a33d 893f 2d09 863f
00000070: b31c 803f 4782 873f 69ac 773f 2dc1 833f

encoder.layers.0.norm1.bias f4 [32]
-0.0006685991 0.04221372 0.010335069 0.00083058624 -0.021584256 -0.013977858 -0.006609343 -0.0020000811
-0.0073392107 0.0015675521 0.018422762 -0.003553519 -0.0039593475 -0.04955608 -0.034070134 0.009756601
-0.00033352943 -0.0021517354 -0.018534278 0.022336092 -0.005017951 -0.0017395862 0.020274678 0.026328605
-0.016923731 0.00304876 0.011568593 0.015776962 -0.013540508 0.015820913 0.020195479 -0.0093008075
00000000: ed44 2fba 4be8 2c3d 6c54 293c b3bb 593a
00000010: 77d1 b0bc 6303 65bc 3093 d8bb cb13 03bb
00000020: c37d f0bb 5276 cd3a 55eb 963c 28e2 68bb
00000030: 6abd 81bb 51fb 4abd 208d 0bbd 27da 1f3c
00000040: 90dd aeb9 2104 0dbb 33d5 97bc 2efa b63c
00000050: a06d a4bb d402 e4ba 1517 a63c 16af d73c
00000060: a3a3 8abc b4cd 473b 328a 3d3c b03e 813c
00000070: 02d9 5dbc dc9a 813c fd70 a53c 6a62 18bc

encoder.layers.0.norm2.weight f4 [32]
1.0255374 1.0697855 1.0450227 1.026826 0.9829895 1.040709 1.0391128 1.0249971
1.0078461 1.0529183 1.0614287 0.99560905 1.0100219 1.1220218 0.9739993 1.0792459
1.0451053 1.0028696 0.97314835 1.0235769 0.99668896 1.0055077 1.0347553 1.0510067
1.0328066 0.9728901 1.0876197 0.99568737 0.9974513 1.0953536 0.9734821 1.0812663
00000000: cf44 833f bbee 883f 4ec3 853f 096f 833f
00000010: 33a5 7b3f f435 853f a601 853f 1b33 833f
00000020: 1a01 813f 07c6 863f e5dc 873f 3ce0 7e3f
00000030: 6648 813f 699e 8f3f 0558 793f bb24 8a3f
00000040: 03c6 853f 085e 803f 4020 793f 9104 833f
00000050: 0227 7f3f 7ab4 803f dd72 843f 6387 863f
00000060: 0233 843f 530f 793f 1f37 8b3f 5ee5 7e3f
00000070: f858 7f3f 8c34 8c3f 1f36 793f ef66 8a3f

encoder.layers.0.norm2.bias f4 [32]
-0.004445068 0.028829254 -0.01371386 -0.027232973 -0.024898233 -0.03410644 -0.0066764746 0.004019807
0.008607369 0.008893566 0.04401452 0.0045301565 -0.024237026 -0.07913782 -0.0077867866 -0.027867
0.01236038 0.034076665 0.0146353375 0.008511793 -0.019014599 0.04776072 0.009689187 0.01835163
0.036432177 -0.0027433317 0.045636337 0.0071223457 -0.008222967 0.0035201518 -0.0055091633 -0.022334058
00000000: efa7 91bb 542b ec3c 19b0 60bc af17 dfbc
00000010: 61f7 cbbc 32b3 0bbd 54c6 dabb 96b8 833b
00000020: ec05 0d3c 52b6 113c 9248 343d b571 943b
00000030: ba8c c6bc 0213 a2bd 4d28 ffbb 5649 e4bc
00000040: 3183 4a3c f993 0b3d 0ec9 6f3c 0c75 0b3c
00000050: 81c4 9bbc bfa0 433d 65bf 1e3c 2856 963c
00000060: e839 153d 78c9 33bb 2bed 3a3d 9162 e93b
00000070: a0b9 06bc 59b2 663b 3686 b4bb eaf5 b6bc

encoder.layers.1.self_attn.in_proj_bias f4 [96]
-0.042104386 -0.032822296 0.050235715 0.04930235 -0.051586453 0.011441018 0.04418411 0.07119535
-0.05693442 0.078990184 -0.003189442 0.035913397 0.013710847 -0.04792914 -0.023301978 -0.025719108
0.017482663 -0.05863993 0.08496549 -0.08927776 0.06869212 0.0885581 -0.09441121 0.04258077
-0.02055935 -0.026699949 -0.06719833 0.029353026 -0.007579789 -0.05160045 0.08963287 0.07347915
-7.050038e-05 0.00080603536 -5.869794e-06 0.0011195352 -0.00029114544 -0.00017749588 8.913667e-05 9.913171e-05
0.0008677836 4.861839e-06 -0.0011243249 0.00011348148 -0.00010344306 0.0020701373 0.0007984485 -0.00020392785
-0.00019540465 -0.0010992697 0.0032958125 -0.0007997076 -0.0009753763 0.00026729525 0.00066631794 0.0005031447
7.159407e-05 -0.00038951333 -0.0009666371 0.00027360293 -0.0010540241 0.000304542 0.0020536105 -0.00026642706
0.006443028 -0.02403398 0.017039685 0.022942303 -0.012831224 -0.011621918 -0.016999433 -0.01986174
-0.031867772 -0.04066931 -0.019816263 -0.023426427 0.013801169 -0.022703031 0.0022557867 0.002751613
-0.0028730363 0.022526361 -0.018300047 -0.0536705 0.011604816 0.028550692 -0.033332262 0.012319228
0.021808365 -0.025809495 -0.032092474 -0.03761013 -0.012309994 0.02605226 -0.01882849 -0.023387905
00000000: a675 2cbd ac70 06bd f7c3 4d3d 43f1 493d
00000010: 514c 53bd 1c73 3b3c 66fa 343d dece 913d
00000020: 1134 69bd 9bc5 a13d f505 51bb ed19 133d
00000030: 76a3 603c 5951 44bd cae3 bebc e1b0 d2bc
00000040: cd37 8f3c 6c30 70bd 6302 ae3d 42d7 b6bd
00000050: 74ae 8c3d f35d b53d aa5a c1bd 2c69 2e3d
00000060: 156c a8bc dab9 dabc 479f 89bd c275 f03c
00000070: e15f f8bb fe5a 53bd 7091 b73d 3d7c 963d
00000080: 9ad9 93b8 1e4c 533a 26f5 c4b6 5ebd 923a
00000090: e1a4 98b9 301e 3ab9 e3ee ba38 eee4 cf38
000000a0: f97b 633a e122 a336 155e 93ba e8fc ed38
000000b0: 92ef d8b8 24ab 073b f94e 513a 77d5 55b9
000000c0: 89e5 4cb9 5f15 90ba 8ffe 573b 78a3 51ba
000000d0: 65b0 7fba c323 8c39 d7ab 2e3a 78e5 033a
000000e0: c624 9638 9837 ccb9 eb65 7dba 5d72 8f39
000000f0: 2e27 8aba efaa 9f39 de95 063b 3caf 8bb9
00000100: 0920 d33b e9e2 c4bc cf96 8b3c 7ff1 bb3c
00000110: 0e3a 52bc db69 3ebc 6542 8bbc 16b5 a2bc
00000120: c887 02bd dd94 26bd b755 a2bc c7e8 bfbc
00000130: 4c1e 623c b5fb b9bc d2d5 133b 6854 343b
00000140: 8d49 3cbb 3489 b83c fbe9 95bc 99d5 5bbd
00000150: 2022 3e3c 24e3 e93c 6987 08bd 96d6 493c
00000160: 75a7 b23c 6f6e d3bc 6673 03bd 140d 1abd
00000170: dbaf 49bc 8d6b d53c 353e 9abc fe97 bfbc

encoder.layers.1.self_attn.out_proj.weight f4 [32, 32]
0.16847628 0.068572864 -0.048108745 0.10415961 0.08175056 0.06763397 0.020822339 0.011663515
0.15131226 -0.10167433 -0.19453512 0.030404262 -0.24393195 -0.15885475 -0.020472834 -0.078945115
0.0754693 0.016441992 -0.0020608609 0.10888789 -0.07975491 0.12855136 0.044738278 -0.16617213
-0.120940015 -0.020107854 0.056847654 -0.104949996 0.10178421 0.17016552 0.058736965 -0.1490688
-0.17725246 -0.067613795 0.015500405 -0.15331733 0.07310323 0.057561565 0.10666321 -0.11063442
-0.027785504 0.031614274 0.11851094 0.12642303 0.053082637 -0.009415047 0.13655677 0.060961235
-0.11287903 0.09319275 0.11817413 -0.028049542 0.07688877 0.09039435 0.06720419 0.045325972
0.19534558 0.12523594 -0.20582533 -0.037135556 0.04411912 -0.19594961 -0.068273105 0.16384098
-0.011372735 0.08638235 -0.0917786 -0.11149477 -0.0021749106 0.07861715 0.1165584 -0.09415864
0.1058341 -0.19826265 0.07818818 -0.15391558 -0.10235954 0.043939795 0.01038594 -0.034828693
0.10935646 -0.06394174 0.14753312 0.06004002 0.15129972 -0.038451627 -0.03221583 0.0543095
0.071296796 -0.12337806 0.13444023 0.06410593 -0.12671246 -0.11805055 0.08538362 -0.0013888136
-0.03856681 -0.03418641 0.03543499 -0.11898787 0.15135325 0.06435822 0.031030074 -0.11021597
0.028392179 -0.12445994 0.05534544 0.12938228 -0.06404062 0.07551687 -0.2403338 0.045123823
0.076000646 -0.1467398 -0.13035594 0.053850237 0.1545367 -0.13581663 -0.08390642 -0.2016858
-0.2269089 0.03601991 0.21290256 -0.0889324 -0.17438544 0.1757914 -0.008466322 -0.08049669
0.026930312 0.011172969 -0.11490067 0.18032883 0.017863575 0.11427649 0.039376535 0.020806335
-0.02224089 0.15248981 -0.1173926 0.06458331 -0.04533781 -0.023690952 0.107937194 0.22001319
-0.13091394 0.07628979 -0.04866755 0.28012592 -0.09283445 0.03417258 -0.012649027 -0.08783832
0.12392972 0.124369115 0.13379371 0.12498759 0.036856823 -0.02374171 0.19415008 0.047570944
-0.02605896 -0.081429884 0.0541266 -0.03149963 -0.0070227953 0.043854117 -0.18020989 -0.17759499
0.08736668 0.033556573 0.07341751 -0.014413666 -0.16196233 -0.06324139 0.019830735 0.1267685
0.14661606 0.13054463 -0.1368293 -0.024306787 0.10913824 -0.08557024 -0.083220005 -0.007223681
0.0009369641 0.090121895 -0.023167692 -0.018087389 0.047777783 0.17227283 0.077750206 0.048753973
0.046898186 0.15577236 0.10034059 -0.05714113 -0.098004624 0.16775955 0.04314009 0.13401642
0.036172997 0.05305426 0.18354666 -0.013537732 0.012552945 0.18843748 -0.1114068 0.1596121
-0.05922999 -0.09173099 -0.036261246 -0.038620416 0.008640351 0.014118571 0.15548982 -0.097801425
0.15158696 0.105641626 -0.051330805 0.13284442 -0.056258623 -0.01935651 0.08919865 -0.15034658
0.100898035 0.022506591 -0.08202744 0.08463504 0.13673411 -0.14813219 -0.08481506 -0.038023993
0.0018396273 0.06492163 0.052837953 0.30467555 -0.1357914 0.18744859 0.078359514 -0.04038504
-0.07596279 0.031962674 -0.09190546 0.029449377 0.10521818 0.075110964 0.11291428 0.07138375
-0.053831097 0.028668761 -0.0019751866 -0.050776877 -0.05980067 0.07172113 0.11737529 0.10586773
00000000: 0c85 2c3e ee6f 8c3d ad0d 45bd a251 d53d
00000010: d66c a73d ae83 8a3d 9c93 aa3c 5418 3f3c
00000020: 9af1 1a3e a23a d0bd 3734 47be 5c12 f93c
00000030: 4cc9 79be d2aa 22be a5b6 a7bc faad a1bd
00000040: a68f 9a3d 5bb1 863c 820f 07bb 9d00 df3d
00000050: 8b56 a3bd f8a2 033e 7c3f 373d 0729 2abe
00000060: 66af f7bd 3ab9 a4bc 16d9 683d 06f0 d6bd
00000070: 3d74 d03d df3f 2e3e 2c96 703d 7ea5 18be
00000080: ab81 35be 1a79 8abd 69f5 7d3c 38ff 1cbe
00000090: 25b7 953d adc5 6b3d 3e72 da3d 4c94 e2bd
000000a0: 6d9e e3bc f87d 013d ddb5 f23d 0a75 013e
000000b0: 2e6d 593d 9241 1abc 8ad5 0b3e 7db2 793d
000000c0: 1f2d e7bd d7db be3d 4705 f23d 27c8 e5bc
000000d0: dc77 9d3d ac20 b93d 5aa2 893d baa7 393d
000000e0: ac08 483e da3d 003e e0c3 52be 741b 18bd
000000f0: 40b6 343d 04a7 48be c5d2 8bbd eec5 273e
00000100: b554 3abc 3be9 b03d 6bf6 bbbd 5f57 e4bd
00000110: f288 0ebb 0702 a13d 2cb6 ee3d 3fd6 c0bd
00000120: 8cbf d83d 5d05 4bbe 2021 a03d 0c9c 1dbe
00000130: e1a1 d1bd 37fa 333d ca29 2a3c 88a8 0ebd
00000140: 48f6 df3d e3f3 82bd ec12 173e 86ec 753d
00000150: 50ee 1a3e 747f 1dbd bff4 03bd a373 5e3d
00000160: 0e04 923d a3ad fcbd b3aa 093e f849 833d
00000170: e9c0 01be 7dc4 f1bd 9bdd ae3d da08 b6ba
00000180: 3bf8 1dbd 0d07 0cbd 4824 113d eaaf f3bd
00000190: 59fc 1a3e 3ece 833d c832 fe3c e9b8 e1bd
000001a0: b796 e83c dae4 febd e6b1 623d ca7c 043e
000001b0: bb27 83bd 97a8 9a3d 101a 76be c2d3 383d
000001c0: 3aa6 9b3d f542 16be 077c 05be 1192 5c3d
000001d0: de3e 1e3e 8413 0bbe 21d7 abbd b986 4ebe
000001e0: cf5a 68be 9d89 133d 2103 5a3e 3122 b6bd
000001f0: 1992 32be a902 343e 54b6 0abc 73db a4bd
00000200: f59c dc3c d40e 373c 0b51 ebbd 1fa8 383e
00000210: a256 923c cb09 ea3d 4a49 213d 0c72 aa3c
00000220: 8732 b6bc 4a26 1c3e 886b f0bd 4144 843d
00000230: 24b4 39bd 8713 c2bc 2d0e dd3d 234b 613e
00000240: 4e0e 06be d23d 9c3d a057 47bd aa6c 8f3e
00000250: fd1f bebd 8cf8 0b3d dd3d 4fbc 94e4 b3bd
00000260: ddce fd3d 3cb5 fe3d 3801 093e 7ef9 ff3d
00000270: 2ef7 163d fa7d c2bc 47cf 463e c0d9 423d
00000280: 9a79 d5bc b6c4 a6bd dbb3 5d3d c205 01bd
00000290: 7a1f e6bb 60a0 333d f188 38be 76db 35be
000002a0: 4ded b23d 9e72 093d eb5b 963d 4c27 6cbc
000002b0: 74d9 25be b484 81bd 1174 a23c 9acf 013e
000002c0: 8522 163e 7ead 053e fb1c 0cbe 071f c7bc
000002d0: df83 df3d 733f afbd 406f aabd a1b4 ecbb
000002e0: 999e 753a d491 b83d 2cca bdbc 012c 94bc
000002f0: a3b2 433d 4a68 303e 803b 9f3d 3fb2 473d
00000300: 5018 403d ca82 1f3e 5e7f cd3d d10c 6abd
00000310: a6b6 c8bd 29c9 2b3e aab3 303d 9a3b 093e
00000320: 232a 143d 6c4f 593d a8f3 3b3e 5dcd 5dbc
00000330: deaa 4d3c c1f5 403e 4029 e4bd 5b71 233e
00000340: 259b 72bd 75dd bbbd ac86 14bd 7130 1ebd
00000350: 4290 0d3c 9451 673c b938 1f3e 1d4c c8bd
00000360: 9d39 1b3e a35a d83d 4040 52bd 5e08 083e
00000370: 716f 66bd 8b91 9ebc c8ad b63d 74f4 19be
00000380: a1a3 ce3d be5f b83c 01fe a7bd 2355 ad3d
00000390: 0704 0c3e f7af 17be 85b3 adbd 0cbf 1bbd
000003a0: a61f f13a a2f5 843d 9c6c 583d 6ffe 9b3e
000003b0: e70c 0bbe 86f2 3f3e f47a a03d c96a 25bd
000003c0: 6192 9bbd 4beb 023d ee38 bcbd d23f f13c
000003d0: a17c d73d c7d3 993d 9a3f e73d a531 923d
000003e0: ff7d 5cbd c0da ea3c 2272 01bb 6afb 4fbd
000003f0: 8cf1 74bd 87e2 923d 7562 f03d 2ed1 d83d

encoder.layers.1.self_attn.out_proj.bias f4 [32]
0.007405565 -0.01733778 0.026599618 0.0016684089 -0.014877887 0.023074504 -0.028484493 -0.0008439945
0.032821 -0.018449156 0.030757723 0.0033167906 -0.037955992 0.025392493 0.037726197 -0.017400457
-0.008013678 -0.018606707 0.017997446 0.014517253 -0.0038998013 -0.003981907 0.013325666 -0.033951428
-0.005324544 -0.010007768 0.03948052 0.039754223 -0.009483399 -0.004209118 -0.010785233 -0.016151924
00000000: 62aa f23b f607 8ebc 71e7 d93c 83ae da3a
00000010: 62c2 73bc be06 bd3c 5058 e9bc 833f 5dba
00000020: 506f 063d af22 97bc 9ff7 fb3c 835e 593b
00000030: be77 1bbd eb03 d03c c986 1a3d 678b 8ebc
00000040: cd4b 03bc 186d 98bc 616f 933c c6d9 6d3c
00000050: cf93 7fbb a87a 82bb e553 5a3c a710 0bbd
00000060: 8379 aebb 9ff7 23bc 53b6 213d 53d5 223d
00000070: 4260 1bbc a4ec 89bb 8cb4 30bc 0a51 84bc

encoder.layers.1.linear1.bias f4 [128]
0.023336155 -0.0315055 -0.046874136 0.08593292 0.08318343 0.05368211 -0.15166478 -0.14147773
-0.09532049 -0.16315675 0.13822085 0.05274534 0.03679282 0.07834044 -0.13598981 -0.106216654
0.05476829 -0.091763504 0.09051436 -0.09002697 -0.13073793 -0.14182824 -0.1389639 0.0112729715
0.06756914 -0.06346922 0.118045636 -0.04489417 0.118503444 0.05256949 -0.12548807 0.14297242
0.034462553 0.10577548 0.12111107 0.090960756 -0.0879006 -0.099820435 -0.072848745 0.060959466
-0.090471834 0.07051281 -0.024198376 -0.006147646 -0.01913718 0.034340683 -0.02829288 -0.13820586
0.033520408 0.07618671 0.024527345 -0.12072841 0.03929462 -0.0024272203 0.071563475 0.006500673
0.11560608 0.12165631 -0.11078994 -0.059918117 0.0042372025 -0.097390465 0.017458623 0.14372604
0.11762149 0.03494005 0.073493674 0.046645638 0.026064852 -0.09514006 0.044904616 0.06038474
0.10654778 -0.18910006 0.06237537 -0.0023176153 0.0842786 0.03771793 -0.053646162 -0.027716063
-0.061789002 0.091169395 -0.19634019 -0.07029702 0.06289361 0.10056646 0.042358905 -0.06050438
-0.07308485 -0.14626741 -0.1248679 0.084022395 0.07913794 -0.047981184 -0.21874133 -0.15697502
-0.12648617 -0.0092162145 -0.1836384 -0.09883434 -0.15938984 -0.009286435 0.056368027 0.134867
0.11151902 0.13068238 -0.07095607 0.074813 -0.18332908 -0.048121113 -0.15487717 0.06394684
-0.04505082 -0.05632202 0.090915 0.003226841 -0.029657368 -0.008844577 -0.13351767 0.0342398
-0.025731668 -0.00087871496 -0.09625572 -0.11887342 -0.07172083 -0.067288496 -0.075540125 -0.17716551
00000000: 772b bf3c e90b 01bd 18ff 3fbd 99fd af3d
00000010: 135c aa3d c6e1 5b3d 034e 1bbe 8adf 10be
00000020: 6437 c3bd 9012 27be c489 0d3e 7f0b 583d
00000030: 11b4 163d f470 a03d ea40 0bbe 1e88 d9bd
00000040: b754 603d 81ee bbbd 985f b93d 0f60 b8bd
00000050: 2ae0 05be 6c3b 11be 8d4c 0ebe 45b2 383c
00000060: b061 8a3d 27fc 81bd e9c1 f13d f3e2 37bd
00000070: efb1 f23d 1b53 573d f27f 00be 5d67 123e
00000080: 9b28 0d3d d1a0 d83d 1509 f83d a249 ba3d
00000090: 3b05 b4bd a86e ccbd b931 95bd a2b0 793d
000000a0: 4c49 b9bd 0569 903d ac3b c6bc 3172 c9bb
000000b0: 93c5 9cbc d1a8 0c3d 78c6 e7bc d685 0dbe
000000c0: b24c 093d c707 9c3d 92ed c83c 7540 f7bd
000000d0: 65f3 203d 0012 1fbb df8f 923d 9903 d53b
000000e0: e1c2 ec3d f226 f93d d6e5 e2bd b36c 75bd
000000f0: 3bd8 8a3b a774 c7bd 6305 8f3c eb2c 133e
00000100: 89e3 f03d 4c1d 0f3d da83 963d 7f0f 3f3d
00000110: f585 d53c cbd8 c2bd e7ed 373d fd55 773d
00000120: b935 da3d 72a3 41be 517d 7f3d 22e3 17bb
00000130: 429a ac3d 1e7e 1a3d 14bc 5bbd cc0c e3bc
00000140: 7716 7dbd 05b7 ba3d 670d 49be e2f7 8fbd
00000150: 5dce 803d caf5 cd3d 8880 2d3d 71d3 77bd
00000160: 83ad 95bd 20c7 15be beba ffbd ef13 ac3d
00000170: 1313 a23d eb87 44bd bafd 5fbe 0fbe 20be
00000180: 9785 01be 9bff 16bc b40b 3cbe a969 cabd
00000190: 1737 23be 2226 18bc 29e2 663d 931a 0a3e
000001a0: 1564 e43d 9ad1 053e 6b51 91bd 8f37 993d
000001b0: 9eba 3bbe a51a 45bd 1f98 1ebe 90f6 823d
000001c0: 3587 38bd ebb1 66bd a531 ba3d 6979 533b
000001d0: 02f4 f2bc d8e8 10bc dbb8 08be 083f 0c3d
000001e0: 38cb d2bc 9059 66ba b821 c5bd e873 f3bd
000001f0: 5fe2 92bd 8dce 89bd c8b4 9abd e06a 35be

encoder.layers.1.linear2.bias f4 [32]
-0.015595095 0.044186383 0.06851122 0.0152699575 0.001403006 -0.062908135 0.077172056 0.082282156
0.03190211 -0.0107751 -0.045277596 -0.05228488 0.081051804 -0.023956968 -0.08533373 -0.039278015
-0.011574067 -0.043365434 0.061599635 -0.07053224 -0.018396443 0.062169135 0.032777406 0.014994899
0.022127943 -0.07202796 -0.071911134 0.04242547 0.054995853 -0.0042095515 -0.010698976 -0.0049365778
00000000: 9282 7fbc c8fc 343d 9c4f 8c3d d82e 7a3c
00000010: 12e5 b73a fbd5 80bd 620c 9e3d 8c83 a83d
00000020: c9ab 023d 0c8a 30bc 0075 39bd ac28 56bd
00000030: 7dfe a53d 6741 c4bc 73c3 aebd fce1 20bd
00000040: 28a1 3dbc f49f 31bd e64f 7c3d 3573 90bd
00000050: 23b4 96bc 10a5 7e3d 9a41 063d 2aad 753c
00000060: a945 b53c 6583 93bd 2546 93bd 54c6 2d3d
00000070: 5543 613d 47f0 89bb c24a 2fbc 04c3 a1bb

encoder.layers.1.norm1.weight f4 [32]
0.92082876 1.0092422 0.94545805 1.0677264 0.9990284 0.9667275 0.9718564 0.98729444
0.9785019 0.9986639 1.0500771 1.0046957 0.98793757 1.0121093 0.93069184 1.0971975
0.95678866 0.9619988 1.033313 1.0214375 0.96649927 1.0016057 1.0156877 0.9967079
1.0467635 1.0112776 1.0690416 0.97055817 0.9397652 1.0662073 0.9857623 1.0642009
00000000: 6fbb 6b3f d92e 813f 8a09 723f 42ab 883f
00000010: 53c0 7f3f 747b 773f 95cb 783f 54bf 7c3f
00000020: 1a7f 7a3f 70a8 7f3f ed68 863f de99 803f
00000030: 7ae9 7c3f cc8c 813f d241 6e3f f870 8c3f
00000040: 1af0 743f 8e45 763f 9a43 843f 77be 823f
00000050: 7f6c 773f 9e34 803f 0e02 823f 4028 7f3f
00000060: 59fc 853f 8b71 813f 5bd6 883f 8076 783f
00000070: 7494 703f 7b79 883f eb5a 7c3f bc37 883f

encoder.layers.1.norm1.bias f4 [32]
0.02782622 0.008601466 0.016345557 0.00888644 -0.024614498 0.005618983 0.004572438 0.026026804
0.010331539 0.009366054 0.010521016 -0.009137587 -0.018752443 -0.01109016 -0.010675709 -0.00800077
-0.0036659823 -0.006743085 0.0005621581 -0.013227119 -0.016463723 0.010701354 -0.007529627 0.00095613673
-0.013899141 -0.016295847 0.012398641 0.024568625 -0.009890341 0.021800382 -0.015322385 -0.0057857083
00000000: d0f3 e33c 2aed 0c3c 1ee7 853c 6e98 113c
00000010: 58a4 c9bc 721f b83b 64d4 953b 2a36 d53c
00000020: 9e45 293c 1474 193c 5760 2c3c d1b5 15bc
00000030: b99e 99bc 81b3 35bc 2be9 2ebc a915 03bc
00000040: fa40 70bb 19f5 dcbb cb5d 133a 8fb6 58bc
00000050: eede 86bc bb54 2f3c 17bb f6bb 40a5 7a3a
00000060: 39b9 63bc de7e 85bc ab23 4b3c 2444 c93c
00000070: 190b 22bc b796 b23c be0a 7bbc 0a96 bdbb

encoder.layers.1.norm2.weight f4 [32]
1.038508 1.08512 1.0709237 1.1042241 1.0957372 1.14361 1.1479504 1.1227585
1.0769864 1.1503385 1.0974683 1.0301015 1.0621397 1.1321126 1.076186 1.0650011
1.0414511 1.1358223 1.1288178 1.1496999 1.0546883 1.1350926 1.044157 1.0769565
1.1314814 1.1137432 1.0885348 1.0339355 1.1131289 1.2646722 1.0593615 1.165909
00000000: d5ed 843f 36e5 8a3f 0714 893f 3757 8d3f
00000010: 1e41 8c3f d061 923f 0af0 923f 8db6 8f3f
00000020: b1da 893f 4b3e 933f d779 8c3f 5eda 833f
00000030: 32f4 873f 11e9 903f 76c0 893f f551 883f
00000040: 454e 853f a062 913f 1a7d 903f 5e29 933f
00000050: 0700 873f b74a 913f f0a6 853f b6d9 893f
00000060: 62d4 903f 238f 8e3f 1c55 8b3f 0058 843f
00000070: 027b 8e3f c7e0 a13f 2899 873f 823c 953f

encoder.layers.1.norm2.bias f4 [32]
0.046048917 0.058756426 -0.04660851 -0.04364766 -0.08423897 -0.05059539 -0.041073352 0.08485001
0.017196437 0.10577541 -0.012037857 -0.05207591 -0.041879505 -0.06625002 -0.07269421 -0.051230296
-0.008471154 0.075218566 0.04306567 0.060131773 -0.0068649924 0.07907935 0.03260993 0.08156312
0.08336224 -0.08770725 0.06426064 0.04317181 -0.048671927 -0.057831343 -0.009199645 -0.07284117
00000000: ca9d 3c3d 94aa 703d 91e8 3ebd e4c7 32bd
00000010: 7b85 acbd 1d3d 4fbd 883c 28bd d8c5 ad3d
00000020: 8bdf 8c3c c7a0 d83d 6f3a 45bc 8d4d 55bd
00000030: d889 2bbd 17ae 87bd b4e0 94bd dcd6 51bd
00000040: 98ca 0abc 310c 9a3d a165 303d bc4c 763d
00000050: bbf3 e0bb 5bf4 a13d fd91 053d 910a a73d
00000060: d2b9 aa3d dc9f b3bd 159b 833d edd4 303d
00000070: 375c 47bd 8fe0 6cbd 1cba 16bc c02d 95bd

pool.net.layers.0.bias f4 [64]
-0.040899016 -0.024715874 0.12727268 0.15770434 0.15491532 0.08181309 0.00094792346 -0.0072968737
0.1263967 0.03242125 -0.0530089 -0.11487608 0.12473271 -0.18730867 0.12602308 0.09478393
0.23893021 0.2603293 0.11125394 0.086067125 -0.13966972 0.0024799425 0.035556044 0.13644423
-0.0058246506 -0.048508327 -0.002356464 0.16839749 -0.15461457 -0.012585205 0.009180322 -0.18618506
0.0019198937 -0.10369883 0.012518449 -0.09394442 0.09724099 -0.03718385 0.17537504 -0.07758248
0.059907187 0.045582894 0.16275808 -0.08867085 -0.14100619 -0.014703149 0.14619505 0.010056114
-0.06501806 -0.11606007 0.20561448 -0.18581271 -0.026375724 0.0041823303 0.15602551 0.15365025
-0.122563496 0.18250461 0.02392471 -0.050100327 -0.13023746 -0.12081537 0.016690347 -0.105848
00000000: ba85 27bd f278 cabc c553 023e 3f7d 213e
00000010: 1fa2 1e3e 9f8d a73d 117e 783a 9d1a efbb
00000020: 236e 013e 25cc 043d dc1f 59bd 2644 ebbd
00000030: dd73 ff3d d8cd 3fbe 320c 013e 141e c23d
00000040: 1faa 743e e249 853e 1bd9 e33d f643 b03d
00000050: 9405 0fbe 8886 223b 37a3 113d 09b8 0b3e
00000060: b6dc bebb abb0 46bd e86e 1abb 6470 2c3e
00000070: 4853 1ebe 2d32 4ebc 1069 163c 4ca7 3ebe
00000080: f1a4 fb3a 0d60 d4bd 2e1a 4d3c ef65 c0bd
00000090: 4926 c73d 184e 18bd 8495 333e 90e3 9ebd
000000a0: 3d61 753d 21b5 3a3d 0eaa 263e 1099 b5bd
000000b0: ed63 10be 7ae5 70bc 28b4 153e 66c2 243c
000000c0: 3028 85bd e7b0 edbd 9a8c 523e b045 3ebe
000000d0: e711 d8bc ee0b 893b 27c5 1f3e 7e56 1d3e
000000e0: 9202 fbbd 7de2 3a3e c1fd c33c 0036 4dbd
000000f0: f85c 05be 0c6e f7bd 32ba 883c d6c6 d8bd

pool.net.layers.2.bias f4 [32]
0.02845985 -0.03234108 -0.0662114 0.09650035 -0.04287696 -0.030886617 -0.07874852 -0.12448956
-0.08242009 -0.09139233 0.042687587 -0.07988632 -0.112316325 0.020416325 0.10929583 -0.014662342
-0.12236092 0.06168765 0.111537255 -0.029710013 0.116562136 0.06051814 0.05760019 0.112723
-0.024582718 0.020382635 -0.023895426 0.018466908 0.06691112 0.070265725 -0.02411014 0.010485386
00000000: a224 e93c 1578 04bd d899 87bd faa1 c53d
00000010: c09f 2fbd ee05 fdbc e746 a1bd 62f4 febd
00000020: ddcb a8bd e72b bbbd 2ed9 2e3d 709b a3bd
00000030: 1a06 e6bd 2340 a73c 7ed6 df3d 523a 70bc
00000040: 5d98 fabd 30ac 7c3d a56d e43d 6a62 f3bc
00000050: 21b8 ee3d dfe1 773d 2dee 6b3d 51db e63d
00000060: b261 c9bc 7cf9 a63c 57c0 c3bc ea47 973c
00000070: b308 893d 7ae7 8f3d a182 c5bc e5ca 2b3c

net.layers.0.weight f4 [64, 32]
0.22254671 0.21172427 -0.07368351 0.023313623 -0.17177899 0.09065837 -0.28502214 0.13037385
0.23641798 0.010926715 -0.016580466 0.069887035 -0.02534492 -0.16054346 -0.19287433 -0.08224574
0.12959497 0.0021355853 0.04778237 0.075783 -0.07745439 0.19902338 0.02263124 0.23316242
0.16363716 -0.18833512 0.056508128 0.23584569 -0.042205475 -0.09315825 -0.01702561 -0.24397253
0.05140288 -0.02969827 0.18438405 0.09348366 0.09567954 -0.14341967 0.18265432 -0.10389674
0.08000401 -0.084657215 0.16085869 -0.044601914 0.005060019 -0.056365814 0.1391138 0.007907007
0.12470229 0.071399026 -0.06144272 -0.18109556 0.12152542 -0.13660574 0.08422052 -0.006741393
0.05573948 0.047350835 -0.14339815 0.182882 0.23291655 0.083210476 -0.0011396494 -0.0070400545
-0.08282618 -0.030660383 -0.22062977 0.136478 -0.07780296 0.021648422 0.08310549 0.13570057
-0.13976623 -0.046664022 -0.25911656 -0.075613104 0.035624288 0.15410951 0.011156427 -0.098008595
-0.017792922 0.11507972 -0.081763305 0.19311976 -0.1997615 -0.060280174 -0.18786979 0.0008998623
0.16262348 -0.16495068 -0.19563884 -0.053369954 0.24411993 0.22534761 -0.26620564 0.33112404
-0.15938826 0.02155458 -0.13284147 -0.15119876 -0.20636761 -0.16441694 0.18486154 0.009187607
-0.2699914 0.019937078 -0.06423666 -0.07307077 0.14814243 -0.22983867 0.07459557 0.24409588
0.06599981 -0.07811458 -0.15153728 -0.018702975 -0.061331607 -0.22908345 -0.009358343 -0.011698892
-0.06939281 0.09933091 -0.22376882 0.10576251 0.27561 0.0031043333 -0.2598573 0.23637468
-0.040749036 0.27569053 -0.059337404 0.0319743 -0.02565148 -0.07901266 0.31411427 0.15758395
-0.057932977 0.071575545 -0.11551262 0.012938568 0.24065103 0.06573301 0.013010727 0.19192268
-0.039490465 0.07870216 -0.11466596 0.17426082 -0.09622837 -0.05641357 -0.21170682 0.25260454
0.054082002 0.065681 0.10734981 0.035357356 0.18290518 0.23136202 -0.06347003 0.12788594
0.09640676 -0.059699282 0.12113453 0.017607259 -0.19098505 -0.057052605 0.090181686 -0.07892041
0.043590143 0.20119011 0.0111337835 -0.119564235 0.18694617 0.0023157573 0.06356109 0.038665764
0.09455405 -0.030540098 -0.008818361 0.086477675 0.04284552 0.06785305 -0.1879826 0.0488277
-0.107178695 -0.026518526 0.15029724 0.008822716 0.011242649 0.16991703 0.084934175 0.16596057
-0.19894966 -0.099473596 -0.18713842 0.1477252 -0.08615361 -0.21909012 0.20188712 -0.04835122
-0.045478925 0.13320039 -0.22407936 0.17162985 -0.079174906 -0.09139647 0.08139088 0.1755567
0.14542781 0.0077061285 -0.20135756 -0.10106257 0.12414021 -0.11636623 -0.028171426 0.07756822
-0.11628082 -0.017364692 -0.08798142 -0.11218137 0.30575246 -0.00330126 -0.13962488 0.013355032
-0.03552859 -0.017249983 0.09453903 -0.011328552 0.08242723 0.030464562 0.060136005 0.15036845
-0.12507613 -0.0018649473 0.0937411 -0.17029102 -0.17611875 0.03639742 0.03353514 -0.08760746
0.005376326 0.02646476 0.09661939 -0.008187047 -0.04910163 0.0047447328 0.13579763 0.20517473
0.06002272 -0.009097272 -0.063395195 0.16408102 -0.169002 -0.05837978 0.17181821 -0.1387624
00000000: 49e3 633e 3fce 583e 61e7 96bd 36fc be3c
00000010: d5e6 2fbe 18ab b93d 6cee 91be b980 053e
00000020: 8e17 723e f705 333c c2d3 87bc ef20 8f3d
00000030: 26a0 cfbc 8165 24be d980 45be 7470 a8bd
00000040: 8bb4 043e 2df5 0b3b 72b7 433d 1e34 9b3d
00000050: 68a0 9ebd c9cc 4b3e 2665 b93c 21c2 6e3e
00000060: 8090 273e ecda 40be 1175 673d 8881 713e
00000070: a6df 2cbd c1c9 bebd 4b79 8bbc efd3 79be
00000080: d48b 523d c949 f3bc 2ccf 3c3e 5c74 bf3d
00000090: a2f3 c33d 9bdc 12be bc09 3b3e d0c7 d4bd
000000a0: 24d9 a33d c360 adbd 24b8 243e 7fb0 36bd
000000b0: 84ce a53b d7df 66bd d973 0e3e 648c 013c
000000c0: ea63 ff3d a739 923d 5dab 7bbd 1d71 39be
000000d0: 52e2 f83d 60e2 0bbe cf7b ac3d e7e6 dcbb
000000e0: 154f 643d f3f2 413d f7d6 12be 6b45 3b3e
000000f0: ad81 6e3e 416a aa3d 4a60 95ba 42b0 e6bb
00000100: c6a0 a9bd 7c2b fbbc c5ec 61be e4c0 0b3e
00000110: 2957 9fbd 0858 b13c 3633 aa3d 17f5 0a3e
00000120: e11e 0fbe c622 3fbd edaa 84be 0bdb 9abd
00000130: c6ea 113d e2ce 1d3e 72c9 363c bbb8 c8bd
00000140: 76c2 91bc ebae eb3d 8573 a7bd 30c1 453e
00000150: 478e 4cbe 58e8 76bd f060 40be bde4 6b3a
00000160: c586 263e d5e8 28be 8c55 48be 749a 5abd
00000170: 93fa 793e 86c1 663e 1b4c 88be 1789 a93e
00000180: ad36 23be 3b93 b03c 9807 08be d9d3 1abe
00000190: 0852 53be ea5c 28be 584c 3d3e 9e87 163c
000001a0: 503c 8abe 1553 a33c 838e 83bd 21a6 95bd
000001b0: a6b2 173e d45a 6bbe 90c5 983d 45f4 793e
000001c0: e92a 873d 89fa 9fbd 972c 1bbe fb36 99bc
000001d0: da36 7bbd da94 6abe bc53 19bc b6ac 3fbc
000001e0: d11d 8ebd 016e cb3d a723 65be 049a d83d
000001f0: c11c 8d3e 1272 4b3b 040c 85be 340c 723e
00000200: 76e8 26bd 4f27 8d3e c70b 73bd 7cf7 023d
00000210: 0d23 d2bc 64d1 a1bd 96d3 a03e b05d 213e
00000220: 214b 6dbd 3396 923d e191 ecbd 4afc 533c
00000230: 396d 763e 079f 863d f22a 553c 6187 443e
00000240: c1c0 21bd 992e a13d fdd5 eabd 6e71 323e
00000250: 6113 c5bd ea11 67bd acc9 58be 6255 813e
00000260: 1785 5d3d c383 863d 38da db3d e0d2 103d
00000270: 7f4b 3b3e 2aea 6c3e 93fc 81bd 88f4 023e
00000280: e870 c53d 3c87 74bd 6115 f83d 193d 903c
00000290: 9691 43be feaf 69bd 2db1 b83d 06a1 a1bd
000002a0: 948b 323d c804 4e3e 796a 363c 18de f4bd
000002b0: d16e 3f3e f6c3 173b 512c 823d fe5f 1e3d
000002c0: 8ea5 c13d 3a2f fabc e37a 10bc 351b b13d
000002d0: c97e 2f3d 8af6 8a3d 837e 40be 8eff 473d
000002e0: 8180 dbbd 613d d9bc 85e7 193e 278d 103c
000002f0: 1633 383c bbfe 2d3e f8f1 ad3d 91f1 293e
00000300: 76b9 4bbe d0b8 cbbd 37a1 3fbe 4645 173e
00000310: 4e71 b0bd 2959 60be 7fbb 4e3e ee0b 46bd
00000320: 1c48 3abd af65 083e 0f75 65be bcbf 2f3e
00000330: 7426 a2bd 132e bbbd 43b0 a63d 23c5 333e
00000340: 07eb 143e b183 fc3b ad30 4ebe e5f9 cebd
00000350: 393d fe3d 6b51 eebd c3c7 e6bc 16dc 9e3d
00000360: a324 eebd 6640 8ebc 9a2f b4bd 59bf e5bd
00000370: 968b 9c3e f459 58bb d3f9 0ebe 10cf 5a3c
00000380: 6d86 11bd d64f 8dbc ae9d c13d 649b 39bc
00000390: 9ccf a83d d190 f93c 2c51 763d 30fa 193e
000003a0: f513 00be 3f71 f4ba 55fb bf3d c560 2ebe
000003b0: 7958 34be 7615 153d 255c 093d 8a6b b3bd
000003c0: e42b b03b a0cc d83c 63e0 c53d f722 06bc
000003d0: ca1e 49bd b479 9b3b 890e 0b3e 5319 523e
000003e0: 62da 753d b90c 15bc 57d5 81bd db04 283e
000003f0: dc0e 2dbe a31f 6fbd 1df1 2f3e bb17 0ebe

net.layers.0.bias f4 [64]
-0.078345254 -0.11491369 0.23017848 0.12227931 0.25709617 -0.05223257 0.14732009 0.14232366
-0.10956837 -0.19520472 -0.13917662 0.11548394 0.13140774 -0.13945387 0.10782193 0.1755602
-0.13155645 0.15218773 -0.06754285 0.11555826 0.2295167 -0.066400565 0.14363979 -0.19479796
-0.051123653 -0.21447441 -0.046557467 -0.062493924 0.019111432 -0.113235794 0.11264085 -0.031542853
0.05842931 0.102663964 0.22385135 -0.12757924 -0.05946488 -0.09863555 -0.038771577 0.10813231
-0.0066975984 0.18242425 -0.0003904933 -0.09793141 -0.06594287 0.2418463 -0.1938833 -0.012310494
-0.12448718 0.1220403 0.057366397 -0.03042214 -0.008286219 0.03547556 0.16852479 -0.025262795
0.15532164 0.16960461 -0.05993701 0.11958649 -0.13096409 0.076212764 -0.027421502 -0.040942833
00000000: 7a73 a0bd de57 ebbd e8b3 6b3e 936d fa3d
00000010: 1ca2 833e d2f1 55bd 14db 163e 4bbd 113e
00000020: 6265 e0bd bfe3 47be 5184 0ebe d882 ec3d
00000030: c08f 063e ffcc 0ebe bed1 dc3d 0ec6 333e
00000040: bcb6 06be 1ad7 1b3e e853 8abd cfa9 ec3d
00000050: 6d06 6b3e 05fd 87bd 4f16 133e 1e79 47be
00000060: 0967 51bd 2e9f 5bbe 0bb3 3ebd a1f9 7fbd
00000070: 948f 9c3c 2be8 e7bd 3fb0 e63d 1433 01bd
00000080: 9253 6f3d 7c41 d23d 4a39 653e 22a4 02be
00000090: 7291 73bd 6f01 cabd f2ce 1ebd 7974 dd3d
000000a0: 8777 dbbb 6ccd 3a3e 20bb ccb9 4390 c8bd
000000b0: 0e0d 87bd 8ea6 773e 5889 46be f4b1 49bc
000000c0: 22f3 febd 44f0 f93d 07f9 6a3d da37 f9bc
000000d0: ecc2 07bc d24e 113d c391 2c3e ecf3 cebc
000000e0: a30c 1f3e d5ac 2d3e 8380 75bd c3e9 f43d
000000f0: 731b 06be 7015 9c3d 0fa3 e0bc acb3 27bd

net.layers.2.weight f4 [1, 64]
-0.15068106 0.14721537 0.24663016 0.24230899 0.29136553 0.12703411 0.116342016 -0.1804217
-0.32186332 0.15319519 0.14238107 0.190491 0.14810422 0.014306516 0.22995937 0.13977227
0.1292972 -0.21659029 0.06451289 0.023979578 -0.12509827 -0.2356934 -0.27706167 0.004692733
0.09334673 0.01806834 -0.17042692 -0.38282767 0.21709196 0.026893584 -0.3216707 -0.053020477
0.16595727 -0.11250963 -0.07982019 -0.11520095 0.30706668 -0.18930313 -0.14748554 0.11687304
-0.17948489 -0.12425785 -0.083575286 -0.08563079 -0.12277171 -0.111326955 0.05453921 0.257146
-0.2107835 -0.19898245 0.108303815 0.15151906 -0.15556341 0.08111597 -0.10939705 0.060183443
0.1135936 0.26839128 0.2092471 0.48231652 0.06704433 -0.15323009 -0.16019183 -0.25146458
00000000: 234c 1abe a0bf 163e 9e8c 7c3e d91f 783e
00000010: dd2d 953e 3b15 023e b944 ee3d 77c0 38be
00000020: 45cb a4be 33df 1c3e 58cc 113e 1310 433e
00000030: a2a8 173e e165 6a3c 787a 6b3e 7620 0f3e
00000040: 7c66 043e d8c9 5dbe 561f 843d d270 c43c
00000050: c319 00be 9c59 71be 07db 8dbe 7fc5 993b
00000060: 922c bf3d 0e04 943c 6584 2ebe fd01 c4be
00000070: 5b4d 5e3e ef4f dc3c 06b2 a4be 002c 59bd
00000080: b4f0 293e 736b e6bd c578 a3bd 7aee ebbd
00000090: d837 9d3e aed8 41be 7306 17be 225b ef3d
000000a0: e3ca 37be e67a febd 8529 abbd 325f afbd
000000b0: bc6f fbbd 63ff e3bd 8264 5f3d a4a8 833e
000000c0: a1d7 57be 0ec2 4bbe 64ce dd3d d027 1b3e
000000d0: 044c 1fbe 2120 a63d 900b e0bd ea82 763d
000000e0: c3a3 e83d 956a 893e df44 563e 31f2 f63e
000000f0: 8a4e 893d 59e8 1cbe 5409 24be f7bf 80be
