models/Regression/antikaon.pt (torch, 18905 bytes, 7 tensors)

layers.0.weight f4 [64, 19]
0.07769494 -0.130954 0.031065717 0.18453489 0.12266688 -0.08525179 -0.04075457 -0.10004309
0.18197192 -0.10712919 -0.06720264 -0.08102022 0.16727407 0.20110609 0.109370485 -0.09359738
-0.018241554 0.12940644 -0.17263833 0.01905449 0.05872833 0.013310867 -0.03156022 -0.25969929
1.0756184 0.9615213 -0.001984399 -0.055689543 0.16654067 -1.0841812 0.07972835 -0.043573745
-0.053079333 0.022903211 -0.011253857 -0.123237744 -0.011886373 0.014037899 -0.85448235 -0.30310547
0.0031162058 0.19139667 -0.64579266 0.3216728 0.29559988 0.028519146 0.021562973 0.009734145
-0.919351 -0.008337296 -0.009853242 0.0009848453 0.012896577 -0.007635091 -0.012303598 0.00034379854
-0.005945244 0.16059865 -0.025194272 -0.047918946 0.04074563 -0.19289747 0.20296575 -0.02888897
-0.07197487 -0.03912939 -0.18821478 0.052968487 0.14672454 0.0910926 0.09546538 0.08750434
-0.20581056 -0.10578529 0.092967466 -0.12371052 0.16112255 0.13618617 -0.036374167 -0.014786288
-0.114493534 0.05101396 0.13521557 -0.036139578 -0.10754644 -0.22070327 -0.035949424 0.11619
-0.20810844 0.22717653 -0.17309734 -0.21431166 -0.04613112 -0.070840865 0.0694495 -0.3059931
0.252881 -0.14349605 0.11163938 0.14056703 0.015217352 0.2332688 -0.10021506 -0.10635145
0.056409772 0.7730095 0.05968468 0.17933917 0.20977302 -0.14228301 -0.024128187 0.0185795
-0.08914707 0.0832173 0.025593594 0.083748624 0.1975225 -0.08802323 0.064057365 0.06951545
0.059904084 0.122108355 -0.0006696582 -0.058006197 0.19764449 -0.13939413 0.168683 -0.18225995
-0.0062325895 -0.120397195 0.102434084 0.20951928 0.119236484 -0.22588427 0.09424566 -0.15539786
-0.009388164 0.1024463 -0.023503214 0.16859217 0.10131861 -0.19496259 0.18010078 0.18485202
0.08687015 0.11747046 -0.11822939 -0.030827492 -0.19365288 -0.16394879 -0.05957569 0.22128381
-0.9659823 0.004506863 0.0014966569 -0.66097444 -0.09179615 -1.339065 -1.1947696 0.03489803
0.13362348 0.0027467846 0.67251945 -0.079342954 -0.008778597 0.0020781786 0.020207131 0.014090336
-0.011464988 0.061344344 -0.008893102 -0.6457109 0.014045722 -0.00095539994 -0.9956946 0.67870337
-1.2987919 -1.252251 0.06778399 0.0832335 0.0034175077 0.7743104 -0.07916619 -0.021083286
0.0072004027 0.033890307 0.011482399 0.0012885511 0.021204213 0.008351203 0.15007739 -0.121652655
-0.16101255 0.17894576 0.12387444 0.11459054 0.024870798 -0.13945283 0.16593115 0.09531762
0.061555907 0.07159616 -0.0012947321 -0.14181432 0.10727285 -0.07115802 -0.09884101 0.18652825
-0.13269979 0.98874396 -0.06839648 -0.001706512 0.19103879 0.35301197 0.3709836 0.5457824
-0.023337582 0.062205054 -0.047582902 0.7878168 -0.01598486 0.026980331 -0.022335993 -0.010756914
0.002825265 -0.13175377 -0.008114553 0.025888052 1.511378 -0.11774221 -0.001247781 0.11800466
0.8466699 0.040316656 0.033759207 0.05926969 -0.008173067 -0.0011970212 1.0248908 0.0045554764
-0.057907246 0.0014629407 -0.016008504 0.0052984315 -0.14205313 -0.0016920379 -0.009953452 -2.894482
-0.38489488 -0.0015833153 -0.026570821 0.6316727 0.2673817 0.17561293 -0.057250176 -0.028392838
00000000: 861e 9f3d ce18 06be 887d fe3c b7f6 3c3e
00000010: c638 fb3d 7e98 aebd 44ee 26bd 64e3 ccbd
00000020: d956 3a3e 8c66 dbbd 8aa1 89bd eeed a5bd
00000030: e549 2b3e c1ee 4d3e a2fd df3d fcaf bfbd
00000040: 506f 95bc 1f83 043e 1ac8 30be 2918 9c3c
00000050: 1e8d 703d d315 5a3c 4a45 01bd 4ef7 84be
00000060: ddad 893f 4326 763f b10c 02bb b81a 64bd
00000070: a389 2a3e 73c6 8abf 9e48 a33d 627a 32bd
00000080: b769 59bd 849f bb3c 1962 38bc 1264 fcbd
00000090: 10bf 42bc 37ff 653c 5bbf 5abf a430 9bbe
000000a0: 4239 4c3b 7dfd 433e ab52 25bf 4cb2 a43e
000000b0: de58 973e fca0 e93c d5a4 b03c f77b 1f3c
000000c0: 965a 6bbf 2799 08bc 7e6f 21bc ed15 813a
000000d0: 2a4c 533c c92f fabb 0895 49bc dc3f b439
000000e0: 52d0 c2bb f973 243e 3864 cebc a846 44bd
000000f0: e4e4 263d ea86 45be 41d6 4f3e 90a8 ecbc
00000100: 9067 93bd 2446 20bd 60bb 40be 7cf5 583d
00000110: f53e 163e c28e ba3d 5a83 c33d 7a35 b33d
00000120: 01c0 52be f5a5 d8bd ba65 be3d f15b fdbd
00000130: 4ffd 243e 6374 0b3e 14fd 14bd 3042 72bc
00000140: 967b eabd 04f4 503d f375 0a3e 1807 14bd
00000150: 4f41 dcbd 0a00 62be b43f 13bd 06f5 ed3d
00000160: 611a 55be f7a0 683e 6e40 31be 8474 5bbe
00000170: fcf3 3cbd 0415 91bd 8a3b 8e3d 21ab 9cbe
00000180: 9e79 813e a1f0 12be 30a3 e43d cef0 0f3e
00000190: 3352 793c 04de 6e3e 8e3d cdbd cace d9bd
000001a0: ef0d 673d f3e3 453f ec77 743d b0a4 373e
000001b0: bdce 563e a3b2 11be 7aa8 c5bc 0934 983c
000001c0: bd92 b6bd d56d aa3d a8a9 d13c 6684 ab3d
000001d0: 5743 4a3e 8645 b4bd 8230 833d 1e5e 8e3d
000001e0: fc5d 753d f213 fa3d 008c 2fba e897 6dbd
000001f0: 5163 4a3e 56bd 0ebe 3dbb 2c3e 5aa2 3abe
00000200: c03a ccbb ce92 f6bd f6c8 d13d 398c 563e
00000210: 4232 f43d 354e 67be de03 c13d 9e20 1fbe
00000220: d0d0 19bc 5ecf d13d d089 c0bc 6da3 2c3e
00000230: 2280 cf3d 46a4 47be 576c 383e d949 3d3e
00000240: fae8 b13d 5a94 f03d 4022 f2bd f089 fcbc
00000250: f14c 46be 31e2 27be a405 74bd 3998 623e
00000260: 9e4a 77bf 4fae 933b 792b c43a 9f35 29bf
00000270: 9fff bbbd 7b66 abbf 36ee 98bf 3df1 0e3d
00000280: 98d4 083e 6603 343b 3c2a 2c3f 8f7e a2bd
00000290: 1bd4 0fbc 0d32 083b 6d89 a53c 27db 663c
000002a0: a5d7 3bbc 3544 7b3d 60b4 11bc 4f4d 25bf
000002b0: 0720 663c ce73 7aba d7e5 7ebf 81bf 2d3f
000002c0: d03e a6bf c349 a0bf 55d2 8a3d 5376 aa3d
000002d0: 44f8 5f3b 3539 463f e221 a2bd dbb6 acbc
000002e0: 5bf1 eb3b 90d0 0a3d ac20 3c3c 9ae4 a83a
000002f0: 75b4 ad3c 7cd3 083c e3ad 193e 0725 f9bd
00000300: 79e0 24be 8f3d 373e e2b1 fd3d 72ae ea3d
00000310: d8bd cb3c b9cc 0ebe dbe9 293e e235 c33d
00000320: 0c22 7c3d 02a1 923d 00b4 a9ba c637 11be
00000330: deb1 db3d 4cbb 91bd 286d cabd 4301 3f3e
00000340: 74e2 07be 531e 7d3f 7413 8cbd 0aad dfba
00000350: ac9f 433e fcbd b43e 90f1 bd3e 65b8 0b3f
00000360: 752e bfbc baca 7e3d 4ae6 42bd 5dae 493f
00000370: aef2 82bc db05 dd3c f9f9 b6bc c43d 30bc
00000380: 1528 393b 76ea 06be e7f2 04bc 2e13 d43c
00000390: d674 c13f d422 f1bd 958c a3ba 6dac f13d
000003a0: 5cbf 583f 1423 253d 1847 0a3d c6c4 723d
000003b0: 54e8 05bc 5ee5 9cba 9f2f 833f 1b46 953b
000003c0: 2630 6dbd 25c0 bf3a 4424 83bc 779e ad3b
000003d0: 6076 11be 5fc7 ddba ce13 23bc 313f 39c0
000003e0: f110 c5be 3f87 cfba 0dab d9bc 4db5 213f
000003f0: 41e6 883e e0d3 333e 297f 6abd 1998 e8bc

layers.0.bias f4 [64]
-0.06142807 -0.17376144 -0.018156534 0.12488742 0.14973478 -0.17492211 0.0040021986 0.11609231
-0.33873284 0.011513136 -0.09267084 -0.28914475 -0.07747062 -0.06829806 -0.11526487 -0.10393397
-0.18634029 0.12028121 0.22211988 0.18885183 -0.07039251 0.093453094 -0.033864453 -0.28092688
0.16811599 0.0013618469 -0.23575085 0.06740739 -0.18018787 -0.08406767 -0.049906477 -0.121857606
-0.2522064 -0.2019448 0.09007107 -0.16008925 -0.033477057 -0.2136689 -0.020341456 -0.23756194
-0.2580411 0.16226135 -0.14908393 0.13404022 -0.25954133 -0.23231356 -0.05589841 -0.030346677
0.0769382 -0.12144319 -0.26290727 -0.15413469 0.0037437694 0.14216425 -0.13865307 -0.13758983
-0.19646241 -0.2134031 0.19791023 -0.04026167 0.12081243 0.07001713 0.11255238 0.098575816
00000000: 009c 7bbd 85ee 31be 03bd 94bc fac4 ff3d
00000010: 1354 193e c81e 33be e024 833b cec1 ed3d
00000020: 646e adbe 98a1 3c3c 36ca bdbd c80a 94be
00000030: eba8 9ebd dadf 8bbd fd0f ecbd 55db d4bd
00000040: fdcf 3ebe ff55 f63d 6573 633e 6062 413e
00000050: f329 90bd 5664 bf3d 74b5 0abd a6d5 8fbe
00000060: 9926 2c3e 0080 b23a ac68 71be e30c 8a3d
00000070: 2b83 38be ac2b acbd bc6a 4cbd 7b90 f9bd
00000080: 3221 81be 9eca 4ebe 2e77 b83d 70ee 23be
00000090: 3d1f 09bd 05cc 5abe 20a3 a6bc 7043 73be
000000a0: f71d 84be d727 263e 75a9 18be d741 093e
000000b0: 9ae2 84be 9be3 6dbe bbf5 64bd 9899 f8bc
000000c0: c691 9d3d 35b7 f8bd c89b 86be 7cd5 1dbe
000000d0: 075a 753b 8193 113e 12fb 0dbe 59e4 0cbe
000000e0: 712d 49be 5886 5abe fba8 4a3e 6ce9 24bd
000000f0: 826c f73d 2465 8f3d dd81 e63d 1ee2 c93d

layers.3.weight f4 [32, 64]
0.115455955 0.043883234 -0.25728023 0.04621075 0.06011194 0.11326776 -0.046638638 -0.08769645
0.25147367 0.58341306 -0.055755064 0.020202732 0.060068216 -0.1731146 -0.08953501 -0.14137214
0.046539143 -0.047281016 0.06057425 0.37270212 0.19899224 -0.020833865 -0.11519578 0.0140847
1.0425642 0.031649992 -0.030989747 0.024274675 0.08924955 0.34305006 -0.03558764 -0.10345422
0.010847902 -0.12118538 0.05473364 0.0191807 -0.012860674 0.025533231 0.32138342 0.19146904
0.00042302356 -0.08201492 0.005261719 0.028252408 -0.10173529 -0.009669835 0.022601005 0.0612448
0.0047403276 -0.028410636 0.014889605 0.024695367 0.22553183 0.07116336 -0.05196649 0.039730966
0.011285728 0.10626119 -0.12347397 -0.022944197 -0.09868559 0.06123746 -0.07328064 -0.11212973
-0.02223216 -0.015897844 -0.22509426 0.0007456392 -0.08572708 -0.10006234 -0.03923875 0.009066135
0.16480356 0.50605786 0.053655356 -0.0742582 0.11094205 0.10254796 -0.11993265 -0.30502036
-0.06908086 0.07412495 0.057276145 0.15612201 0.35799646 -0.02448371 -0.091362506 -0.015422518
0.9057631 -0.036927074 -0.009883192 0.041336603 0.07048463 0.35361084 -0.11660355 0.0063821524
0.006666582 0.12220657 0.0482928 0.042567685 -0.025668858 -0.060355544 0.23649313 0.288441
-0.049972333 0.095109075 -0.116613045 -0.05072266 -0.15712456 0.040481605 0.113092594 -0.07353425
-0.0013920367 0.13128245 -0.050414097 -0.08398717 0.25061536 -0.097745284 -0.10762212 -0.05746457
-0.02737008 0.15959524 -0.09205547 -0.097611696 0.02452518 0.11394174 -0.2837911 0.01717925
-0.033824563 0.0042656176 -0.20753558 0.11035335 0.046138838 0.021165146 -0.11905989 -0.014455169
0.09646394 0.39342675 0.051392198 0.025448512 0.080335334 -0.29430908 -0.0035951436 -0.324127
0.015707087 0.118062064 -0.0898422 0.17490691 0.48503664 0.082785085 -0.098990485 -3.6577945e-05
1.0230285 -0.04758741 0.0008408013 -0.033976115 0.01732028 0.35565922 0.04858981 -0.08682805
-0.048999816 0.08557169 0.06910393 -0.08130096 0.034908596 -0.20673789 -0.14803848 0.059090607
0.06178956 -0.121487305 0.04168257 0.070990294 -0.308926 0.0046884427 -0.4679235 -0.0050270557
-0.07057455 0.0039501986 0.029248135 0.04702124 0.1749111 -0.05999337 0.0367752 0.023802266
0.0021169425 -0.010462639 0.119972885 0.0692185 -0.09591976 -0.29071987 -0.16272679 0.10692267
0.031405926 -0.0008326597 -0.065857686 -0.011656612 0.036227256 0.09858668 -0.0036165565 0.03711866
-0.16172919 -0.18813238 0.03368789 -0.033489935 -0.040722016 -0.11625756 -0.049220517 -0.04531261
-0.07815659 0.23837961 -0.074251205 -0.1165246 0.090929896 0.012830272 -0.1055654 -0.052051254
-0.6843197 0.032257974 0.014703884 -0.008051733 -0.0018070431 -0.12445093 0.11304887 0.056423873
0.051944356 0.058929205 0.09509258 0.059876576 -0.11212286 -0.09166088 -0.71699685 -0.041359264
0.015840339 0.111974984 0.033173844 0.07787688 -0.017521907 0.07425984 -0.23247802 0.11285102
-0.04288876 0.17980638 0.031767875 0.09839085 -0.100539126 -0.033874378 -0.071441606 0.10721424
0.020216176 0.018762652 -0.119276986 -0.033130646 -0.0024498403 -0.007838917 0.0060644834 0.054917514
00000000: 2c74 ec3d e8be 333d 3cba 83be 7c47 3d3d
00000010: f037 763d edf8 e73d 2808 3fbd 329a b3bd
00000020: 28c1 803e 8f5a 153f 6c5f 64bd 3380 a53c
00000030: 170a 763d f444 31be 225e b7bd dcc3 10be
00000040: d49f 3e3d bda9 41bd b41c 783d d0d2 be3e
00000050: 9fc4 4b3e c8ab aabc c4eb ebbd 83c3 663c
00000060: be72 853f 6ca3 013d 36de fdbc afdb c63c
00000070: 78c8 b63d 42a4 af3e 58c4 11bd cedf d3bd
00000080: 66bb 313c 0a30 f8bd 6230 603d d820 9d3c
00000090: 94b5 52bc 112b d13c 5e8c a43e 7610 443e
000000a0: 43c9 dd39 70f7 a7bd 806a ac3b 9871 e73c
000000b0: 975a d0bd 3a6e 1ebc be25 b93c d4db 7a3d
000000c0: c054 9b3b 6cbd e8bc 88f3 733c f04d ca3c
000000d0: d1f1 663e 18be 913d d0da 54bd f0bc 223d
000000e0: c6e7 383c 779f d93d ecdf fcbd 78f5 bbbc
000000f0: ac1b cabd 21d4 7a3d 2914 96bd 46a4 e5bd
00000100: 3820 b6bc 323c 82bc 1c7f 66be 0077 433a
00000110: ae91 afbd 7ced ccbd d0b8 20bd 208a 143c
00000120: 44c2 283e 028d 013f b8c5 5b3d af14 98bd
00000130: 9635 e33d aa04 d23d 409f f5bd a12b 9cbe
00000140: 447a 8dbd d2ce 973d 649a 6a3d 73de 1f3e
00000150: 504b b73e 1092 c8bc 441c bbbd bbae 7cbc
00000160: 17e0 673f d840 17bd 1ded 21bc 9250 293d
00000170: 3f5a 903d 7b0c b53e d8cd eebd 6021 d13b
00000180: 5873 da3b 7047 fa3d acce 453d 745b 2e3d
00000190: 7f47 d2bc 6037 77bd 412b 723e 8aae 933e
000001a0: caaf 4cbd 8cc8 c23d d2d2 eebd 90c2 4fbd
000001b0: 43e5 20be 0ad0 253d 179d e73d 2099 96bd
000001c0: 0075 b6ba e86e 063e 037f 4ebd 7701 acbd
000001d0: a850 803e ae2e c8bd fc68 dcbd f85f 6bbd
000001e0: 3837 e0bc ef6c 233e 9487 bcbd a4e8 c7bd
000001f0: 08e9 c83c 495a e93d 114d 91be 80bb 8c3c
00000200: a08b 0abd 98c6 8b3b 3584 54be f000 e23d
00000210: 14fc 3c3d 8762 ad3c acd5 f3bd 60d5 6cbc
00000220: e38e c53d 3b6f c93e a080 523d 6679 d03c
00000230: da86 a43d aeaf 96be 809c 6bbb f9f3 a5be
00000240: 26ac 803c 86ca f13d 30ff b7bd cc1a 333e
00000250: b956 f83e 3a8b a93d 86bb cabd 456b 19b8
00000260: 99f2 823f 04eb 42bd 3869 5c3a 8a2a 0bbd
00000270: 43e3 8d3c f718 b63e 1c06 473d e8d2 b1bd
00000280: 08b4 48bd 3640 af3d 5c86 8d3d 1e81 a6bd
00000290: 51fc 0e3d 19b3 53be 6697 17be fe08 723d
000002a0: 0d17 7d3d 56ce f8bd 58bb 2a3d 5c63 913d
000002b0: 8c2b 9ebe 82a1 993b ab93 efbe 00ba a4bb
000002c0: 6489 90bd ab70 813b c999 ef3c 5899 403d
000002d0: e51b 333e 9cbb 75bd 98a1 163d f8fc c23c
000002e0: 67bc 0a3b 7d6b 2bbc 58b4 f53d 6ec2 8d3d
000002f0: 9471 c4bd 3cd9 94be daa1 26be 46fa da3d
00000300: 80a3 003d d946 5aba 65e0 86bd 60fb 3ebc
00000310: 0863 143d d0e7 c93d c003 6dbb bc09 183d
00000320: 569c 25be c6a5 40be 50fc 093d be2c 09bd
00000330: 21cc 26bd 7218 eebd 749b 49bd b799 39bd
00000340: 9010 a0bd c919 743e 0411 98bd 73a4 eebd
00000350: 7439 ba3d 1036 523c ac32 d8bd b233 55bd
00000360: 932f 2fbf f020 043d 8fe8 703c 6aeb 03bc
00000370: 4eda ecba 21e0 febd 2a86 e73d b81c 673d
00000380: 9bc3 543d c05f 713d e6bf c23d 2441 753d
00000390: aca0 e5bd b3b8 bbbd 1b8d 37bf 5568 29bd
000003a0: 99c3 813c 2453 e53d 4ce1 073d ea7d 9f3d
000003b0: 1a8a 8fbc 8b15 983d b80e 6ebe 701e e73d
000003c0: 20ac 2fbd 2a1f 383e 081f 023d 2481 c93d
000003d0: 75e7 cdbd dcbf 0abd fa4f 92bd 2493 db3d
000003e0: 659c a53c 22b4 993c 7e47 f4bd 00b4 07bd
000003f0: 808d 20bb cd6e 00bc 93b8 c63b 30f1 603d

layers.3.bias f4 [32]
-0.020523103 0.058823615 0.066420436 0.3093705 0.07584307 0.30754924 0.07574448 0.26963547
-0.0034464228 0.21343824 0.43000075 -0.0909722 0.08816075 -0.24955115 -0.09540051 -0.3644641
0.19646747 -0.123586796 0.14045763 -0.23802426 -0.3953464 0.2780681 -0.12463587 -0.063150994
0.17183904 -0.4367044 -0.029329961 -0.33258802 0.20750192 0.2491018 -0.20077342 -0.12867996
00000000: 1120 a8bc 08f1 703d 7007 883d cf65 9e3e
00000010: 9d53 9b3d 1877 9d3e ec1f 9b3d a90d 8a3e
00000020: 61dd 61bb 8e8f 5a3e 0f29 dc3e a24f babd
00000030: a08d b43d 568a 7fbe 5861 c3bd 0a9b babe
00000040: c52e 493e 131b fdbd 20d4 0f3e a2bc 73be
00000050: d86a cabe f15e 8e3e 1741 ffbd 4f55 81bd
00000060: 93f6 2f3e b897 dfbe 6345 f0bc fa48 aabe
00000070: 627b 543e 8b14 7f3e 8c97 4dbe aec4 03be

layers.6.weight f4 [16, 32]
0.027214183 -0.00189213 0.13502395 0.03796156 -0.0023117329 0.32197553 0.30387133 -0.04065816
0.032287396 -0.26279122 0.08156581 0.0014581049 -0.009878784 -0.10643318 0.16018146 0.553982
-0.10942672 -0.22378021 0.15051167 0.4168708 0.42231742 0.4787973 -0.17798576 -0.05850019
-0.2983228 -0.01965728 0.17906412 0.51462835 0.5753625 0.7965524 0.25869766 0.50695854
-0.032468513 -0.22798815 -0.45515877 0.49038213 -0.3927457 -0.54263616 -0.42347 0.35413527
-0.53190535 0.7883716 0.22073112 -0.04420483 -0.37520707 -0.08749067 -0.59218633 -0.19532451
0.043037422 -0.2751552 -0.39656466 -0.2186496 -0.21276455 -0.58815855 0.24008088 -0.52199626
0.37084064 -0.023233436 -0.2498038 -0.229398 -0.4914588 -0.6012297 -0.3199085 -0.120005324
0.05461632 0.019914147 0.15722536 0.10263996 -0.027151216 0.72337407 0.38154852 -0.11705919
0.2980154 -0.2022017 0.09875766 -0.17513892 0.08978929 -0.10072949 0.03494049 0.5397675
0.11570121 -0.3446318 0.32047674 0.43247336 0.391674 0.83999383 -0.25164995 0.23051378
-0.24125996 0.008547509 0.34603962 0.6604367 0.78329766 0.83484066 0.32180223 0.35042801
0.14457297 -0.08201475 0.035776563 0.005904888 0.1484351 -0.029803 0.30392152 -0.028425913
0.017112525 -0.25613406 0.1423718 -0.033668507 0.024447773 -0.42619935 0.19824709 0.59817094
-0.067051016 -0.42501354 0.23179872 0.34651506 0.55489933 0.36499813 -0.23906395 0.12242859
-0.27579543 0.076376505 0.27370137 0.6559954 0.73927706 0.8398113 0.25363523 0.38246086
-0.12230692 0.05060645 0.2515771 0.11540117 0.09059773 0.8202147 0.25507408 -0.12233057
0.25380588 -0.2031179 0.022299351 0.14237139 0.07568456 -0.03370718 -0.012079755 0.73966324
-0.017544955 -0.39325324 0.42198563 0.24972315 0.50600135 0.78559774 -0.29110742 0.09541732
-0.20240104 -0.06599615 0.24309339 0.51959175 0.6659723 0.8412263 0.34025413 0.6445632
-0.026543258 -0.057106238 0.32966083 0.10003513 0.027362281 0.85275954 0.40788388 -0.13250454
0.263096 -0.23550618 -0.007460672 0.068260506 0.08005797 -0.18964665 0.19753781 0.62957245
-0.0570632 -0.31236574 0.4711958 0.5152524 0.30689642 0.611642 -0.18008612 0.23625721
-0.27224064 0.022449242 0.3869844 0.5296183 0.68995667 0.92289287 0.2780651 0.564356
0.15736625 0.04607121 0.11460623 0.15394932 -0.088584796 0.2962329 0.14184444 -0.019168332
-0.03196539 -0.26083168 0.10297678 -0.15327178 0.0059020324 -0.19977987 0.10693188 0.6619306
-0.060722347 -0.38525388 0.21559437 0.46408755 0.396832 0.3912189 -0.057059914 -0.08489834
-0.3558992 0.025071893 0.17346726 0.48365277 0.5205196 0.45110226 0.2718262 0.3460545
-0.30494708 -0.4562653 -0.75191253 0.22212818 -0.5542325 -1.0939546 -0.826457 0.53472286
-0.981818 0.75829923 0.30935082 0.09783412 -0.6836617 -0.11827581 -0.75274944 -0.63003486
0.21689373 -0.43270838 -0.6427687 -0.44263518 -0.80431366 -0.74321723 0.2885501 -1.0055245
0.51145416 -0.15526573 -0.2901841 -0.7691428 -0.9012572 -1.4632498 -0.5110523 -0.50290734
00000000: 47f0 de3c 5901 f8ba b843 0a3e 957d 1b3d
00000010: 7180 17bb fad9 a43e 0695 9b3e 2c89 26bd
00000020: ca3f 043d 928c 86be fa0b a73d e21d bf3a
00000030: a0da 21bc a4f9 d9bd 9c06 243e c4d1 0d3f
00000040: 1e1b e0bd a426 65be bb1f 1a3e 1770 d53e
00000050: fd39 d83e eb24 f53e e641 36be e59d 6fbd
00000060: c4bd 98be 4e08 a1bc 965c 373e afbe 033f
00000070: f54a 133f dcea 4b3f 0574 843e 09c8 013f
00000080: b4fd 04bd ba75 69be 920a e9be 5e13 fb3e
00000090: f715 c9be 34ea 0abf 0fd1 d8be 3851 b53e
000000a0: f32a 08bf b9d2 493f 5707 623e 2010 35bd
000000b0: 241b c0be 4f2e b3bd 8699 17bf 2603 48be
000000c0: 0248 303d 24e1 8cbe 860a cbbe aee5 5fbe
000000d0: f3de 59be 8f91 16bf c3d7 753e 8ca1 05bf
000000e0: d3de bd3e 0c54 bebc 91cc 7fbe 4fe7 6abe
000000f0: 7da0 fbbe 31ea 19bf 0ccb a3be 5ac5 f5bd
00000100: 5db5 5f3d fe22 a33c afff 203e e634 d23d
00000110: 3a6c debc 0b2f 393f 545a c33e bbbc efbd
00000120: 7995 983e f60d 4fbe 7541 ca3d 9e57 33be
00000130: 73e3 b73d 434b cebd c21d 0f3d 342e 0a3f
00000140: c2f4 ec3d 9473 b0be 8715 a43e 266d dd3e
00000150: 7f89 c83e d609 573f 43d8 80be ce0b 6c3e
00000160: da0c 77be da0a 0c3c 1b2c b13e 6112 293f
00000170: 3286 483f 1eb8 553f 43c3 a43e 4d6b b33e
00000180: f00a 143e 59f7 a7bd 728a 123d ca7d c13b
00000190: 5fff 173e 6c25 f4bc 9a9b 9b3e 76dd e8bc
000001a0: 912f 8c3c 0124 83be eac9 113e fde7 09bd
000001b0: b246 c83c cd36 dabe 4901 4b3e bb21 193f
000001c0: 0b52 89bd 609b d9be a55c 6d3e 6c6a b13e
000001d0: e20d 0e3f 09e1 ba3e 2ecd 74be d7bb fa3d
000001e0: 0f35 8dbe 496b 9c3d 9622 8c3e 51ef 273f
000001f0: 4341 3d3f e0fd 563f 7adc 813e e9d1 c33e
00000200: 0d7c fabd b548 4f3d b7ce 803e 7357 ec3d
00000210: 4d8b b93d 97f9 513f 1299 823e 7388 fabd
00000220: d8f2 813e 24fe 4fbe 21ad b63c cec9 113e
00000230: 8200 9b3d 8a10 0abd 2aea 45bc 925a 3d3f
00000240: 70ba 8fbc 7d58 c9be 800e d83e 6db7 7f3e
00000250: 4e89 013f ef1c 493f 080c 95be 286a c33d
00000260: 3842 4fbe fd28 87bd 79ed 783e f703 053f
00000270: 297d 2a3f 9b5a 573f ca35 ae3e 1802 253f
00000280: 3f71 d9bc 3be8 69bd 4ec9 a83e 38df cc3d
00000290: dd26 e03c 734e 5a3f 28d6 d03e 45af 07be
000002a0: 85b4 863e 8828 71be a778 f4bb 2acc 8b3d
000002b0: 6ff5 a33d bb32 42be 5a47 4a3e a92b 213f
000002c0: 1abb 69bd 67ee 9fbe 9340 f13e 95e7 033f
000002d0: 8721 9d3e 9294 1c3f 7f68 38be 69ed 713e
000002e0: 2063 8bbe 79e7 b73c d222 c63e 1195 073f
000002f0: 00a1 303f b542 6c3f 8c5e 8e3e a379 103f
00000300: 9e24 213e 2ab5 3c3d acb6 ea3d e4a4 1d3e
00000310: f26b b5bd d7ab 973e ab3f 113e e806 9dbc
00000320: 24ee 02bd bb8b 85be 7de5 d23d 47f3 1cbe
00000330: d665 c13b 1893 4cbe 1aff da3d 4974 293f
00000340: ffb7 78bd ff3f c5be c5c4 5c3e e29c ed3e
00000350: 902d cb3e d84d c83e a8b7 69bd 2edf adbd
00000360: 6c38 b6be 9263 cd3c 67a1 313e 56a1 f73e
00000370: c640 053f e0f6 e63e ce2c 8b3e 0e2e b13e
00000380: 0622 9cbe 9b9b e9be 577d 40bf 9275 633e
00000390: 2ee2 0dbf b406 8cbf b092 53bf 99e3 083f
000003a0: 6d58 7bbf e61f 423f 3b63 9e3e 415d c83d
000003b0: 7404 2fbf 963a f2bd 30b4 40bf f749 21bf
000003c0: 6419 5e3e f48b ddbe 7d8c 24bf 14a1 e2be
000003d0: 80e7 4dbf 7c43 3ebf d7bc 933e 07b5 80bf
000003e0: a9ee 023f fbfd 1ebe 0393 94be 8be6 44bf
000003f0: cbb8 66bf c54b bbbf 53d4 02bf 89be 00bf

layers.6.bias f4 [16]
0.09265651 0.38077557 -0.026024891 0.06404352 0.0592057 0.11927091 0.018272253 0.6589833
0.05031699 -0.47973153 0.71738285 0.06780237 0.080919735 0.1374392 0.053563163 -0.35904536
00000000: b2c2 bd3d 04f5 c23e 2732 d5bc 4029 833d
00000010: ad81 723d 4f44 f43d b1af 953c 21b3 283f
00000020: 3019 4e3d 5f9f f5be 67a6 373f f8db 8a3d
00000030: 3fb9 a53d ddbc 0c3e 0c65 5b3d cbd4 b7be

layers.9.weight f4 [1, 16]
-0.6938796 1.1807027 -0.47095734 -0.44793555 -0.5044668 -0.4165578 -0.6727022 1.2458342
-0.5423526 0.48363912 1.6795768 -0.69249636 -0.50450855 -0.7158695 -0.4295111 0.7542346
00000000: 18a2 31bf 4421 973f 5221 f1be cf57 e5be
00000010: bc24 01bf 1047 d5be 3636 2cbf 7f77 9f3f
00000020: 9fd7 0abf 8c9f f73e 5ffc d63f 7147 31bf
00000030: 7927 01bf 3943 37bf e1e8 dbbe 8515 413f
