models/Regression/antipion.pt (torch, 18905 bytes, 7 tensors)

layers.0.weight f4 [64, 19]
000000 15 b0 0b 3f 21 b6 f4 3b 3d 1b e8 bc 83 b6 66 3c
       0.54565555 0.0074680005 -0.0283333 0.0140816
000010 b7 5e e3 bc 68 56 c6 bd 6a 58 b8 3d cb bf 30 3c
       -0.027755124 -0.096844494 0.09001239 0.0107879145
000020 98 08 d5 3b f6 e5 80 3c f4 37 b8 3f 59 91 36 bd
       0.0065012686 0.015734654 1.4392076 -0.044572208
000030 f2 5d bd 3b 4f 2f c5 bb 56 00 13 3d a5 03 9f 3b
       0.0057790214 -0.0060176025 0.035888992 0.0048527294
000040 53 97 10 3c 0a 92 5b 3b 45 51 1f bc 19 5c aa 3d
       0.008825141 0.0033503794 -0.009723966 0.083183475
000050 9c 06 6f 3e 11 9d b6 3d 91 f2 da bd 84 c6 be bd
       0.23342365 0.08916677 -0.10690797 -0.093152076
000060 11 dc f3 bd 36 b4 1d bd 8f e9 1c be 95 dc 3b 3e
       -0.11907209 -0.03850194 -0.1532347 0.18345864
000070 d8 5e 2e be 16 9e e1 3c 9c bb 48 3d 0c f2 45 be
       -0.17028368 0.027541202 0.049007043 -0.19330615
000080 3d 85 47 3e b6 9c 0b be 75 87 f2 bd a7 da 50 be
       0.1948442 -0.13633999 -0.11842243 -0.20395909
000090 f8 79 1c 3e f6 14 25 3e cd b5 a6 3f fc 7b c3 3c
       0.15280902 0.16121277 1.3024231 0.023862831
0000a0 be 19 eb b9 80 03 8e be 6f 90 b0 3f ff 1f 0f be
       -0.00044841872 -0.27737045 1.3794078 -0.1397705
0000b0 6d 51 9b be 28 69 ea 3b 59 50 a1 bc 75 e3 1c 3c
       -0.3033556 0.007153649 -0.019691633 0.009575714
0000c0 e7 d1 36 bf 5f ab c6 39 d3 da 30 ba 85 cb e7 3b
       -0.71414036 0.00037893184 -0.00067464745 0.007073822
0000d0 91 d6 06 bb de 8d ee 3a cf f1 3e 3c 01 29 eb 3c
       -0.002057467 0.0018200239 0.011654331 0.028706076
0000e0 df 70 43 3c b3 bf ce bf 13 be a5 be ea 41 27 bb
       0.011928766 -1.6152252 -0.32371578 -0.0025521466
0000f0 81 96 f2 be 9e 43 e6 3f 1b c3 6b 3c ad b0 45 bd
       -0.4738045 1.7989385 0.0143897785 -0.048264194
000100 47 69 5b 3c 5d 0d 96 bb e6 9f b6 3b 7b 5e 83 be
       0.013391799 -0.0045792297 0.0055732606 -0.2565802
000110 d5 38 d7 bc d5 d7 bf bd 70 bd 9e bc 99 b8 dc 3c
       -0.026272217 -0.093673386 -0.01937744 0.026943492
000120 8b 62 85 bb b6 55 af 3c 73 62 b6 3d 4f 2a a4 3b
       -0.004070585 0.021403175 0.089054964 0.0050099264
000130 5c 34 9d bd 4f 8e 71 3e c5 b9 3d bd aa 73 0c bf
       -0.076760024 0.23589443 -0.04631974 -0.5486399
000140 93 b8 f7 3e b2 46 51 bf ca 08 09 bf 8c c6 4e 3e
       0.48383006 -0.817485 -0.53529036 0.20192927
000150 05 b2 4e 3d 26 e4 87 be 56 01 15 3e 65 07 13 bd
       0.05046274 -0.2654125 0.14551291 -0.035895724
000160 a7 30 c1 bd 53 4c b9 3c 86 83 56 bd 1f 3b 72 3c
       -0.09433108 0.022619402 -0.052371524 0.014784603
000170 81 95 03 3e 1e cb 4a 3d 1c 1d e2 3c 18 da 93 3f
       0.1285 0.049510114 0.027601771 1.1550932
000180 f6 41 97 3e 6c 82 06 be eb df 04 3f aa 5b c7 be
       0.29542512 -0.1313569 0.5190417 -0.38937122
000190 ca 9b 31 be a6 b7 22 be 30 a3 f1 bc 5e 99 ef 3d
       -0.17344585 -0.15890369 -0.02949676 0.11699174
0001a0 78 7c 26 be 81 59 ba 3e b8 f8 88 3d ac 19 01 3d
       -0.16258419 0.3639641 0.06688064 0.031518623
0001b0 57 6f 45 be a3 fa 3a be 3f 0b 58 3b cf 98 ce be
       -0.19280754 -0.18259673 0.0032965688 -0.4035096
0001c0 ad 56 ff bd 7a 05 96 bb bf b6 ab be 90 24 9d bd
       -0.12467704 -0.0045782896 -0.33537862 -0.07672989
0001d0 ee 30 3a 3c f2 9c c4 be a8 7a bc be b0 3a 3e bd
       0.011364205 -0.3840099 -0.3681233 -0.046442688
0001e0 aa 37 a7 3d 6a 55 11 3a 61 83 eb bb 3b c9 1a 3d
       0.08164914 0.0005544039 -0.0071872924 0.037789565
0001f0 61 b1 97 3f 4d 89 45 bd d7 d3 24 3d 4e e0 d2 3b
       1.1851007 -0.048226643 0.04024109 0.0064354306
000200 43 83 3c 3d ff 83 8b 3a bd 6c 62 3b d2 11 e0 3b
       0.04602362 0.0010644196 0.0034549676 0.006838062
000210 b4 d6 30 3c 8e bf 8c be 07 30 7e bf bb ac dd 3d
       0.010793377 -0.27489895 -0.99292034 0.10823961
000220 e1 cc 3d be 11 43 21 3e 0d 92 36 be 2a 86 a0 bd
       -0.18535186 0.1574824 -0.17829151 -0.0783809
000230 ff 23 08 3d 34 6b bd 3b ee ed 9e 3e b3 ae ff 3d
       0.033237454 0.005780602 0.310409 0.12484493
000240 65 de 07 3e 90 0c 9e bc b3 bc c7 bc f9 be f6 bc
       0.1326843 -0.0192931 -0.024381971 -0.03012036
000250 76 05 88 bc 0a 99 a9 3d 4a 43 3c 3d 90 b2 2f bc
       -0.016604166 0.08281143 0.04596261 -0.010723725
000260 97 cf 4a 3e 91 eb 3d 3d ea 3c f8 39 96 5a 83 bd
       0.19805752 0.04636723 0.0004734763 -0.06413762
000270 bb bb b8 3f f8 bf 0d bf 80 41 4e be 83 05 8c 3c
       1.4432291 -0.55371046 -0.20142174 0.017092472
000280 d3 72 85 bd ce 28 50 3c ee 7f 42 bf ed b2 45 3d
       -0.065160416 0.012705041 -0.75976455 0.04826634
000290 20 97 05 bd 3e df 29 3c 98 74 03 bc 7c 40 70 3a
       -0.032614827 0.0103681665 -0.008023404 0.00091648824
0002a0 26 75 62 3c c8 92 31 bc 10 e3 69 bc 50 b7 15 3c
       0.013821876 -0.010838218 -0.014275327 0.009137943
0002b0 13 8b e6 bd ec 87 bf bd d1 df 4b 3e ec 00 43 bd
       -0.11256995 -0.09352097 0.19909598 -0.0476083
0002c0 51 7b 33 be 0e 3f ab bd 83 35 13 be 59 33 65 3e
       -0.1752751 -0.08361636 -0.14375882 0.22382869
0002d0 81 b2 5d 3e fb 95 24 3e a8 c2 06 be 72 3d 60 be
       0.21650125 0.16072838 -0.13160193 -0.2189844
0002e0 66 f2 ab bd 68 44 d5 bc cc b0 14 be 34 9f 3b be
       -0.08395843 -0.026033595 -0.14520568 -0.1832245
0002f0 cd e8 1d 3e f8 ab 90 bc b1 b6 02 3f 05 ed 6f 3e
       0.15420838 -0.017660126 0.51060015 0.2343026
000300 db bf 2d 3d f2 24 0f be 2b 51 78 3f 87 50 67 be
       0.042419296 -0.13978937 0.9699885 -0.22589312
000310 ae 65 1f bf 3e 4f 1a be 29 18 cd bd af 7d 97 3d
       -0.62264526 -0.15069291 -0.10014374 0.07397019
000320 07 20 18 bf 3c ba 23 3e d0 a4 dc 3d 2b 02 25 bc
       -0.5942387 0.15989012 0.10773623 -0.010071318
000330 7a 87 5b bd 2f 52 b0 bb 8d 24 09 bc 73 13 5d bc
       -0.053595997 -0.005380891 -0.008370531 -0.013493407
000340 eb c0 1f 3e aa e1 99 3f 1a 08 fd 3d 8a e8 0c be
       0.15600936 1.2021992 0.12355061 -0.13760582
000350 3f 09 a4 3d b6 ff 7d be cd 92 ce be 05 ab 1b bf
       0.08009576 -0.24804577 -0.40346375 -0.6080783
000360 94 84 96 bd 4b 69 3f be a3 ab 0b 3e ef a6 35 bf
       -0.07349506 -0.1869251 0.13639693 -0.70957845
000370 a5 36 31 3e 10 4f 23 3e b5 a7 9c 3d 7d 91 b7 3c
       0.17306001 0.15948129 0.07649175 0.022408241
000380 a6 22 e1 3b c6 2b 01 3d 6b 92 b7 3a 95 8c 03 bd
       0.0068705855 0.031535886 0.0014005428 -0.03211649
000390 6e ee 47 be f8 af 64 be 40 e9 ac bb 64 de 77 bc
       -0.19524547 -0.22332752 -0.005276829 -0.015128706
0003a0 3b a9 06 be c8 a9 02 c0 10 5c f6 bf 40 3b 1c 3d
       -0.13150494 -2.0416126 -1.9246845 0.038142443
0003b0 84 4e 9a bd 14 81 af bc d2 83 46 bf 0b b4 5e 3c
       -0.07534507 -0.021423854 -0.7754489 0.01359273
0003c0 c7 7b e4 bb 2e ef ec ba fd f6 e6 bb 62 af cc 3a
       -0.006972763 -0.0018076652 -0.0070484863 0.0015616233
0003d0 d0 c3 80 bc e7 ac 70 3b 15 aa 49 38 ee 3c a8 3d
       -0.01571837 0.0036724152 4.8080536e-05 0.082147464
0003e0 a7 f2 cc be 60 d7 1a 3c fb bb e6 be b0 b9 40 3e
       -0.4002888 0.009450763 -0.45065293 0.18820834
0003f0 32 a5 7f bf ec 24 3b bf a6 ed 9b bd 16 85 b9 bd
       -0.99861443 -0.73103213 -0.07613687 -0.09058587

layers.0.bias f4 [64]
000000 99 a1 f8 3d e9 9d 28 bd 1f 2e 05 be 51 ac ce bd
       0.12140197 -0.04116622 -0.13005875 -0.100914605
000010 7b 62 40 be 2c d1 11 3c 39 69 97 3d df 43 6e 3c
       -0.18787567 0.008899968 0.073931165 0.014542549
000020 a9 0c c5 3d 66 ae 9e bd 78 af 30 be c9 d6 37 be
       0.09621555 -0.077481076 -0.17254436 -0.17953028
000030 04 64 2b be 04 62 b3 be a3 91 70 bd 2a f4 ee 3d
       -0.16737372 -0.35035717 -0.05873264 0.11667664
000040 8d 56 2c be 3b d7 0b 3e a9 4d 14 3e 7a 46 bc be
       -0.16829892 0.13656323 0.1448275 -0.3677252
000050 92 d4 09 be 74 11 4f 3d fd 3f 24 3e 50 af e2 bd
       -0.13459995 0.050553754 0.16040035 -0.110685945
000060 7f 45 5e be ad 6e 39 be 96 42 ce 3c 16 6f d5 3d
       -0.21706198 -0.18108626 0.025178235 0.104215786
000070 7e a0 00 be 10 30 4d be c4 d0 87 be b9 d0 55 3e
       -0.12561223 -0.20037866 -0.26526463 0.20880403
000080 10 e4 03 3d d2 de 45 be a0 ae 30 bd c5 9f 3e 3e
       0.03219992 -0.1932328 -0.043135285 0.18615635
000090 a1 98 f6 bd 4f 27 8f be 35 95 5f be c6 8d 66 3d
       -0.120408304 -0.27959678 -0.21834262 0.05628755
0000a0 18 c2 6c be 92 2e e2 3c c6 8a b5 bd f1 e9 33 be
       -0.23120916 0.027610097 -0.088643596 -0.1756971
0000b0 20 90 5c bc 8a 86 99 bd 03 25 53 be e8 a9 6d bd
       -0.013462096 -0.074963644 -0.20619588 -0.058023363
0000c0 2f 33 14 b9 36 9b 35 be a4 9f 24 bd 2e f0 56 be
       -0.00014133447 -0.1773499 -0.040191308 -0.20990059
0000d0 b7 90 98 be 82 d6 b1 3d 30 d9 82 be 8a ad 9a bd
       -0.2979791 0.08683492 -0.25556326 -0.07552631
0000e0 76 3d 55 be 48 c1 29 bd ea e1 1f be 7c cd 6e be
       -0.20824227 -0.041444093 -0.15613523 -0.23320574
0000f0 6f d4 29 3e ef 9c a1 ba e9 d0 bd 3c 19 cd 6f bc
       0.16584943 -0.0012330095 0.023170905 -0.014636301

layers.3.weight f4 [32, 64]
000000 fa 0d 04 be bb 26 5c bd 95 8f 06 3e 6b 99 17 bf
       -0.12895957 -0.053747874 0.1314071 -0.5921847
000010 0e 33 ca 3a 5c 41 c1 bd ce 1b f3 bd 0d c1 e3 bc
       0.0015426592 -0.094362944 -0.11870538 -0.027802015
000020 7e 00 a8 3d 00 aa 80 b9 06 42 c6 3d 95 09 64 3d
       0.08203219 -0.00024540722 0.09680562 0.0556732
000030 b9 1a 99 3f 7d 06 db 3c 3d 66 ab 3d 34 4b 54 3d
       1.196128 0.026736492 0.0836911 0.05182953
000040 89 47 bb 3d 80 51 a5 ba ac bc 1f bd 9c 34 83 3d
       0.091445036 -0.001261279 -0.03899829 0.06406519
000050 50 0d be bc 34 ef 48 3d 14 27 b9 bd d5 74 42 bd
       -0.023199707 0.049056247 -0.09040657 -0.0474747
000060 af 8c 67 3d 5e 49 5e bd b8 c0 6e bd e3 e4 34 3e
       0.05653065 -0.054269187 -0.05828926 0.17665438
000070 a8 ab 0e 3d f2 ca f2 be 59 ef 59 3e bc 89 1b bd
       0.034831673 -0.4742046 0.2128271 -0.03797315
000080 f8 ea b0 bd 5a 58 ab bd 64 8b 9a bd c0 c0 f1 3b
       -0.08638567 -0.08366461 -0.07546118 0.007377714
000090 00 06 33 bb 90 99 7f bd 1f a8 8b 3e b4 f0 04 3e
       -0.0027316809 -0.062402308 0.27276704 0.12982446
0000a0 d8 0c 01 bb a9 6d 5a bd 0a cd e2 bc d3 98 00 3e
       -0.0019691493 -0.053327236 -0.02768566 0.12558298
0000b0 f4 16 a4 3d b0 ff 7c 3c bc 1f ab 3d 10 01 f9 3c
       0.080121905 0.01544182 0.08355662 0.030396014
0000c0 03 ad 10 3f 8e f4 10 3e 10 fb cc bc 6e d8 f0 bd
       0.56513995 0.1415579 -0.02502206 -0.11760031
0000d0 52 30 d6 ba 20 7d e3 3d 67 1b 0f be e8 f9 10 3e
       -0.0016341305 0.1110785 -0.13975297 0.14157832
0000e0 92 6c 17 bf 14 87 75 bd f8 48 25 bd 43 d6 2f 3a
       -0.5915004 -0.059943274 -0.04035279 0.00067076477
0000f0 8e 45 da 3d 61 6b 91 3e 71 8b 13 be 00 90 fa 3b
       0.10657798 0.28402236 -0.14408661 0.0076465607
000100 a3 4e 88 be a0 d8 46 3d e7 46 83 3d ec 19 64 3e
       -0.26622495 0.048546433 0.06410008 0.22275513
000110 7c 93 6e bc 4b 19 67 bc 63 e5 5a 3e 6b fe a6 3d
       -0.01456153 -0.014105151 0.21376567 0.08153995
000120 7c ac a9 3d 3c 33 fc bd e3 23 f7 bd 3e b5 c2 bc
       0.08284852 -0.1231446 -0.12067392 -0.023768064
000130 be 85 37 bf c2 b8 60 3d d6 2b 1f be d4 12 4b bd
       -0.7168845 0.0548637 -0.15544066 -0.049578503
000140 59 77 e5 bb 5c bb 2a 3d f0 e4 96 3d a3 7e fd bd
       -0.0070027527 0.041682586 0.07367885 -0.1237767
000150 e8 9b f4 3d 30 95 cf bc 00 52 cb b9 e2 eb 7d 3d
       0.11943799 -0.025339693 -0.00038780272 0.061992534
000160 c0 41 c8 3d 39 c5 d3 bd 76 5a e1 bd 80 d6 6b 3d
       0.09778166 -0.103403516 -0.11003582 0.05757761
000170 a8 87 8d 3d 2f 23 c3 3c d4 fb 2b 3d 8c 2c 16 3d
       0.0691064 0.023820488 0.04198821 0.036663577
000180 c4 68 9b bd 98 ce fe 3c f0 a5 19 3c 84 d4 ad bd
       -0.07588342 0.031104371 0.0093779415 -0.084878
000190 c0 d2 86 bc 62 e3 cf bd 45 10 0e bd 58 3d 7d bb
       -0.016457915 -0.10150792 -0.034683485 -0.00386413
0001a0 d3 66 6e 3c dc b0 03 bf 48 e5 3b 3d d4 f8 bc bc
       0.014550882 -0.5144174 0.045872957 -0.02306787
0001b0 2a 6c a8 3d 22 a7 91 3d 24 6c b3 3d 0d 82 4e be
       0.08223756 0.07111956 0.087608606 -0.20166798
0001c0 06 2c 03 bf 96 75 68 3d ca 8e 98 bd b8 75 a6 bd
       -0.5123905 0.056752764 -0.0744911 -0.08127922
0001d0 65 af b9 3c 6c 72 d4 bd 86 7e fb be e1 e8 f5 bd
       0.022666642 -0.10373387 -0.49119967 -0.12007309
0001e0 78 24 86 3e 1e f3 f5 bd f0 c4 d0 bc 26 0e 95 3b
       0.26199698 -0.120092615 -0.025484532 0.0045488058
0001f0 b6 df b9 3d cc fb aa be 9c b1 39 bd 6e c6 fc bd
       0.090758726 -0.3339523 -0.045335397 -0.12342535
000200 7b fa b7 3d 50 ca fd 3d 4d 14 0b be 65 94 a7 3d
       0.08983322 0.12392104 -0.13581963 0.08182601
000210 b3 b4 5e 3c f2 2b b6 bd 50 94 b6 bd f8 88 f1 bc
       0.013592887 -0.08895101 -0.08915007 -0.029484257
000220 2b dd ea bd 18 fb 80 3d 5b 55 f1 bd 74 99 04 3d
       -0.11467966 0.06297892 -0.117838584 0.032372907
000230 69 70 34 bf 83 2b 2d bd 9c 93 f7 3b 00 a8 2c 3b
       -0.70484024 -0.042277824 0.007555438 0.0026345253
000240 16 9b 52 3d 76 dc 83 bd f8 b8 d9 3d c8 2d 8b bc
       0.051417433 -0.06438534 0.10630983 -0.016989604
000250 e8 b9 83 bd 0c e2 e4 bd 94 c1 fd bd 98 96 38 3a
       -0.06431943 -0.111759275 -0.12390438 0.0007041483
000260 f4 33 5e 3d 35 79 63 3e bc c9 ca 3d 80 ee a5 bf
       0.054248765 0.22214206 0.09901759 -1.296341
000270 c8 e6 40 bd 9d fb 22 3c 07 4f 9b bc d0 62 c7 bd
       -0.04709509 0.009947685 -0.018958582 -0.09735644
000280 81 af 06 be 70 32 93 3d ba 7f e0 bd b6 a9 cd bd
       -0.13152887 0.071873546 -0.10961862 -0.100421354
000290 54 6e ed bd 86 70 3f 3d 48 85 05 3e 2f a7 00 3e
       -0.11593309 0.04673817 0.13039124 0.12563775
0002a0 58 3f e0 3d 3b 7d 33 be 94 3a bb bb b4 b5 5b 3e
       0.10949582 -0.1752824 -0.00571377 0.21456033
0002b0 10 18 0c 3d 3c 79 65 3d 70 d6 f0 3d bc 1f f6 bd
       0.034202635 0.05602382 0.11759651 -0.120177716
0002c0 00 80 2e bf ad 14 42 bf ec a2 39 bd c0 41 ce bb
       -0.6816406 -0.758128 -0.04532139 -0.006294459
0002d0 ab 31 40 3d 7e 44 a6 bd 81 ac b2 bd be b1 b6 be
       0.046922367 -0.081185326 -0.08724309 -0.35682482
0002e0 bc d1 ce 3e c0 b5 73 bb a8 3b 93 3d 9b 20 cd bc
       0.4039439 -0.003718719 0.07189113 -0.025039962
0002f0 4c 3d 6a bd 55 20 15 3f 9a b4 20 3d be 94 b7 bd
       -0.057187364 0.5825246 0.039234735 -0.08963917
000300 7f 4b 3e bf 62 d1 f1 bd 90 35 42 bc 53 6e c6 be
       -0.7433395 -0.11807515 -0.011853591 -0.38756046
000310 d5 11 35 3d 9e f8 3e be 81 2b ef 3d 1c 40 bc bd
       0.04420646 -0.18649527 0.116782196 -0.091919154
000320 52 dd 74 3d 40 22 89 3d ec 15 ac 3d ef cd dd bd
       0.05978138 0.06695986 0.08402619 -0.10830294
000330 ae 2c 9d 3f 56 96 e5 3d c8 7a 98 bd 32 80 ba 3d
       1.227926 0.11210315 -0.07445294 0.091064826
000340 59 46 b9 3c f0 55 d6 3d 8e 3e c7 3d cb 1b 01 3c
       0.022616552 0.1046561 0.09728728 0.0078801615
000350 b0 59 71 bc 24 65 df 3d 2a f1 8f 3d 82 6f 06 be
       -0.014730856 0.10907963 0.0702842 -0.13128474
000360 28 32 7e bd b4 f1 9a be d6 f9 23 3c e5 c7 b2 3e
       -0.06205955 -0.3026253 0.010008296 0.34918132
000370 c0 7b 5c 3c 81 26 a6 be 1b 2f 01 3f d4 60 7f 3d
       0.013457239 -0.3245125 0.504625 0.062348202
000380 c2 68 c6 3c c4 ab e3 3d 5e 01 ae bd 24 66 ea 3d
       0.024219874 0.11116746 -0.084963545 0.11445263
000390 dc a8 2e 3d 7c 1b a7 bc 1f 7e 35 3e 0b a3 65 3e
       0.042641506 -0.020398848 0.17723893 0.22425477
0003a0 24 30 4f 3d be 51 e0 bd cc 92 cf bd bc 06 45 bd
       0.05058302 -0.10953091 -0.10135421 -0.048102126
0003b0 80 1d f7 3d a8 a4 45 bd b0 88 62 3c 9e ff 54 3e
       0.120661736 -0.04825273 0.013826534 0.20800635
0003c0 26 7a 8b 3e ea 5e d4 3e 14 91 5a 3d b0 a0 2a bc
       0.2724163 0.41478664 0.053361014 -0.010414287
0003d0 ce b2 6a be a0 e3 cf 3d f5 79 e1 3d 61 0e b9 3c
       -0.22919771 0.10150838 0.110095896 0.022589864
0003e0 8c 21 07 bf 14 45 b2 bd b8 56 d6 3c ac 53 fa bd
       -0.52785563 -0.08704582 0.026164398 -0.122229904
0003f0 9a 93 c9 3d 92 3e b2 bd 1e fd 2e bd 9c d4 1a bd
       0.09842606 -0.087033406 -0.04272186 -0.037800416

layers.3.bias f4 [32]
000000 d7 f9 d5 be ad a5 88 3e 54 2f 03 3e a7 cd 04 be
       -0.41792175 0.266889 0.12811023 -0.12969075
000010 1a aa ea 3d 43 a0 d8 3c 5c 2d 8a 3d b9 0c a1 3e
       0.114582255 0.026443606 0.06746933 0.3145502
000020 86 40 fb 3e e5 d6 0d 3e d3 b4 12 3d 29 87 44 be
       0.49072665 0.13851507 0.03581698 -0.19192185
000030 a9 28 cb 3e 1a 71 b5 3e 03 8f 24 bf c3 45 b9 bd
       0.3967946 0.35437852 -0.6428072 -0.09046509
000040 5d 4d 9c 3d 07 24 2b be 11 3a c0 3d 46 eb 24 3d
       0.076319434 -0.16712962 0.09386075 0.040263437
000050 d5 51 72 3e d3 2f 21 3f 00 a0 02 3c 8e dd 10 3e
       0.23664029 0.629636 0.007972717 0.14147016
000060 10 cc 85 3e 41 9f 18 3e 1a 2f 31 3e 21 99 26 be
       0.2613225 0.149045 0.17303124 -0.16269352
000070 22 d4 a3 3c e5 f5 f8 3d fb 57 79 bd aa f4 9c 3d
       0.019998614 0.12156276 -0.06087492 0.076638535

layers.6.weight f4 [16, 32]
000000 cc 30 a5 3d ea 12 9b 3d 8f 18 f5 bd e9 3c f3 be
       0.08065948 0.07571967 -0.11967575 -0.47507408
000010 30 17 f1 3e 00 b1 a0 3d ae 2f 9a bd 15 01 5d be
       0.47088003 0.0784626 -0.075286254 -0.21582444
000020 81 43 59 3e 4d 97 fc be 97 5f 85 be 82 16 2e bf
       0.21217157 -0.49334183 -0.26049492 -0.68003094
000030 31 66 c8 bc c7 83 8f 3e ab 84 dd 3e c7 d7 e0 be
       -0.024462791 0.28030226 0.4326528 -0.43914625
000040 e4 a2 be 3e 08 ba a4 be 8a 7c 58 be 39 9f aa 3b
       0.3723365 -0.3217318 -0.21141258 0.005206969
000050 3a 84 a0 bd ef 92 44 3e 4b 1f 4c be 40 38 93 3f
       -0.0783772 0.19196676 -0.19933812 1.1501541
000060 72 83 f8 3e 12 30 03 be a8 d6 60 3e 95 1f 1a bf
       0.48537785 -0.12811306 0.21956885 -0.6020444
000070 6f f5 1b 3f c6 15 20 3f b1 bc f5 be 14 39 f9 3e
       0.60921377 0.62533224 -0.47995523 0.4867636
000080 f5 6f 40 3f bc 09 c0 3c ab 0c d9 3c 65 0b ac 3d
       0.7517083 0.023442142 0.026495298 0.08400611
000090 7f 4d 61 3f 6f b7 ce 3e f2 c9 f4 bd bf 88 9c be
       0.88008875 0.40374324 -0.119525805 -0.3057308
0000a0 30 e1 26 be d4 61 e1 be 67 28 ae be 44 0b 0e 3e
       -0.1629684 -0.4401995 -0.340152 0.13871485
0000b0 48 c9 68 3e 85 c8 c4 3d 91 a7 8a 3e 1e db 35 be
       0.22733033 0.096085586 0.27080968 -0.17759368
0000c0 db 59 aa 3e 6b d9 2f 3e f9 a2 3e bf 1e c7 0a bf
       0.3327168 0.17172782 -0.74467427 -0.5421008
0000d0 62 4a 00 3d 1c 10 33 bc 1a 3c 81 be f2 04 4c 3f
       0.031320937 -0.010929134 -0.25241166 0.79695046
0000e0 b2 95 28 3f ab 64 e9 be 98 43 a7 be e5 c5 f6 3d
       0.65853417 -0.45584616 -0.32668757 0.12049464
0000f0 ef 68 ab 3e 12 2f 1c 3f f6 ee 8d bd 75 eb c1 3e
       0.33478495 0.61009324 -0.06930344 0.37874952
000100 af 3e fa be 77 94 7e 3e b7 76 9d 3e 93 52 6c bf
       -0.4887595 0.24861322 0.30754635 -0.923135
000110 d0 49 cb 3e 8e 02 ac 3e eb 8e 54 3e 07 dd 47 3e
       0.39704752 0.335957 0.20757644 0.19517909
000120 02 e6 34 3d bd 9f 7f 3d 87 5f 3e bd 3d b5 2f bf
       0.044164665 0.062408198 -0.04647782 -0.6863592
000130 bc 11 ca be 04 46 9a 3e 12 75 14 3e d3 06 0d bf
       -0.39466655 0.30131543 0.14497784 -0.5508854
000140 22 3f e3 3e 4a c3 b9 bd c8 fa 3b bd af 0b e3 3d
       0.44384104 -0.090704516 -0.04589346 0.11086213
000150 a1 45 5a bd 8f e5 7b 3e cc b3 c0 bd f7 f9 50 3f
       -0.05328906 0.24599288 -0.094092935 0.81631416
000160 01 96 0c 3f 96 23 d8 3a 16 0f 8d be cc b3 4e bf
       0.5491639 0.0016490098 -0.27550572 -0.807431
000170 bb e2 30 3f 3f b6 50 3f 6f 51 26 bf bd 58 53 3e
       0.69095963 0.81528085 -0.6496801 0.2063932
000180 a4 f6 41 bf a4 2a a0 3e fd fc df 3e 27 20 59 3d
       -0.7576697 0.31282532 0.43747702 0.05300918
000190 d9 ec 1f bf 1f 36 91 bd c5 5e df 3e f5 64 8c 3d
       -0.62470776 -0.07090401 0.4362699 0.068551935
0001a0 55 eb ee 3d 2f ac ec 3e 15 46 9a 3d c0 5d 18 3e
       0.1166598 0.46225116 0.07532898 0.14879513
0001b0 ad 0f d1 be 7b 3f 90 3e 8a bc 6f bf b6 a5 8a bd
       -0.40832272 0.28173432 -0.9364706 -0.06769888
0001c0 45 c1 b5 be dc ac e5 3b e0 c7 9a 3d a1 1a 2b 3e
       -0.35499015 0.007009132 0.075576544 0.16709377
0001d0 d5 a8 fc be 2a 93 09 3e 21 83 11 bd 8b 91 8c bf
       -0.4934756 0.13435045 -0.035525445 -1.0981916
0001e0 45 80 c2 be 5b 51 de 3c 91 21 4a be 20 fc c2 3d
       -0.37988487 0.027138403 -0.19739367 0.09520745
0001f0 17 6a 37 bf b2 41 53 bf 51 f2 59 3e 19 ce 32 bf
       -0.71646255 -0.8252212 0.21283843 -0.6984573
000200 f2 77 18 bf af b3 07 3e fa dc d1 3e 17 6e 21 be
       -0.5955802 0.13252138 0.40988904 -0.15764652
000210 35 bc 05 bf e4 57 ac bd bb 1d b2 3e c1 48 ed bc
       -0.52240306 -0.08415201 0.34788308 -0.028965356
000220 51 83 16 3e 53 f6 82 3e 76 d2 37 3e c6 ca 60 3d
       0.1469853 0.25578555 0.17951378 0.05488088
000230 d5 8d 22 bf c9 9c 95 3e d1 3d 82 bf b3 3f b3 3d
       -0.6349767 0.2922118 -1.0175115 0.08752384
000240 56 df ec be 18 9a 4f bc 13 1a 2b bd 82 3a 03 3e
       -0.46264142 -0.012671016 -0.041772913 0.12815288
000250 71 5b 03 bf a1 d8 18 3e 20 b3 12 3d e0 f3 98 bf
       -0.51311404 0.14926387 0.03581536 -1.1949425
000260 7c 68 cc be 76 fd bd 3d dc 01 df be 96 a3 89 3d
       -0.39923465 0.092768595 -0.43556106 0.06720655
000270 80 14 78 bf 37 b9 80 bf e2 f4 0e 3d 3a ed 22 bf
       -0.9690628 -1.0056523 0.034901507 -0.6364323
000280 49 2e 56 be 2c df 10 3e ff e8 2c be fd aa 08 bf
       -0.20916094 0.14147633 -0.16885756 -0.5338591
000290 5b 2e c5 3e 38 ad a3 3d ea 61 6b be 24 46 45 be
       0.3851193 0.07992023 -0.2298657 -0.19265038
0002a0 10 06 32 3e fe 01 78 be f3 c7 ad bd d3 5a 43 bf
       0.17385125 -0.2421951 -0.08485403 -0.7631046
0002b0 ab 87 22 be a6 75 af 3e 27 d0 29 3e 22 5a cf be
       -0.15872066 0.34269446 0.1658331 -0.40498453
0002c0 49 04 e1 3e 48 b9 31 be e0 0a 06 be 4d 45 38 3d
       0.43948582 -0.17355835 -0.13090086 0.044987965
0002d0 95 45 20 3c 91 80 00 3e 11 e7 17 be 63 1a 7e 3f
       0.009782215 0.12549044 -0.14834239 0.9925901
0002e0 98 96 07 3f df a2 34 be d7 15 7b 3e 8c 77 27 bf
       0.5296416 -0.17640255 0.2452005 -0.6541679
0002f0 e3 41 34 3f bb 2d 47 3f 39 63 db be de 6a c4 3e
       0.70413035 0.77804154 -0.42849138 0.38362783
000300 cb a5 1f bf 46 52 eb 3d e3 3d b8 3e 6b 58 24 be
       -0.62362355 0.11490302 0.35984716 -0.16049354
000310 fb 3f 08 bf 11 15 3d be e7 67 a9 3e f1 25 1c 3d
       -0.53222626 -0.18465067 0.33087084 0.03812212
000320 33 09 b1 3d 89 3e 24 3e cf df 07 3d d6 68 dc 3d
       0.08644333 0.1603948 0.033172425 0.10762183
000330 cd ee 12 bf ef 95 59 3e 41 66 15 bf e5 09 c2 bc
       -0.5739563 0.21248601 -0.5835915 -0.023686359
000340 a2 3b f4 be fd 44 98 3d 73 83 e8 bc 65 56 66 3e
       -0.47701746 0.074350335 -0.028382992 0.22493894
000350 7a 7e 9e be a9 0d 53 3e fc 2c d4 3d 72 b7 89 bf
       -0.3095587 0.2061068 0.103601426 -1.0759108
000360 c4 dd cf be c3 63 6c 3d 9e c2 e9 be 64 90 3a 3d
       -0.4059888 0.057712328 -0.45656294 0.045547858
000370 a9 be 6f bf e2 a3 4d bf 4c 3a 0d 3d 02 d9 00 bf
       -0.936503 -0.8032819 0.034479424 -0.5033113
000380 77 a8 87 be b2 49 68 bc 62 30 4b be 26 70 4f bf
       -0.26495716 -0.014177727 -0.19842675 -0.810305
000390 b9 c5 02 3f aa 3a a2 3e 5f e9 1d 3d a7 bf 30 be
       0.5108295 0.31685382 0.03855264 -0.1726061
0003a0 31 5b 5b 3e ba 0e 28 bf 3b 2b e6 be 9c c3 58 bf
       0.21421506 -0.6564747 -0.44954857 -0.84673476
0003b0 e7 8f 11 be cf 3c 82 3d c4 3c ad 3e 43 86 30 bf
       -0.1421505 0.063592546 0.33835423 -0.6895487
0003c0 3f dc b6 3e cf aa 56 bf 73 be 49 bf c8 ef c0 be
       0.3571491 -0.83854383 -0.7880623 -0.3768294
0003d0 62 a5 67 3e 42 c5 fc bd f8 7f a2 be 72 6c 58 3f
       0.22621682 -0.123423114 -0.31738257 0.84540474
0003e0 19 a7 11 3f f6 be ab be f0 ca 9c bb 99 99 00 bf
       0.56895596 -0.3354413 -0.004784934 -0.5023437
0003f0 fc 4b 23 3f 4a 4c 50 3f 8a 9c 43 bf 2c ae ad 3e
       0.6378782 0.8136641 -0.76410735 0.33921945

layers.6.bias f4 [16]
000000 44 26 e0 3e d5 09 25 3e 59 80 d2 3d f4 34 a9 3e
       0.43779194 0.16117032 0.102783866 0.33048213
000010 3c 24 fe 3e 47 40 bb 3e 70 67 e5 3e 4a 47 8e 3e
       0.4963702 0.36572477 0.4480548 0.27788764
000020 14 60 20 bd 12 7a 43 bf b9 24 9b 3e fc 4d d6 3e
       -0.039154127 -0.7635814 0.30301455 0.41856372
000030 1f 0e b8 3e 78 9e c9 3e 6a 8b d1 3e 83 80 8e 3e
       0.35948274 0.39378715 0.40926677 0.27832422

layers.9.weight f4 [1, 16]
000000 55 dc 04 bf 29 f8 9a bf 57 01 8d bf 27 98 1f 3f
       -0.518987 -1.2106982 -1.1016034 0.6234154
000010 6b b9 16 3f 0e 60 31 bf ef b0 21 3f d4 15 a7 bf
       0.58876675 -0.6928719 0.63160604 -1.3053536
000020 1c f1 1d bf c6 f1 6f bf 96 3c 1e bf ed 30 79 bf
       -0.6169603 -0.9372829 -0.61811197 -0.9734028
000030 f6 24 40 bf 48 c8 12 3f 94 e1 01 3f 34 2d 1e 3f
       -0.750564 0.57336855 0.5073483 0.61787724
