models/Regression/antiproton.pt (torch, 18925 bytes, 7 tensors)

layers.0.weight f4 [64, 19]
0	0xbf27bc46	-0.6552166
1	0xbe47b94a	-0.19504276
2	0x3ddb4654	0.107067734
3	0xbef62834	-0.48077548
4	0x3e5f27ae	0.2179248
5	0xbf1e7b80	-0.61907196
6	0xbf1cf86d	-0.6131657
7	0x3b360248	0.0027772356
8	0x3c9b1248	0.018929616
9	0x3e8342ba	0.25636846
10	0x3f7b1681	0.98081213
11	0x3e07f6f6	0.13277802
12	0xbd8bcf40	-0.06826639
13	0xbc347b06	-0.011015659
14	0x3bdb7121	0.0066968356
15	0xbbbdfbf7	-0.005797859
16	0xbd9ea5ce	-0.077464685
17	0x3b03a1ad	0.002008538
18	0xbddbb6a7	-0.107281975
19	0x3d297628	0.04137245
20	0x3eb9ff63	0.36327657
21	0xbe3f0347	-0.18653594
22	0xbe0b20fb	-0.135868
23	0x3e002c31	0.12516858
24	0x3d996730	0.074903846
25	0xbd805f69	-0.06268198
26	0x3d97fcaf	0.074212424
27	0xbcf24b36	-0.029576879
28	0x3d82572a	0.063642815
29	0x3eba7448	0.3641684
30	0xbe0460f7	-0.12927614
31	0x3cf3d198	0.029763028
32	0xbc1d0811	-0.009584443
33	0x3d63661e	0.05551731
34	0xbdaeed23	-0.08541324
35	0x3e1432b6	0.1447247
36	0x3c7d5b38	0.015463643
37	0xbe909fc7	-0.282469
38	0xbd2ee178	-0.042695493
39	0x3d105b44	0.035243288
40	0xbd1b9628	-0.037984997
41	0xbe22145c	-0.15828079
42	0xbc79fab0	-0.015257522
43	0x3e49d593	0.19710378
44	0x3dcc05c6	0.09962039
45	0xbe3a1e14	-0.18175536
46	0x3d96cb46	0.0736299
47	0xbe52ba6a	-0.20578924
48	0x3de7f83a	0.11326642
49	0x3df4e8da	0.119584754
50	0x3e3eb097	0.18622051
51	0x3e5a5433	0.21321182
52	0xbd3ee624	-0.046606198
53	0xbdf27815	-0.1183931
54	0xbe3ea928	-0.18619215
55	0xbd634a34	-0.055490687
56	0x3e1d5729	0.1536528
57	0x3f1f69b1	0.6227065
58	0xbe3e9ff4	-0.18615705
59	0xbd46ceaa	-0.048536934
60	0xbef3de6d	-0.47630635
61	0x3e021b84	0.12705809
62	0xbf118ed8	-0.5685859
63	0xbeb093ad	-0.34487668
64	0x3e12b73a	0.14327708
65	0xbe21d00d	-0.15802021
66	0xbe42e431	-0.1903236
67	0x3f3880de	0.72071636
68	0x3e6b95b4	0.23006326
69	0x3b83cae2	0.0040219883
70	0x3ddfc35f	0.10925936
71	0xbdc53e68	-0.09631044
72	0x3caa5952	0.020794544
73	0xbd839b27	-0.06426077
74	0x3d101dfc	0.035184845
75	0x3cb2d363	0.021829313
76	0x3e184b2d	0.14872427
77	0xbddb4b1b	-0.107076846
78	0xbe00d3e2	-0.12580827
79	0xbdea523c	-0.11441466
80	0x3d8a3b86	0.067496344
81	0x3dc78b86	0.09743409
82	0xba899880	-0.0010497719
83	0x3d516f7c	0.05113171
84	0xbcb97cf8	-0.022642598
85	0x3e4c9933	0.19980316
86	0x3c366690	0.011132851
87	0xbe2bb819	-0.16769446
88	0xbda58a90	-0.08083069
89	0xbe008a0a	-0.12552658
90	0xbe46e9d0	-0.1942513
91	0xbe4970ac	-0.19671887
92	0xbe57a67c	-0.21059602
93	0xbe0dd3c6	-0.13850316
94	0x3d25fe54	0.04052575
95	0x3f154639	0.58310276
96	0x3e819672	0.25310093
97	0x3b8eacb6	0.004354085
98	0xbd95ce23	-0.07314708
99	0xbed74395	-0.42043748
100	0xbebcb4c6	-0.3685667
101	0xbe95696a	-0.29181987
102	0xbe0834aa	-0.1330134
103	0x3ccd59f4	0.025067307
104	0x3c8ef08f	0.017448692
105	0xbee11792	-0.43963295
106	0xbd17628e	-0.036959223
107	0x3e2fe9b5	0.17178996
108	0xbc095c0e	-0.008383764
109	0x3e1e5373	0.15461521
110	0xbbb6e567	-0.005581546
111	0xbd1bddd2	-0.03805334
112	0x3e912843	0.2835103
113	0x3e0e0074	0.1386736
114	0x3e1bef63	0.15228038
115	0xbe5288f2	-0.20560053
116	0xbc720f5d	-0.014774171
117	0x3f5c0629	0.859469
118	0x3d0d2dfd	0.034467686
119	0x3ecb4249	0.3969901
120	0x3e64f32b	0.22358386
121	0x3ddbd629	0.10734207
122	0xbcb77aff	-0.022397516
123	0xbd805a04	-0.06267169
124	0x4002e274	2.0450716
125	0x3e21b1f5	0.15790541
126	0xbdb46403	-0.08808138
127	0xbd8affb4	-0.06787053
128	0xbd775a77	-0.06038901
129	0xbaa61b67	-0.0012672961
130	0xbd21a29d	-0.03946172
131	0xbd7f10ac	-0.06227176
132	0xbbfa397a	-0.0076362463
133	0xbe791369	-0.2432381
134	0xbe00d7c8	-0.12582314
135	0xb9286ee3	-0.00016063037
136	0x3e4dc2fe	0.20093915
137	0xbe01e6b5	-0.12685664
138	0xbfcf622b	-1.6201833
139	0xbfbf5a10	-1.494936
140	0xbe218710	-0.15774179
141	0xbcceabbf	-0.02522838
142	0xbc823ca0	-0.015898049
143	0x3f7f9cd1	0.9984866
144	0x3bebfade	0.0072015366
145	0x3d293f42	0.041320093
146	0xb9f39a8d	-0.0004646372
147	0x3bdd3d0c	0.006751662
148	0x3c30a1a5	0.010780727
149	0xba5cf43f	-0.00084287295
150	0xbbae89e1	-0.005326495
151	0x3b666e73	0.0035161048
152	0xbe450356	-0.19239554
153	0xbe21d11f	-0.1580243
154	0x3dcc63a6	0.09979944
155	0xbe85f816	-0.26165837
156	0xbe187be0	-0.14891005
157	0x3f887721	1.0661355
158	0x3f6fbfb7	0.9365191
159	0x3da96daf	0.082728736
160	0xbd8ae054	-0.067810684
161	0x3dfee53c	0.12446067
162	0xbf9b7f7d	-1.2148281
163	0x3d9dd915	0.07707421
164	0xbc5d7eae	-0.013518972
165	0xbca8d622	-0.020609919
166	0x3cbfab46	0.0233971
167	0xbcbf1ebf	-0.02333009
168	0xbd3c5c2e	-0.045986347
169	0xbade0e5f	-0.0016941539
170	0x3c30d6c9	0.010793396
171	0xbfed2efe	-1.8529966
172	0xbeac838a	-0.33694106
173	0xba19aaaf	-0.00058619207
174	0xbf96fa69	-1.1795169
175	0x3fe8be6c	1.8183112
176	0xbf26314b	-0.64918965
177	0xbef8bf7a	-0.48583585
178	0x3daf7a5f	0.08568262
179	0x3c832ce0	0.016012609
180	0x3c059ac9	0.008154579
181	0x3f9144ea	1.1349156
182	0xbdc19aff	-0.09453391
183	0xbde5404a	-0.11193903
184	0xbcbbf119	-0.022942113
185	0x3cfda303	0.03096152
186	0x3c6d3263	0.014477345
187	0x3c76ee7f	0.01507151
188	0x3e389baa	0.18028131
189	0xbd28b409	-0.04118732
190	0x3e5a9511	0.21345927
191	0xbe87f5a0	-0.26554585
192	0xbdc6a899	-0.09700126
193	0x3e3ba955	0.18326314
194	0xbe761ea2	-0.24035123
195	0xbe84c686	-0.2593271
196	0xbf03a582	-0.5142442
197	0xbdce5a35	-0.100757994
198	0xbd8be8cd	-0.068315126
199	0xbe44dd25	-0.19224985
200	0x3fa53b3b	1.2908701
201	0xbe98b415	-0.29824892
202	0x3d828574	0.063731104
203	0x3e045efe	0.12926862
204	0x3dac4972	0.08412446
205	0xbcca426b	-0.024689874
206	0xbe3d1d3d	-0.18468185
207	0x3d306921	0.04306901
208	0x3d956640	0.07294893
209	0x3e08a356	0.13343558
210	0x3e1258d4	0.14291698
211	0xbdf801d3	-0.12109723
212	0x3e03558d	0.12825604
213	0xbdd20821	-0.10255457
214	0xbdcb8c8a	-0.09938915
215	0xbe503215	-0.20331605
216	0xbe06ac1f	-0.13151596
217	0xbd88e533	-0.06684341
218	0x3d87f1e5	0.066379346
219	0x3d4c69fe	0.04990577
220	0xbe152a5b	-0.14566939
221	0xbc9dbf5b	-0.019256284
222	0x3e495ec2	0.19665053
223	0x3dd65007	0.10464483
224	0xbd4156f2	-0.047202058
225	0xbd227ef4	-0.039671853
226	0x3dfd1328	0.123571694
227	0xbe545582	-0.20735744
228	0x3e47f0a9	0.19525398
229	0x3d0cc04c	0.034363076
230	0x3ddcba7e	0.10777758
231	0x3de2e16e	0.110781536
232	0x3e16c6dd	0.14724298
233	0xbe0b9d80	-0.136343
234	0xbe4f53d1	-0.20246817
235	0x3e232359	0.15931453
236	0xbe498675	-0.19680198
237	0x3e67f759	0.2265295
238	0x3e193a75	0.14963706
239	0x3e004d7d	0.1252956
240	0x3dee1512	0.116251126
241	0x3d639814	0.055564955
242	0x3e334313	0.17506056
243	0xbe0fcf50	-0.14043927
244	0x3d9e562e	0.07731281
245	0x3d9afb5a	0.07567473
246	0x3b36aac0	0.002787277
247	0x3e2dfcd9	0.16990985
248	0xbe2673c5	-0.162551
249	0x3c5e8b82	0.013583066
250	0xbe96ec46	-0.29477137
251	0xbe71c4bb	-0.23610203
252	0xbf167eea	-0.58787405
253	0xbf1aa2c0	-0.60404587
254	0xbcc4cc62	-0.024023239
255	0xbb92cb29	-0.004479785

layers.0.bias f4 [64]
0	0xbda1c6ce	-0.07899247
1	0xbe53b4f3	-0.20674495
2	0x3e2570fb	0.1615638
3	0x3bbb2e4b	0.0057123057
4	0x3e51f775	0.20504554
5	0xbda0ded5	-0.07855002
6	0xbd515ca3	-0.051113736
7	0xbe790b8d	-0.24320813
8	0xbe457292	-0.19281986
9	0xbe46fb92	-0.19431904
10	0xbe934a91	-0.28767827
11	0x3e230299	0.1591896
12	0xbe203318	-0.1564449
13	0xbde251da	-0.11050768
14	0x3e4375b9	0.19087876
15	0xbe743809	-0.238495
16	0xbd3e9a55	-0.0465339
17	0xbe00c888	-0.12576497
18	0x3c87ce9c	0.016578011
19	0x3e43aca9	0.19108833
20	0x3e4ee683	0.2020512
21	0xbe64b57e	-0.22334859
22	0x3d70e84c	0.058815286
23	0x3e65b271	0.22431351
24	0xbd834f6c	-0.06411633
25	0x3c513780	0.01276958
26	0xbe4d3db5	-0.2004307
27	0x3e4457e3	0.19174151
28	0xbd7a0167	-0.061036494
29	0xbe2a2a92	-0.16617802
30	0x3cc3f9a8	0.023922756
31	0xbeb1154f	-0.3458657
32	0x3e1e39b3	0.15451698
33	0x3da65917	0.08122461
34	0xbd855292	-0.0650989
35	0xbe7dbbf1	-0.24778725
36	0xbcd18cc8	-0.025579825
37	0xbe14a394	-0.14515525
38	0xbd8b42d4	-0.06799856
39	0x3e1ad11a	0.15118828
40	0x3dedc986	0.11610703
41	0x3d718698	0.05896625
42	0xbebcd684	-0.36882412
43	0xbe0324e0	-0.12807035
44	0xbde993e0	-0.11405158
45	0xbec47d0b	-0.3837665
46	0xbe9784bd	-0.2959346
47	0xbe268eef	-0.16265462
48	0xbdaac146	-0.08337645
49	0x3d8e8114	0.069582134
50	0xbeb1bdc7	-0.347151
51	0x3e127370	0.14301848
52	0x3e20af60	0.156919
53	0x3d973f91	0.07385171
54	0xbe0027de	-0.12515208
55	0x3c915985	0.017742882
56	0x3d5937d6	0.053031765
57	0xbecaecaf	-0.396337
58	0x3e41859d	0.18898626
59	0x3d1f56f4	0.038901284
60	0xbde5b6b3	-0.11216488
61	0xbeb71628	-0.3575909
62	0xbe39b387	-0.1813489
63	0x3cbd6b50	0.02312246

layers.3.weight f4 [32, 64]
0	0x3d4dab40	0.050212145
1	0x3ccfa8de	0.025349077
2	0xbcf65fb0	-0.030074924
3	0x3ce26e52	0.027640495
4	0xbd3423d8	-0.043979496
5	0x3cd3e014	0.025863685
6	0xbe13a9f7	-0.14420305
7	0xbf0b248e	-0.54352653
8	0x3cc05d80	0.023482084
9	0xbe6ca31e	-0.231091
10	0xbd2e3fe6	-0.042541407
11	0xb93131c6	-0.00016898577
12	0xbdbf76c6	-0.09348826
13	0x3e47d4f1	0.19514824
14	0xbdd364bd	-0.10321949
15	0x3d83f5e1	0.06443382
16	0xbebad99e	-0.36494154
17	0x3df66c20	0.12032342
18	0x3dd0ae61	0.1018951
19	0xbde72b78	-0.11287588
20	0xbed0ab17	-0.4075553
21	0xbf037ba4	-0.51360536
22	0x3d383aa8	0.044977814
23	0x3d458c98	0.048229784
24	0x3ea37aa0	0.31929493
25	0xbdc16ab4	-0.0944418
26	0xbe601606	-0.21883401
27	0xbd4f79a8	-0.05065313
28	0xbe3d9c7b	-0.18516724
29	0xbd8b1ebc	-0.067929715
30	0x3d93aafc	0.07210347
31	0xbe1d37d0	-0.15353322
32	0xbdacb430	-0.084328055
33	0x3ddc3d6e	0.10753904
34	0xbd59725c	-0.053087577
35	0xbc5c7b84	-0.013457183
36	0x3dbe9f1c	0.093076915
37	0x3de69f76	0.112608835
38	0xbd3a8114	-0.045533255
39	0xbecad31c	-0.3961419
40	0xbd861a3d	-0.06547973
41	0xbe091cb5	-0.13389857
42	0x3e2e92bb	0.1704816
43	0x3c9f8e10	0.01947692
44	0xbc318250	-0.010834292
45	0xbeebc87c	-0.46051395
46	0xbecbff63	-0.39843282
47	0xbca1fd57	-0.019774122
48	0xbcf85fef	-0.030319182
49	0x3cf1007a	0.029419173
50	0xbe040d83	-0.1289578
51	0x3cf51e3e	0.029921647
52	0x3cadcd5c	0.021216087
53	0xbde921eb	-0.113834225
54	0xbd98c59a	-0.074595645
55	0xbe9e691c	-0.30939567
56	0xbd80e6a3	-0.062939905
57	0x3bb1f34e	0.0054306155
58	0x3de941da	0.11389513
59	0xbd21b49c	-0.039478883
60	0xbcdfedb0	-0.027335018
61	0x3cf05c44	0.02934087
62	0x3dfb5c08	0.12273413
63	0xbcc1ebbb	-0.023671975
64	0x3daadfcc	0.08343467
65	0x3d85374c	0.06504688
66	0x3dc9b0a6	0.09848146
67	0xbbd6c904	-0.0065547246
68	0x3d1a8190	0.037721217
69	0x3ce59656	0.028025787
70	0x3e2de1ab	0.16980617
71	0xbd411662	-0.047140487
72	0x3d7776a1	0.060415868
73	0xbe95a521	-0.29227546
74	0x3cd477cf	0.025936035
75	0xbc259cea	-0.010108212
76	0xbd53c848	-0.051704675
77	0x3dcb0724	0.09913471
78	0x3e1e1fe7	0.15441857
79	0x3e145f91	0.1448958
80	0xbe64f87f	-0.22360419
81	0x3d24b1ac	0.040208504
82	0x3d67fe85	0.056639213
83	0x3de92966	0.11384849
84	0x3ebffeab	0.37498984
85	0xbd86d48e	-0.0658351
86	0xbdde2680	-0.10847187
87	0xbcd45738	-0.025920495
88	0x3e79d779	0.24398603
89	0xbd8ae45c	-0.06781837
90	0xbe69016e	-0.22754452
91	0x3d1d90dc	0.038468227
92	0x3f1c5522	0.610674
93	0xbcfb68e0	-0.030689657
94	0x3dccb05e	0.09994577
95	0xbd85e946	-0.06538634
96	0x3863c3cb	5.4303364e-05
97	0x3d509ac3	0.050928842
98	0xbcba48c7	-0.022739781
99	0xbcd7d811	-0.026348146
100	0xbdc17dca	-0.094478205
101	0x3e0909c7	0.13382636
102	0x3c8c9bd8	0.017164156
103	0x3d80f290	0.06296265
104	0x3d64c59b	0.055852514
105	0xbdc003ca	-0.09375723
106	0x3e175724	0.14779335
107	0xbd528468	-0.051395804
108	0xbd4546e4	-0.04816331
109	0xbd79eba4	-0.06101574
110	0x3eaf7c70	0.34274626
111	0x3e45889a	0.1929039
112	0x3d4a6ca1	0.049420003
113	0xbcc31540	-0.023813844
114	0xbd9c9e64	-0.07647398
115	0x3cf6216c	0.030045234
116	0xbd0ec5bd	-0.034856547
117	0xbdc6e513	-0.09711661
118	0xbd671724	-0.056418553
119	0xbe0cc833	-0.13748245
120	0x3c3b3bba	0.011427814
121	0xbd3bbf63	-0.045836817
122	0xbd9ecd9e	-0.07754062
123	0x3d098b9c	0.033580408
124	0x3c8452fe	0.016152855
125	0x3db65500	0.08902931
126	0x39cf6de7	0.00039564
127	0xbe12c75a	-0.14333859
128	0xbe98d063	-0.29846486
129	0x3da66855	0.081253685
130	0x3da8a1aa	0.0823396
131	0xbe5fefad	-0.21868773
132	0x3a970e00	0.0011524558
133	0xbd956f10	-0.07296574
134	0xbea70f7b	-0.32628998
135	0xbe21ffee	-0.15820286
136	0xbcdd4b8d	-0.027013564
137	0x3f203385	0.6257861
138	0xbd347603	-0.044057857
139	0xbd85488e	-0.06507979
140	0xbd8ca8aa	-0.068681076
141	0xbef3fb1f	-0.47652528
142	0x3e5c0020	0.21484423
143	0xbecc6784	-0.39922726
144	0x3d9751f0	0.07388675
145	0xbdc8fbc8	-0.098136485
146	0xbdbbe7fe	-0.091751084
147	0x3d11e8b4	0.035622314
148	0xbee17951	-0.4403787
149	0x3eb146b2	0.3462425
150	0xbde5ec52	-0.11226715
151	0xbdf49d9e	-0.119441256
152	0xbdc87898	-0.097886264
153	0x3dcfacac	0.101403564
154	0x3d761491	0.060078207
155	0x3d20468c	0.03912978
156	0x3dbf5cfc	0.09343907
157	0x3d02b16b	0.03190748
158	0xbcb89318	-0.022531077
159	0x3e1d7adf	0.15378903
160	0x3c77367e	0.015088676
161	0x3e10444c	0.14088553
162	0x3c505831	0.012716339
163	0xbd831bef	-0.06401812
164	0xbdef4948	-0.11683899
165	0xbdc882ce	-0.09790574
166	0xbde62e1a	-0.11239262
167	0x3dfcaa25	0.1233714
168	0xbd929d81	-0.07158948
169	0xbce187ef	-0.027530639
170	0xbe41c146	-0.18921384
171	0xbd001cd4	-0.031277493
172	0x3d4722c4	0.04861714
173	0xbdc4fa4f	-0.09618055
174	0xbe737d24	-0.23778206
175	0xbe36133d	-0.17780776
176	0x39940d71	0.00028238774
177	0xbd9c02a2	-0.0761769
178	0x3e978205	0.29591385
179	0xbef212ef	-0.4728007
180	0xbe0f6279	-0.14002408
181	0x3e1e6fd3	0.15472345
182	0x3cfb3c48	0.030668393
183	0x3dc5d962	0.09660603
184	0xbe6a9729	-0.22909226
185	0x3df0f652	0.11765732
186	0xbd86e94c	-0.065874666
187	0x3cc70530	0.024294466
188	0xbcd321b6	-0.02577291
189	0xbdbc0b2c	-0.09181818
190	0xbe00e625	-0.12587793
191	0x3c95171d	0.018199498
192	0x3d3b5c7e	0.045742504
193	0x3e2ea6ea	0.1705586
194	0x3c8d3fa0	0.017242253
195	0x3c5feb9a	0.013667012
196	0xbda49cc0	-0.0803771
197	0x3d565885	0.052330513
198	0x3d0ef963	0.034905802
199	0x3f709cca	0.9398924
200	0xbd87a6d0	-0.06623614
201	0x3f052916	0.5201582
202	0xbd05230c	-0.032504126
203	0xbd9844bd	-0.07434986
204	0xbd86a65c	-0.06574699
205	0x3d09cc77	0.03364226
206	0xbea4f820	-0.32220554
207	0x3d82774d	0.06370411
208	0xbf0b6d2f	-0.54463476
209	0x3dfff37a	0.12497611
210	0x3b884811	0.0041589816
211	0xbdb4fcbe	-0.08837269
212	0x3ef343af	0.47512576
213	0x3ee9589e	0.45575422
214	0xbdb19d84	-0.08672622
215	0x3df6eba4	0.12056664
216	0xbde86ab5	-0.11348478
217	0x3cdc2c48	0.026876584
218	0xbe828e43	-0.25499162
219	0x3dec4014	0.115356594
220	0xbe4030a5	-0.18768556
221	0xbf3e2e0a	-0.74289
222	0x3bd3e900	0.0064669847
223	0xbbebe0c8	-0.007198427
224	0xbf64cfd5	-0.89379627
225	0x3d637371	0.055530015
226	0xbd6e0761	-0.058112506
227	0x3d0e020b	0.034669917
228	0x3dc6c742	0.09705974
229	0x3d46a0c7	0.048493173
230	0x3d68af1c	0.056807622
231	0x3e75d66d	0.24007578
232	0x3c56ec56	0.01311787
233	0xbf01b476	-0.50665987
234	0x3cd06cbe	0.025442477
235	0x3cbe2af8	0.023213848
236	0x3c8d3880	0.017238855
237	0x3e94d4b6	0.29068536
238	0x3e942c39	0.2893999
239	0x3c234cf4	0.0099670775
240	0xbe3f2677	-0.18667017
241	0x3b50dba0	0.0031869188
242	0xbdd6bd2f	-0.10485303
243	0x3c913908	0.01772739
244	0x3c87f916	0.016598266
245	0x3c27163b	0.010198171
246	0xbddc1ef2	-0.1074809
247	0xbe74db91	-0.23911883
248	0x3d64b50c	0.055836722
249	0xbb827394	-0.003981063
250	0x3df5a910	0.11995137
251	0x3b2bb700	0.0026201606
252	0xbb947c89	-0.0045314473
253	0x3bd9165a	0.006624979
254	0x3d887cb9	0.06664414
255	0x3dfa20b4	0.12213269

layers.3.bias f4 [32]
0	0x3e2376d8	0.15963304
1	0x3e911b12	0.28340966
2	0xbef924de	-0.4866094
3	0xbdc70b40	-0.09718943
4	0xbdb80a03	-0.089862846
5	0x3e2e676c	0.1703164
6	0x3ea4c368	0.32180333
7	0x3e1d6128	0.15369093
8	0x3e9e0cfd	0.30869284
9	0xbdc34450	-0.09534514
10	0xbe07afce	-0.13250658
11	0xbd9ec254	-0.07751909
12	0x3e095e0f	0.13414787
13	0xbd5a5c66	-0.053310774
14	0x3e43683d	0.19082732
15	0x3de99f6a	0.11407359
16	0x3e68d97a	0.2273921
17	0x3ec16b16	0.37777013
18	0xbda92324	-0.08258656
19	0xbde42587	-0.1113997
20	0xbd87a5d9	-0.0662343
21	0xbe2d035e	-0.16895816
22	0x3d176e9b	0.036970716
23	0x3d7c9b40	0.061671495
24	0x3e32e6f7	0.17470919
25	0xbd183e75	-0.03716894
26	0x3a8f7c21	0.0010947027
27	0xbd542bc4	-0.05179955
28	0xbdb400ce	-0.08789216
29	0x3e2fe136	0.17175755
30	0xbdc89b54	-0.097952515
31	0x3eb974ea	0.3622201

layers.6.weight f4 [16, 32]
0	0xbd81a554	-0.06330362
1	0xbd6e1f9b	-0.05813561
2	0xbed9745e	-0.42471594
3	0xbf41d6ae	-0.757182
4	0xbe49dbf9	-0.19712819
5	0x3ca14cf5	0.019690016
6	0x3e7b0411	0.2451327
7	0xbd437868	-0.04772225
8	0x3eb0c23c	0.3452319
9	0xbdd51238	-0.104038656
10	0xbebce00e	-0.3688969
11	0xbe9a9e38	-0.30198836
12	0x3e2c2bc7	0.16813575
13	0xbf1bb7d5	-0.6082738
14	0x3d95b829	0.073105164
15	0xbe8ec7d5	-0.27886835
16	0x3e570d73	0.21001224
17	0x3dffc414	0.12488571
18	0xbde42b84	-0.111411124
19	0xbf02045b	-0.50787896
20	0xbf01bfc1	-0.5068322
21	0xbf117fea	-0.56835806
22	0xbe9ecfcb	-0.31017908
23	0xbe3d812e	-0.1850631
24	0x3e8bf595	0.27335802
25	0x3e33471e	0.17507598
26	0xbe8c1e71	-0.27366975
27	0xbea1ed44	-0.31626332
28	0xbec6754e	-0.3876137
29	0x3e6b806e	0.22998211
30	0xbedd4ee4	-0.4322425
31	0x3d56795f	0.052361842
32	0xbea2e096	-0.3181197
33	0x3d8c0763	0.068373464
34	0xbed924e1	-0.4241095
35	0x3f051db4	0.5199845
36	0x3e1e9063	0.15484767
37	0x3ea3fd18	0.32029033
38	0xbe68cc23	-0.22734122
39	0xbe212d7e	-0.1574001
40	0xbec63ce9	-0.38718346
41	0x3dc2bdb0	0.09508836
42	0x3dc0bb4d	0.09410725
43	0x3dc2d49e	0.0951321
44	0xbead94eb	-0.33902678
45	0x3e295726	0.1653715
46	0x3dbc7c14	0.092033535
47	0x3dee2f44	0.11630109
48	0xbe9fadd7	-0.31187317
49	0x3e74dd1e	0.23912475
50	0x3e7e6c1e	0.24845931
51	0x3ec49483	0.38394555
52	0x3eb89336	0.36049813
53	0xbd12665d	-0.035742152
54	0xbd471a0b	-0.04860882
55	0x3d6b8be8	0.057506472
56	0xbebb1ff9	-0.3654783
57	0x3e80faac	0.25191247
58	0x3e1316b4	0.1436413
59	0x3c9b6c91	0.018972667
60	0x3e7aeb85	0.24503906
61	0xbe7c6124	-0.24646431
62	0xbd125508	-0.035725623
63	0x3e38218c	0.17981547
64	0x3df6467e	0.12025164
65	0xbd0b4366	-0.033999823
66	0xbcf04abf	-0.029332517
67	0x3f1cea6c	0.612952
68	0xbe2cb54a	-0.16866031
69	0xbdb65927	-0.08903723
70	0x3e343109	0.1759683
71	0xbeb48c60	-0.35263348
72	0xbd8a9e9e	-0.06768535
73	0x3eadc51f	0.33939454
74	0xbe9a440d	-0.30130044
75	0x3deabfba	0.1146235
76	0xbedd014c	-0.43165052
77	0xbd934fc3	-0.07192948
78	0xbee0878c	-0.43853414
79	0x3e48264e	0.19545862
80	0x3d9bc3c6	0.076057
81	0xbd978ddf	-0.07400107
82	0x3dfc0434	0.12305489
83	0x3f1667a9	0.5875192
84	0x3e90ff64	0.28319848
85	0xbe111336	-0.14167485
86	0x3db728eb	0.08943351
87	0xbe187841	-0.14889623
88	0xbdc97b25	-0.09837941
89	0x3dc32337	0.09528201
90	0x3ea1fcee	0.31638283
91	0xbd909cba	-0.07061143
92	0x3f158024	0.5839865
93	0xbe8a060a	-0.26957732
94	0xbd058c20	-0.032604337
95	0xbd1614cf	-0.03664094
96	0x3e061461	0.13093711
97	0x3e273207	0.16327678
98	0xbe5b9efd	-0.21447368
99	0xbf37b847	-0.7176556
100	0xbe756d1f	-0.23967408
101	0x3dce9c76	0.10088436
102	0x3e3ac13e	0.18237779
103	0x3b9edd0f	0.0048481296
104	0x3ea364de	0.31912893
105	0xbe09b08b	-0.13446252
106	0xbce81cde	-0.028334077
107	0x3e0da4bd	0.13832374
108	0x3e869e87	0.26292822
109	0xbe4dcdbe	-0.20098016
110	0xbd9cc484	-0.0765467
111	0xbe928f6b	-0.28625044
112	0xbde9d124	-0.114168435
113	0x3e0afefe	0.13573834
114	0x3b1d82cd	0.0024034262
115	0xbefa7452	-0.4891687
116	0xbf0af66c	-0.5428226
117	0xbdd273f3	-0.10276022
118	0xbd149b33	-0.036280822
119	0xbe9bee64	-0.30455315
120	0x3e8f4465	0.27981868
121	0x3c0e89e8	0.008699872
122	0xbf045a90	-0.5170069
123	0xbf10ae8d	-0.56516343
124	0xbee4af26	-0.44664878
125	0x3ec2910a	0.3800128
126	0xbe2756f2	-0.16341761
127	0x3e235609	0.15950789
128	0xbe7a08b5	-0.24417384
129	0x3da6282b	0.0811313
130	0xbf00656e	-0.5015477
131	0x3f0d4f65	0.5519927
132	0x3cb42de5	0.02199454
133	0x3e351bb1	0.17686345
134	0xbe84af53	-0.25915012
135	0xbe93718b	-0.28797564
136	0xbec11a46	-0.37715358
137	0x3e30f729	0.17281784
138	0xbe121c13	-0.14268522
139	0x3e500158	0.20313013
140	0xbe9e7c3a	-0.30954152
141	0x3e0d27df	0.13784741
142	0x3df33498	0.11875266
143	0x3df944ab	0.121713005
144	0xbe6128ba	-0.21988192
145	0x3df5c2b1	0.12000025
146	0x3bdcaf4c	0.006734764
147	0x3eeb4e29	0.4595807
148	0x3eb8cc93	0.36093578
149	0x3dac4bcc	0.084128946
150	0xbdaf5494	-0.08561054
151	0x3d7dd711	0.06197268
152	0xbeaf3ef4	-0.34227717
153	0x3e43158b	0.19051187
154	0x3ebe48cb	0.37164912
155	0x3c9feb48	0.01952137
156	0x3f1d1540	0.6136055
157	0xbe332e19	-0.17498054
158	0x3de87d68	0.11352044
159	0x3d86c76d	0.06581006
160	0x3e7ef749	0.2489902
161	0x3e732fa0	0.23748636
162	0xbe3e393f	-0.18576525
163	0xbf00cce7	-0.50312656
164	0xbe0f1db7	-0.13976179
165	0x3de1544b	0.11002406
166	0x3d68c08a	0.056824245
167	0x3e28d338	0.16486824
168	0x3edeb545	0.43497673
169	0xbd64b86c	-0.05583994
170	0xbe02bc68	-0.12767184
171	0xbd024f30	-0.0318138
172	0xbdc0387b	-0.09385773
173	0xbed4e528	-0.41581082
174	0xbbb93296	-0.0056517823
175	0xbeb5e18b	-0.35523638
176	0x3d871096	0.065949604
177	0x3e0b94d4	0.13630992
178	0xbd8ce7c2	-0.06880142
179	0xbf0eae3f	-0.5573463
180	0xbebf488b	-0.37360033
181	0xbdda3bf7	-0.10655969
182	0xbdd47aca	-0.10374983
183	0xbe684a6f	-0.22684644
184	0x3ebdda60	0.3708067
185	0xbdb93eba	-0.09045167
186	0xbda4870b	-0.0803357
187	0xbe9c57d4	-0.30535758
188	0xbeae3911	-0.34027913
189	0x3e6c7c85	0.23094375
190	0xbdf6b926	-0.12047033
191	0xb92f98a9	-0.00016746171
192	0x3d9b03df	0.07569098
193	0x3dd54892	0.10414232
194	0xbde9afb0	-0.11410463
195	0xbf5a3c23	-0.8524801
196	0xbe9161e8	-0.2839501
197	0x3e0d2c22	0.13786367
198	0x3ddeb19e	0.108737215
199	0xbc447280	-0.01199019
200	0x3e9d6f5c	0.30749023
201	0xbdeacd46	-0.11464934
202	0xbe798006	-0.24365243
203	0x3bea8bc1	0.0071577732
204	0x3e482fe0	0.19549513
205	0xbf1a1282	-0.6018449
206	0xbd226e2d	-0.039655853
207	0xbed7267c	-0.4202155
208	0x3ed61b72	0.41817814
209	0x3e3336b9	0.17501344
210	0xbdc4fc01	-0.096183784
211	0xbea68870	-0.3252597
212	0xbf0820a6	-0.5317482
213	0xbe91e18c	-0.2849239
214	0xbdf2dc1b	-0.11858388
215	0xbdc40a78	-0.09572309
216	0x3ed22621	0.41044715
217	0x3cffee35	0.031241516
218	0xbe8422f4	-0.25807917
219	0xbe9c2974	-0.30500376
220	0xbe9bc682	-0.30424887
221	0x3ea507d1	0.32232526
222	0xbeafc53e	-0.3433017
223	0x3d50daf6	0.050990067
224	0xbcee979b	-0.029125025
225	0xbbe8798e	-0.0070945686
226	0xbe713983	-0.23557095
227	0x3f0c7457	0.5486502
228	0x3e77f896	0.24215922
229	0x3e568d00	0.20952225
230	0x3c75a683	0.014993313
231	0xbdbddf5d	-0.09271119
232	0x3c7f2059	0.015571677
233	0x3e730b5d	0.23734803
234	0x3d93bf8f	0.07214271
235	0x3e84df1f	0.25951478
236	0xbe4e905c	-0.20172256
237	0x3dc1fa81	0.09471608
238	0xbeee37d6	-0.46526974
239	0x3cbc436e	0.022981372
240	0xbaa6493a	-0.0012686618
241	0xbc2b55c4	-0.01045746
242	0x3e8db0f1	0.27674058
243	0x3f3f21ee	0.7466115
244	0x3ea18f59	0.31554678
245	0xbd2c5f5a	-0.04208312
246	0x3e366d53	0.17815141
247	0x3dca394d	0.098742105
248	0xbe1e897d	-0.15482135
249	0x3e20590c	0.15658969
250	0x3eb1f083	0.34753808
251	0x3c6a8b2e	0.01431541
252	0x3f05b51c	0.52229476
253	0xbe7ea67b	-0.24868195
254	0xbdead177	-0.114657335
255	0x3dc0c4a5	0.09412507

layers.6.bias f4 [16]
0	0x3ed0747c	0.4071387
1	0x3e5a8a08	0.21341717
2	0xbc3e4873	-0.011613953
3	0x3eb260ae	0.34839386
4	0x3ec41fd4	0.38305533
5	0x3e9b8b02	0.30379492
6	0x3e9ef9b2	0.31049877
7	0x3d629132	0.05531425
8	0x3ea82b5f	0.3284559
9	0xbd7d17e4	-0.061790362
10	0x3eee86c9	0.46587208
11	0x3f17756d	0.5916355
12	0x3ecd04b1	0.40042642
13	0x3f07c8d2	0.530408
14	0x3eafb190	0.34315157
15	0x3eb46e22	0.35240275

layers.9.weight f4 [1, 16]
0	0x3f5426a7	0.8287148
1	0xbeadd58c	-0.33951986
2	0xbf41bc16	-0.7567762
3	0x3f274611	0.6534129
4	0xbe9db55f	-0.30802438
5	0x3efefba9	0.49801376
6	0x3f15c5a2	0.5850469
7	0xbee2a965	-0.44269863
8	0xbf086283	-0.53275317
9	0xbf038422	-0.51373494
10	0xbf3956be	-0.72397983
11	0x3f5ecc8a	0.8703085
12	0x3f0f833f	0.5605964
13	0x3f10ead1	0.566083
14	0xbebc5f6f	-0.3679156
15	0xbf26a368	-0.6509309
