models/Regression/kaon.pt (torch, 18353 bytes, 7 tensors)

layers.0.weight f4 [64, 19]
0	0xc00bdce4	-2.185357
1	0xbec76b66	-0.38949126
2	0x398a26dd	0.00026350367
3	0xbf73da5d	-0.9525507
4	0x3f0b1087	0.54322094
5	0xbf0585ea	-0.5215746
6	0xbf241e9c	-0.64109206
7	0x3d5dbf2f	0.054137405
8	0x3cfb322f	0.030663578
9	0x3c0f8eae	0.008762045
10	0xbf1f1a5f	-0.62149614
11	0xbd1bfca1	-0.038082723
12	0xbd3ae45f	-0.045627948
13	0xbc9e66be	-0.0193361
14	0x3bb7c245	0.0056078755
15	0x3c1eae61	0.00968513
16	0xbc6f85d3	-0.0146193085
17	0x3d25e869	0.040504847
18	0x3caa47d3	0.020786202
19	0xbd4be28c	-0.0497766
20	0xbe47422c	-0.19458836
21	0xbd1f5c24	-0.03890623
22	0xbe2021be	-0.15637872
23	0xbe405e0f	-0.1878588
24	0x3ca6c800	0.02035904
25	0x3e22b3bf	0.1588888
26	0x3e1928d1	0.14956976
27	0x3d32da5c	0.043665275
28	0x3e369ab3	0.1783245
29	0x3d013014	0.03153999
30	0x3dd4c89e	0.10389827
31	0xbdda79e4	-0.1066778
32	0x3e5ca6d7	0.2154802
33	0x3dfac296	0.122441456
34	0xbe21c3e6	-0.15797386
35	0x3d0963dc	0.0335425
36	0x3dd71712	0.10502447
37	0x3e51cb65	0.20487745
38	0x3ef35f3c	0.47533596
39	0xbc9add55	-0.018904367
40	0xbc05e420	-0.008172065
41	0x3d723846	0.059135698
42	0x3ee6415e	0.44971746
43	0xbf87e161	-1.0615655
44	0xbf7986d4	-0.97471356
45	0x3c1f0d59	0.009707772
46	0xbe041e38	-0.12902153
47	0x3d821c65	0.06353072
48	0xbf22d490	-0.63605595
49	0x3cdb1338	0.026742563
50	0xbcab76b6	-0.02093063
51	0xba8c7311	-0.0010715445
52	0xbc2e9a00	-0.010656834
53	0x3acc5b63	0.00155912
54	0xba90b551	-0.0011040365
55	0xbcd60409	-0.026124971
56	0x3c558e42	0.013034405
57	0x3d85a7ba	0.06526132
58	0xbe0ac92d	-0.13553305
59	0xbc17b010	-0.009258285
60	0x3cf742b8	0.030183181
61	0x3bbe68e0	0.005810842
62	0x3d9590de	0.07303022
63	0x3dd0de7a	0.10198684
64	0x3dd889c6	0.10573153
65	0xbc2a44e0	-0.010392398
66	0xbd8f7012	-0.070037976
67	0x3e077fe9	0.13232388
68	0xbdd62225	-0.10455731
69	0xbd83a8cc	-0.0642868
70	0xbd9ca02e	-0.07647739
71	0x3d122dec	0.035688326
72	0xbe40bd98	-0.18822324
73	0xbd91f052	-0.071259156
74	0x3dd4b5d6	0.10386245
75	0xbd32d78c	-0.043662593
76	0x3fa3d3ef	1.2799052
77	0xbc3aa743	-0.011392417
78	0xb9c17afd	-0.00036903462
79	0xbf287f93	-0.6581966
80	0x3ff13cfe	1.8846738
81	0xbeac658e	-0.3367123
82	0xbf22345d	-0.6336115
83	0x3cad4c33	0.021154499
84	0x3dd9e276	0.10638897
85	0xbc93676f	-0.017993657
86	0xbf4f113b	-0.80885667
87	0xbdf7cb96	-0.12099378
88	0xbb8bdeea	-0.004268517
89	0xbba0494d	-0.0048915506
90	0x3ca40a47	0.020024432
91	0x3c2e4edc	0.010638919
92	0x3c76f6ca	0.015073488
93	0xba56b71f	-0.00081907393
94	0x3c18cbb3	0.009325909
95	0xc0218dbb	-2.5242755
96	0x3baf3927	0.0053473893
97	0xbb81cc95	-0.0039611557
98	0x3de8cc03	0.11367037
99	0x3fd9ad79	1.7006065
100	0x3e8a6e86	0.27037448
101	0x3e573315	0.2101558
102	0xbd4d919a	-0.050187685
103	0xbcb8c6a5	-0.022555659
104	0xbc9616b8	-0.01832138
105	0xbeae305b	-0.34021267
106	0x3c5db231	0.013531254
107	0x3db8a155	0.09015147
108	0x3c16ab72	0.009196149
109	0x3c13108d	0.008976114
110	0xbba45bc4	-0.005015822
111	0x3b2743c9	0.002552258
112	0xbdc9d04a	-0.09854181
113	0xbd316a12	-0.043314047
114	0xbf477f98	-0.7792907
115	0x3e3d2aaa	0.18473306
116	0xbe84a3d5	-0.25906244
117	0x3dcbd519	0.099527545
118	0x3f1a2b20	0.60222054
119	0x3d7bb613	0.061452936
120	0xbdaf17a4	-0.08549431
121	0xbd8713cb	-0.06595572
122	0xbcbaa99c	-0.022785954
123	0x3d076aee	0.03306096
124	0xbebbded1	-0.36693433
125	0xbce3ad94	-0.02779273
126	0x3d935f5d	0.071959235
127	0x3cc4e49c	0.02403479
128	0xbdf58fd1	-0.119903214
129	0xbc4b89f2	-0.012423025
130	0xbe742bda	-0.23844853
131	0xbdf1ccfa	-0.11806674
132	0xbe25ed7d	-0.16203876
133	0xbf00fc1f	-0.50384706
134	0xbdc53a9b	-0.09630319
135	0xb9fc97c4	-0.0004817826
136	0xbee201c0	-0.4414196
137	0xbd25c7fc	-0.040473923
138	0xbf882161	-1.0635186
139	0xbf49531a	-0.7864243
140	0x3e51045b	0.20411818
141	0x3ce79ce0	0.028273046
142	0xbce14049	-0.027496474
143	0x3dada71c	0.08479139
144	0xbca65237	-0.020302875
145	0xbdea888f	-0.11451828
146	0xbc81de92	-0.0158532
147	0xbce79211	-0.028267892
148	0x3c094dd5	0.008380373
149	0xbb87a47a	-0.00413948
150	0xbdd55754	-0.10417047
151	0x3a5c6cbe	0.0008408538
152	0x3e722aa6	0.23649082
153	0x3e3950d0	0.18097234
154	0x3d7265bf	0.059179064
155	0xbdab5172	-0.08365144
156	0x3e19537c	0.14973253
157	0xbea81696	-0.32829732
158	0xbeb80246	-0.35939234
159	0x3d4e4ed7	0.050368156
160	0xbeb09902	-0.34491736
161	0xbde90c81	-0.11379338
162	0xbf9abab7	-1.2088231
163	0x3e2a3473	0.1662157
164	0x3c6cd26c	0.014454465
165	0xbd013150	-0.03154117
166	0xbcd28519	-0.025698232
167	0xbc074c06	-0.0082578715
168	0xbd2d3263	-0.04228438
169	0xbdc277e6	-0.09495525
170	0x3c530625	0.012879883
171	0xbff73fe8	-1.9316378
172	0xbf46ad23	-0.77607936
173	0x3b507446	0.0031807586
174	0xbda897c5	-0.08232073
175	0xbf0bd759	-0.5462547
176	0x3ef80c12	0.4844671
177	0x3e95c366	0.2925064
178	0x3a4ff301	0.0007932634
179	0xb8b6697c	-8.698084e-05
180	0xbbeaf427	-0.0071702185
181	0x3f743d63	0.9540617
182	0x3c87835f	0.016542135
183	0xbc81cadd	-0.015843803
184	0x3ba05da1	0.004893974
185	0xbc403c92	-0.011733191
186	0xbc179410	-0.009251609
187	0x3c48d7fa	0.012258524
188	0x3b9db554	0.0048128758
189	0x3d2a036a	0.041507162
190	0x40048492	2.0705914
191	0x3b9081c7	0.004410002
192	0xba0d07ae	-0.00053798675
193	0xbce6b113	-0.028160607
194	0x3f98cb26	1.1936996
195	0xbe17de37	-0.14830862
196	0xbdf7c178	-0.12097448
197	0xbc06916f	-0.008213385
198	0xbbea83f5	-0.007156844
199	0xba6b6d1f	-0.0008980799
200	0xbf60caf1	-0.87809664
201	0xbb459e7c	-0.0030154279
202	0x3b28bbc7	0.002574669
203	0xbb39e2fa	-0.0028364048
204	0xbad32df0	-0.0016111713
205	0x3be6b9ac	0.007041177
206	0x3b49b9b6	0.0030780858
207	0x3b000fb9	0.0019540621
208	0x3ad77812	0.0016438982
209	0xbdd1cf2a	-0.102445915
210	0xbc9f5197	-0.019448085
211	0x3a31e86b	0.0006786647
212	0xbedc8222	-0.43068033
213	0xba80c15a	-0.0009823248
214	0xbfa22be7	-1.2669648
215	0xbf716772	-0.9429847
216	0xbd98928c	-0.074498266
217	0x3d831632	0.06400718
218	0x3c977601	0.018488886
219	0xbebe8831	-0.3721328
220	0x3d1e3558	0.03862509
221	0x3ceeb706	0.029140007
222	0x3c53fe2b	0.012939016
223	0xbce50afd	-0.027959341
224	0x3c212a94	0.009836812
225	0xbd8b7ad0	-0.06810534
226	0xbdf7b73c	-0.12095496
227	0x3c6e08a6	0.014528429
228	0x3e60d773	0.21957187
229	0x3e3526f1	0.17690636
230	0x3e069187	0.13141452
231	0x3ddb1066	0.10696487
232	0x3e407961	0.18796302
233	0xbd67ff08	-0.0566397
234	0xbe1c3356	-0.15253958
235	0xbc1ea7c0	-0.009683549
236	0x3e4e15b5	0.20125468
237	0x3e40e07d	0.18835635
238	0xbe008f1b	-0.1255459
239	0x3d547394	0.051868036
240	0x3e2f1713	0.17098646
241	0x3e21d215	0.15802796
242	0xbde8a5ac	-0.113597244
243	0xbe3b4823	-0.18289237
244	0xbe598b33	-0.21244507
245	0x3e2f1d49	0.17101015
246	0x3b226800	0.0024781227
247	0x3d6c894f	0.057748135
248	0x3ea6dcb8	0.3259027
249	0xbe34f435	-0.17671283
250	0xbdb3965c	-0.08768913
251	0xbe904c27	-0.281831
252	0x3e50104e	0.2031872
253	0x3ebac639	0.36479357
254	0xbda66a57	-0.081257515
255	0xbdbaae92	-0.09115328

layers.0.bias f4 [64]
0	0xbde45913	-0.11149802
1	0x3e5f0b51	0.2178166
2	0x3d4ddd4b	0.05025987
3	0x3d03ce1c	0.032178983
4	0xbe1eec93	-0.15519933
5	0xbeb66701	-0.3562546
6	0x3d273317	0.040820207
7	0xbe721b5f	-0.23643254
8	0xbd403d13	-0.046933245
9	0xbe9ced33	-0.3064972
10	0xbe5582af	-0.20850633
11	0xbde17576	-0.11008732
12	0x3c4df870	0.012571439
13	0xbd51bdf2	-0.051206537
14	0xbd17a4d7	-0.037022438
15	0x3e06b093	0.13153295
16	0x3ca6f141	0.02037871
17	0x3dfd171b	0.12357923
18	0xbdae814e	-0.08520757
19	0x3e3e0b95	0.18559106
20	0x3e21b1fd	0.15790553
21	0xb937ef3c	-0.00017541362
22	0x3e30819f	0.17236947
23	0xbe575344	-0.21027857
24	0x3ca2ee98	0.019889161
25	0xbe57b534	-0.21065217
26	0xbd816ce5	-0.06319598
27	0xbe44c53e	-0.19215867
28	0x3db1e2c1	0.08685828
29	0xbdb02f56	-0.086027786
30	0x3d930b26	0.07179861
31	0xbe53a2bf	-0.20667551
32	0xbe9d2a59	-0.3069637
33	0xbdd7e22c	-0.10541186
34	0xbe663ef4	-0.22484952
35	0x3e4a3806	0.19747934
36	0xbd91b8a9	-0.07115299
37	0x3e0adc69	0.13560642
38	0xbea39bba	-0.31954747
39	0xbe4d2125	-0.20032175
40	0xbe6866c6	-0.22695455
41	0xbd64301f	-0.055709954
42	0x3c92d7c8	0.017925158
43	0xbe324164	-0.17407757
44	0xbe1b5473	-0.15168934
45	0xbcaaa848	-0.020832196
46	0x3de2c80a	0.11073311
47	0xbe0c7ed2	-0.13720253
48	0x3cf2a9f8	0.029622063
49	0xbeaf8448	-0.3428061
50	0xbe3c3062	-0.18377832
51	0x3d11871d	0.035529245
52	0xbdd7b5d8	-0.10532731
53	0x3e0133f0	0.12617469
54	0xbe658824	-0.22415215
55	0xbe235400	-0.15950012
56	0x3e1e8a63	0.15482478
57	0x3e2277bb	0.15865986
58	0xbc5e3f52	-0.013564901
59	0x3dff5a70	0.124684215
60	0x3dec7b6e	0.1154698
61	0xbd31f518	-0.04344663
62	0x3d45c11b	0.048279863
63	0x3e471543	0.19441704

layers.3.weight f4 [32, 64]
0	0x3e2d7ad9	0.16941394
1	0x3da16dbc	0.07882258
2	0xbd6369e7	-0.05552092
3	0x3d473364	0.048632994
4	0xbddf7fb8	-0.10913032
5	0x3ee04208	0.43800378
6	0xbd8e3c92	-0.069451466
7	0xbc8b18f3	-0.01697967
8	0xbec4032a	-0.38283664
9	0x3da9a8bd	0.082841374
10	0xbf0851fc	-0.532501
11	0x3d356364	0.04428424
12	0xbd68bd94	-0.05682142
13	0x3d183bbb	0.03716634
14	0xbc8b2a51	-0.016987951
15	0x3d6419e8	0.05568877
16	0xbed3a33c	-0.41335475
17	0xbe6bc57b	-0.23024552
18	0xbd96325f	-0.07333826
19	0xbdad5650	-0.084637284
20	0xbf17fe22	-0.5937215
21	0xbbba50dd	-0.005685909
22	0xbd96b9aa	-0.07359631
23	0xbccd6c66	-0.025076102
24	0xbdf1ce94	-0.1180698
25	0x3d8cf76a	0.06883128
26	0xbf268915	-0.6505292
27	0xbd876341	-0.06610728
28	0x3df59772	0.119917765
29	0xbd8ea6cc	-0.06965408
30	0x3dfb781a	0.12278767
31	0xbceb7f48	-0.028747216
32	0xbdf2f656	-0.11863391
33	0x3c871b15	0.016492406
34	0xbd916856	-0.070999786
35	0xbe63f294	-0.22260505
36	0x3d3b9102	0.045792587
37	0xbdca15c2	-0.09867431
38	0x3d980e0c	0.07424554
39	0xbf9e0a1d	-1.2346836
40	0xbdd13d6a	-0.10216792
41	0xbe73b176	-0.23798165
42	0xbde9377a	-0.113875344
43	0xbe5988b5	-0.21243556
44	0x3dda1eae	0.10650383
45	0xbcb03970	-0.021511763
46	0x3da9684c	0.08271846
47	0xbd8ada82	-0.06779958
48	0x3c1302c0	0.008972824
49	0xbe5ae568	-0.21376574
50	0xbe6115b4	-0.21980935
51	0xbced9dc5	-0.029005894
52	0xbc4f2930	-0.012644097
53	0xbc021d10	-0.007941499
54	0xbe9c73a1	-0.30556968
55	0x3cbe30f1	0.023216696
56	0xbe3ab2ab	-0.18232219
57	0xbccc408f	-0.024933128
58	0x3da8078e	0.08204566
59	0xbe173e05	-0.14769752
60	0xbd4617a0	-0.048362374
61	0x3dfa3f38	0.12219089
62	0x3e055b7a	0.13023177
63	0x3c001e90	0.007819787
64	0x3da60b01	0.081075676
65	0xbdc77732	-0.097395316
66	0xbe367a7d	-0.17820163
67	0x3cf74fe8	0.03018947
68	0xbf167dd4	-0.5878575
69	0xbd4e88f6	-0.050423585
70	0xbd088f0c	-0.033339545
71	0xbdd63565	-0.10459403
72	0x3d56cd50	0.052441895
73	0xbd986052	-0.07440247
74	0xbfa2e0b4	-1.2724824
75	0x3c5795ab	0.013158242
76	0xbdf9569e	-0.12174724
77	0xbac9b75f	-0.0015389732
78	0x3b85ff40	0.004089266
79	0xbd15fb88	-0.036616832
80	0x3e9d6901	0.30744174
81	0xbf834d37	-1.0257939
82	0x3d12002f	0.035644706
83	0x3d348ebc	0.044081435
84	0xbf4a0953	-0.7892048
85	0x3c26e657	0.010186753
86	0x3cb0f750	0.021602303
87	0xbb9ebbb0	-0.0048441514
88	0xbbc4ee80	-0.0060098767
89	0x3ce9923b	0.028512111
90	0x3e8a6298	0.27028346
91	0x3cf7ecf1	0.03026435
92	0xbc0d7ed9	-0.0086362
93	0x3da56804	0.0807648
94	0xbde3c3f8	-0.111213624
95	0xbd835438	-0.06412548
96	0xbd2a6a7e	-0.041605465
97	0xbbab12c6	-0.005220744
98	0xbd8776a3	-0.06614425
99	0x3b842716	0.0040329797
100	0xbc5b1e64	-0.013373945
101	0xbc6a910c	-0.014316808
102	0xbd5441ba	-0.051820494
103	0xbf96c875	-1.1779925
104	0x3d5146f7	0.051093068
105	0xbf840a33	-1.0315613
106	0x3dc9a90a	0.09846695
107	0xbe3b2d6b	-0.18279044
108	0x3dfac15e	0.12243913
109	0xbd9566b0	-0.07294977
110	0xbf117a76	-0.56827486
111	0x3ce3fe60	0.027831256
112	0x3ce8d720	0.028422892
113	0x3d54c3b8	0.051944464
114	0x3ebe857b	0.37211213
115	0xbcf77b83	-0.030210262
116	0x3dd319d4	0.10307661
117	0xbd12893e	-0.035775416
118	0xbd7f7567	-0.062367823
119	0xbdc18781	-0.094496734
120	0xbdf0eae6	-0.11763553
121	0xbd5cb2ae	-0.05388134
122	0x3c16c0e8	0.009201266
123	0xbd83dd29	-0.06438667
124	0x3c4b4a50	0.012407854
125	0x3c450c00	0.012026787
126	0x3dae3640	0.08506441
127	0xbd529790	-0.051414073
128	0x3d482af3	0.048869085
129	0x3dbe029e	0.09277843
130	0xbd429fff	-0.047515865
131	0xbd90af78	-0.07064718
132	0xbeba9c6f	-0.36447474
133	0xbe933223	-0.2874919
134	0x3c8ac5d2	0.016940031
135	0x3d95409c	0.07287714
136	0x3d3e032d	0.046389747
137	0xbe3239c5	-0.1740485
138	0xbecbf90f	-0.39838454
139	0x3e07ae0b	0.13249986
140	0x3dbf6d6c	0.093470424
141	0xbdfdaf22	-0.123869196
142	0x3da89d14	0.08233085
143	0x3dcd46ec	0.10023293
144	0x3e7a4385	0.24439819
145	0xbe96e65d	-0.29472628
146	0xbd0b9dca	-0.034086026
147	0x3b7e8f00	0.003884256
148	0xbda03a82	-0.078236595
149	0x3d5da7c1	0.05411506
150	0x3c28df40	0.010307133
151	0x3cc99d8e	0.02461126
152	0x3d2f9828	0.042869717
153	0x3d753467	0.059864428
154	0x3e89cc95	0.26913896
155	0xbe02b718	-0.12765157
156	0xbdd4f769	-0.10398752
157	0xbd971bea	-0.07378371
158	0xbdab31ac	-0.083590835
159	0x3d8366b8	0.064160764
160	0x3d414c7a	0.047192074
161	0xbdee793c	-0.11644217
162	0xbe3fc759	-0.18728389
163	0xbce0667d	-0.02739262
164	0x3ddf57e9	0.109054394
165	0xbe1d2f73	-0.15350132
166	0x3db4c154	0.08825937
167	0x3deb0ee1	0.11477447
168	0x3a29e659	0.0006481163
169	0xbf05008b	-0.51953954
170	0x3dc2888e	0.09498702
171	0x3e18fec4	0.14940935
172	0x3dbb066e	0.09132086
173	0x3d4fab90	0.050700724
174	0xbe16739f	-0.14692543
175	0x3bb50140	0.0055238307
176	0xbd2ebf44	-0.042662874
177	0xbdc46cec	-0.09591088
178	0x3ef240ee	0.47315162
179	0x3d7f2708	0.062293082
180	0xbc8d0240	-0.017212987
181	0xbd67717a	-0.056504704
182	0x3cfc6c34	0.030813314
183	0xbe28d637	-0.16487966
184	0xbe144bf1	-0.14482094
185	0xbe6f810b	-0.2338907
186	0xbd147786	-0.0362468
187	0xbcdaffa5	-0.026733229
188	0x3db306fc	0.087415665
189	0xbc395aa0	-0.011313111
190	0x3e181c99	0.14854659
191	0x3db99a26	0.090626046
192	0xbe8a6f31	-0.27037957
193	0x3ce98ff0	0.028511018
194	0xbc913fd4	-0.017730631
195	0xb9420c00	-0.00018505752
196	0xbeeb35cb	-0.45939478
197	0x3a437e4f	0.0007457481
198	0xbc905452	-0.017618332
199	0x3e08f96d	0.13376398
200	0xbe31e792	-0.17373493
201	0xbe6bd6bf	-0.23031138
202	0x3e102574	0.14076787
203	0x3e1bb886	0.15207109
204	0xbde3344c	-0.11093959
205	0x3d22b5f1	0.039724294
206	0x3c1c3ef1	0.009536491
207	0xbd7298a4	-0.0592276
208	0x3dbd1181	0.09231854
209	0xbf83b4e9	-1.0289584
210	0xbf4b4226	-0.7939781
211	0xbcc7ca38	-0.024388418
212	0xbf0ec749	-0.55772835
213	0xbe2ed94f	-0.17075084
214	0xbdadfb02	-0.084951416
215	0xbd4f77a0	-0.050651193
216	0xbdc44b62	-0.09584691
217	0x3d8259c9	0.063647814
218	0x3d3829ec	0.044961855
219	0xbdf80f22	-0.12112261
220	0x3c007d92	0.007842438
221	0x3cce8f28	0.025214747
222	0xbdf79af2	-0.120901
223	0x3d9279b0	0.07152116
224	0x3dae8e1a	0.085231975
225	0x3bd086bd	0.0063637183
226	0xbe8bf506	-0.27335376
227	0xbdfaade7	-0.122402005
228	0xbd8522e8	-0.065007985
229	0xbe2b8c6b	-0.16752784
230	0x3d121489	0.035664115
231	0xbf10a23f	-0.5649757
232	0x3db7085e	0.08937143
233	0xbea6498c	-0.32477987
234	0xbd9b51ac	-0.07583937
235	0x3d2fdfa4	0.04293789
236	0xbc6ff9d0	-0.014646962
237	0xbdd9418e	-0.10608207
238	0x3ddee4c9	0.10883481
239	0xbdd2cace	-0.10292588
240	0x3dd66fb2	0.10470523
241	0x3dc24025	0.09484891
242	0xbdea1cbc	-0.11431262
243	0x3d91632a	0.07098992
244	0xbdaefb1c	-0.08543989
245	0xbcf85a56	-0.030316513
246	0xbdf6d93b	-0.12053152
247	0xbde2335c	-0.11044952
248	0xbc957ed8	-0.01824896
249	0xbbb2abfb	-0.0054526306
250	0xbf06d863	-0.5267393
251	0xbe0924f3	-0.13393001
252	0x3c9c1b70	0.019056052
253	0xbd97f22a	-0.07419236
254	0xbf6afd6c	-0.9179294
255	0xbc16f350	-0.009213284

layers.3.bias f4 [32]
0	0x3ddfb375	0.109229006
1	0x3e20b3dd	0.15693612
2	0x3cfd7e9d	0.030944163
3	0x3db60a79	0.08888716
4	0xbde80d33	-0.113306426
5	0xbe55ed40	-0.20891285
6	0x3cbd6dc0	0.023123622
7	0x3e2fa579	0.17152967
8	0xbe3ace20	-0.18242693
9	0xbe5587bd	-0.20852561
10	0x3dfd2734	0.12360993
11	0xbe88ac4c	-0.26693952
12	0x3dcadb11	0.09905065
13	0x3e406cc7	0.18791495
14	0x3e813ef0	0.2524333
15	0xbce94bab	-0.028478464
16	0xbb5b3b3f	-0.0033452061
17	0x3e7d3e60	0.24730825
18	0x3e2c91bf	0.16852473
19	0x3dda8ea4	0.10671738
20	0x3ec5699b	0.38557133
21	0xbd89f98d	-0.06737051
22	0xbebff3a6	-0.37490577
23	0x3e1581dd	0.1460032
24	0x3d6a8efe	0.057265274
25	0x3e7dcbbb	0.24784748
26	0x3ea218c1	0.3165951
27	0xbd2e6dd7	-0.04258522
28	0xbe0f7535	-0.14009555
29	0xbea27d11	-0.31736043
30	0x3d99963e	0.074993595
31	0xbed8a39e	-0.4231233

layers.6.weight f4 [16, 32]
0	0xbe0a50d9	-0.13507403
1	0xbe9d09ed	-0.30671635
2	0x3ace79ed	0.001575289
3	0x3d14e97e	0.036355488
4	0x3e1c8ef8	0.15288913
5	0x3e7b9b91	0.24571063
6	0x3e2d0c44	0.1689921
7	0xbd986008	-0.074401915
8	0x3eb4ef06	0.3533861
9	0x3ea52d21	0.32260993
10	0x3e91f563	0.28507528
11	0x3eb26e79	0.3484991
12	0x3d7cfe73	0.0617661
13	0xbea1b86c	-0.31586015
14	0x3f75c086	0.9599689
15	0x3db49d74	0.08819094
16	0x3d22e7fc	0.03977202
17	0xbe90a8cc	-0.28253782
18	0xbcf59c3c	-0.029981725
19	0x3e79f0dd	0.24408288
20	0x3e957d81	0.29197314
21	0xbccf982a	-0.025341112
22	0xbeb31cfd	-0.34983054
23	0xbed086a3	-0.4072772
24	0x3de11f9d	0.10992358
25	0x3f3a3006	0.7272953
26	0x3ee44d0a	0.44590026
27	0x3e3bf529	0.1835524
28	0xbe2898b1	-0.16464497
29	0x3e6b1f88	0.22961247
30	0x3e8ee98a	0.2791255
31	0x3f355561	0.708334
32	0xbd9d3a3c	-0.07677123
33	0xbe960e1d	-0.29307643
34	0xbddd2247	-0.107975535
35	0xbe41c5cc	-0.1892311
36	0x3e49392a	0.19650713
37	0x3e1d7c35	0.15379412
38	0x3d501c74	0.050808385
39	0xbdcf3b41	-0.10118724
40	0x3efcd09a	0.493779
41	0x3da1ff7b	0.07910057
42	0x3e869417	0.2628486
43	0x3f27cdfd	0.6554869
44	0x3e59673e	0.2123079
45	0xbed881c9	-0.42286518
46	0x3f84b253	1.036692
47	0xbd2db139	-0.04240534
48	0x3d229de8	0.039701372
49	0xbe978bb1	-0.29598764
50	0x3e2384ba	0.159686
51	0x3ea7be30	0.3276229
52	0x3e388520	0.18019533
53	0xbc97be4d	-0.01852336
54	0xbeb626e0	-0.35576534
55	0xbf22ad25	-0.6354545
56	0x3c0b5050	0.008503035
57	0x3f5651f0	0.83718777
58	0x3e850e17	0.25987312
59	0x3e9730a7	0.29529306
60	0xbe7fe9da	-0.24991551
61	0x3eb486b9	0.35259035
62	0x3ef4be23	0.47801313
63	0x3f439100	0.7639313
64	0xbda2f326	-0.07956533
65	0x3f75a5da	0.95956194
66	0x3e9fb08a	0.31189376
67	0x3e823d87	0.25437567
68	0xbf52420a	-0.8213202
69	0xbe8d1ff9	-0.27563456
70	0xbe6723de	-0.22572276
71	0x3e1ebe91	0.15502383
72	0xbe89cbd3	-0.26913318
73	0xbf08477f	-0.53234094
74	0xbf219a7d	-0.63126355
75	0xbf6eec75	-0.93329555
76	0xbf41231e	-0.7544421
77	0x3f26d1ae	0.65163696
78	0xbefd9ca9	-0.49533585
79	0xbe9bd4d6	-0.30435818
80	0xbe9b75b7	-0.30363247
81	0x3f20eda8	0.62862635
82	0xbf268c62	-0.6505796
83	0xbf50b0e2	-0.815199
84	0x3ea85a1a	0.32881242
85	0xbf0415ba	-0.5159565
86	0xbe42c40b	-0.19020097
87	0x3ede71a4	0.43446076
88	0xbef06fb9	-0.46960238
89	0xbed39a55	-0.41328683
90	0xbee5da63	-0.44893178
91	0xbdf382b1	-0.11890162
92	0xbbb04767	-0.0053796056
93	0xbf5e181e	-0.8675555
94	0xbf324bae	-0.6964673
95	0xbf87798a	-1.0583966
96	0xbe4b16ea	-0.1983296
97	0xbef0592b	-0.4694303
98	0xbd214cbb	-0.039379817
99	0xbea58006	-0.32324237
100	0x3e3d0f00	0.18462753
101	0x3e84c680	0.25932693
102	0x3e2ef34c	0.17084998
103	0xbe169016	-0.14703402
104	0x3ef7a28a	0.48366195
105	0x3e00c572	0.1257532
106	0x3ea0878a	0.31353408
107	0x3eb931ad	0.36170712
108	0x3ba6be8a	0.005088632
109	0xbeed1aea	-0.46309596
110	0x3f694812	0.91125596
111	0x3e177020	0.14788866
112	0xbd9fff6b	-0.07812389
113	0xbe9cbea3	-0.30614194
114	0x3df08e4b	0.1174589
115	0x3e3d5c6d	0.18492289
116	0x3e631560	0.22176123
117	0x3d86fbbd	0.06590984
118	0xbe90b80d	-0.2826542
119	0xbf1e6208	-0.61868334
120	0xbdbef204	-0.093235046
121	0x3f3eb33d	0.74492246
122	0x3ed03377	0.40664265
123	0x3d2d7d8b	0.042356055
124	0xbda1efc4	-0.0790706
125	0xbba0097e	-0.004883944
126	0x3e775b53	0.24155931
127	0x3f60525c	0.8762567
128	0xbdb27a10	-0.08714688
129	0xbeac5fd4	-0.3366686
130	0xbc968171	-0.01837227
131	0xbd916f02	-0.07101251
132	0xbccbb7d5	-0.024867931
133	0x3eb5ba19	0.35493544
134	0x3e4c693c	0.19962019
135	0xbcb7b828	-0.02242668
136	0x3ef6c1ea	0.4819482
137	0x3d5236db	0.051321846
138	0x3e02915c	0.12750763
139	0x3eb5a416	0.3547675
140	0x3dfd49e9	0.12367613
141	0xbeaef1d5	-0.34168878
142	0x3f5d1f52	0.86375916
143	0x3e304d2b	0.17216937
144	0x3a06db53	0.0005144376
145	0xbdc13409	-0.09433753
146	0x3db63d80	0.08898449
147	0x3e3c918b	0.18414895
148	0x3eb2e30b	0.34938845
149	0xbca327a8	-0.01991637
150	0xbe5553cc	-0.20832747
151	0xbef5fb46	-0.4804327
152	0x3bb1e671	0.005429082
153	0x3f52be5a	0.82321703
154	0x3e63dc2f	0.22251962
155	0x3d553749	0.052054677
156	0x3cbc5c3b	0.022993198
157	0x3e1a7856	0.15084967
158	0x3eae7796	0.34075612
159	0x3f1fbfc5	0.6240199
160	0xbd86c975	-0.06581394
161	0xbe9d9bbc	-0.30782878
162	0xbd449c54	-0.04800065
163	0xbe6323ca	-0.22181621
164	0xbc95a342	-0.018266324
165	0xbca29a2c	-0.019848906
166	0x3e165bf3	0.14683513
167	0xbe333b74	-0.17503148
168	0x3e8b67c2	0.27227598
169	0x3e4b5fd3	0.19860773
170	0x3ed6e88c	0.41974294
171	0x3f039edf	0.51414293
172	0x3d1217af	0.035667118
173	0xbee75806	-0.45184344
174	0x3f75bdd2	0.9599277
175	0xbc9c4b9c	-0.019079022
176	0x3d29df09	0.04147247
177	0xbec53044	-0.38513386
178	0x3dc8e715	0.098097004
179	0x3a891241	0.0010457711
180	0x3e991b8c	0.2990383
181	0xbc16cc7a	-0.009204024
182	0xbefe0a84	-0.49617398
183	0xbef74d82	-0.4830132
184	0x3e17acb1	0.1481197
185	0x3f309e39	0.6899143
186	0x3e9c60cc	0.305426
187	0x3d4cc252	0.049990006
188	0xbe2d90c6	-0.16949758
189	0x3d8e11b5	0.06936971
190	0x3e98649f	0.29764268
191	0x3f215621	0.6302205
192	0xbda64841	-0.0811925
193	0xbe5727fa	-0.21011344
194	0xbd6276f2	-0.055289216
195	0xbdd1f4cd	-0.1025177
196	0x3e27625b	0.16346113
197	0x3e449885	0.19198807
198	0x3df45670	0.11930549
199	0x3d3e8177	0.046510186
200	0x3ea78993	0.32722148
201	0x3e885593	0.26627788
202	0x3f042dde	0.5163249
203	0x3efee3ee	0.49783272
204	0xbc89718b	-0.016777774
205	0xbeb1ce36	-0.3472764
206	0x3f7046d6	0.9385809
207	0x3e76a0b6	0.24084744
208	0xbd98d601	-0.07462693
209	0xbe2cf1c3	-0.168891
210	0x3e41d4cf	0.18928836
211	0x3e0c4657	0.13698708
212	0x3e6cc537	0.23122106
213	0x3d2c381b	0.042045694
214	0xbe11024d	-0.14161034
215	0xbeca9f53	-0.3957468
216	0x3ce833bf	0.028344987
217	0x3f0603d9	0.5234962
218	0x3e7b34ee	0.2453191
219	0x3e3dc4bd	0.18532081
220	0xbdce8631	-0.10084189
221	0x3e0bf6d1	0.13668372
222	0x3ec8e48f	0.39236876
223	0x3f6ba76b	0.92052335
224	0xbedddc0f	-0.43331954
225	0xbf11dd7f	-0.569786
226	0xbe41affb	-0.18914787
227	0xbf2af6b8	-0.6678271
228	0xbe44e363	-0.19227366
229	0x3dcab015	0.09896866
230	0xbd850853	-0.06495728
231	0xbeea106e	-0.4571566
232	0x3e8de44b	0.27713236
233	0x3ca753ed	0.020425761
234	0x3e8e4e9f	0.27794358
235	0x3d6e07bb	0.05811284
236	0xbd06c2b9	-0.032900546
237	0xbf3d72df	-0.74003404
238	0x3f93305c	1.1499133
239	0x3df66573	0.12031069
240	0x3dff3224	0.124607354
241	0xbf4f55cc	-0.8099029
242	0x3d5c1c5b	0.05373798
243	0x3e56a841	0.20962621
244	0x3e253b17	0.16135822
245	0x3ca83b37	0.020536048
246	0xbf030b32	-0.5118896
247	0xbf3580ca	-0.7089964
248	0xbdd9992b	-0.106249176
249	0x3f26276a	0.6490389
250	0xbd9026d1	-0.07038654
251	0x3e7e2cf1	0.24821831
252	0xbeb31f80	-0.3498497
253	0x3d8c71dd	0.06857655
254	0x3ea41cf5	0.32053342
255	0x3dd77ad9	0.10521478

layers.6.bias f4 [16]
0	0x3d89bd23	0.06725528
1	0x3e378098	0.17920148
2	0x3ee4f3b1	0.44717172
3	0x3e4d1c7e	0.200304
4	0x3cb78e49	0.022406714
5	0x3dae1e2e	0.0850185
6	0x3d805ede	0.062680945
7	0x3e8781be	0.26466173
8	0x3e6756cc	0.22591704
9	0x3ec6f4a1	0.38858512
10	0x3eceb66f	0.4037356
11	0x3e0d1199	0.13776244
12	0x3dc62f3c	0.09676978
13	0x3e91f528	0.28507352
14	0x3d506597	0.050878134
15	0x3e3f42f0	0.18677878

layers.9.weight f4 [1, 16]
0	0xbef47ca4	-0.47751343
1	0xbedfde9a	-0.4372452
2	0x3fa88296	1.3164852
3	0xbf05226a	-0.52005637
4	0xbf3ce7e3	-0.7379133
5	0xbf2755cd	-0.65365297
6	0xbf020c49	-0.50799996
7	0xbf81c4b9	-1.013816
8	0xbf34ba1a	-0.7059647
9	0x3fa9bd64	1.3260922
10	0x3fee3c2c	1.8612113
11	0xbf51b918	-0.81923056
12	0xbf00ae86	-0.502663
13	0x3f4f7448	0.81036806
14	0xbf02705e	-0.5095271
15	0xbf050e2a	-0.5197474
