models/Regression/pion.pt (torch, 18353 bytes, 7 tensors)

layers.0.weight f4 [64, 19]
00000000: 8900 52bf 1824 24ba 7eb9 d1b9 363b 13bf
00000010: 2466 a23d 5071 53bf 3f19 40bf 9f91 06bd
00000020: b1a8 c8bc 2a7c 993a cf1b 713f c849 503c
00000030: 7258 153c 0c28 49bb f545 05bb 6a6b b33a
00000040: 56a1 27bc d74d 9fbc 5eb3 c9bb e27b 3fbe
00000050: 94da 773d 3cd7 0d3d 07c9 073e c733 3b3e
00000060: 24cf 373d 187a eebd 1944 143e 6c8b 7b3d
00000070: 0052 4bba 3dc5 68be f6ab ec3d da8e cabd
00000080: 39cf 38be 436c 113e bf59 50be 3c87 223d
00000090: fef7 bc3d 4abd 53be ec0b 31be 78f6 c53c
000000a0: 3322 3abe b223 62be 0ca0 4b3d fb30 363e
000000b0: 87b5 ebbd 2c74 b5bd f45a fdbd 3cc0 773d
000000c0: 493b 4dbe 298d 033e e244 eebd 3683 c13d
000000d0: fc05 3e3d 0bec 11be 02ec d0bd 907b 63bc
000000e0: a313 1f3e 367f a2bf c71e 45bf 9a78 08bb
000000f0: d2c7 24bf 5373 063f 0487 99bd b676 793e
00000100: 9538 033c 06ea e13d 7254 063a 1141 7dbe
00000110: ad92 95bd 1b5f 633c f802 a3bb 5b89 2d3c
00000120: 0b60 8a3b 29f8 35bd 6b19 cebd 8ee1 433d
00000130: 7c95 fc3c 3f74 30bd adb3 00be d7d8 35bd
00000140: 89de 22be b0ed 593e 50e3 16be eddf 07bd
00000150: 74ef b0bd 13dc 11be 22a7 2ebf 912f fcbc
00000160: 0dc3 4dbd b5a2 a9bc 4a72 dfbc b4ab af3c
00000170: 0d9e 303e 11e9 33b9 ffe4 9abc 6ea1 0c3f
00000180: 7a2d 94bc d0d1 4dbe 5450 473d d33e d6be
00000190: a5da 8e3e e329 833e c034 d8bd 115c aabe
000001a0: 7c9e b1bd 2c08 54bf 87f7 0e3e 8209 3b3d
000001b0: 2677 55bd b93c 18bd 9249 eeba 99fb d9bc
000001c0: 9476 c3bb e578 143e 3dce 273f 7527 e63d
000001d0: ad6d 0c3d 7ddb c73c 59d5 aa3f 4c17 93be
000001e0: 17be a8be 4215 97bd c2db dabd 0bed a93d
000001f0: b1eb 403f 1550 053e f688 9b3d 07a0 c4ba
00000200: c0e5 46bc d6fe cdbb 74f8 46bc b321 8abd
00000210: 993d edbc 9dd1 fdbe 6578 0ebd cdb5 1fbc
00000220: 8aa0 a93a 7d41 22be cd16 d8bf 29d5 91bf
00000230: 9de3 b33d 3c59 ea3c ac1c 78bd 28d4 5b3f
00000240: d972 45bb 0f8c 8cbc c1bd c3b9 4485 1ebc
00000250: 19e6 ac3a 3831 24bc c3d2 dbbb 89f8 d0ba
00000260: 6e82 543f c786 023d 061b 4ebd 8530 b8be
00000270: 211f f7bd ed31 ccbd 88a8 cabb df43 273b
00000280: 62cd e7bc 7b17 8d3d 8dba 96bf a306 223c
00000290: c526 9a3c b68b 95bc bb9d e0bb aa6c a73b
000002a0: 8c9b 033c 645a 41bc f3f3 5bbc 084d 0cc0
000002b0: a615 f9b8 c57b 90ba 2077 203d 2f90 ecbe
000002c0: 8e25 863e 8b03 873e 8acf e4bb 1de4 673c
000002d0: 9fd5 49bb 66c5 193f 3952 8cbc 1b85 7a3c
000002e0: d641 573c 7403 9f3c acaf ddbb b2a7 aabc
000002f0: f8c2 563e f371 a23d 4d15 5ebd be91 22bf
00000300: 7ce0 be3d 3dd9 92be 3538 163e c446 acbe
00000310: 253d 1cbe 48ec 47bd 0f4d 893d f6e2 5e3e
00000320: 0459 1c3f 7ba1 463c 2fed a43d cca4 37bc
00000330: fc11 ab3c 1c44 7dbc c4bb 203d e717 febc
00000340: f392 8a3d 8edf b9be 5ec6 413c cd8e 28bc
00000350: 1f07 7f3d b297 093e e1ae 9d3c 2a2c 273d
00000360: 5308 18ba b4cd a43c 794e 563c 2817 aabf
00000370: 69d4 413d 72c9 a5bb 02ed d8bc 70c2 a53d
00000380: 249e 1d3b e4fa 1d3c dac4 75bd 719d 213d
00000390: 5639 85bf 0a77 83bb f42c 22ba 461a d9bd
000003a0: df21 723d 3f4a 7cbf 21a7 68bf 3cb4 ab3c
000003b0: 95e6 7abb f69c 8f3c e804 4b3f e72c f13b
000003c0: 5c94 04bc 306b adbb 0657 8b3b c3e7 3a3b
000003d0: e838 0c3c dcec ccbc 0578 20b9 2b60 afbf
000003e0: 33c4 b83e e3a4 8fbb 2d22 703e c0dc 103f
000003f0: 83d3 ca3e 963f 1a3e cb55 ae3a f9fc 0fbe
-0.82032067 -0.0006261482 -0.0004000179 -0.57512224 0.07929638 -0.82594776 -0.7503852 -0.03285372
-0.0244945 0.0011709977 0.9418306 0.012712903 0.009115325 -0.0030694036 -0.0020335887 0.0013688628
-0.010231337 -0.019446297 -0.0061554154 -0.18699601 0.060511187 0.03462909 0.1326028 0.1828147
0.04487528 -0.11644381 0.14479102 0.06141226 -0.00077560544 -0.2273149 0.115562364 -0.09890528
-0.18047799 0.14201455 -0.20346735 0.03967975 0.09226988 -0.20677677 -0.17289704 0.024165377
-0.18177108 -0.22083929 0.04971318 0.17792122 -0.11509233 -0.08860049 -0.123708636 0.060486063
-0.20042147 0.12846817 -0.11634232 0.094488546 0.046392426 -0.142502 -0.10201265 -0.01388444
0.15534835 -1.2695072 -0.7700009 -0.0020823837 -0.643674 0.5251972 -0.07496455 0.24361691
0.008009096 0.110309646 0.00051242777 -0.24731852 -0.07303367 0.013877655 -0.004974719 0.01059183
0.004222875 -0.044426117 -0.10063442 0.047822528 0.030832998 -0.04307961 -0.12568541 -0.044396248
-0.15905203 0.21282077 -0.1473515 -0.033172537 -0.08639422 -0.14244108 -0.68223774 -0.0307844
-0.050234843 -0.020707468 -0.027276177 0.02144418 0.17247792 -0.00017157594 -0.018908022 0.5493382
-0.018088091 -0.20099568 0.04866059 -0.41844806 0.27901188 0.25617895 -0.10556936 -0.33273366
-0.086728066 -0.8282497 0.13961612 0.045663364 -0.052115582 -0.037167285 -0.0018179885 -0.026609229
-0.0059650633 0.14499243 0.6554907 0.112379946 0.034284282 0.024396652 1.3346359 -0.28728712
-0.32957527 -0.073771015 -0.10686447 0.082971655 0.75359637 0.1301883 0.075944826 -0.0015001305
-0.012139738 -0.0062864823 -0.012144197 -0.06744709 -0.028960036 -0.49573985 -0.034782786 -0.0097479345
0.0012941521 -0.15845294 -1.6881958 -1.1393176 0.08783648 0.028607003 -0.06057422 0.858706
-0.003012827 -0.017156629 -0.00037334676 -0.009675328 0.0013191133 -0.0100215 -0.0067084744 -0.001594321
0.8301152 0.031866815 -0.05031874 -0.35974517 -0.12066484 -0.0997046 -0.0061846413 0.0025522632
-0.028296176 0.06889244 -1.1775681 0.009889278 0.018817315 -0.018255096 -0.0068547404 0.0051093893
0.008032691 -0.011801336 -0.013424861 -2.1922016 -0.000118772776 -0.0011023214 0.039176106 -0.46203753
0.26200527 0.2636989 -0.0069827484 0.014153508 -0.0030797494 0.6006683 -0.01712905 0.015290524
0.013138255 0.019410826 -0.0067653265 -0.020831916 0.20972812 0.0793189 -0.054219533 -0.63503635
0.09320161 -0.28681365 0.14669879 -0.3364774 -0.152577 -0.04880932 0.06704151 0.21766266
0.6107333 0.012123461 0.08053052 -0.011208724 0.020882599 -0.015458133 0.039241567 -0.031017257
0.067663096 -0.3630337 0.01182708 -0.010287953 0.06226265 0.13436773 0.019248428 0.040813603
-0.000579958 0.020117618 0.013080233 -1.3288317 0.04732171 -0.0050594145 -0.026480202 0.08093727
0.0024050558 0.0096423365 -0.060002185 0.03945679 -1.0408123 -0.0040119933 -0.0006186508 -0.106007144
0.059114333 -0.9855079 -0.9088002 0.020959966 -0.003828441 0.0175309 0.7930436 0.007360089
-0.008092012 -0.0052923188 0.0042523174 0.0028519488 0.008558489 -0.025015287 -0.000153035 -1.3701223
0.36087188 -0.0043836697 0.23450537 0.5658684 0.39614496 0.15063319 0.0013300715 -0.14061345

layers.0.bias f4 [64]
00000000: 7239 92bd 4406 7a3d 2048 e7bb 45e3 89be
00000010: 3d9e 0cbd 495c 90bd 7972 ad3c 3fef 96bd
00000020: 9e1e fd3c dcff 833d 3a21 febd d8b3 b2bd
00000030: e2a8 1ebe f190 30be 84ec 1dbe f7d6 303e
00000040: 768c 2fbe 2801 d53c cf23 cebd 7436 bdbd
00000050: 427c 65be e0b5 10be c833 eabc f831 2ebe
00000060: c201 adbe afb2 663e 7aad 913d b0e8 cfbc
00000070: fd17 d93c 64aa 113e c329 b1be 8505 1f3e
00000080: 3636 ac3d 72a0 57be 6a61 29bd b9f6 95bd
00000090: 206e a9bd 787e 86bd e4e9 03be f1c2 e23d
000000a0: 3ca5 53be 5c43 4dbd 344c 57be 5273 c2be
000000b0: 134e 26be 133b 863d a258 a63d a532 94be
000000c0: 035c 043e f876 623d dc2c cfbd fb86 ddbd
000000d0: 48ec 063e 87d4 0c3e 9b82 81bd ca91 82be
000000e0: 9530 533d a73a f5bd 0a29 04bd 3c9d f53c
000000f0: 771b afbe e6a1 343c 1b38 e23d 2eb0 39be
-0.07139863 0.06104113 -0.0070581585 -0.26931205 -0.034330595 -0.07048852 0.021172749 -0.07369851
0.030898388 0.06445286 -0.12408681 -0.08725709 -0.15494111 -0.17242791 -0.15422255 0.17269503
-0.17143425 0.026001528 -0.10065424 -0.09238902 -0.22410682 -0.1413188 -0.028589144 -0.17011249
-0.33790404 0.225291 0.07113166 -0.025379509 0.026500696 0.14225155 -0.34602174 0.1552945
0.084087774 -0.21057299 -0.041352667 -0.07322449 -0.08272958 -0.06567091 -0.12882191 0.11072338
-0.206685 -0.050113067 -0.21025163 -0.37978607 -0.1624072 0.06554236 0.08122374 -0.2894489
0.12925725 0.05528924 -0.10115978 -0.10816761 0.13176072 0.13752948 -0.06323739 -0.25501853
0.051560003 -0.11974078 -0.0322657 0.029982202 -0.34200642 0.011024928 0.110458575 -0.18133613

layers.3.weight f4 [32, 64]
00000000: 6482 a63e 9855 c6bd 3cfa 513d 3937 8dbc
00000010: df26 e73b 0a3e 1839 ba9c 313e b451 983e
00000020: b137 2ebe 6c3c 40be 4adb 943c 321d 82be
00000030: 5fdd b03e 3450 3c3d 1284 fc3d 40d3 373c
00000040: ec8a b7bd 3a7f 9e3d 8d4d 98bd 400c de3d
00000050: 9cb7 183d a09d 85bc 88be c93d 0a64 7dbd
00000060: af44 70ba 3c58 6dbd 42e4 ee3d 2eca d43d
00000070: 181c 9abd 582b a03d 3209 86be e4b4 54bd
00000080: 29a3 103e b79f cfbd dceb 3cbd a785 2abb
00000090: 0440 fd3c 8056 613b 806a e9ba 6093 62bd
000000a0: 87c2 833d e612 f9bd 16cd f03d 7caf 053e
000000b0: b874 acbe be6a a23d 50e7 e23c 8f46 f3bd
000000c0: bc97 98bd a8bc 753d f07d c2bd 00bd f63c
000000d0: c31a 8cbc 2059 08bd e19d 773c 454c ce3c
000000e0: f004 663c 58be 2fbd 64f9 adbe 90bc f13d
000000f0: f1aa 29bd 6a57 5a3e d5b9 5dbf d80d 353d
00000100: 7d1c 90bf e82d c93d 560a 91bd fc65 0f3d
00000110: 2597 953b d7f2 a7bd ba34 3abe 1207 73bf
00000120: 883c 883e a7c0 8f3d d12d df3c 88eb 703f
00000130: 50e0 b9bf 85a3 ee3c 7c99 65bd 5a13 c6bd
00000140: a0da c13b 00ef f23d 8b81 033c ac57 8f3d
00000150: 2cb5 2cbd fe84 d2bd 88cc ad3c 2c24 e1be
00000160: 1474 09bd 3ce8 953d 92b9 d2bd ee96 993d
00000170: 392d 7a3d 23a3 35bf 7113 c03c ee70 babd
00000180: c6d7 12bf f386 233d 3db1 9bbd 49ab 583c
00000190: 5589 343c 103d 7c3d b455 4bbd f017 fcbd
000001a0: c891 023d dea7 85bd 5e23 d83c b454 3ebd
000001b0: 66f1 013f 5bb5 993d c099 003c 88a3 c0bb
000001c0: c040 d0bb 93c7 3dbe c8dc da3d a472 9ebd
000001d0: 4b2b 603d 9c55 69bd 2e27 12bd 61d2 c3bb
000001e0: e900 4abf d840 e33c 8bbf f2bc e484 c63d
000001f0: fec3 bf3c 02fd 103d 41a2 5dbf 3eef 073c
00000200: 7e5b eb3d ea41 91bd 2061 debd 320e 5ebc
00000210: 230c 05bc bf97 c83d 1c9f 243e 2d02 b4be
00000220: 134f 84be 12ff d2be f1bd a83c 097e e3be
00000230: be21 963d 1806 be3c 2056 b5bd f66b c3bd
00000240: 60d3 8e3b 36a9 e7bd 9a3c 7ebd 9024 413c
00000250: 90a8 543d 48f1 fabd 729e e73d 15ac 0e37
00000260: 285f febc 32dd e43d 242c 3abd 206e 833b
00000270: 692f 0e3d 22c2 c83c 5bd1 29be a808 88bc
00000280: 6e13 343d d3dc bbbd b41f 8c3d 16dd 2dbf
00000290: ef3c eabc 7228 bbbd 807d bcbc 490a c53c
000002a0: 5976 75bd ce8c c33d f0fd ba3d 78bc 01bf
000002b0: 31af 3ebe 7c96 89bd 781c 8fbd 0907 43bd
000002c0: d6ff bfbd 5b61 b23c 1202 e33d f633 cc3d
000002d0: d604 13bd a8cd 4fbd 9395 253d 0cdb 983c
000002e0: 53cf 82bd 6094 23bc bac6 e6be bf9c 10bd
000002f0: 5efc 963c 285c 9ebc 7a8f 3dbf 066e 543d
00000300: 2104 89bf aae2 e5bd 0054 d7bb cdf5 57bc
00000310: 245e 3a3c 5fa7 28be 7312 92bd 8e18 23be
00000320: 4f79 1f3d 13f7 593e 3d9b 2c3d ef22 7b3f
00000330: d4fc 79bf f7cc 583c f065 bcbd d2b4 cd3d
00000340: 88d1 3ebd f0f8 eabc 336b 713b 902e 4a3c
00000350: e2b0 9ebd 32bb e63d c0f2 7cbb 672a 94bd
00000360: c3ef 4f3d 2452 52bd 388a cfbd eb62 4f3d
00000370: b950 0c3e 2199 72bd fd84 953c 5852 ab3d
00000380: e1ea 5fbe 1420 95be 7b1a debd 5b09 533e
00000390: 7656 9bbd 700f f13c e028 a53d 77fd 4b3e
000003a0: ca66 21bd 5c41 dfbd 047e ad3c 5de4 1bbe
000003b0: 14a8 313f ec2a a93c 0896 a3bd 285d 01bd
000003c0: d6d2 a63d c99a a3be 3814 ebbd 9af3 883d
000003d0: 0c6e 903e b4d7 a8bd 6ed5 2f3c d317 233b
000003e0: 3d3f 27bd b09c 653c ed92 db3e e680 b53d
000003f0: 34a3 cdbc 2650 7ebd 57c6 f7bd b287 233c
0.32521355 -0.096842945 0.051264033 -0.017238246 0.0070541943 0.00014518961 0.17344943 0.29749835
-0.17013432 -0.18773049 0.018170971 -0.254129 0.34543893 0.045974925 0.12329878 0.0112197995
-0.08962044 0.0773911 -0.07436667 0.1084218 0.03728448 -0.016310513 0.09850794 -0.061862983
-0.0009165508 -0.057945475 0.116646305 0.10390125 -0.0752489 0.07820767 -0.2617889 -0.051930323
0.1412474 -0.10137885 -0.04612337 -0.0026019604 0.030914314 0.0034383833 -0.0017808229 -0.05531633
0.064335875 -0.12161808 0.11757867 0.13055223 -0.336828 0.07930516 0.027698189 -0.11878692
-0.07450816 0.05999437 -0.09496677 0.03011942 -0.017102605 -0.03328812 0.015113325 0.025182853
0.014039263 -0.042906135 -0.33979332 0.118035436 -0.041422788 0.21322408 -0.8661168 0.044202656
-1.1258694 0.09823209 -0.070820495 0.03500937 0.004565137 -0.08200615 -0.18184176 -0.94932663
0.26608682 0.070191674 0.027243527 0.9410939 -1.452158 0.029130707 -0.056054577 -0.0967166
0.0059159547 0.11861992 0.008026491 0.06999144 -0.042164966 -0.102792725 0.021215692 -0.4397291
-0.033557966 0.07319686 -0.10289301 0.07499491 0.061078284 -0.7095205 0.02344677 -0.09103571
-0.57360494 0.03992362 -0.07602165 0.013224431 0.011019071 0.06158167 -0.04964228 -0.12309253
0.03187731 -0.06526159 0.026384052 -0.046467498 0.5075897 0.07505294 0.007849157 -0.0058788694
-0.006355375 -0.18533163 0.10686642 -0.0773671 0.054728787 -0.05696641 -0.035681896 -0.005976007
-0.7890764 0.02774088 -0.02963235 0.096933156 0.023408886 0.035397537 -0.86575705 0.008296786
0.1149206 -0.0709265 -0.10858369 -0.013553189 -0.008120569 0.09794568 0.1607632 -0.3515791
-0.2584158 -0.41210228 0.020598384 -0.44432095 0.073306546 0.023196265 -0.08854318 -0.09542076
0.004358694 -0.11311571 -0.062069513 0.011788502 0.051918566 -0.12253052 0.11309518 8.5039255e-06
-0.031051233 0.11175002 -0.045452252 0.0040109307 0.034713183 0.024506632 -0.16583769 -0.01660569
0.043963842 -0.09172978 0.068419844 -0.67915475 -0.028593509 -0.09138574 -0.023009062 0.024052756
-0.05992732 0.09548341 0.09130466 -0.50678205 -0.18621518 -0.06718156 -0.06987852 -0.04761413
-0.09374969 0.021774938 0.11084379 0.09970848 -0.035893284 -0.05073324 0.04042585 0.018659137
-0.063872 -0.009984106 -0.4507349 -0.035305735 0.018430885 -0.019331053 -0.7404705 0.05186274
-1.0704385 -0.11224873 -0.006571293 -0.013181162 0.011374984 -0.16470097 -0.07132425 -0.15927336
0.03893405 0.21285658 0.042140234 0.9810018 -0.9765141 0.013232461 -0.091991305 0.10044254
-0.046586543 -0.028683156 0.0036837577 0.012340203 -0.077485815 0.112661734 -0.0038596839 -0.0723465
0.050765764 -0.051347867 -0.10133785 0.050631445 0.13702668 -0.059228066 0.01825189 0.08365315
-0.21866943 -0.29126036 -0.108448945 0.20609038 -0.075848505 0.029426306 0.08064437 0.19920908
-0.039404668 -0.10901138 0.021178253 -0.15223832 0.6939709 0.02065035 -0.079876006 -0.03158298
0.081456825 -0.3195403 -0.11478466 0.06687088 0.2820896 -0.08244267 0.010732038 0.0024886027
-0.040831793 0.014014408 0.42885533 0.08862476 -0.025102235 -0.062088154 -0.12098377 0.009981083

layers.3.bias f4 [32]
00000000: f321 1b3d d2e1 313d 83d4 6e3e 272e a73d
00000010: 3313 6d3e 035c af3d fe77 083d 731e b23d
00000020: 6e89 14be ed68 933e f030 f93d ea92 8dbe
00000030: ef68 85be c9aa 80bc 57d0 0f3e 68fd 4cbe
00000040: e280 c03d 36c3 3b3e 0229 f73e e494 9b3e
00000050: 9203 8a3e 3e78 4d3e 82a7 00bc 77b1 54be
00000060: a78b c83d a9eb 403e d29d 70be 86cf bd3e
00000070: 0a61 5abe 7366 ed3e 04df 85bc 2d77 313d
0.037874173 0.04342825 0.23323254 0.081631 0.23151855 0.08562472 0.03331756 0.08697214
-0.1450555 0.2879099 0.12167537 -0.2765115 -0.2605662 -0.015706437 0.14044319 -0.20018542
0.093995824 0.18336186 0.48273474 0.30387032 0.2695585 0.200654 -0.007852437 -0.20770822
0.097922616 0.18839897 -0.23497704 0.3707239 -0.2132608 0.46367225 -0.016341694 0.043326546

layers.6.weight f4 [16, 32]
00000000: 609e 43be e6fb 203f c2c0 d83d 581f ecbd
00000010: d1d1 ab3d d844 5a3f 5b26 c03e f322 05bf
00000020: f686 00bf 631b 0f3f 39a1 8a3f 7a5a 123f
00000030: 8d5f 51be 3619 80bd f408 8ebe 90f6 39bf
00000040: 8756 693f 69da e53e 123a 7e3d bcff ac3e
00000050: 89cd 8e3d 32e4 7f3d f228 09be 4dc7 aebe
00000060: ba67 023f d795 3ebd b023 2ebf c9cf cd3d
00000070: 4639 053e a242 583e a5ef d3bc f846 babe
00000080: cb66 19be c8de 9f3e e9e9 6dbe 3207 e83d
00000090: c07d d53d 3d17 293f ca5f cebd 42aa 42bf
000000a0: 17fe 16bf 6acd 123f 6d03 5a3f 3894 aa3e
000000b0: 0129 21bf d21f cbbd cacd 03bf 4c3e 7dbf
000000c0: 4be4 8f3f 7a2d 8a3e a568 d3bd fdfe 3a3e
000000d0: dc58 1f3e 4f7b 87bc 670b 33be 6843 2cbf
000000e0: e6a0 bf3e 7ff3 79be 6971 f5be b9a0 dd3d
000000f0: 6575 843c 5805 c93d a4b1 4abe 1c3d 28bf
00000100: 81ac 97bc 9b21 ef3e 478c 1a3d 6c2c 82bc
00000110: fbad 32bd de72 2a3f 1989 58bc a72a 02bf
00000120: 2619 17bf 9394 033f 92ad 6d3f cd44 a03e
00000130: 44ee dbbe be8e 95bd 0954 8dbe 5586 2ebf
00000140: 01ef 713f 30dd ab3e 528c fe3c c696 713e
00000150: ff44 693e 9faa 703d 5afb 9fbe 2956 d1be
00000160: 5ae2 cd3e 67e1 ca3d e9df 78bf 3429 a33c
00000170: e833 c9be 7f3a 1c3e a1c1 7abd e751 debe
00000180: 74b4 76bd 0884 3b3f 912c 8d3d 117a 3a3e
00000190: 8d00 a1bd 43c5 223f d9e0 d13e ec0b e8be
000001a0: 047d 40bf 1cc0 313f 69e4 903f fea3 c53b
000001b0: 207c a6be dcf2 4bbb b631 a8be 7b46 2fbf
000001c0: c47c 8d3f bfaf 053f ea42 0e3e ea03 b53e
000001d0: e01c 163e 16ba 153e 32ca 88be dfb6 d0be
000001e0: 2bce 9c3e a6af 8e3d 343f 54bf 782f 293c
000001f0: 7155 9bbe 6827 c33d 21e8 33bc 1693 adbe
00000200: c623 e0bd 01f1 153f 5041 6b3c b544 40bd
00000210: d677 2dbe 1136 573f 0b9b fa3e 46ce f3be
00000220: 8bd0 f0be a855 233f 3fe7 943f 6b6f a63e
00000230: c4c2 3abe 2290 91bc 3592 9cbe 1f6b 2ebf
00000240: 0e5c 593f 151f c93e 44dd 543d 9b77 ac3e
00000250: 3eab 173e 369d 493e 6c1c a4bd d6a6 7abe
00000260: 2768 853e 5de4 c33d 860d 37bf 0f16 f83c
00000270: b305 933d 6a36 4f3e dacb 13be 1112 c1be
00000280: 44e3 5fbb 7b8e 81bf ba67 213e 6ebf debe
00000290: 270a 0abf 3160 23bf 3a06 40bf 82fd b83c
000002a0: 7752 24bc edaf ff3e 230b 72bf a671 30bf
000002b0: d136 e1be 5bd0 043e 027c 053e 6089 ee3b
000002c0: b124 afbf 4b78 41bf fee9 363e 1ac7 9c3e
000002d0: ddeb 3b3e 07c4 833e ef1d 993c eb1a 023e
000002e0: e75c a9be f4b3 6a3e 7d45 113e 15bd e6be
000002f0: 1f6c b73d b81d 573e f843 09be 40ea e63d
00000300: d411 d83d 8a0d 4cbe 99c1 8abd 4c63 313d
00000310: 9c66 bb3e 8a9c 933e 02a7 4f3d 0180 253e
00000320: c430 9f3e e176 6bbf 1a6a 78be e671 a53f
00000330: 93f0 013f bd35 6ebe b27a 083e a1da 053e
00000340: 0a2c 563e b69a 47be 52bc 30bf 38ab 52bf
00000350: 0f7a 2ebf 1f94 ebbe 75fc e7bd 7715 333e
00000360: a1f4 bcbc ffd3 36be 8ad3 f33e 5200 e4bd
00000370: c798 71be 3097 4dbf bf23 5d3e 3607 113e
00000380: d352 033e 6c02 83bf 7dc3 5d3e 59fe cdbe
00000390: 631a e1be 6135 3fbf 86eb 3cbf 6588 d43b
000003a0: cb81 773c a004 cc3e 9a3d 6cbf 0e52 23bf
000003b0: 5513 95be ee04 543e 7f25 7e3c 6083 cd3d
000003c0: 1507 a1bf a13a 4abf 90bf 843e 57bc c53e
000003d0: a7ae 3a3e 32fe 3c3e 2d66 173e 3d55 0bbb
000003e0: 6f6e eabe 6564 193e 953e 1b3e 4058 b2be
000003f0: f44e 05bf 45a5 a23e e7ba 8cbe 7aaf 973d
-0.19103384 0.62884367 0.10583641 -0.11529416 0.08389629 0.852613 0.37529263 -0.52006453
-0.50205934 0.55901164 1.0830451 0.57169306 -0.20446606 -0.062548086 -0.27741206 -0.7264185
0.91147655 0.44893196 0.0620671 0.3378886 0.069727965 0.062473483 -0.13394526 -0.3413643
0.50939524 -0.046529617 -0.68023205 0.100493975 0.1301013 0.21119168 -0.025871107 -0.3638227
-0.14980619 0.31224656 -0.23233761 0.113294974 0.104243755 0.66051084 -0.10076864 -0.7604104
-0.5898146 0.57344687 0.8516148 0.33316207 -0.6295319 -0.099181786 -0.51485884 -0.9892318
1.1241544 0.2698782 -0.10322694 0.18261333 0.15561241 -0.01653829 -0.17484818 -0.67290354
0.37427443 -0.24409293 -0.47938088 0.10821671 0.01616926 0.09815472 -0.19794327 -0.65718246
-0.018514873 0.46705326 0.037731435 -0.015890323 -0.043622952 0.66581523 -0.01321628 -0.5084633
-0.5902275 0.5139858 0.9284297 0.3130249 -0.4295522 -0.073026165 -0.27603176 -0.68173724
0.94505316 0.3356719 0.03107277 0.23592672 0.22780226 0.058756467 -0.31246454 -0.40886047
0.40211755 0.09906273 -0.9721666 0.019917108 -0.39297414 0.1525669 -0.061219815 -0.43421862
-0.060230687 0.7324834 0.06893266 0.18210627 -0.07861433 0.6358225 0.40991858 -0.45321596
-0.7519076 0.6943376 1.1319705 0.0060315123 -0.32516575 -0.0031120097 -0.32850426 -0.6846692
1.10537 0.5222129 0.13892713 0.3535455 0.14659452 0.14621767 -0.26716763 -0.4076452
0.30626044 0.06967096 -0.8290894 0.010326259 -0.30338624 0.095290005 -0.010980637 -0.3390128
-0.10944323 0.5857087 0.014358833 -0.046940524 -0.16940245 0.84066874 0.48946413 -0.47618312
-0.47034106 0.63802576 1.1633071 0.3250688 -0.1823836 -0.017768923 -0.30580297 -0.68132204
0.8490609 0.39281526 0.051968828 0.33685002 0.14811417 0.19688877 -0.080132335 -0.24477705
0.26056024 0.09565041 -0.7150501 0.030283956 0.071788214 0.20235601 -0.14433232 -0.37709096
-0.003416256 -1.0121607 0.15762225 -0.43505424 -0.5392174 -0.6381865 -0.750095 0.02258182
-0.010029427 0.49938908 -0.94548243 -0.68923414 -0.43987134 0.12970106 0.13035586 0.00727956
-1.3683072 -0.7557418 0.17862698 0.30620652 0.18351693 0.25735494 0.018691031 0.12705581
-0.3307869 0.22920209 0.14186664 -0.45066133 0.08956169 0.2100743 -0.13404834 0.112751484
0.105502754 -0.1992704 -0.06775207 0.043307588 0.36601722 0.28830367 0.05069638 0.16162111
0.31091893 -0.9197827 -0.24259225 1.2925384 0.5075771 -0.23262687 0.13328055 0.13071682
0.20915237 -0.19492611 -0.69037354 -0.8229251 -0.68154997 -0.46011445 -0.11327449 0.17488657
-0.023065867 -0.17854308 0.4762233 -0.111328736 -0.23593436 -0.8030882 0.21595667 0.14162907
0.12824564 -1.0235114 0.21656604 -0.40233114 -0.43965444 -0.74690825 -0.7379688 0.006485986
0.015106629 0.3984728 -0.92281497 -0.6379708 -0.29116312 0.20705006 0.015511869 0.100348234
-1.2580286 -0.7899571 0.259274 0.38620254 0.18230687 0.18456343 0.1478507 -0.0021260523
-0.4578738 0.14979704 0.15160592 -0.34832954 -0.520736 0.31766716 -0.27486345 0.074065164

layers.6.bias f4 [16]
00000000: a591 a13e a8e0 403e 6d8a 663e 9308 7e3e
00000010: e092 493e d7fb b63e f5d9 b5be 3e51 6c3e
00000020: 6b17 c33e 7d0d 7f3e 65a3 7f3e 2f4f b73e
00000030: aca5 903e 28ed f43d 2602 633e 0246 913e
0.3155643 0.188357 0.22513743 0.24807958 0.19684935 0.35739014 -0.3551785 0.23077866
0.38103804 0.24907489 0.24964674 0.358026 0.28251398 0.119592965 0.22168788 0.28373724

layers.9.weight f4 [1, 16]
00000000: 3dd6 09bf bcf7 aabf 98b0 40bf bd8b 14bf
00000010: 8099 2abf f98f 053f 8f54 a0bf 5ba0 0f3f
00000020: dfb4 cb3e be62 46bf a0b7 52bf 4f67 383f
00000030: e848 213f 1442 3fbf 8cbd 273f 32ba 60bf
-0.53842527 -1.3356853 -0.7526946 -0.58025724 -0.6664047 0.5217281 -1.2525805 0.5610406
0.3978643 -0.7749442 -0.8231144 0.72032636 0.6300187 -0.747102 0.655236 -0.8778411
