models/Regression/proton.pt (torch, 18437 bytes, 7 tensors)

layers.0.weight f4 [64, 19]
000000 40 77 4c bc 94 9d 1f 3d 40 b5 29 3c 22 7f f1 3d
       -0.012479603 0.038968638 0.010358155 0.11791827
000010 33 27 49 3e 06 3d ec 3d 63 cd 01 3e 5c 02 4c 3d
       0.1964386 0.11535077 0.12676005 0.049806938
000020 bc e8 18 3d 1c 0e 4a bd c5 0c 1c be d7 5b 29 3e
       0.037331328 -0.049329862 -0.15239246 0.1653894
000030 f9 b7 5f 3e 79 57 4a 3e bf 33 69 3e 9a bd fb bd
       0.21847524 0.1975993 0.22773646 -0.12292023
000040 e1 f4 0c be 3a c3 b2 3d 24 96 bf bd 20 ab 0a bf
       -0.13765289 0.08728643 -0.09354809 -0.54167366
000050 84 75 04 3d 7d 94 be bb cc a5 d7 bd 72 73 b5 3f
       0.032338634 -0.005816041 -0.1052967 1.4175856
000060 7e 22 14 3f 43 8d 30 3f 92 26 b6 3d 5c e7 dc 3d
       0.5786513 0.6896555 0.088940755 0.10786316
000070 ff 40 59 bd 96 8f 80 3d 08 bc 93 be b0 62 bc bd
       -0.0530405 0.06277387 -0.28854394 -0.09198511
000080 08 ee 55 bd de 9b bf 3d 76 99 4a bc 02 74 31 3e
       -0.052228957 0.09355901 -0.0123656895 0.1732941
000090 69 97 da 3d a9 05 a1 3c 3f 3c 25 bf 8c 19 04 3d
       0.106734104 0.01965602 -0.64545053 0.032250926
0000a0 f2 4c 6e bc 8d da 27 be 82 11 8d 3d 22 d2 53 bf
       -0.014544712 -0.16391964 0.06888105 -0.8274251
0000b0 a6 0c 01 bf e3 19 42 bd 66 0b 4c bc dc 71 de bd
       -0.50409925 -0.04738797 -0.0124538895 -0.10861561
0000c0 56 b7 8f bf ce cc 74 bd 0b 77 22 3d 6c 4f e3 bc
       -1.1227825 -0.05976563 0.03966431 -0.027747832
0000d0 70 31 1d bd 7d f6 92 3c 38 96 d3 bc 8a ab a1 bc
       -0.038377225 0.0179398 -0.025828466 -0.019735117
0000e0 41 3c 05 3d 8c 6d 59 3e be 38 38 3e d6 43 35 bb
       0.032528166 0.21233195 0.17990395 -0.0027658842
0000f0 df e9 04 3e 13 11 81 3e 4f 02 7f bb 36 3b 7d 3d
       0.1297984 0.2520834 -0.0038911288 0.061824046
000100 87 d7 97 bd ad 6f 0e 3e 11 7e b2 3d 1e 5e 4d bf
       -0.074141555 0.13909788 0.087154515 -0.80221736
000110 8d e0 9d 3d eb 12 bf 3d bb 5f 8b 3c ae 44 89 be
       0.07708845 0.0932978 0.017013421 -0.2681021
000120 9c 2f af 3b 13 d6 c4 3d 40 89 8a 3d 41 a8 74 bd
       0.0053462517 0.09611144 0.067644596 -0.059730772
000130 b5 fb a0 be ef 42 76 bd d8 dd 2d be 9f 76 4d 3e
       -0.31442037 -0.060122427 -0.16979158 0.20064782
000140 2f ae 07 3d 83 9f d4 be dd b1 1c bf 8d a9 3e 3d
       0.0331251 -0.41527948 -0.612089 0.046548415
000150 f3 98 be 3c d5 98 24 3e 7a 63 50 bd f6 f3 1f bd
       0.023266291 0.16073926 -0.05087612 -0.03905102
000160 6b 8e 64 bd 11 cf 54 bd 3a 3f 73 3c f9 80 35 3c
       -0.055799883 -0.051955286 0.014846617 0.011078113
000170 c6 e2 71 bd 93 24 86 bd d3 84 5a 3b cf 95 84 3e
       -0.05905416 -0.06549945 0.003334333 0.25895545
000180 cf 79 c6 bd 5a e7 3e be e9 0a a8 bd 39 45 74 be
       -0.09691202 -0.18642941 -0.08205206 -0.23854531
000190 b1 f5 2d 3f 9c cd 21 3f 04 58 50 3d 2f 3a 88 bd
       0.6795302 0.6320436 0.05086519 -0.06651723
0001a0 a6 cb 09 3d dc 68 8c 3f 72 5e 36 3d 1f a1 23 3d
       0.03364148 1.09695 0.044523664 0.03994858
0001b0 49 1f 9f bd 48 8c 27 3d f9 d8 9c bb 60 90 1a 3e
       -0.07769639 0.040905267 -0.0047866073 0.15094137
0001c0 b2 42 5d bd 5b c1 16 be e2 a1 a1 3d 0a 8b de 3d
       -0.054018684 -0.14722197 0.07892205 0.10866363
0001d0 d0 62 d3 bd 80 57 84 bd 67 26 02 3e 4e 94 b6 3d
       -0.10321581 -0.06462002 0.12709962 0.089150056
0001e0 a3 74 41 3e c2 9c f3 bd f6 52 de 3d 08 a1 1e be
       0.1889215 -0.118951336 0.10855667 -0.15491116
0001f0 b1 a3 66 3e 34 4e 75 bd db fe 48 3e 3a 77 fe 3d
       0.22523381 -0.059889033 0.1962847 0.124250844
000200 7c f5 44 be 59 f4 d5 bd 4b 62 52 3e 53 e6 41 3e
       -0.1923427 -0.10446996 0.20545308 0.18935518
000210 6d 80 0c 3e 76 da 04 3f 39 b0 07 be 84 db 86 bd
       0.13720866 0.51895845 -0.13250817 -0.06584838
000220 1c 71 2c be 82 23 c1 3d 80 88 1e 3f a5 65 5b 3e
       -0.16840023 0.09430601 0.6192703 0.21425493
000230 75 6b b6 bd 01 b1 14 bd 3e aa 84 be ea 1c bc 3e
       -0.089072146 -0.036301617 -0.25911134 0.3674081
000240 26 5c 27 bd 05 84 0e 3e 1a b1 a2 bd f1 c4 a2 bb
       -0.040859364 0.13917549 -0.07943936 -0.004967325
000250 8f 56 fa 3a 63 d4 47 3e de 01 8d bd 7a d2 fb bd
       0.0019099283 0.19514613 -0.06885122 -0.122960046
000260 ba 53 0d be 73 00 2a be 52 54 8f bd 17 03 e8 bd
       -0.1380147 -0.16601734 -0.06998505 -0.11328714
000270 93 dc b5 be 3d d1 4f bf 6e 6f f4 be c9 33 24 be
       -0.35519847 -0.8117865 -0.47741264 -0.1603538
000280 bd d7 34 3e f8 26 2a be ef cd 2b 3e c3 ac d9 bd
       0.17660423 -0.16616428 0.16777776 -0.10628655
000290 5e ca fb 3d 0f 51 52 bd 72 53 a4 bd 94 e4 05 3c
       0.12294458 -0.051346835 -0.080237284 0.008172173
0002a0 65 42 c6 3b 36 59 2a 3d 25 17 24 bc 9a 38 be 3d
       0.0060503953 0.041588984 -0.010015284 0.0928814
0002b0 b4 0e a0 be bd a8 2b 3c c4 ab 76 bd 3b 4d 55 bd
       -0.31261218 0.010477242 -0.060222402 -0.052075606
0002c0 68 ff df be 7f cd 30 be 1d 24 33 3d 7f 1f 42 3d
       -0.43749547 -0.1726589 0.043735612 0.04739332
0002d0 58 a2 cc 3d 6e 74 9c 3e e5 28 8d 3d cd 59 fc 3c
       0.09991902 0.3055758 0.06892566 0.03080454
0002e0 4d a9 6d bd c0 13 0c be e4 ce f2 3b 81 d6 d7 bc
       -0.058022786 -0.13679409 0.007409917 -0.0263474
0002f0 a8 e1 86 be d6 13 b3 3d 9d a6 22 3e aa f1 fe bd
       -0.26344037 0.08744018 0.1588387 -0.124484375
000300 dd 22 2b be f4 61 08 3d 8c 66 f0 bd 13 1b 49 3e
       -0.16712518 0.03329654 -0.11738309 0.19639234
000310 d8 27 f7 3c 48 f9 f6 bd bd d5 17 3e ae 3e ac 3d
       0.030170366 -0.120592654 0.14827628 0.08410393
000320 80 a7 22 be 90 13 2c be d9 97 2c 3e 03 c5 1d be
       -0.15884209 -0.16804338 0.168548 -0.15407185
000330 06 6a 05 be db 60 5a be 64 c6 79 3d 36 8c 02 be
       -0.13028726 -0.2132601 0.060980216 -0.12748799
000340 3f 61 3c 3e 97 75 ba be a6 9b a4 3b 71 55 12 3a
       0.18396471 -0.3641784 0.0050234376 0.000558219
000350 1e 9a 10 bd 39 b6 85 3d 53 38 c5 bf 98 62 9c bf
       -0.035303228 0.06528897 -1.5407814 -1.2217588
000360 c2 2d a9 3c fa 13 a9 bd 36 5d ac 3c de bc 65 bf
       0.020651702 -0.08255763 0.02104054 -0.89741313
000370 16 f2 0c 3d fd 9f be bc 83 af bf 3b 65 1d 85 3c
       0.03441056 -0.023269648 0.00584978 0.016249368
000380 37 e7 77 3c 14 f6 d4 b8 b4 fc 74 ba 8f ad 11 3a
       0.0151308095 -0.000101547834 -0.0009345517 0.0005557173
000390 b1 fd a7 3d b3 13 5e 3e f7 03 62 be 43 49 29 3e
       0.08202685 0.21687202 -0.22071825 0.16531853
0003a0 97 1c 02 bf e0 5e ed 3e d4 a2 b6 3e 30 42 0b 3e
       -0.50824875 0.46361446 0.35671103 0.13599467
0003b0 86 bb 54 bc f1 34 6c be ba 2d 70 3f 3b a2 94 bd
       -0.012984162 -0.2306707 0.93819773 -0.072575055
0003c0 76 b8 51 be a6 ed b9 3d 14 88 df bd 9f f7 60 bb
       -0.20480523 0.09078531 -0.10914627 -0.0034327281
0003d0 6e 2a b6 3c 5b 40 37 be b0 8a 0e bd 04 87 23 be
       0.022237029 -0.17895643 -0.03480023 -0.15969473
0003e0 95 40 15 be a1 32 44 3e 06 13 6f 3b e6 07 a1 3d
       -0.14575417 0.19159938 0.0036479845 0.07862835
0003f0 5c 10 11 be 2f 73 80 be fe ae 3d 3e be 50 3f be
       -0.14166397 -0.25087878 0.18523785 -0.18683144

layers.0.bias f4 [64]
000000 1c a1 28 be 34 84 6c ba e5 09 36 be 0a 25 1b be
       -0.16467708 -0.00090223853 -0.17777212 -0.15150848
000010 40 d6 c3 be 3b 39 0f be 03 4a 56 3e 4b 7f 99 be
       -0.38249397 -0.13986675 0.2092667 -0.2997993
000020 53 93 84 bb 6b c6 df be ba 72 16 be e4 ed 75 bd
       -0.0040458827 -0.43706068 -0.14692202 -0.060041323
000030 17 a1 bd bd 0a 09 5d be 3a 08 bb 3d db ab 18 3e
       -0.09259241 -0.2158548 0.091324285 0.14909308
000040 b3 c4 90 be 29 86 92 bd 26 05 81 3d 75 b0 66 be
       -0.2827507 -0.07154495 0.0629981 -0.2252825
000050 55 c5 35 3e 63 8f 3a 3e 04 de 1f 3c 00 7a 20 be
       0.17751057 0.1821876 0.0097575225 -0.1567154
000060 c1 b8 a4 bd a2 6a 45 3e 1f 7e d4 3d 2f 75 f1 bd
       -0.080430515 0.19278958 0.10375618 -0.11789929
000070 64 c0 58 bd 1f 13 30 be 6f 4a 52 3e bc 50 42 bd
       -0.052917853 -0.17194794 0.20536207 -0.047440276
000080 ec d7 ca bd fb aa f7 bd 9a 39 8c be 07 6b 13 3e
       -0.09904465 -0.12093159 -0.27387697 0.14396296
000090 d0 ad 2a be 5d 9e 1f 3e d7 a8 46 bc c5 4a c2 be
       -0.16667867 0.15587755 -0.0121252155 -0.3794767
0000a0 35 cf ed 3d b2 20 4a be 3b 4b 70 be 06 d9 86 bd
       0.11611787 -0.19739035 -0.23466198 -0.06584363
0000b0 6f 60 fd 3b 6b 3b 0f be e2 ac 92 3d f8 f8 98 3c
       0.007732443 -0.1398751 0.07161881 0.018673405
0000c0 66 2f b6 bd 2d 42 7e be 6b 92 09 bc ff 02 85 be
       -0.08895759 -0.24829932 -0.008396725 -0.25978848
0000d0 b8 d4 d2 3c fa 2c f8 bd 2f aa a1 be 88 8b 8b be
       0.025736198 -0.121179536 -0.31575152 -0.2725489
0000e0 cc d7 9d 3c 14 37 02 bd e7 40 55 3e f5 54 10 3e
       0.019267939 -0.031790808 0.2082554 0.14094909
0000f0 b8 42 da bc 01 0f 78 be 1f 4d 20 3d 3e 05 36 bd
       -0.026643142 -0.24224474 0.03913605 -0.044438593

layers.3.weight f4 [32, 64]
000000 40 f0 ca 3d 10 e1 a2 bd 59 12 0d bd d4 93 d1 3d
       0.09909105 -0.079530835 -0.034441326 0.10233274
000010 fb 3e 93 bc 93 01 2d be ac 97 e2 bd 94 2c d0 3c
       -0.017974367 -0.16895132 -0.11064085 0.025411882
000020 34 9d 79 bd d0 d8 8f bc 78 40 bc 3c 19 67 90 3d
       -0.060940936 -0.017559439 0.02297996 0.07050914
000030 57 63 17 be 08 20 27 bd 58 05 25 3d 5e 92 c9 3d
       -0.14783989 -0.04080203 0.0402883 0.098423705
000040 92 8e 2f be aa 68 07 3f 52 4a 62 3d e0 2b fe 3c
       -0.1714423 0.5289408 0.05524666 0.03102678
000050 08 65 1e bd 90 32 db 3c 8c 5e eb bd 5c 6d b6 3d
       -0.03867057 0.026757509 -0.11492643 0.089075774
000060 41 f5 60 be 15 ed c8 3d 33 6d 58 3d 3d 98 75 bd
       -0.21968557 0.09810845 0.052838515 -0.05995964
000070 d1 56 03 3f a0 7b 2c 3c 8a 09 a5 bd 80 ac 1d 3d
       0.51304346 0.010527521 -0.0805846 0.038494587
000080 ea b2 95 3d 40 ed 18 bb 4d 1d 68 3d b2 c6 ba 3d
       0.07309516 -0.0023334771 0.05666857 0.091199294
000090 b8 5c 5e bd 28 9d 99 bd 1d fd a5 bd 80 5a ed bd
       -0.054287642 -0.07500678 -0.08104918 -0.11589527
0000a0 45 01 a3 3d 98 c0 58 bd 50 17 cc bd bf b1 74 bd
       0.079592265 -0.052918047 -0.09965384 -0.059739824
0000b0 50 17 74 3d 94 a7 14 bd d4 0e da 3d c4 8d 44 3d
       0.059592545 -0.036292627 0.106473595 0.04798676
0000c0 57 f5 33 3e bb 96 a0 3e 48 dd 2f bd 77 68 ba bb
       0.17574058 0.31364998 -0.04293564 -0.0056887227
0000d0 40 d9 e1 bd 3e e2 d9 3e 47 96 35 3e 06 e9 3c 3e
       -0.11027765 0.42555422 0.17733108 0.18448266
0000e0 82 65 07 3e c0 aa 21 3d 40 af 51 bd e2 54 f2 be
       0.13222316 0.03946948 -0.051192522 -0.47330385
0000f0 e0 44 2d bd 35 a0 02 be 99 8b 21 3e 81 f1 a4 3e
       -0.042302012 -0.12756427 0.15775909 0.32215503
000100 50 61 6c bd 62 96 95 be 44 aa 52 bd dc ba 28 bd
       -0.057709992 -0.29216295 -0.05143191 -0.041193828
000110 59 20 da 3d 99 a8 15 3c d8 1e 5a bd 87 78 05 bd
       0.10650701 0.009134435 -0.05325207 -0.032585647
000120 ea a0 3c 3e 2b 45 a8 bd 2c 02 e1 3d ad c1 66 be
       0.18420759 -0.08216318 0.109867424 -0.22534819
000130 9d 8f 50 bc a5 9b 85 bb 16 5d e7 3d 24 f8 d9 3d
       -0.012729553 -0.004077392 0.112970516 0.10643032
000140 04 a6 f3 3d 4f f9 1a bf d7 e9 82 bd e0 09 02 3d
       0.11896899 -0.60536665 -0.06392258 0.0317477
000150 e0 56 04 3c ba ab be 3d 58 3a f7 3c 60 73 fd 3b
       0.008077353 0.09310098 0.030179188 0.007734701
000160 7c 6a 18 bf 49 06 c4 be 9b f8 11 be dc d2 a8 bd
       -0.5953748 -0.38286045 -0.14254992 -0.08243343
000170 d1 9c 96 be 8c 6b 09 bd 0e 10 9e 3d 88 93 a9 bd
       -0.29416516 -0.03354983 0.07717906 -0.082800925
000180 66 eb 87 3d 40 8e 07 bb e7 6e 9d 3d d2 bb d9 bd
       0.066366956 -0.0020684153 0.076871686 -0.10631527
000190 8a e9 db 3d 38 79 0c bd 01 4a 3b be c3 6c 8e bd
       0.107379034 -0.03429529 -0.18289949 -0.069543384
0001a0 d4 78 f7 be ee ab 95 bd e8 9f 9a bd 9f a0 d9 3c
       -0.48334372 -0.073081836 -0.07550031 0.026565848
0001b0 d0 b6 65 3d 0f 07 1a bd ea 43 8e bd 50 c8 d2 bc
       0.056082547 -0.037604388 -0.06946547 -0.025730282
0001c0 27 37 89 3d d8 62 08 bf c4 63 21 bd 17 bf 20 3e
       0.066999726 -0.53275824 -0.039401785 0.15697895
0001d0 d0 25 4a bd 09 e1 c7 be 3c 01 44 be ca b1 74 be
       -0.049352467 -0.39038876 -0.19141096 -0.23895946
0001e0 8d 7e 87 bd 42 52 cb bd 0a 43 86 3d 2a 83 1f be
       -0.066159345 -0.09927799 0.065557554 -0.15577379
0001f0 aa 4c dc bd 46 41 af 3c ab b4 f5 bc 7d 91 0f bf
       -0.1075681 0.02139343 -0.029993376 -0.5608137
000200 28 30 86 3d a1 bd 85 be 5c 43 df 3d 08 19 11 bc
       0.06552154 -0.26121238 0.1090152 -0.008856066
000210 35 4a 12 3d 4e 00 29 bd 94 d8 4f bd 74 9c dd bd
       0.0357153 -0.041260056 -0.050743654 -0.10820857
000220 dc 97 63 3d 3d b1 80 bb 04 89 b4 bd 00 3c c8 3e
       0.055564746 -0.0039273784 -0.08815196 0.39108276
000230 e7 95 3e bd 00 a5 3e 3c 00 b0 c2 38 bc 71 8c bd
       -0.046529677 0.011636019 9.2834234e-05 -0.068576306
000240 d2 88 97 3d 08 5d 51 3f 31 f5 61 be 30 d1 2c bc
       0.07399143 0.8178258 -0.2206619 -0.010547921
000250 64 75 49 3d 76 ee d7 bd 94 16 9d bc 20 59 bb 3d
       0.049184218 -0.1054353 -0.019175805 0.091478586
000260 4b 32 9c 3d 8e 16 4c 3e b8 26 95 3e d4 1f b8 bd
       0.0762678 0.19930479 0.29131103 -0.08990446
000270 ff 68 58 3f 44 fc 02 3d 86 75 da 3d f2 75 a5 bd
       0.8453521 0.03197886 0.10666947 -0.08079137
000280 40 3e 33 3d 78 1b df 3d b4 9f 5d bd 78 b1 a7 bc
       0.043760538 0.10893911 -0.054107383 -0.020470366
000290 60 7c a7 3c 64 dc 65 bd 38 a3 3e bd c3 5f c6 3c
       0.020445049 -0.056118384 -0.046542376 0.024215585
0002a0 58 09 45 3e 00 ac 36 bb 69 7c f4 bc dc 36 97 bd
       0.19241846 -0.0027873516 -0.02984448 -0.073835105
0002b0 9d e8 ec 3d a7 4e d6 3d 72 42 82 3d 52 5d db bd
       0.11567805 0.104642205 0.0636033 -0.10711159
0002c0 d1 da c7 3d a0 47 e2 3e 07 00 f1 3d f1 1b 68 3d
       0.09758533 0.4419527 0.11767583 0.056667272
0002d0 f8 18 70 3d ac 86 26 3d a9 63 a9 3e 3c cb 0c 3e
       0.058617562 0.040655777 0.33083847 0.13749403
0002e0 e5 8a 06 bd 36 19 b3 3d 86 83 f2 3d cf fc 8a 3e
       -0.032847304 0.08745043 0.11841492 0.27146003
0002f0 4e f4 d2 bd ae f0 84 bc ff cc aa bd ee 27 7c be
       -0.10300504 -0.016228046 -0.08339881 -0.24624607
000300 b0 8b 6f 3c c2 48 80 3b 3f 36 80 3c d2 21 da bc
       0.014620706 0.0039149234 0.015650867 -0.026627455
000310 d0 7a a9 3c 08 bc 55 3c e4 88 e9 3d 03 2b 8b ba
       0.020688444 0.013045318 0.11403063 -0.0010617677
000320 d1 4e ac 3c f1 a9 5d 3c f4 48 cb 3d e8 c1 36 3f
       0.021033676 0.013529287 0.09926024 0.7138963
000330 a2 68 9c bc 97 fe c8 3d b0 7a ee 3c e2 f9 fe 3d
       -0.019092862 0.09814184 0.029111236 0.12450005
000340 90 55 ce 3d eb 0f 7d 3f 1b 3a 1a be 88 6e 3c 3d
       0.100749135 0.98852414 -0.15061228 0.04600385
000350 c6 d0 9b bd 8a 57 fc bd 0c 75 10 3d f8 3b 95 bd
       -0.0760818 -0.12321384 0.035267875 -0.07286829
000360 5a 4d d4 3d 16 2b bc be 8d 53 b9 be 75 d6 b2 3d
       0.10366316 -0.36751622 -0.36196557 0.08732311
000370 4c 62 31 3f a4 c0 f6 bd 96 9e a4 3d e0 fc 83 bb
       0.69290614 -0.12048462 0.0803806 -0.004027948
000380 56 9a 98 bd e0 5e 84 bb 30 0a 3c 3c b8 e6 43 3d
       -0.07451312 -0.0040396303 0.011477038 0.047827452
000390 a8 d0 d4 3c 80 61 e8 3a 62 cb 35 be b5 86 98 39
       0.025978401 0.0017729253 -0.17753366 0.00029092064
0003a0 41 13 97 3d 54 a6 b8 bd 6c f7 af bd 7e ce 7a bd
       0.07376719 -0.090160996 -0.08592114 -0.061232083
0003b0 42 cb b5 bd 2b c9 d8 bc 20 b4 c0 3d bc 28 ab bd
       -0.08876659 -0.026463112 0.09409356 -0.08357379
0003c0 ed 0d ad bc a2 10 33 3f 0c 4b 1e be 82 c8 e0 bb
       -0.021124804 0.69947255 -0.15458316 -0.00685984
0003d0 b6 5a a8 bd 8c 2f c6 3e 0b 5d a4 3e 92 6a ca bc
       -0.08220427 0.3870815 0.32102236 -0.02470902
0003e0 67 c0 b6 bc 44 4f a5 bd 34 58 95 bd 2f a8 94 be
       -0.022308541 -0.08071759 -0.07292214 -0.29034564
0003f0 d8 b8 a1 3d f2 34 59 bd 4b 7a 5b 3d be 13 f8 3e
       0.07896584 -0.05302901 0.053583425 0.48452562

layers.3.bias f4 [32]
000000 0f f5 2a 3e 98 7f ca 3e 17 a2 b3 be 05 63 56 be
       0.16695045 0.3955047 -0.35084602 -0.2093621
000010 69 20 ad 3d ed b5 98 be d8 e9 9d 3d 7f 18 ec bd
       0.08453447 -0.29826298 0.07710618 -0.1152811
000020 8d 90 76 be 36 4c 7c be 03 ea 1e 3e a6 0b 88 3e
       -0.24078579 -0.24638447 0.15518956 0.26571387
000030 79 f5 e8 3e e4 b1 19 3d ea 85 95 3d 1a 1d 8a 3e
       0.4549978 0.037523165 0.07300933 0.26975328
000040 0d 6f 6c 3e ba 2b f1 3e 18 59 69 bd bf 83 50 3e
       0.23089238 0.47103673 -0.056969732 0.20362757
000050 ec 49 7a be fa 44 7e be 20 a5 b5 3e 5d dd 21 3e
       -0.24442261 -0.24831 0.35477543 0.158071
000060 c9 53 34 bd 2a 0e 6d be e3 ae 85 3d 6a 60 c2 3d
       -0.044025216 -0.23149934 0.065274976 0.09491046
000070 eb 78 85 bc e8 43 58 3e b7 b4 96 3e 11 34 87 3d
       -0.01629301 0.21119654 0.2943475 0.06601728

layers.6.weight f4 [16, 32]
000000 ff 19 14 3e f1 f9 08 be e9 9b 91 3e 5d 04 57 3f
       0.14463042 -0.13376595 0.28439263 0.8399103
000010 dd 48 29 3e 95 49 c8 3e 02 5f 57 3e 24 9d 85 3c
       0.16531701 0.3911864 0.21032336 0.016310282
000020 62 8b 9e 3e 96 31 0a 3e dd da d3 3e 17 8a 8b be
       0.30965716 0.13495478 0.41377917 -0.27253792
000030 f3 b4 a5 3d b0 5f 13 be 56 12 57 3c 91 88 9e 3e
       0.08091154 -0.1439197 0.01312693 0.30963567
000040 f8 ab c5 be 82 05 af 3e fc 96 9d 3d 00 27 6a 3e
       -0.38607764 0.3418389 0.076948136 0.2286644
000050 30 f4 a0 be ed 92 33 3f 3d 9a dd be 24 3a 5a 3e
       -0.314363 0.70146066 -0.43281737 0.21311241
000060 b8 96 ee ba 5a 50 4b 3e c8 51 6b 3e d7 25 53 3e
       -0.0018202877 0.1985487 0.22980416 0.20619904
000070 24 8f 5e 3e 86 2e 04 be 50 b8 bb be 9b 0c 27 3b
       0.21734291 -0.12908372 -0.36664057 0.0025489691
000080 7a 15 f6 bc 52 7a 91 3b 32 5c 0a bd a8 29 09 be
       -0.030039538 0.0044396305 -0.03377933 -0.13394797
000090 b4 e6 f1 bd cc 79 17 be 05 e4 1a be 34 28 fc bd
       -0.11811581 -0.14792556 -0.15126045 -0.12312356
0000a0 9c 7e b7 bd 0e 16 b8 bd 0a 87 8c 3d 3e 74 c8 bd
       -0.08959696 -0.089885816 0.06861694 -0.097877964
0000b0 c4 6e 97 bc b5 a1 60 3d 9c e0 07 bd 0d 26 2c be
       -0.018485434 0.054841716 -0.03317319 -0.1681139
0000c0 76 91 15 bd df ad 09 bc f5 d0 19 bd 57 9e 72 bd
       -0.036515675 -0.0084032705 -0.037552793 -0.059233036
0000d0 b6 25 2c be 58 43 b2 bd 19 0d 29 be 21 99 a5 bd
       -0.1681126 -0.08704251 -0.16508903 -0.08085848
0000e0 d5 a6 ef bd ff 38 e0 bd dd 53 46 3b 2f 00 29 be
       -0.117017426 -0.10948371 0.0030262389 -0.16503976
0000f0 4c 1c 41 3d ee 45 0a bd f5 4b 3c bd 76 4b 36 3d
       0.047146127 -0.033758096 -0.045970876 0.04450556
000100 dd c8 29 3e 4d 4a dd bd 58 33 77 3e ed 0a fa 3e
       0.1658053 -0.108051874 0.2414068 0.4883646
000110 cb d8 38 3d 35 d1 3a 3e 4b f6 cd bd 6b 33 fb bc
       0.045128625 0.18243869 -0.10056742 -0.030664166
000120 a9 8c d8 3e c7 04 99 3e 92 fe f4 3e 44 8f be be
       0.42294815 0.29886457 0.47850472 -0.37218678
000130 93 53 74 bb 16 0f f7 3d 58 5b e1 bc 74 bb 4a 3e
       -0.003728126 0.12063424 -0.027509376 0.1979807
000140 97 15 a6 be 02 75 60 3e 4e 26 8a bd 85 04 ba 3e
       -0.32438347 0.21919635 -0.06745587 0.36331573
000150 6b 2c 14 be 21 f9 d6 3e f9 a0 e5 be b1 17 17 3e
       -0.14470069 0.41986945 -0.44849375 0.14755131
000160 a5 dc 43 bc bf 3f de 3e 30 44 e3 3d 02 e9 89 3e
       -0.011954461 0.4340801 0.1109699 0.26935583
000170 57 a4 54 3e 63 96 56 be 92 2f 97 be 84 d5 b0 3c
       0.20765816 -0.20955805 -0.2952848 0.021586187
000180 0e 28 af 3e 38 ff 1b be 5f 25 dc 3e 75 3a 5b 3f
       0.34210247 -0.15234077 0.42997262 0.85636073
000190 94 a5 68 3e ad 9a bd 3e 58 32 8d 3e 1b b6 9e 3d
       0.22719413 0.3703207 0.27577472 0.077495776
0001a0 b7 91 a6 3e ce cf 0f 3e 08 82 80 3e 93 c7 9c be
       0.32533047 0.14044115 0.25099206 -0.30621013
0001b0 fd 7c 65 3e d4 b7 8a 3d 4a 15 09 be 96 7f 0f 3e
       0.2241096 0.06773344 -0.13387027 0.14013514
0001c0 7d 66 e1 be 08 f8 79 3e 6c c4 7b bd 25 8a 53 3e
       -0.44023505 0.24411023 -0.06146662 0.20658167
0001d0 83 23 9e be c5 a9 00 3f 9c 1d de be 52 cc a7 3e
       -0.30886468 0.5025905 -0.43381965 0.32773072
0001e0 99 6e 5a 3a 18 18 7e 3e 64 d8 72 3d e9 f4 23 3e
       0.00083325204 0.24813879 0.059288397 0.16011395
0001f0 2c c8 2a 3e 9b de b0 be 17 0d a7 be 96 fa a8 3c
       0.16677922 -0.34544834 -0.32627174 0.020627301
000200 25 c3 b7 3d 31 1a a8 bd 8d 97 bd 3e 88 5e 1b 3f
       0.08972768 -0.082081206 0.37029687 0.6069112
000210 8e df 51 3e 76 19 0d 3e 47 f1 e8 3d 8d 0e 9c 3d
       0.20495436 0.13779244 0.11374145 0.07619963
000220 e2 1c e1 3e 55 d2 98 3e 37 51 4b 3e 71 df a3 be
       0.43967348 0.2984797 0.198552 -0.3200641
000230 26 f7 28 3e 31 6c 81 bd 7f 14 9d 3d 1c 91 5d 3e
       0.1650053 -0.06319464 0.07669925 0.21637386
000240 97 59 b8 be 4e da 96 3e 84 bb dc ba 21 9b 32 3e
       -0.36005852 0.29463428 -0.0016840552 0.1744199
000250 37 4a fc bd f3 14 08 3f 64 ed ad be 60 9d af 3d
       -0.12318843 0.53156966 -0.33970177 0.08574939
000260 ff 64 e2 3b f4 84 97 3e 70 7d 43 3e ff 37 4d 3e
       0.0069090123 0.29593623 0.1909082 0.20040892
000270 20 46 3e 3e 95 57 5d be b7 48 37 be 17 aa ea bd
       0.18581438 -0.21615441 -0.17898832 -0.11458223
000280 8d 22 dc 3d 20 17 64 be de cd 85 3e cd 1b 3c 3f
       0.107487775 -0.22274446 0.26133627 0.7347992
000290 52 36 d9 3d 34 fd 9e 3e f8 85 72 bd 2b 6d 4d be
       0.10606064 0.31052554 -0.059209794 -0.20061176
0002a0 59 2e ce 3e fd f3 58 3e f8 6a 9f 3e 19 e7 1b bf
       0.40269735 0.21186824 0.31136298 -0.608995
0002b0 1a 69 05 3e 80 ab d4 3c 1c 9e 02 3c 97 24 ab 3e
       0.13028374 0.025960684 0.0079722665 0.33426353
0002c0 f0 17 26 bf 01 0a 1e 3e 4b c7 52 3c b5 f7 c1 3e
       -0.64880276 0.15433504 0.012864898 0.37884298
0002d0 ed 4f d7 bc ee 15 d1 3e 26 7e ff be b9 ba 19 3e
       -0.026283229 0.40837044 -0.4990093 0.15012635
0002e0 43 bb 8e 3d 10 19 da 3e 46 71 09 be 9a 96 85 3e
       0.06969311 0.42597246 -0.13422117 0.26091462
0002f0 e7 ff d0 3d bb f8 02 bf a0 ac bd be d0 37 89 3c
       0.102050595 -0.5116078 -0.37045765 0.016750246
000300 e2 11 b3 be bd 94 bb 3e 26 0d 8e be 29 34 29 bf
       -0.3497458 0.36636916 -0.27744406 -0.66095215
000310 51 6c 7f be d6 64 35 bf 62 26 f3 be 63 b3 ec bd
       -0.24943663 -0.7085699 -0.4749022 -0.11557653
000320 f5 e6 34 bf b7 6d aa be ef a0 04 bf c5 de 60 3e
       -0.7066491 -0.3328683 -0.51808065 0.2195998
000330 33 31 6c 3e d8 ab e3 be 04 46 a5 bd 38 a7 e3 bc
       0.23065643 -0.44467044 -0.08069995 -0.027789697
000340 74 4c 5c 3e 55 ac a9 3e 7e 75 ec be 95 da fb bd
       0.2151354 0.3313929 -0.4618339 -0.122975506
000350 1f 55 ea be 56 a1 50 bf fa 88 52 3d fc 8d 1d bd
       -0.45768067 -0.8149618 0.051400162 -0.038465485
000360 dd 91 b7 be 5a 58 31 be 2f 5a 88 be c5 ea 40 3d
       -0.35853472 -0.1731886 -0.26631305 0.047098894
000370 69 db ff be 82 30 b7 3e 21 14 d2 3e d3 87 f5 be
       -0.49972084 0.35779196 0.41030982 -0.47955188
000380 df 50 96 3e 9d da 11 be 10 b1 ae 3e 75 55 4a 3f
       0.29358575 -0.1424355 0.34119463 0.7903665
000390 76 83 87 3d 4c 43 d4 3e 6d 60 b8 3c dd 0d b5 3d
       0.06616871 0.41457593 0.022506917 0.08840535
0003a0 6c 7b c0 3e 44 72 0f 3e f6 d9 9f 3e 5d 7d d0 be
       0.37594163 0.14008433 0.31220978 -0.40720645
0003b0 bd 1f 8a 3d 9d 14 ca 3d dd 75 e0 bd 16 8d c3 3e
       0.06744335 0.09867213 -0.10959981 0.38193578
0003c0 2f d8 a4 be ee c6 43 3e 7b 23 af bb 91 d4 96 3e
       -0.32196185 0.19118854 -0.005344806 0.2945905
0003d0 d1 a8 65 be da b6 13 3f 0e 92 a0 be b2 02 10 3e
       -0.2242768 0.57700884 -0.3136143 0.14063528
0003e0 f6 2a 20 3c cb 01 82 3e de d0 5a bd f8 96 2e 3e
       0.009775868 0.25391993 -0.053421848 0.17049778
0003f0 ee 17 86 3d ee 65 c1 be d1 0f 98 be ae 6e 89 bd
       0.06547533 -0.3777308 -0.29699567 -0.067105636

layers.6.bias f4 [16]
000000 ce 29 84 3e d8 ea d9 bd ad d2 96 3e eb 32 95 3e
       0.25813144 -0.10640496 0.29457608 0.2914041
000010 95 17 15 3e f9 4c b8 3e 26 7d d6 3e 00 8a 54 3e
       0.14559777 0.35996225 0.41892356 0.20755768
000020 3f 11 61 3e 3b bb 67 3e 06 27 ab 3e 02 b0 9c 3e
       0.21979235 0.22630017 0.3342821 0.30603033
000030 95 77 42 3e e0 e5 86 3e cb 62 e0 3e 4d 57 f2 3e
       0.1899093 0.26347256 0.43825373 0.4733223

layers.9.weight f4 [1, 16]
000000 c4 b9 80 be 42 21 05 3e e9 46 15 bf 95 91 a7 be
       -0.25141728 0.13000968 -0.58311325 -0.32728258
000010 19 95 f7 be d8 cb 0b bf d4 3e 61 3f 83 c1 1e bf
       -0.4835594 -0.54607916 0.87986493 -0.62014025
000020 76 2c f8 be bd 62 fa be 62 af 2b 3f 08 78 29 3f
       -0.4847142 -0.48903456 0.6706449 0.6619878
000030 7f 0d 83 be f5 19 6f be 27 2f 94 3f 40 d3 69 3f
       -0.25596234 -0.23349746 1.157689 0.91337967
