models/Ensemble/antiproton.pt (torch, 73195 bytes, 28 tensors)

models.524287.layers.0.weight f4 [64, 19]
000000 3d 73 38 3e f1 ac 0f bf 96 00 f9 3c e7 e2 12 be
       0.1801271 -0.5612326 0.030395787 -0.14344369
000010 02 97 2c bd ef 21 40 3e 01 ec 5c 3e 37 3b e7 3b
       -0.0421362 0.18762945 0.21574403 0.0070566195
000020 be 1d da bd de 77 75 3e fa 3f d7 be 61 87 8f 3d
       -0.10650204 0.23971507 -0.42040998 0.07008243
000030 d3 71 92 3d a9 98 3d be d7 5d f5 3d 84 9c 7d bb
       0.071506165 -0.18515266 0.11980789 -0.0038698027
000040 69 f6 c4 bd 3a d6 70 3d d9 f3 72 bd 95 73 e5 3f
       -0.096173115 0.058798052 -0.059314582 1.7925898
000050 41 86 19 3e ff cc eb ba 2c 2d cd be 0e 94 f1 3f
       0.1499262 -0.0017990171 -0.40073526 1.8873308
000060 f2 65 84 3e 0a b6 26 3e 48 ac 77 bc 2a 7b db 3c
       0.25859028 0.1628038 -0.015116759 0.026792128
000070 5c 08 1e bc e2 de 09 3f e3 39 15 be e0 e4 af 3d
       -0.009645548 0.5385572 -0.14572863 0.08588576
000080 85 af d6 3d b6 c4 cc 3d 92 92 9a b9 05 ab 9f 3d
       0.104826964 0.09998457 -0.00029482372 0.07796291
000090 f6 b1 f0 3c 14 89 50 bd 1c b1 be 3f 44 cd b0 be
       0.029381733 -0.050911978 1.48978 -0.34531605
0000a0 80 27 3e 3b d1 ec 2d bc d4 7a 4d 3f e2 0a 6e be
       0.0029015243 -0.010615543 0.80265546 -0.23246339
0000b0 4f 99 85 be b1 39 ae bd 58 74 8a bd 11 dd 2b bc
       -0.26093528 -0.085070975 -0.06760472 -0.010489718
0000c0 79 7f 23 3f 39 d0 09 be 36 44 24 bd 59 cf 19 3d
       0.6386638 -0.13458337 -0.040104114 0.037551258
0000d0 1b 80 e7 3d 47 b7 67 3c 55 4f 9b bd ae 2f 02 3e
       0.11303731 0.014142818 -0.07583491 0.12713501
0000e0 9e d8 d7 bd 1e 44 c5 3d 0e e3 ca 3d 97 56 06 3e
       -0.10539363 0.09632133 0.099065885 0.13118969
0000f0 17 f6 3d 3e 2e 5d cb 3d 37 4f 05 3e a8 29 19 be
       0.18550907 0.09929882 0.130185 -0.14957297
000100 96 f7 09 be d2 ac e7 3d 40 c6 14 3c f8 7e bb 3c
       -0.13473353 0.1131226 0.00908047 0.022887692
000110 c3 bf 26 3e 30 47 06 bd f0 d8 37 be 84 ee 44 bd
       0.16284089 -0.032782733 -0.17953849 -0.04807903
000120 84 df ac bd fa 30 10 be b8 85 c7 3c 67 0c 28 be
       -0.0844107 -0.14081183 0.024355754 -0.16410981
000130 20 34 b0 3b 31 16 2b 3e 59 f6 54 be bc 3e d2 bd
       0.0053773075 0.16707684 -0.20797099 -0.10265872
000140 5c ec 39 bd 1f 0f 02 3e 05 6c 57 3e 45 83 3e 3e
       -0.045391425 0.1270108 0.210373 0.18604763
000150 10 7a ce bc 36 e4 b2 3d 7b 1f 4d 3e 3e ef 94 bd
       -0.025204688 0.08734934 0.2003154 -0.07272194
000160 42 11 91 3d 66 8b 8c 3d 2e a6 cb 3d a7 db 32 be
       0.0708337 0.06862526 0.09943806 -0.17466603
000170 5a 67 e0 3d 5a 50 64 be 0a 5f b1 3d 90 d6 13 bd
       0.10957213 -0.22296277 0.086607054 -0.036093295
000180 02 3c ac bd 28 0a e7 bd a0 68 34 be aa 4c 1a be
       -0.08409883 -0.11281234 -0.17618036 -0.15068308
000190 40 42 26 be 1d 1d 31 3e 1e c0 f3 bd c6 5a 2e be
       -0.1623621 0.17296262 -0.11901878 -0.17026815
0001a0 ca b9 ca 3d c0 3a a8 bd ca 23 57 be df 9e 5d 3e
       0.09898718 -0.08214331 -0.21009746 0.21642636
0001b0 ee 0e a1 3d 84 67 50 be e2 e6 86 bd d9 a4 1d 3e
       0.07864176 -0.20351988 -0.06587006 0.15394916
0001c0 4e c6 a9 bd 42 e1 9c 3d 73 21 77 bf d5 d0 a6 be
       -0.08289777 0.07660152 -0.96535414 -0.325812
0001d0 23 b9 51 ba 11 30 d3 3c 57 bd 4a 3d a6 7f 97 bf
       -0.0008000305 0.025779756 0.049496975 -1.183583
0001e0 3c a9 8a bf b4 7a 2b bd 02 e7 f2 3d bf 11 9b bc
       -1.0832896 -0.041865066 0.118604675 -0.01892936
0001f0 c8 d3 26 3f 1c ec ee bd 48 d1 c6 3d 8d 0f 1d 3e
       0.651669 -0.11666128 0.09707886 0.15337963
000200 60 aa 30 bb ca 01 8f 3c d2 c0 ca bc 1d b8 44 bd
       -0.002695702 0.017456908 -0.024750147 -0.048027147
000210 27 46 d2 bb 48 10 d3 bd 8d e9 e0 3b 39 7a b8 ba
       -0.006417054 -0.1030584 0.006863779 -0.0014074511
000220 17 9d 1d bf b6 24 80 3f 69 7b 18 bf 69 a4 0c bf
       -0.61567825 1.0011203 -0.5956331 -0.5493837
000230 fe 88 bb bc 09 be b3 bd 9c 28 91 bc 33 ad 66 3f
       -0.022892471 -0.08776481 -0.01771956 0.9010803
000240 01 74 0f 3e a0 69 91 bb 6a 22 d9 bb 1e 44 ad bc
       0.14009096 -0.0044376403 -0.006626417 -0.021150645
000250 e9 a3 7a 3c d2 a6 36 3b a5 a4 28 be 64 4e 2f bc
       0.015297868 0.0027870429 -0.16469057 -0.010699842
000260 b3 c3 24 3e f6 eb d2 bd 81 c7 02 3e 61 19 6a 3e
       0.16090278 -0.10298912 0.12771417 0.22861244
000270 c0 bd c9 bd a6 1d c0 3d f0 33 06 be 33 4b 36 3e
       -0.09850645 0.09380655 -0.1310575 0.17802124
000280 82 85 e4 3d 6a 17 3e be e6 c8 a0 3d 57 50 4a 3e
       0.11158277 -0.1856362 0.07850818 0.1975721
000290 2d 53 1d 3e 40 7c 40 3b 44 47 2c be d8 4b 46 be
       0.1536376 0.0029370934 -0.1682406 -0.1936487
0002a0 58 02 ee 3c f4 d2 23 3d e6 9f 92 3d 08 82 c9 bc
       0.029053852 0.039996102 0.071594045 -0.024598137
0002b0 30 c2 57 be 00 a2 57 3c f9 ae 1b 3e 2d 29 20 3e
       -0.2107017 0.013161182 0.15203466 0.15640707
0002c0 4d 76 03 3e 84 07 24 3d 4c 86 29 be 40 a9 77 bb
       0.12838097 0.04004623 -0.16555136 -0.003779009
0002d0 f2 c1 9e 3d 17 fc 26 3e ea c6 a8 bd 62 22 b1 3d
       0.07751836 0.16307102 -0.08241065 0.08649136
0002e0 93 ba 0d 3e e5 68 33 3e e1 dd 22 be 74 3a 6d 3d
       0.13840704 0.17520483 -0.15904953 0.057917073
0002f0 82 4d 59 be 22 27 13 be ad 64 06 bf f3 cb bd 3c
       -0.21220973 -0.14370397 -0.5249737 0.02316854
000300 ba a4 41 ba 85 84 73 3e 0c ea 43 bf 45 20 1f 3f
       -0.0007386912 0.23781021 -0.76529 0.62158614
000310 5c 6f 06 3f 53 38 86 3c 75 75 ba 3d c7 e6 a7 3c
       0.5251367 0.01638428 0.091044344 0.020495785
000320 0e 69 9f bf 19 65 32 be bb b7 61 3c a9 0b 4b 3c
       -1.2453935 -0.17421378 0.013776715 0.012392917
000330 18 b9 62 3c 5c 96 75 bc d6 8b 5a 3d e2 65 ab 3c
       0.013838075 -0.014989462 0.053356014 0.020922605
000340 29 5b 19 bc b9 e9 29 3e 8b 02 18 be 22 eb 1b be
       -0.009360113 0.16593064 -0.1484472 -0.15226415
000350 5c e4 14 3d 38 a1 c5 bc 5c e2 55 bd 89 a8 0f 3e
       0.036350593 -0.024124727 -0.052217826 0.14029135
000360 b8 87 de bc cb 7d 59 be f2 4a 90 bd d9 d9 54 3e
       -0.027164325 -0.21239392 -0.07045545 0.20786227
000370 8e 1e df 3d 3b 43 12 3e 26 2f a3 3d 98 c3 ac bd
       0.108945 0.14283459 0.07967977 -0.08435744
000380 02 b2 e1 bd 3e 14 99 3d 83 93 2d be 68 45 b6 3c
       -0.110202804 0.07474564 -0.16950803 0.022249892
000390 97 d9 29 3f 05 2f e6 3d ba 2b fb 3c ec b8 b5 be
       0.6634764 0.11239437 0.030660499 -0.35492647
0003a0 65 d0 62 bf aa b4 85 3e 9a 68 45 3d 34 65 34 3d
       -0.88599235 0.26114398 0.04819546 0.044041827
0003b0 cf 9d 7e 3d 38 57 9a 3d 7c 86 54 bf bb fc 35 3e
       0.062162217 0.07536167 -0.83017707 0.1777219
0003c0 cc 83 b1 bb 20 a8 45 bd 3a 30 4f bc ad e7 2e bc
       -0.0054173227 -0.04825604 -0.012645775 -0.010675353
0003d0 d1 f1 14 3e 14 a4 1a be b4 9c 0b be 66 ec fe 3d
       0.1454537 -0.15101653 -0.13633996 0.12447433
0003e0 02 0f 07 be 7d 5d 01 3e fc c6 6f 3d fb ab 40 be
       -0.13189319 0.12633319 0.058539376 -0.18815605
0003f0 45 7e 01 3e 62 39 9e bd ad 36 fd bd 68 9d a5 bc
       0.12645824 -0.07725789 -0.12363944 -0.020216659

models.524287.layers.0.bias f4 [64]
000000 bf 01 b3 3d 4e 69 42 be 90 42 af bd ad b1 1b 3e
       0.087405674 -0.18985483 -0.08557618 0.15204497
000010 e6 51 8f 3d c3 e5 45 be 8d 38 ad ba 86 34 90 bd
       0.06998043 -0.19325928 -0.0013215706 -0.07041268
000020 f0 36 6f bd 10 2a 70 3c 3a 33 0e 3d 69 ea 28 3e
       -0.058402 0.014658466 0.034716822 0.1649567
000030 60 bf 08 be 56 52 e0 3d 89 0a 23 3e e9 53 1b 3d
       -0.13354254 0.10953204 0.15921988 0.03792182
000040 78 29 27 3e cd e2 a4 3d 12 c0 f9 3d 7d 34 f7 bd
       0.16324413 0.08051071 0.12194838 -0.12070558
000050 ab 23 7c be e7 1d 06 3e 20 8a 92 3c 5b 53 0a 3e
       -0.24622981 0.13097344 0.017888129 0.1350836
000060 24 47 3b be e8 41 a9 bb 76 c0 1b be 66 b9 54 3e
       -0.18288857 -0.0051653273 -0.15210137 0.20773849
000070 a1 c3 38 be f2 d4 2d 3e b8 06 8e bd 3e 02 e2 3d
       -0.18043377 0.16975763 -0.06934875 0.11035584
000080 7c 5b 23 3d a6 f3 27 be fe 8f ac bd bb 63 0a be
       0.03988217 -0.16401538 -0.08425902 -0.13514607
000090 a8 fe 79 be f0 13 62 3c 2c 89 81 bd 48 5f cf 3c
       -0.2441355 0.013798699 -0.063249916 0.025313988
0000a0 ef 0a 06 be 33 1d 67 3a 13 bd 88 be f1 ed d8 3d
       -0.13090108 0.00088163017 -0.26706752 0.10592259
0000b0 a0 06 ba bb eb 3c 0b 3d 5c 17 23 3d 0e 7f 50 be
       -0.0056770593 0.033993643 0.0398172 -0.20360968
0000c0 fe db b7 3d 88 33 68 bd 79 fe 9c be fd 74 93 be
       0.08977507 -0.05668977 -0.30662897 -0.28800192
0000d0 da e0 f4 3d eb 4a 3e be 4a 29 9c 3d c3 00 6a 3e
       0.119569495 -0.18583266 0.07625063 0.22851853
0000e0 f2 d3 dd bd 8a 4b ad ba cb 76 30 bd 51 83 9f bd
       -0.10831441 -0.0013221365 -0.04308204 -0.077887185
0000f0 54 13 3f be 85 15 48 be d2 c6 d6 3d d1 cc 03 be
       -0.18659717 -0.19539459 0.10487141 -0.128711

models.524287.layers.3.weight f4 [32, 64]
000000 64 7f 0e bd 57 fa 31 3d 09 4f a1 3c 38 64 77 3d
       -0.034789458 0.043451633 0.019691007 0.06039831
000010 3a 87 d1 3d a0 c7 1c 3c 8e af 83 3d 0d ea 19 be
       0.102308705 0.009569079 0.06429969 -0.1503069
000020 3e 8b aa bd e8 03 d3 bd a2 b5 c3 bd ba 4e 87 bd
       -0.083273396 -0.103034794 -0.09556128 -0.06606813
000030 1c d8 54 3c e2 ab db bd 20 6b 56 bd 5a 97 a6 bd
       0.012990978 -0.107261434 -0.052348256 -0.08134337
000040 bd ca ce bd 67 fb 13 be f2 09 ab 3d 10 c8 42 bd
       -0.10097263 -0.14451371 0.08351506 -0.047554076
000050 99 7a 64 bb c2 d8 86 3d 20 c4 df 3d 28 4f 9c 3d
       -0.0034863113 0.06584312 0.1092608 0.07632285
000060 5a d6 b3 bd 26 c5 a5 bd 1e 0e bc 3d d8 50 0e 3d
       -0.08781119 -0.08094244 0.0918238 0.034745067
000070 c6 a1 e8 bd b6 5f 67 bd f8 98 1d bd cb 4e 99 3d
       -0.11358981 -0.05648776 -0.03847596 0.07485732
000080 6d 0e 97 bc bf ec d9 bc 00 e8 a7 38 32 6d 39 3e
       -0.018439496 -0.026602147 8.006394e-05 0.18108061
000090 11 1e 71 bd 45 2d c8 3c 8b 17 99 bc c6 fb 86 3d
       -0.058866564 0.024435649 -0.018687984 0.06590991
0000a0 55 31 1d be f6 d6 43 3e b6 04 a1 bd f3 65 2c 3e
       -0.1535085 0.1912497 -0.07862227 0.16835766
0000b0 f4 7f 9b bd 37 23 45 3d 98 ac 47 3d 53 a2 30 bd
       -0.075927645 0.048129287 0.048748583 -0.043123554
0000c0 40 e6 c6 3c 2a 1c 90 3d d0 77 4e 3e ae e8 5f bd
       0.024279714 0.07036622 0.20162892 -0.05466526
0000d0 30 1e a9 3c 6c bc 6e bd 00 94 dc bc 80 40 01 3d
       0.020644277 -0.05828516 -0.02692604 0.031555653
0000e0 7e 2f 2e 3e b2 ed d8 3d a2 1b 56 bd d4 a5 94 bd
       0.17010304 0.10592212 -0.052272446 -0.07258192
0000f0 30 cc cd bd ec 97 63 3d 26 98 b4 3b 00 a7 36 3a
       -0.10048711 0.055564806 0.0055113016 0.0006967634
000100 61 79 3d bb 98 e0 03 be 76 29 ae bc fe fc ef 3d
       -0.0028911459 -0.12878644 -0.021260004 0.11718176
000110 1a 29 db 3d 92 91 8f 3d 99 6a 06 3e c5 44 4d be
       0.10701199 0.07010187 0.13126601 -0.20045765
000120 44 fc 4f 3d a4 be 8c bd 8d 42 0a 3e 60 ed 26 3d
       0.05077769 -0.06872299 0.1350195 0.040753722
000130 8e 40 e0 3d 34 4d 41 bd d0 f3 6a 3d cc 3d f7 bd
       0.10949813 -0.047192767 0.057361424 -0.12072334
000140 76 bb 7b be fd da bd 3e 1f 8a c0 3b a8 ab f0 3d
       -0.2458323 0.37081137 0.0058758403 0.11751491
000150 53 72 4e 3d 3b 0a 1b 3e e0 40 53 3d 18 4c 8c 3d
       0.050401997 0.15140621 0.05157554 0.06850451
000160 b0 29 f1 3c 19 5a 48 be 0c ac 7b 3d a8 47 1f 3d
       0.029438823 -0.1956562 0.061443374 0.038886696
000170 7e cb 9a 3d 9c 64 04 3e 00 c1 e0 3b a0 01 17 3e
       0.07558344 0.12929004 0.006858945 0.14746714
000180 8a 3d 18 3d c2 aa 3c 3f 96 5c e0 bd 77 f7 f3 bd
       0.037168063 0.73698056 -0.10955159 -0.119124345
000190 4f 75 e3 3d 47 9c 8d 3c 6a 0b f2 bd fe 93 ac bd
       0.11106359 0.017286433 -0.11818583 -0.08426665
0001a0 1b bf c4 3d 37 d8 75 3e 61 a1 1a bf 01 1f 0d 3d
       0.09606763 0.2400826 -0.60402495 0.034453396
0001b0 a0 c0 fd 3d c1 6e a6 bd 10 8c c1 3d 28 5a 51 bd
       0.12390256 -0.081265934 0.09450543 -0.05111137
0001c0 88 6c 2b bd f6 e1 dd 3d 64 ad 2d 3e 74 aa 3f 3d
       -0.04185155 0.10834114 0.16960675 0.046793416
0001d0 78 2b e5 bc 18 77 c3 bc ca ce 8c bd 9a 2e 93 3d
       -0.02797483 -0.0238605 -0.068753794 0.07186623
0001e0 e5 bc 8e 3e 92 f7 0c bc 84 11 a1 be 50 93 ba 3d
       0.2787849 -0.008603947 -0.31458676 0.09110129
0001f0 72 06 d8 3d 39 96 8a bd 05 f4 82 bd 80 7d 9e 3d
       0.10548104 -0.06766934 -0.06394199 0.07738781
000200 a5 67 05 3b 43 5c e6 3d 77 ed fb bc 4c 60 08 bd
       0.0020355966 0.11248066 -0.03075288 -0.03329496
000210 ea 40 96 3d 20 5a 00 bd 73 e9 a7 3d 60 40 96 3e
       0.073366 -0.03133595 0.08198824 0.2934599
000220 0c 6b 97 3d d8 6f 27 3d 40 1f 89 be 78 9e a1 bd
       0.073934644 0.040878147 -0.26781654 -0.07891554
000230 db 60 b4 3a 1c 9b 23 bd 10 dd 51 bd 36 c2 05 bc
       0.0013761775 -0.039942846 -0.051236212 -0.008163979
000240 8a 3d 10 3c 63 8f ea 3e 1f a5 87 bd 78 72 ea bc
       0.008803735 0.4581252 -0.06623291 -0.028619036
000250 98 b8 9a bc 7c 6a a1 3e 84 9a 15 3d 28 df b8 bc
       -0.01888685 0.31526554 0.03652431 -0.022567347
000260 48 20 9b bd 9d 8e 2e 3c 3a 6e cf bd 0f 05 91 bd
       -0.075745165 0.010654119 -0.10128446 -0.07081043
000270 10 e5 27 3d 5a 94 a9 bd 38 80 a1 3c fe 98 19 3e
       0.040989935 -0.08280249 0.01971446 0.14999768
000280 c4 b5 25 bb 44 72 5d 3f 94 39 b6 bd f5 1c e1 3e
       -0.0025285343 0.8650248 -0.08897701 0.43967405
000290 22 c9 76 be 30 4a 88 bd 40 d9 88 3d 62 8f 86 bd
       -0.24100164 -0.06654775 0.06682062 -0.06570317
0002a0 4b 48 7d be fa 13 9a 3d b0 fb d8 3d 78 c2 8e bd
       -0.24734609 0.075233415 0.105948806 -0.06970686
0002b0 ac ff 30 3d 9a be 33 ba 7e c4 e9 3d 15 e7 16 bd
       0.043212578 -0.000685671 0.11414431 -0.03684147
0002c0 68 6d 36 bd 04 8a bf bd 23 1d 84 3e 66 39 51 bc
       -0.04453793 -0.09352496 0.2580348 -0.0127700325
0002d0 48 b7 9f bd 86 b6 aa 3d 48 d3 fe 3d 34 ef 7d bd
       -0.0779863 0.08335595 0.124426425 -0.0619957
0002e0 59 ea eb 3e ce c3 0b 3c 69 56 80 3d 12 4a e4 3d
       0.4607723 0.00853057 0.062664814 0.1114694
0002f0 0c 78 a9 bd 94 1f 00 3e fc 61 e7 bc c6 bb cf 3d
       -0.0827485 0.12512046 -0.028244965 0.10143237
000300 f8 3a b1 3c c6 c0 1f be 9a 5a 17 3c 90 fe a7 bd
       0.021634564 -0.15600881 0.00923791 -0.08202851
000310 02 94 b4 bd e0 44 84 3c 2f 36 f0 bc d4 fe ac be
       -0.08817293 0.016146123 -0.029322712 -0.33788168
000320 66 27 c5 bd ec eb 31 3d 73 39 df 3d 50 1a 63 3c
       -0.09626655 0.043437883 0.108996294 0.013861254
000330 42 e9 e1 bc c0 72 8c 3c 42 57 ed 3d 46 34 c1 3d
       -0.027577046 0.01714456 0.11588909 0.094337985
000340 03 41 15 3b 18 51 f8 be 1a a4 8a be fc 29 2e bd
       0.0022774346 -0.4849937 -0.27078325 -0.04252051
000350 8a 5b 3d bd 01 1d c9 be 80 73 10 bb 1a 81 cb 3d
       -0.046229877 -0.3927994 -0.00220415 0.099367335
000360 9c e5 ac bd 12 1d d9 3c 3e 5c d5 3a 23 76 1c 3d
       -0.08442232 0.02650312 0.0016278101 0.0381986
000370 9a bf fc bd dd a5 5a be da 89 95 bd 0e 86 6e bd
       -0.123412326 -0.21352334 -0.07301684 -0.058233313
000380 68 d0 00 be 4a 20 36 bf a0 0f 7c bd 32 f0 8a be
       -0.125795 -0.7114302 -0.06153834 -0.2713638
000390 7d d7 73 bd e8 7e a6 3c 6d e1 f6 3d a0 8e b0 3b
       -0.059531678 0.020324185 0.12054715 0.005388096
0003a0 6e 06 77 3d 04 79 9a be 84 b9 6b 3d f9 21 48 bd
       0.060308866 -0.30170453 0.05754997 -0.048860524
0003b0 10 e7 02 bc 36 88 90 3c 12 6d 9a 3d 7b bb d5 3d
       -0.00798966 0.017643075 0.07540335 0.1043615
0003c0 00 8c 06 bb e0 b8 0c bc 92 e9 6b bd 4a a5 37 3d
       -0.0020530224 -0.0085889995 -0.057595797 0.044835366
0003d0 16 9b d8 3d 10 59 97 bc a8 84 c4 3c 64 e4 bd 3d
       0.10576455 -0.018475085 0.023989037 0.09272078
0003e0 f2 b5 ab be 63 b5 ff bd e8 62 a3 3d 96 96 b1 3d
       -0.3353725 -0.12485769 0.07977849 0.086713
0003f0 a8 cd cd 3c 30 e0 5b 3d 3b 1d 0d be 90 03 83 bc
       0.025122479 0.0536806 -0.13780682 -0.01599291

models.524287.layers.3.bias f4 [32]
000000 bc 7e f3 3d b9 d8 a3 3d ac 74 7a bd 1b 5d 2a 3e
       0.11889407 0.08000321 -0.061146423 0.1663708
000010 e8 28 7e 3d 20 d6 90 bd 7a 4d 64 bd 29 c3 0b be
       0.06205073 -0.07072091 -0.05573795 -0.13648666
000020 d6 59 0e 3a 76 65 0f 3e 99 5e 84 3d 30 d4 4d be
       0.0005430257 0.14003548 0.064633556 -0.20100474
000030 92 cf 47 3d 60 ad 2a be 3d ff db 3e b2 72 05 bd
       0.04878194 -0.166677 0.4296817 -0.032580085
000040 e0 59 e1 bd 4a c0 b3 bd eb f8 2b be f7 86 9c 3d
       -0.110034704 -0.087769106 -0.16794173 0.0764293
000050 99 a6 0b be 6a ff b8 3e 41 b2 80 3e a9 f9 27 bd
       -0.1363777 0.36132365 0.25135997 -0.04100958
000060 bc 3d 1f 3e 33 58 e0 bd 9f 32 0d be 2e a5 af 3b
       0.15550894 -0.10954323 -0.13788842 0.005360267
000070 6d 7f ac 3e a3 72 be bc da 7c 3f be 5b f9 87 3e
       0.33690968 -0.023248022 -0.18699971 0.2655743

models.524287.layers.6.weight f4 [16, 32]
000000 a4 a9 86 3e 39 82 e3 3c 4b 15 92 3d f7 57 2b be
       0.263013 0.027772056 0.071329676 -0.16732775
000010 83 cb b4 3d ec c0 a0 bd 01 dc 47 3e c8 7c bb bc
       0.08827879 -0.07849297 0.19517519 -0.022886649
000020 70 f5 77 3e 3a 4f a4 be 54 17 a6 3e ec 99 12 3e
       0.2421472 -0.32091695 0.32439673 0.14316529
000030 bc cc 9e bc c0 71 9d 3e 01 31 85 3d cf 3f db 3d
       -0.019384734 0.30750847 0.065034874 0.1070553
000040 f4 42 13 3e 47 ba f5 bb bf 10 57 bb 3e 28 87 be
       0.1438101 -0.0074990126 -0.0032816378 -0.2639789
000050 76 27 88 bd a9 45 2c 3e 0e b2 16 be 6d 8d 5e 3d
       -0.066481516 0.16823448 -0.1471636 0.054334093
000060 8d 0a 65 be ac 7f 04 3e 65 21 c6 3d 7e 2b e7 3e
       -0.22367306 0.12939328 0.09674338 0.4515037
000070 10 8d 2c 3e 85 bc 5d 3e 81 c9 88 bc 02 6b c9 bd
       0.16850686 0.21653946 -0.016697647 -0.09834863
000080 9a aa 43 be 02 b9 ee be a6 3c ee be 8c 78 d1 3d
       -0.19108048 -0.46625525 -0.46530646 0.102280706
000090 b3 64 39 be 95 79 57 be 71 7f f0 be ee 0f f6 bd
       -0.1810482 -0.21042474 -0.4697223 -0.12014757
0000a0 96 68 0e bf 2b c0 8e 3e 4f 55 27 be 9e 97 ba be
       -0.55628335 0.27880988 -0.16341136 -0.364438
0000b0 1a 2c 6e 3d 29 c8 df be f1 1a 6a 3e 87 ab 11 be
       0.058147527 -0.43707398 0.2286184 -0.14225589
0000c0 80 5e be be a4 b1 3c 3e 90 66 eb be 85 26 de 3e
       -0.37181473 0.1842714 -0.45976686 0.43388763
0000d0 a9 b6 03 bf 5d 60 4a bd 7e 4e 6e 3e 85 5d d0 be
       -0.5145059 -0.049408305 0.2327213 -0.4069635
0000e0 de e9 5a 3e 71 9d 07 bf 71 40 72 3c 14 04 1b be
       0.21378276 -0.5297461 0.014785872 -0.15138274
0000f0 1f b8 a1 3e 75 67 33 3d 85 d6 84 be 8d c0 9a 3e
       0.31585786 0.043799836 -0.25944915 0.3022503
000100 d2 d9 89 3e 02 98 b0 3c ba 09 4d 3e 91 da 44 be
       0.26923996 0.021556858 0.20023242 -0.19224001
000110 f9 9e 14 3e f1 53 03 3d 21 51 2d 3e fa ae 97 be
       0.14513768 0.032062475 0.1692548 -0.29625684
000120 7e 1c 9b bc 25 6c c6 be 47 69 cb 3e 1c 2a 6e 3d
       -0.018934485 -0.38754383 0.39728758 0.058145627
000130 4b 88 17 be c7 82 9a 3d 73 c6 72 3e 18 30 84 bc
       -0.14798085 0.07544475 0.23708515 -0.016136214
000140 2e a1 9e 3d 52 7c 1d be 42 71 1c 3e e3 91 78 be
       0.07745586 -0.15379456 0.1527758 -0.24274401
000150 46 2b e2 3d 4c e5 8f 3b ca 64 81 bd f3 7c 59 3e
       0.1104341 0.004391348 -0.06318052 0.2123907
000160 21 0e c0 be 2e e4 68 3e 09 7a c8 bd 30 91 6b 3e
       -0.3751078 0.22743294 -0.09788901 0.23004603
000170 a2 16 0c 3e f3 59 35 3e 52 42 a3 3b 60 c8 96 bd
       0.13680509 0.17710094 0.004982271 -0.07362437
000180 81 b7 14 3d be 2b 43 3d c3 2b 11 3e cb 57 58 be
       0.036307815 0.047649138 0.1417685 -0.2112724
000190 a2 4d 98 3e 63 4f 43 3e 22 56 1c 3e 02 db 69 be
       0.2974673 0.19073252 0.15267232 -0.22837451
0001a0 df 52 0c 3e d7 61 71 be 65 3e d7 3e 6b 9e 0e bb
       0.13703488 -0.23572479 0.4203979 -0.0021761905
0001b0 72 88 46 be 4c ac 8d 3e 8e b8 c8 3d 26 4d 8f bd
       -0.19387987 0.27670515 0.09800826 -0.06997137
0001c0 99 52 48 3d 0b e5 d2 3d 51 d0 0e 3e 1c 5a 65 be
       0.048906896 0.10297593 0.13946654 -0.22397655
0001d0 f3 d1 2c bb ac 51 e5 3d c0 b2 03 be 1b 28 41 3e
       -0.0026370257 0.11197218 -0.12861156 0.18862955
0001e0 76 a0 b4 be df 82 2f 3e fd 1a d0 bd 52 05 05 3f
       -0.35278672 0.17139767 -0.101613976 0.51961243
0001f0 29 52 e7 3d 8f d1 ff 3d cc 08 9c 3b a5 eb f3 bc
       0.11294968 0.12491142 0.004761791 -0.02977545
000200 52 02 d1 3b de 19 62 be a1 ce fd be 72 b2 82 3e
       0.0063784504 -0.2208018 -0.49571708 0.25526768
000210 69 f9 2d be 21 d0 a4 be 14 b4 2d bf 15 dd ca 3d
       -0.16989674 -0.3219004 -0.678529 0.09905449
000220 f1 0c 90 be b1 13 a5 3e 0a 1a 78 3d 8e 8e 84 be
       -0.28134874 0.32241586 0.060571708 -0.2589001
000230 30 24 6a bd 7f 8c d0 be be 39 e3 3d 4e 2f 8f bd
       -0.057163417 -0.4073219 0.11094998 -0.069914445
000240 4b 33 a4 be 1c 3a 0e be 74 a1 88 be 0e 92 dd 3e
       -0.32070383 -0.13889354 -0.2668568 0.43275493
000250 0e 67 10 be 96 3b 54 3e 63 80 97 3e c2 36 09 bf
       -0.14101812 0.20725855 0.2959014 -0.5359918
000260 82 9c ee 3d 91 31 0a be 41 06 09 be cc c1 92 be
       0.11650945 -0.1349547 -0.13381292 -0.2866348
000270 ee 6f d0 3e 3c 6c c6 3d 41 b1 7d be 14 a0 6c 3e
       0.40710396 0.09688613 -0.24774648 0.2310794
000280 d9 7d 18 3d 3f 12 78 3e fb 35 2e 3e 63 12 5e be
       0.037229393 0.2422571 0.1701278 -0.21686701
000290 d9 52 5e 3e 0a 14 8a bd b2 59 75 3e 04 ea 43 be
       0.21711291 -0.067421034 0.23959997 -0.19132239
0002a0 96 1c d1 3d 4a 8d 9e be 0c e2 e6 3e 7e 94 de 3c
       0.102105305 -0.3096717 0.45094335 0.027170416
0002b0 65 08 5a be 58 e1 7c 3e 77 9b d8 3d db cb 57 3e
       -0.21292265 0.24695337 0.105765276 0.21073858
0002c0 56 f8 e9 3d 45 9e 08 be c8 fc 25 3e 1e 22 1f be
       0.114243194 -0.13341625 0.1620971 -0.15540358
0002d0 49 4f bc bd ef d9 83 3e a0 d8 0f be 88 80 8c bc
       -0.0919481 0.25752208 -0.1404748 -0.017151132
0002e0 7e 21 12 be 4c ad 35 3e a2 98 1c 3c 99 da 03 3f
       -0.14270589 0.17741889 0.009557875 0.5150543
0002f0 9d a4 9e 3d 24 11 4f 3e 9a 75 55 3d 3b 3a 9a bb
       0.07746241 0.20221382 0.052114107 -0.0047066486
000300 b8 83 2f 3e c4 36 87 bc 1a ed 44 3e 4b e1 60 bd
       0.1714009 -0.016505606 0.19231072 -0.054902356
000310 32 f4 8c 3e ea a0 54 3e 37 63 1b 3e 93 02 b9 be
       0.27530056 0.20764509 0.15174566 -0.36134776
000320 96 26 98 3d ae af 8e be 2a eb b7 3e 2e 97 29 bd
       0.07429235 -0.27868408 0.35921603 -0.04140394
000330 f1 05 d5 bd 77 10 a1 3d 05 79 57 3e e7 be 2a bd
       -0.10401524 0.078644685 0.21042259 -0.041685965
000340 6a c5 8c 3e 07 54 c8 3c 08 91 65 3e 1c 03 32 be
       0.27494365 0.02445413 0.22418606 -0.17383999
000350 8a 3c 22 3e 49 77 09 3e 32 c7 6e 3d 7d 5b 00 3e
       0.15843406 0.1342441 0.058295436 0.125349
000360 00 7a 89 be b6 a5 a5 3d 7f 73 aa 3d 49 fa 07 3f
       -0.2685089 0.080882475 0.083228104 0.5311628
000370 0d c2 49 3d 41 2b ba 3c 24 9a 31 3e 65 06 ef bd
       0.049257327 0.022725703 0.17343956 -0.116711415
000380 14 b4 3e 3d 12 ab 83 3e 6b f2 a7 3d 4a 9a 0e be
       0.046558455 0.25716454 0.082005344 -0.13926044
000390 12 b8 84 3e c3 2f 3f 3e dd 95 d6 3d 54 92 d4 bc
       0.25921685 0.18670563 0.10477803 -0.025948681
0003a0 ac e4 24 3e 1c 8b ca bd c8 f8 fc 3e 97 71 1f 3d
       0.16102856 -0.09889814 0.49408555 0.038926687
0003b0 a2 6d 43 be 84 a3 c8 3e 75 9a 4f 3e 61 05 75 3e
       -0.1908479 0.39187253 0.20273764 0.23927833
0003c0 66 9d 13 3e 7b 34 54 bd de a2 5e 3e 2b 37 7a be
       0.14415511 -0.05180786 0.21741816 -0.24435107
0003d0 c2 40 a6 3e 78 57 12 bd 84 bc 9b 3b 8a b9 7e 3e
       0.3247128 -0.035727948 0.0047526974 0.24875465
0003e0 df 5a d1 3d b5 51 b0 3e 86 d5 76 bd b5 cd df 3e
       0.102224104 0.34437338 -0.060262226 0.4371163
0003f0 e1 72 bb 3c 56 87 02 3e d0 fb b7 3d ca 81 1a be
       0.022881927 0.12746939 0.08983576 -0.15088573

models.524287.layers.6.bias f4 [16]
000000 cd fc b1 3b 9e 13 b7 3e 86 4f b0 3d 9e a8 19 3e
       0.0054317475 0.35757154 0.08608918 0.15005729
000010 8b ed b8 3e fb a6 db bd da 82 6d bd 36 08 87 3d
       0.3611873 -0.10725208 -0.057986118 0.06593363
000020 74 d0 dc 3e 8a d3 7c 3e 86 35 20 3e 21 d6 1d be
       0.43127787 0.24690071 0.15645418 -0.15413715
000030 30 19 dd 3e 77 a1 fb bd 3f c7 00 3f 5b d4 00 bd
       0.4318328 -0.12286656 0.50304025 -0.031452518

models.524287.layers.9.weight f4 [1, 16]
000000 c1 96 b7 be fd 68 21 3f c7 4d c8 be 4e ee b1 be
       -0.35857204 0.63050824 -0.3912184 -0.34752125
000010 3a 2a ef 3e fc de 9d be 5f a2 7c be ce 2d 06 be
       0.46711904 -0.30834186 -0.24671315 -0.1310341
000020 1f 23 1a 3f 56 f2 d6 3e 27 8e d2 3e 55 7b 14 be
       0.6020984 0.41981763 0.4112408 -0.14500172
000030 dd ab 12 3f a8 f0 b9 be ba 0f 55 3f 0a b8 34 be
       0.5729349 -0.3631642 0.8322712 -0.1764833

models.524263.layers.0.weight f4 [64, 17]
000000 51 92 03 be 49 c0 68 be d1 bf 58 be 71 8a 52 be
       -0.12848784 -0.22729601 -0.21166922 -0.20560624
000010 04 90 e1 bd 30 f0 f5 3d 60 09 55 3c ba bd 58 3e
       -0.11013797 0.12008703 0.013002723 0.21166125
000020 68 03 b2 3d 18 a6 89 bd 05 64 29 be 9c 52 c8 3d
       0.08692056 -0.06721133 -0.1654206 0.097813815
000030 0c 54 95 3d fd 53 19 be 88 8c be bc 6c d4 33 be
       0.07291421 -0.14973445 -0.02326037 -0.17561501
000040 fc 6e 0e 3e 3e 72 1f be 4f 44 a3 3b d1 85 11 be
       0.13909525 -0.15570924 0.0049825083 -0.14211203
000050 4b d6 3f be 99 17 ef bd bd 17 a9 be 71 83 5e be
       -0.1873409 -0.11674423 -0.33025923 -0.21729828
000060 76 86 1c 3e 43 c2 a2 3f 7a 92 4d be 0c 6e b8 3d
       0.15285668 1.2715534 -0.20075408 0.09005365
000070 6b cd 36 bd e9 9e 1e bd 9b b1 0b 3c b7 57 a8 bd
       -0.044629496 -0.038725767 0.008526231 -0.08219855
000080 0a 51 28 3e 2c a4 12 be e2 a0 fc bf 3e 5b 9b 3c
       0.16437164 -0.14320439 -1.9736598 0.018964406
000090 20 87 8e 39 43 46 54 bf c2 3f eb be d9 e4 0d 3e
       0.00027185027 -0.8291971 -0.4594708 0.1385683
0000a0 ec 9a 04 be 0e 9b 9d bc 38 45 a6 3f c4 31 a4 3c
       -0.12949723 -0.019238975 1.2989874 0.020043261
0000b0 fe f3 d9 bd ff 35 6d 38 83 d8 db 3d 13 07 45 3c
       -0.10642241 5.655549e-05 0.10734656 0.012025612
0000c0 8a c7 90 3c 33 6d 21 3e 6b 14 a6 bc cf 49 09 bf
       0.017673273 0.15764312 -0.020273408 -0.5362825
0000d0 05 87 d4 bd cb 79 e9 3c 37 49 0e bf 22 c7 dc be
       -0.103773154 0.028500458 -0.55580467 -0.43120676
0000e0 41 13 80 be 6a 95 56 3d a5 a1 c5 bd f7 15 78 3f
       -0.2501469 0.052388586 -0.09649972 0.96908516
0000f0 53 44 06 3d 74 87 cb 3d d9 51 9b 3d d7 37 28 3d
       0.032780003 0.09937945 0.075839706 0.041068878
000100 06 9e 63 3c d4 2a 05 3e 9a c3 7f 3e bf 22 5f 3e
       0.013892656 0.13004619 0.2497696 0.21790598
000110 92 c8 70 3e 60 fd 40 3c 4c 4c e8 bd ee 5a 14 3e
       0.23514012 0.011779159 -0.113426775 0.14487812
000120 10 5e d8 3c 9a 6c 6c 3e 94 d2 d6 3d ae b3 0e be
       0.02641204 0.23088303 0.10489383 -0.1393573
000130 88 81 13 be 30 9b 24 be ed 0b 3c be c0 6c ea 3b
       -0.14404881 -0.16074824 -0.18363924 0.0071540773
000140 78 ca d7 3d b5 10 51 be c6 5d 45 3e 0e b5 62 3e
       0.10536665 -0.2041653 0.19274053 0.2213938
000150 f2 b0 0d 3e af ea 2a be 14 4d 93 bd 80 21 17 bd
       0.1383703 -0.16691087 -0.07192436 -0.036897182
000160 6c 08 1b be 00 ee 0a be 60 19 4b 3d cf 91 37 be
       -0.15139931 -0.13567352 0.049584746 -0.17926715
000170 e0 70 dd 3d e2 88 3e 3e e0 ce 59 bd b0 e6 e9 3c
       0.10812545 0.18606904 -0.053175807 0.028552383
000180 9c 4c e5 3d 55 da 08 be 5b b5 01 be 50 35 84 bd
       0.11196253 -0.13364537 -0.12666838 -0.06455481
000190 dd d1 19 be a4 d9 02 be 30 f4 48 3b 36 ec 32 be
       -0.15021463 -0.12778336 0.0030663125 -0.1747292
0001a0 7f 20 02 3c 7a 14 2e 3f c0 42 98 3e f9 5b 9d 3c
       0.007942318 0.67999995 0.29738426 0.019208895
0001b0 2d 30 20 be 9d 85 ef bb f0 35 9a 3f 25 b2 d4 3d
       -0.15643378 -0.007309629 1.204771 0.10385541
0001c0 06 d4 1a be 99 95 41 3d 36 58 18 be d5 d4 8c 3b
       -0.15119943 0.047261808 -0.148774 0.0042978325
0001d0 03 26 11 3e d9 6b cf bd b5 df 30 bb d4 60 59 bf
       0.14174657 -0.10127992 -0.0026988809 -0.84913373
0001e0 11 e6 9b 3e 20 db c7 bc d9 67 86 3e 7d c2 d3 3d
       0.30448964 -0.02439648 0.26251104 0.1033983
0001f0 f1 30 f5 bd f4 a9 44 bd 2f cb 2b be 7b d4 c7 3f
       -0.119722255 -0.048013642 -0.16776727 1.5611719
000200 41 ff e4 3c 05 5b a0 3c b5 6c 01 be ee 59 4d be
       0.027953746 0.019574651 -0.12639125 -0.20053837
000210 e1 3d 71 3c 30 3f 9e 3c c6 f2 35 be 68 36 9d 3d
       0.014724226 0.01931724 -0.17768392 0.07676393
000220 e9 d6 e8 bf 3c 7e 80 be e9 22 dd bd c3 66 fa bc
       -1.8190585 -0.2509631 -0.10797674 -0.030566579
000230 2a 61 07 3e b1 78 98 bd d4 f2 71 bd 67 3b 00 3e
       0.13220659 -0.07444895 -0.05906947 0.1252266
000240 d2 7a 8c 3f c4 58 88 bd 9b 13 b4 3d 5d 5c d3 bd
       1.0974982 -0.06657556 0.08792802 -0.10320351
000250 17 db 01 3e ea e2 ac 3b b6 7a 60 be 6e 79 97 bd
       0.12681232 0.0052760737 -0.2192181 -0.07396208
000260 e8 32 3f bd 1c 77 33 c0 7e dd 91 bd ca 24 6b 3a
       -0.046679407 -2.8041449 -0.071223244 0.00089700206
000270 28 32 a0 be bb d1 db be 9b a5 bd 3b 36 9b 40 bd
       -0.31288266 -0.4293345 0.005787564 -0.04702302
000280 66 db 72 bd 26 a8 92 3f 31 1e 96 3d 5e d7 f8 bb
       -0.059291266 1.1457565 0.07329977 -0.007594033
000290 dc 69 4b 3c 14 26 ac 3c fe c8 33 3c db 3b 2e be
       0.012415376 0.02101425 0.010973213 -0.1701502
0002a0 bd 5b 1f 3d 56 8c 81 3d bf 05 11 c0 76 d7 49 be
       0.038905848 0.06325595 -2.2659757 -0.19711098
0002b0 bb 04 f9 39 a6 bb 8e bf f3 98 01 bf 90 85 f4 3d
       0.00047496505 -1.1151016 -0.50624007 0.119395375
0002c0 27 2f 30 bd fd b8 bd bb 39 d5 70 3f 4a ca 5b 3d
       -0.043013718 -0.0057898746 0.9407535 0.053659715
0002d0 6a 3b e7 bd a6 ff 9e bc eb 5e 86 bc 08 e6 51 3c
       -0.11290629 -0.019409012 -0.016402682 0.012811191
0002e0 ba 75 ad 3c 90 b6 d0 3d e4 fa 49 bc 3b 0e 0c 3d
       0.0211743 0.10191071 -0.012327883 0.03419326
0002f0 49 76 58 be 9d 5f 29 bd c1 75 86 3d 0a c6 0c be
       -0.21138872 -0.04135095 0.065654285 -0.13747421
000300 00 5a 32 3e 7f 2a d7 bc 15 27 00 3d 18 33 f4 3d
       0.17417145 -0.02626538 0.03128727 0.11923808
000310 21 3d 66 be 0d ad 62 be 83 68 2c bd a6 68 f3 3d
       -0.22484256 -0.22136326 -0.042091858 0.118851945
000320 0c 80 7e bc be fc a0 3e 21 b3 11 3e 88 5b 34 bc
       -0.015533458 0.31442827 0.14228489 -0.011008151
000330 61 6b 2f bc 65 1f 0f bd da 80 11 39 14 08 31 bc
       -0.0107067535 -0.03494205 0.00013876279 -0.010805149
000340 f5 1b 2e 3b e0 be 3e bd ef 85 bb bd 6d f9 78 3b
       0.0026566957 -0.04656875 -0.09156405 0.0037990466
000350 95 c0 01 40 02 8c 4c be 6b c6 71 3c cc 49 e1 bd
       2.0273793 -0.19975284 0.014756779 -0.11000404
000360 52 c3 23 3e 1b 40 cd 3b 7e e8 ab 3d 9c ca 0c be
       0.15992478 0.0062637455 0.08393954 -0.13749164
000370 ad f6 7c 3d 98 4f 85 bd 94 2e 13 3e 00 b9 ca 3d
       0.061758686 -0.06509322 0.14373237 0.09898567
000380 c0 16 9b 3d 28 82 69 be 12 09 a5 bd 46 dd f4 bd
       0.075726986 -0.22803557 -0.08058371 -0.11956267
000390 f8 bc 90 bd ae e1 92 bd b6 32 07 3e d8 b7 46 bd
       -0.07067293 -0.07171951 0.13202938 -0.04851517
0003a0 70 35 c6 bc 00 ca dd bc 32 3b 77 be da 39 73 be
       -0.024195403 -0.02707386 -0.24143675 -0.23752537
0003b0 e0 cc eb bb 08 2d 4f be c4 a0 86 bd 34 e5 52 3e
       -0.007196054 -0.20232022 -0.06573632 0.20595247
0003c0 d0 9f 43 3d e6 38 e5 bd 32 d7 6e 3e 34 d2 4d 3e
       0.04775983 -0.11192493 0.23324278 0.20099717
0003d0 54 f3 44 be 40 e7 4a 3e d0 fa be 3d 1e cc 39 be
       -0.19233447 0.19814777 0.093251824 -0.18144271
0003e0 7c 61 21 bd f0 4b 7d bc 28 8b 74 be 77 fc 45 be
       -0.03939961 -0.015459999 -0.23881209 -0.19334589
0003f0 5e ae 59 3e 02 72 65 3e 34 2a 44 3e 3f d2 a5 bf
       0.21257922 0.22406772 0.19156724 -1.2954787

models.524263.layers.0.bias f4 [64]
000000 d4 ba 4c bd 03 cc 5c be 82 6a d8 3d 4c d0 dd be
       -0.04998286 -0.215622 0.1056719 -0.4332298
000010 2c 9d 02 3e 12 01 c9 bd ac 37 73 3c cb 1b 00 be
       0.12755269 -0.09814657 0.014844816 -0.12510602
000020 52 58 ff bb 07 a0 cc bd e4 64 41 3d f0 2e 80 be
       -0.007792511 -0.0999146 0.047215357 -0.2503581
000030 3d 6b 5d bd 84 d2 66 be d2 75 13 be b2 4a 87 be
       -0.05405735 -0.22541243 -0.14400414 -0.26424176
000040 d8 4e 9f bc 99 35 35 3e 15 25 3b be e5 a9 8c be
       -0.019446775 0.17696227 -0.18275864 -0.2747337
000050 82 0e 89 be 6a 0b 2e be 40 52 6e 3d b6 d0 69 3c
       -0.2676888 -0.16996542 0.05818391 0.014270952
000060 6a d1 98 3d e2 f1 9c be a1 3c 13 bd d6 73 0e bd
       0.074618176 -0.30653292 -0.035946492 -0.03477844
000070 88 02 81 bd c0 cf 68 be b8 43 cd 3d c6 14 fc 3c
       -0.06299311 -0.227355 0.10022682 0.030771624
000080 4c c2 18 be 87 0a 9f be fa 77 05 3e 48 02 09 3e
       -0.14917868 -0.3106272 0.13034049 0.13379776
000090 16 67 29 be 42 8e c6 be 8b 31 8d be 4c ea 51 be
       -0.1654323 -0.3878041 -0.2757686 -0.20499533
0000a0 8c 1f ce bd 01 ae 43 be b3 ef b9 be 3c 39 c9 3a
       -0.10064611 -0.19109346 -0.36315688 0.001535214
0000b0 66 d7 31 be 80 0b 40 3d 35 2c ce bd 10 b6 8e 3c
       -0.17367324 0.046885967 -0.100670256 0.017420799
0000c0 30 b7 93 be c0 a4 e8 bc 59 ef 69 bd 40 84 25 3e
       -0.28850698 -0.028398871 -0.057113025 0.1616373
0000d0 91 b3 7d be 3d 48 0b be 74 a4 aa be 1b 62 43 3d
       -0.2477553 -0.13601775 -0.33328593 0.047700983
0000e0 24 ce 31 be 12 6b 60 3e c3 2b 9d be 8a ca a0 be
       -0.17363793 0.21915844 -0.3069745 -0.31404525
0000f0 92 25 14 be 2e 4e 95 bb 29 9a 3c be 2c 09 00 3e
       -0.14467457 -0.004556439 -0.18418182 0.12503499

models.524263.layers.3.weight f4 [32, 64]
000000 58 a4 62 bd b3 72 bc bc 9b 02 41 3e fb 18 ce 3d
       -0.05533251 -0.023003912 0.1884865 0.100633584
000010 f4 a0 8f 3d 8c 3a 86 bd b1 46 a9 3d 1c a5 e9 3c
       0.07013121 -0.06554136 0.082654364 0.028521113
000020 52 37 d0 bd 0d 50 d2 3d 45 28 b4 3e 3e 99 15 3a
       -0.101668015 0.10269175 0.35186973 0.0005706734
000030 e1 54 be 3e b0 d1 03 bd c8 2c f0 bd 1c 51 90 bd
       0.37174132 -0.032182395 -0.11727291 -0.070467204
000040 f8 b3 03 3d 2b 78 62 be ad 70 3d 3e 8e f2 80 bc
       0.032154053 -0.22116153 0.18500014 -0.01574066
000050 dd 14 16 3d 89 fb 1f be e0 2f 9b 3b df 93 23 3e
       0.03664099 -0.15623297 0.0047359318 0.15974377
000060 71 1b 98 be 4e 14 ca bc a6 8e 70 bd 7a f9 81 be
       -0.29708436 -0.024667885 -0.05872979 -0.25385648
000070 a0 3e fc bc 79 9c 50 be 80 18 82 3a 3a bb 9f bd
       -0.03079158 -0.2037219 0.0009925514 -0.077993825
000080 f2 08 6c 3c 25 8c 89 3d 90 b3 f8 bd af a5 cc bd
       0.01440643 0.067161836 -0.12143624 -0.09992539
000090 03 4c 7e bb 72 43 dd bd c9 68 8a bc 8c 5c 4c 3d
       -0.003880263 -0.1080388 -0.016895669 0.049892947
0000a0 f0 70 b6 bd e8 2b ac 3c 02 79 54 bd 26 c2 45 3d
       -0.0890826 0.02101703 -0.051873215 0.048280858
0000b0 86 64 8a bd 9e 4e ed 3d cf 79 0b 3e 26 ff d2 3d
       -0.067574546 0.11587261 0.13620685 0.10302572
0000c0 91 cc 87 3d 7a a7 f2 3d b4 12 b7 bd 60 a8 d0 bc
       0.06630815 0.1184835 -0.08939114 -0.025470912
0000d0 bb b9 c0 3d de 7a 42 bd 5b 45 8c bd 1c 5e cc 3b
       0.09410425 -0.047480457 -0.06849166 0.0062368046
0000e0 ec a8 47 be 6e 61 c7 bd f1 43 bd 3d 4d 9b c7 3d
       -0.19498032 -0.0973538 0.092414744 0.09746418
0000f0 67 70 8a 3d 69 ef 41 be fd 00 df 3d ec 64 b2 bd
       0.0675972 -0.18938984 0.108888604 -0.087106556
000100 90 b8 39 bd b5 8f ea 3d cc 09 be 3e 6e 6d 4e 3d
       -0.04534203 0.11453191 0.3711685 0.05039733
000110 90 3e c2 bc 18 12 ff 3c 8c 76 6d 3d aa 73 46 bd
       -0.023711473 0.031136557 0.057974383 -0.04845015
000120 4f c5 0e be 4e 58 91 bd b0 93 19 3f 7f 5e 3c 3e
       -0.13942455 -0.07096921 0.5999098 0.18395422
000130 a1 11 ff 3e ec bd bc bd 48 8b 94 3c 4c 64 89 3d
       0.49818137 -0.09215912 0.01813282 0.06708583
000140 a2 18 a6 3d 87 ed d8 bd 87 4f 94 bc aa b9 da be
       0.08110167 -0.1059218 -0.018104328 -0.42719775
000150 d3 a0 95 bd 33 bb ef 3b 38 cb 5d 3d 8a 6a dd bd
       -0.073060654 0.007316017 0.054148883 -0.10811336
000160 04 7e 68 be ec d0 5a 3d ad ea 24 be 4d f9 e6 3c
       -0.22704321 0.0534219 -0.16105147 0.028195048
000170 5e 07 c5 3d 44 75 e8 bd 72 06 df 3d 68 f8 14 3f
       0.09620546 -0.11350492 0.10889901 0.5819154
000180 c9 ed 06 be 41 7d 87 bb 32 b6 a5 3d 07 36 74 3e
       -0.13176645 -0.0041348045 0.080913916 0.23848735
000190 ce e2 ef 3d cb b9 78 be b4 75 8e 3d 64 11 ca 3d
       0.117131814 -0.24289624 0.06956044 0.09866598
0001a0 50 04 fa 3c 14 04 f0 bd 48 7b 18 3d b0 22 f1 3d
       0.030519634 -0.11719528 0.037226945 0.11774194
0001b0 d0 3c 91 bd 24 11 ff bd 08 99 5a 3c 88 55 c0 bd
       -0.07091677 -0.12454441 0.01334215 -0.09391314
0001c0 ea 21 f4 bc ee 22 ce 3d c5 d9 ab be 30 c4 13 bd
       -0.029801328 0.10065256 -0.33564582 -0.03607577
0001d0 45 52 ab 3d fb ad c3 bd 2d 41 7b 3d dc 12 a0 bd
       0.08365301 -0.095546685 0.061341453 -0.07816097
0001e0 c9 aa f1 bd 14 88 43 3d 1a f3 99 bd 76 b2 1f 3d
       -0.11800153 0.047737196 -0.07517071 0.038988553
0001f0 05 e5 97 3d 07 f7 ae bd b2 ec 5a 3d 66 db e5 bd
       0.07416729 -0.085432105 0.053448386 -0.112234876
000200 e8 ea ae bd 01 32 2c 3d a3 d2 a1 3e 8e 5f aa bd
       -0.085408986 0.042039875 0.31606016 -0.08319007
000210 6c ad 68 bd ac 55 88 3d 8b 38 9f bd 80 de 60 bd
       -0.056806013 0.066569656 -0.077744566 -0.054899693
000220 8a db 89 3d d4 89 97 3e c4 eb 21 3f e3 3e 44 3e
       0.06731327 0.29597342 0.63250375 0.19164614
000230 d9 ab 65 3c ea 2c fb bd 34 a4 91 bd ae 66 75 bc
       0.014018022 -0.12264426 -0.071113974 -0.014978094
000240 1c 20 83 3d aa 27 8f 3e 06 eb 22 bf 9f be 14 3d
       0.06402609 0.2795995 -0.6363987 0.036314603
000250 37 2e ae 3d 75 09 0f 3e 00 84 c2 bd 42 ae d5 be
       0.085049085 0.13968451 -0.09497833 -0.4173451
000260 55 de 0b 3d 2b e8 7f 3d 91 3a a2 3d e0 0e c3 3d
       0.03414758 0.062477272 0.07921327 0.095243216
000270 ee 64 d0 3d 88 58 46 3e d2 87 c6 bd 60 c1 0b 3f
       0.10175501 0.1936971 -0.096938744 0.5459194
000280 64 06 52 3d c3 6e 12 3c d4 f6 5b 3d 09 89 24 3f
       0.051275626 0.00893754 0.05370219 0.642716
000290 5f 94 34 3e e9 26 c6 bd 9e fb 16 be a0 ed 55 bd
       0.17634724 -0.0967539 -0.14744422 -0.05222857
0002a0 40 70 f8 3d 94 e5 99 3d b2 17 98 bd 80 1a 3a 3c
       0.12130785 0.07514492 -0.074263945 0.011358857
0002b0 bc 0e d0 3c a4 98 1b 3d 2e 1a b9 bc 48 e2 f2 3d
       0.02539765 0.037987366 -0.022595491 0.11859566
0002c0 01 a6 91 be da 1d c8 3d aa d3 d9 3c 80 e5 ee 3b
       -0.28446963 0.09771319 0.026590187 0.007290542
0002d0 f4 6f af 3d 7a 61 d9 3d d8 35 9c 3d 48 e4 9b 3e
       0.08566275 0.10614295 0.076274574 0.30447602
0002e0 82 80 15 3e 8c 38 c5 3d 26 2d 84 bd f8 a2 94 bd
       0.14599803 0.09629926 -0.06453924 -0.07257646
0002f0 7f 9c 93 be f8 7a a5 be 93 b2 39 bd 1c 56 a0 bd
       -0.28830335 -0.3232038 -0.045336317 -0.07828924
000300 ec c3 0a 3d 47 4c ab 3c d4 41 e2 3e 5b 2e 8d 3d
       0.033878252 0.020910395 0.44190848 0.06893607
000310 18 4e 88 bd 88 11 8e 3c b7 0d 6b bd 1b d1 31 3c
       -0.0665552 0.017342344 -0.057386126 0.010853077
000320 bf fd c8 3c 0f 7a 80 3e 10 cf 32 3f 4e 9f 35 3e
       0.024535058 0.25093123 0.698472 0.17736551
000330 1e 91 a1 bc a4 62 d1 3d ec 1c 79 3d a7 e2 43 bd
       -0.019722518 0.10223892 0.060818598 -0.047823574
000340 26 ca 9a 3d 43 e8 47 3e b5 cc 9a be ed 5a 48 bd
       0.07558088 0.19522195 -0.30234304 -0.04891484
000350 65 c7 66 bc 3d 70 b3 3d 86 d0 f6 bd 7d 28 44 be
       -0.014085625 0.08761642 -0.120514914 -0.1915607
000360 9f 13 15 3e 84 6e c3 bd ca 24 1a bc 54 f2 38 3c
       0.14558266 -0.095425636 -0.009408185 0.011288244
000370 7c b2 9a bd b7 df a5 3e d2 be 88 bd 24 13 2e 3f
       -0.075535744 0.32397243 -0.06677021 0.67997956
000380 3a b0 7c bb 17 9c b6 bb d8 48 fd bc a0 f1 69 3f
       -0.0038557188 -0.0055728066 -0.030918524 0.91384315
000390 39 cc b1 3d 0d f1 84 3d 19 40 02 be a4 65 dc bd
       0.086815305 0.06491289 -0.12719764 -0.10761574
0003a0 ac 86 47 3d 6c 04 e0 3d 2e 71 ac 3d 5d 9a 22 bd
       0.048712417 0.109383434 0.08420025 -0.039697994
0003b0 d3 d4 8f 3b ac 10 3b bd bb 78 c4 bd 34 b9 60 bd
       0.0043893843 -0.045670196 -0.0959334 -0.054864123
0003c0 8a 92 0c be 70 cd 78 bd 66 09 a0 b9 28 cf 3e bd
       -0.13727775 -0.060742795 -0.0003052458 -0.04658428
0003d0 8d 67 28 3d 44 dd d7 3d f9 e5 81 bc 4d 45 a0 3e
       0.04111438 0.1054025 -0.01585673 0.31302872
0003e0 46 49 f3 3d 88 46 30 3d 1d e4 10 3d 73 16 df bc
       0.1187921 0.043036014 0.035373796 -0.027232384
0003f0 13 39 80 be dd 84 93 bd 57 01 72 3d 90 60 0c bd
       -0.25043544 -0.07203076 0.05908331 -0.034271777

models.524263.layers.3.bias f4 [32]
000000 6d 8f 3a 3d 6e 1c 21 3e e3 c0 f2 bd 05 80 39 3d
       0.045546938 0.15733501 -0.118531965 0.045288105
000010 40 3d 90 3e 3d 77 3e 3d b7 d8 d6 3d 83 74 c0 bd
       0.2817173 0.046500433 0.10490554 -0.09397223
000020 26 fd 76 3d 31 9a ba bc c7 e2 0a 3d 29 84 b7 3d
       0.060300015 -0.022778602 0.033907678 0.089607544
000030 d2 8a 05 bd ba 6d 50 bc 6e f6 22 be a8 83 60 3d
       -0.032603092 -0.012721473 -0.15914318 0.054813057
000040 a3 00 a2 3d b9 09 65 bd bd 41 89 3d 03 15 e0 3d
       0.07910278 -0.055917475 0.06701992 0.10941508
000050 08 4b 1c be 16 35 e2 3d a9 ae 48 3c 0e a9 1d 3e
       -0.15262997 0.110452816 0.0122486735 0.1539652
000060 d1 bd e5 3d e9 e1 90 3e 27 f0 2f bd a4 52 1c 3d
       0.11217845 0.28297356 -0.042953636 0.03816475
000070 8b 76 ae 3d ec e5 ae 3d 99 96 0f be 69 0d 41 be
       0.08518704 0.08539948 -0.14022292 -0.18852772

models.524263.layers.6.weight f4 [16, 32]
000000 3d 3a 3a be f2 85 fc bd 7d 9d 51 3d 35 d4 29 be
       -0.18186279 -0.123302355 0.051175583 -0.16584857
000010 1a dd 28 be f5 52 e7 bd ba 5a b9 bd 28 33 ea bd
       -0.16490594 -0.1129512 -0.09050508 -0.114355385
000020 75 03 99 3d b8 36 ca 3d 23 32 42 be 1c 9d a3 3a
       0.074713625 0.09873718 -0.18964438 0.0012482735
000030 4c 71 6c be 97 77 8f bd d3 1a e9 3d 37 82 0e 3d
       -0.23090094 -0.07005232 0.113820694 0.03479215
000040 cb fa 5e 3c 17 0e c0 3d 99 58 bf 3c ff 5f 15 bd
       0.013609598 0.093776874 0.023357676 -0.036468502
000050 d0 96 a6 bd cd 4c d8 bd c5 d8 96 3b 93 33 11 be
       -0.08134234 -0.105615236 0.0046034777 -0.1417983
000060 44 3f 14 be 49 08 87 bc a0 b0 92 3c a2 80 1e be
       -0.14477259 -0.016483443 0.017906487 -0.15478757
000070 63 bc 9a bd 6a 47 29 be 54 67 b5 bd 09 12 a7 bd
       -0.07555463 -0.16531149 -0.08857599 -0.08157737
000080 34 ea 72 be 02 26 a8 bd 54 a1 29 3d 3d c7 ec be
       -0.23722154 -0.082103744 0.04141362 -0.46245757
000090 e8 84 52 3e c1 6a 56 be 7c f5 6f 3e f0 f7 ba be
       0.20558512 -0.20939161 0.23433489 -0.36517286
0000a0 92 28 f0 bd 09 70 b8 bd 8f 7f 0e 3e 49 d9 13 3c
       -0.11726488 -0.09005744 0.13915847 0.009023973
0000b0 f3 70 c6 bd c8 8b a6 bc 03 1f 93 be 81 4d 27 3e
       -0.09689512 -0.020330325 -0.28734598 0.16338159
0000c0 5e 72 c8 bd 35 4c 36 3e 70 58 df be 90 c9 35 be
       -0.09787439 0.17802508 -0.4362216 -0.17752671
0000d0 09 b8 a4 bd 77 3a 6b 3e c7 d7 17 be 49 a9 dd 3e
       -0.080429144 0.22971521 -0.14828406 0.43293217
0000e0 de 79 85 be 37 ab 4c 3d 70 9a ad be e5 80 ab be
       -0.2606954 0.04996797 -0.3390689 -0.33496776
0000f0 1b 67 b5 3c da 4c 8a be d5 d8 74 be 3d 4b 20 bf
       0.022143891 -0.27011758 -0.2391084 -0.62614805
000100 d3 e9 6b 3c c2 ca 08 3e 69 20 e4 3e ff 21 7a 3e
       0.01439901 0.13358596 0.44555977 0.24427031
000110 a6 93 7b 3e 8d 01 1c 3e 88 6f 62 3e 98 2a e5 bd
       0.24568042 0.15234967 0.22112858 -0.11189765
000120 e3 7a 3b 3e 59 18 78 3e a7 c2 01 be 14 b6 25 3e
       0.18308596 0.24228038 -0.1267191 0.16182739
000130 2c ce f8 3e 7e aa 55 3e 9a 23 99 3e 89 db 38 3d
       0.48594797 0.20865819 0.29909974 0.04513124
000140 12 34 35 bd 36 2e 00 3e 5c 5c 82 bd c1 33 70 3e
       -0.04423911 0.12517628 -0.063652724 0.23457243
000150 cc af fb bd 86 d9 86 be d6 2f 3b 3e 5c 43 df 3d
       -0.1228939 -0.26337832 0.18279967 0.1090152
000160 5c 33 36 3e a0 e6 e0 3e fc 89 87 3d 11 42 ec 3d
       0.1779303 0.43925953 0.06618115 0.11536039
000170 cd ca 3d 3e b0 e5 f5 3e 99 17 f0 3e 37 79 1f 3f
       0.18534394 0.480268 0.46893004 0.62294334
000180 bc 05 72 be 58 d1 34 be e3 78 88 3d 24 f2 b7 be
       -0.23635 -0.17657983 0.06663682 -0.35926926
000190 22 50 92 3d 86 1a db 3d 08 d4 42 3d 09 93 bf bd
       0.0714419 0.10698418 0.04756549 -0.093542166
0001a0 0f 8d 46 bd c7 b4 e5 bd 00 e2 76 3e 85 11 5b bd
       -0.048474368 -0.11216121 0.2410965 -0.053483505
0001b0 6c 01 7c be 2e 89 30 bd 8a df 82 be 06 2e 33 3e
       -0.24609917 -0.043099575 -0.25561172 0.17498025
0001c0 5c c7 58 be cb f5 16 3e 42 09 86 be 84 49 fa bd
       -0.211698 0.147422 -0.26178938 -0.12221053
0001d0 7b 18 f5 bd 30 b6 f0 3d dc 1d a0 3d a3 64 b2 3e
       -0.1196756 0.117534995 0.07818195 0.34842405
0001e0 cd 78 a4 be 39 a5 73 3c 87 58 7c be 01 2f d7 bd
       -0.32123414 0.014870935 -0.24643146 -0.10507012
0001f0 5d d0 d1 bd c0 52 bc be 1d 8f 01 be 8f cf 8a be
       -0.1024482 -0.36781883 -0.1265225 -0.2711148
000200 ae 4a 9a be a1 9e 85 bd df 0e 35 be 19 81 81 be
       -0.301351 -0.06524397 -0.17681454 -0.25293806
000210 78 6c 9a 3e a6 c8 84 bd a1 39 8d 3c db a3 68 be
       0.3016088 -0.06483583 0.017239394 -0.22718756
000220 e9 55 87 be 9e ae 4f be 94 3c 34 3e 72 09 31 3c
       -0.26432732 -0.20281455 0.17601234 0.010805475
000230 bc 70 34 be 84 c0 02 bd 48 9a a4 be a9 a0 a0 3e
       -0.1762113 -0.03192188 -0.32148957 0.31372574
000240 78 ae 09 be bc 8c f5 bd cb 85 a6 be 05 97 19 bd
       -0.13445461 -0.119897336 -0.3252395 -0.03749754
000250 a8 c2 31 3d 65 3c 03 3d f6 82 c4 3c 5c db 3d 3e
       0.04339853 0.03204002 0.023988228 0.1854071
000260 70 ce 03 be 4f ca d2 3c 26 8c a7 be b7 d5 73 be
       -0.12871718 0.025731234 -0.32724112 -0.23811994
000270 23 38 6b bd f8 8c 34 be de 3d a6 be bb 3a eb be
       -0.057426583 -0.176319 -0.32469076 -0.45943245
000280 74 36 2d 3c 1f 4b 2c 3e 6d fb 1a 3e ad d7 2d 3d
       0.010572065 0.16825531 0.15134974 0.042442013
000290 ec ad 40 3e 86 39 00 bd 36 34 ac 3d 0f 82 7e bd
       0.18816346 -0.03130486 0.08408396 -0.062135752
0002a0 c3 7d 27 3e ed 34 57 3e ee 14 18 be cd 87 be 3c
       0.16356568 0.21016283 -0.14851734 0.023258114
0002b0 e2 19 da 3e 53 d0 f7 3d ba 19 ca 3e 0b 8b ac 3d
       0.42597872 0.121002816 0.39472753 0.08424958
0002c0 e1 ba 68 3e f7 90 35 bd 83 db 00 be ab 5a 0c 3e
       0.22727539 -0.044327702 -0.12583737 0.13706462
0002d0 3d 03 3b bd a9 fb 41 be 27 cf 7e 3e ff c1 cf 3e
       -0.045657385 -0.18943657 0.2488371 0.40577695
0002e0 99 6d be 3d c9 29 f5 3e ab 29 16 3d 9e d7 92 3d
       0.09298248 0.47883442 0.03666083 0.07170032
0002f0 52 77 5f 3e cf ec 00 3f 75 6a 41 3e be a5 99 3e
       0.21822861 0.5036134 0.18888266 0.30009264
000300 bb 07 f2 bb 60 88 c6 3c 0b 3a 8b 3e 1f bd 2d 3e
       -0.0073861754 0.02423495 0.2719272 0.16966675
000310 6e a1 d7 3c 51 46 23 3e 1b 95 be 3d 4d 5a 85 bd
       0.026322093 0.15944792 0.09305783 -0.06511364
000320 8a 1d 7c 3e 1b cd 7c 3e 34 37 9e bd db 6a 27 3e
       0.24620643 0.24687617 -0.07725373 0.16349356
000330 6c 19 7f 3e 92 6c c5 3d 93 2f 6e 3e 5c 93 e6 bc
       0.24912041 0.09639849 0.23260336 -0.028146438
000340 7c 69 1c 3e df a3 4c 3d 66 25 16 bd 46 04 65 3d
       0.15274614 0.049960967 -0.03665676 0.05591228
000350 06 7f c4 bd 21 79 57 bd 4b 81 5a 3e ed 4d 62 3e
       -0.0959454 -0.052605752 0.21338384 0.22100039
000360 32 19 82 3e 41 97 1d 3f b6 75 fa bd c6 2e 49 3e
       0.25409847 0.6155892 -0.12229483 0.19646749
000370 b5 99 ca 3b b5 90 00 3f 4c 79 96 3e 8a 44 0f 3f
       0.006182874 0.50220805 0.29389417 0.5596396
000380 ac 5a 7c be ee 0f 67 be c6 8f 3e 3d 77 ec ac bd
       -0.24643964 -0.2256467 0.04652383 -0.084435396
000390 e9 6f 6e 3d e5 95 82 3c a6 67 96 3d 8c 1e 59 be
       0.058212195 0.015940616 0.07343988 -0.21203059
0003a0 f6 90 06 be 85 4d 21 bc e3 b0 2c bd 13 4f 9a bd
       -0.13141236 -0.009845142 -0.04216088 -0.075346135
0003b0 8a b1 a5 bd fb cd 0f be 10 90 cb bd c2 09 6a 3e
       -0.080905035 -0.14043419 -0.09939587 0.22855285
0003c0 d0 c5 64 bd c8 ec 12 be 37 dd 36 be bd 4c ca bc
       -0.05585271 -0.14348137 -0.17857824 -0.024694795
0003d0 f5 cb 08 be ab 98 d7 3d 67 2a 22 be a3 90 c8 3e
       -0.13359053 0.10527166 -0.15836488 0.3917285
0003e0 dd 57 9f be 3d 65 6b bd 68 26 b8 bd ca 2b 35 3c
       -0.31121722 -0.057469595 -0.089917004 0.011057803
0003f0 5c 5f c7 bc f4 7c 31 be 37 ad 22 3e 4b 14 1b bd
       -0.024337463 -0.17332822 0.15886389 -0.03786115

models.524263.layers.6.bias f4 [16]
000000 59 23 d4 bd ee cf 68 3e 80 45 85 3e 53 2f 96 3e
       -0.103583045 0.22735569 0.26029587 0.2933298
000010 94 81 ce 3e ba c5 02 3e 00 62 4f 3e 48 da e5 3d
       0.40333235 0.12770739 0.20252228 0.112232745
000020 73 04 07 3e 00 35 e8 3e 8e be 53 be 7b 96 ac 3e
       0.13185291 0.45352936 -0.2067816 0.33708557
000030 e6 e8 91 3e 40 b3 9c 3e 7d de 2c 3e 37 30 96 3e
       0.28498 0.30605507 0.16881748 0.2933366

models.524263.layers.9.weight f4 [1, 16]
000000 f9 1c 57 3d a3 8f fa 3e e2 34 99 be 69 fc 11 3f
       0.052517865 0.4893771 -0.2992316 0.5702577
000010 81 ab f0 3e 8d 59 f6 be 4c 81 04 bf 04 c6 e2 3e
       0.47005847 -0.48115197 -0.5175979 0.442917
000020 3a fe 88 be 22 7b d8 3e dc 18 fb be 47 0c 12 3f
       -0.2675646 0.42281443 -0.49042404 0.57049984
000030 3c 02 ef 3e c2 f7 84 be 4d 83 81 be 9b a8 05 3f
       0.46681392 -0.25970274 -0.25295487 0.52210397
