models/Ensemble/antipion.pt (torch, 73127 bytes, 28 tensors)

models.524287.layers.0.weight f4 [64, 19]
00000000: 71ac 5a3e b6bb a13d 66df c4bd 0b39 473e
00000010: a8f5 a9bc ac72 98bd d5ec 60be 6e3b bb3d
00000020: eab3 30be 7aca a43d 1021 d2bc 295f 063e
00000030: 2275 07be 30e4 15bc 5ade 0cbe 3c9b bfbd
00000040: bd94 693e a23e 59be 8a5b 4bbe 783c 06c0
00000050: 5bcc babe 9458 92bb 5578 e8be 72f9 e5be
00000060: 24a2 7d3d a990 65bd 1ad9 dd3d 6eba 09bd
00000070: c184 01bd 32a1 493f c2cd 0dbb ae66 aebd
00000080: 975b 27bd 4063 4b3d 4e19 af3b 64f7 413d
00000090: a1af a63e 9717 d8bc d4ab 373f e01e 9bbd
000000a0: a2ba b73a cf7d b2be da72 e93f 7a0b 87bd
000000b0: 1329 b8be 1ac4 ae3d 7139 d83b 1277 163d
000000c0: 2eaa 48bf 91b0 05be c22b e3bd ddc9 273c
000000d0: 67b9 8b3d 91bb 363a 7fe6 3b3c 7ae7 133e
000000e0: 7a36 dabd 5055 51bd 09e1 683e e576 0e3e
000000f0: 5f83 4c3e 2c8c 6a3d 9e0d 54be e471 45be
00000100: 3069 483c a8d6 5cbd a095 31bd d48c 04be
00000110: 70a0 26bd 9057 2a3c 008e efb9 ab71 013e
00000120: c8a4 2bbe 14f1 1b3d 7920 69be d971 2d3e
00000130: e6c1 3c3f f937 0fbb 4ff4 3abc 196a 07be
00000140: eb01 42be 5863 96bc 863e 39be d3b1 c4bd
00000150: 4fa5 d2bd 9ef3 763c b4eb 813f 0857 133e
00000160: 7e50 06bd f699 d8bd 68f0 82bd 6640 d43b
00000170: d55b 03be c7c4 53bd c9cc 8e3e 3f77 2fbd
00000180: 16a3 0c3e 0b66 6dbe 7805 533f d3ec 63bf
00000190: e2c1 893e 1f03 883e a66b 92bd cbf1 bbbd
000001a0: ef14 1f3d d602 963f cabf fdbd 64c1 4e3d
000001b0: 2fd3 13bd 5f42 8cbd 7952 3bbd 9836 41bd
000001c0: e9dc 58be 26c2 5d3e 56c4 c73f 858c 503c
000001d0: 3742 e9ba 5f14 cbbc 5356 a6bd e455 e7bb
000001e0: 0c17 85be b7f2 29bb 62f4 7c3d ed9c 623b
000001f0: 840c a93f d8c7 4dbd 1fa8 1fbc 3f7f 943c
00000200: cf3b 2e3d d482 eb3b c3ac a8bc 7b71 45bc
00000210: 4206 ae3c 6904 f7bd 80d7 99bd d45a 01be
00000220: 511a 613e 8e3b 94bd c0c5 65bc 4d34 453e
00000230: a5cc 47be 4a07 24be 7946 dbbd 3b4c 093e
00000240: a72a 31be 4236 c43d 5b3b 043e 5acd b8bd
00000250: 44a3 27be 09a0 23be 00f8 9abc b6d5 df3d
00000260: 61ad aabf 602e 7dbb 26da f93b d913 253f
00000270: fe7f 85bf 0496 1c3e bec2 753e 5ba4 e73c
00000280: a167 95bc 87a0 0cbd f11d 05bd 6a89 1abe
00000290: 9ecf 28bc b3e9 98bd 37a5 103e 6bb8 2cbc
000002a0: 57a7 abbc 57d5 e2bd 8ec9 eb3d dd55 b8bf
000002b0: 9411 883d 9937 c1bb 9f4c 1bbc 167d 3cbf
000002c0: 49e5 cc3c 5ac1 c3bc 8ea3 42bd 92dc 833a
000002d0: 6faf 083c 63cf 023f a4cc e93c 8f47 053e
000002e0: fb18 a13d 5496 ab3d becb c13b 0c4e e93d
000002f0: d4dc 1e3d eace 31bd a7a8 bd3d 3449 37bf
00000300: 5c9b f63b 80fb 91be 8fe2 b83d 6724 0fbf
00000310: 4b83 24bf 4f49 f63c 5829 973d 9bb8 58bd
00000320: fa63 6b3f 7f6d 49be fc46 c43d c20f a4bd
00000330: 6ec5 e23c 7d77 6d3c 0e7a 44bb 4403 8c3e
00000340: ca3c 66bc af48 063e 94c8 463d e17e 203e
00000350: dc31 06be 2937 203e 44c0 d9bd f44d 96bd
00000360: a0ca 58bd 671b 193e 839a 073e 9e2e b63d
00000370: c616 8a3d 33a2 123e a075 78bc a9c4 e4bd
00000380: 5757 3fbe 80bc 78bc d0eb 14bd e544 583e
00000390: 0635 eb3f 16b0 933e 45ab 0a3d 71f1 c93e
000003a0: db7a aabb bc64 fa3e e37c 733e bddd 80bb
000003b0: 0d17 913d 5f44 d23d 071f 11bf b3ff b5be
000003c0: 773a 583e cc10 463d 641b 023d b825 a6bc
000003d0: 03b2 a53c 188d 203e f9f0 1dbe 5fd8 c6bf
000003e0: 4113 14bf 6dbe fcbb 3f64 97bf eec0 1b3f
000003f0: 4b34 adbc d923 513e 7e95 8fbd d3fb fc3d
0.21354844 0.07897131 -0.09612922 0.19455354 -0.02074702 -0.07443747 -0.21965344 0.09142195
-0.17256132 0.08046432 -0.025650531 0.13122238 -0.13228276 -0.009148642 -0.13756695 -0.093557805
0.22810645 -0.21215299 -0.19859138 -2.0974407 -0.36484036 -0.0044661257 -0.45404306 -0.44916874
0.061922207 -0.05604616 0.108324245 -0.03362506 -0.031620745 0.7876159 -0.0021637534 -0.08515678
-0.04085883 0.0496552 0.0053435927 0.04735507 0.3255587 -0.026378436 0.71746564 -0.07574248
0.0014017413 -0.3486161 1.8238175 -0.06593986 -0.35968837 0.08533497 0.0065986444 0.036734648
-0.78384674 -0.13055636 -0.110923305 0.010240999 0.06822472 0.00069706986 0.011468529 0.1444377
-0.10654922 -0.05110675 0.22742094 0.13912542 0.19971989 0.057262585 -0.2070832 -0.19281727
0.01223211 -0.05391565 -0.043355584 -0.12944347 -0.04068035 0.010396853 -0.0004569143 0.12641017
-0.16762078 0.038071707 -0.22766294 0.1693796 0.73733366 -0.002185343 -0.011410787 -0.13224067
-0.18946044 -0.018357918 -0.18090257 -0.0960423 -0.10285436 0.015072731 1.0150056 0.14388669
-0.032791607 -0.10576241 -0.0639351 0.0064774035 -0.12828 -0.051701333 0.27890614 -0.04283833
0.13734087 -0.23183458 0.8243022 -0.8903324 0.26905733 0.2656488 -0.071494386 -0.09176978
0.038838323 1.1719615 -0.123900965 0.0504774 -0.036090072 -0.06848597 -0.04573295 -0.047171205
-0.2117802 0.21656093 1.5606792 0.012728815 -0.0017796223 -0.024789987 -0.08121934 -0.0070597995
-0.25994146 -0.0025932023 0.0617565 0.0034578398 1.3206944 -0.050239414 -0.009744673 0.018127082
0.042537507 0.007187227 -0.020590192 -0.012050982 0.021243218 -0.12061388 -0.075118065 -0.12632304
0.21982695 -0.07237922 -0.014024198 0.19258232 -0.1951166 -0.16018406 -0.10706801 0.13407986
-0.17301427 0.09580661 0.12913267 -0.09023543 -0.16370875 -0.15979017 -0.018917084 0.10929434
-1.3334161 -0.0038632378 0.0076248823 0.6448341 -1.0429685 0.15291601 0.2400007 0.028276613
-0.01823789 -0.03433278 -0.032499257 -0.15091482 -0.010303406 -0.074664496 0.14125524 -0.010542016
-0.020953817 -0.110758476 0.11513053 -1.4401203 0.06643978 -0.0058965203 -0.009478717 -0.73628366
0.025011675 -0.023895908 -0.04751926 0.0010060242 0.008342608 0.51097697 0.028539963 0.13015579
0.07866093 0.08378282 0.0059141805 0.113918394 0.038784817 -0.04341022 0.092606835 -0.71596074
0.0075258445 -0.28512192 0.090275876 -0.5591492 -0.6426284 0.030064253 0.073809326 -0.05291043
0.9194943 -0.19670676 0.09583852 -0.08010818 0.027682032 0.01449382 -0.0029979977 0.2734624
-0.014052579 0.13113664 0.04853113 0.156734 -0.13104957 0.15646042 -0.10632375 -0.07339087
-0.052927613 0.1495186 0.13242535 0.0889561 0.06742625 0.14319687 -0.015164763 -0.111703224
-0.18685661 -0.015181661 -0.0363577 0.21120031 1.8375556 0.2884528 0.03385474 0.39442018
-0.005202634 0.4890498 0.23778109 -0.0039326833 0.07084475 0.10266947 -0.5668797 -0.35546646
0.21116053 0.048355862 0.031764403 -0.020281658 0.020226484 0.15678823 -0.15423955 -1.5534781
-0.5784188 -0.00771313 -1.1827468 0.6084126 -0.0211431 0.20423831 -0.07010935 0.12352719

models.524287.layers.0.bias f4 [64]
00000000: 1872 d4bc e74c 1dbd 27ad 8fbe 6b37 1fbe
00000010: ce2c 9fbe 0de9 383c 86e9 5dbe 6c9c 30bd
00000020: 7600 77be 5666 8ebe 152f 20be d28b a33d
00000030: 6a45 80bd 4e7c bbbd 4232 de3d 9823 35bd
00000040: c7ff d7be 2cda 93be c855 51bc 5a8c 06be
00000050: 6092 3ebd 8064 543b 7c28 13be e71a 023e
00000060: dbb1 7bbe a7c0 043e bbaa 51bd f904 e6bd
00000070: eb84 b43d fd0b 4ebe a503 e03d d376 bdbe
00000080: de33 d73d 7ed5 213e ae65 9fbe e1f3 593e
00000090: e182 5c3e 667d 02be 369e 6abd 21bb 873d
000000a0: 9b7a 223e c680 7fbe 7a5e 253e 35bc 4d3e
000000b0: 0491 283e 5f5c f4bd d6bf 19be 0abe 6fbe
000000c0: 5be1 67be 6e05 f33d 47bc 3bbe 1750 63be
000000d0: abcb 133d fd6e 283c cc93 35be 3ceb 60be
000000e0: 88f3 b7be c5d0 cebe 8c74 bfbd b6fe d43d
000000f0: c9ae 80bd d800 68bd 6ceb 343d d223 e6bd
-0.02593331 -0.038403418 -0.28061792 -0.15548484 -0.3108887 0.011286032 -0.21671113 -0.043117926
-0.2412127 -0.2781245 -0.1564296 0.07985653 -0.0626324 -0.091545686 0.1084943 -0.044223398
-0.4218733 -0.2887739 -0.0127767995 -0.13139477 -0.046526313 0.0032408535 -0.14370912 0.12705575
-0.24579565 0.12964116 -0.051188212 -0.11231417 0.088144146 -0.2012176 0.10938195 -0.37004718
0.1050794 0.15804097 -0.31132263 0.21284439 0.21534301 -0.12743148 -0.057279788 0.06627489
0.15867083 -0.24951467 0.16149321 0.20091327 0.16461569 -0.11931681 -0.15014586 -0.23412338
-0.2264456 0.1186627 -0.18333541 -0.2219852 0.036082905 0.010280368 -0.17732161 -0.21964735
-0.35927987 -0.40393654 -0.093484014 0.10400145 -0.062833376 -0.05664143 0.04416983 -0.11237301

models.524287.layers.3.weight f4 [32, 64]
00000000: 94c5 933d 086d aebc ce0f bebd 5cca d5bd
00000010: 53eb 4c3e bb4d 813c 3e61 0d3f 5092 84bd
00000020: 0279 fcbc 69d4 20bd 9e06 043e 8010 b5ba
00000030: edd0 563d 9703 b9be b0ad 693d dcf9 133d
00000040: 96a1 b2bd cd6f 073e 2aae 3e3e 5f3a cdbd
00000050: c8a3 9c3c 340a ab3d 18a4 333e b474 e5bd
00000060: 03af 13bd 401e ef3c 2f29 163c aaf3 1cbd
00000070: d3d9 053d ebbf cfbd 56cf 7b3f 3edc 37bd
00000080: 7654 103e a9c9 a23c b95a c1bd f6b2 e4bd
00000090: 2215 8dbd 9f08 93bd a04c 1fbe b1eb 92be
000000a0: 8c61 3bbd f53a 3f3e b2f8 20bf 787a e03d
000000b0: b312 8c3e 3f4f 61be b932 04bd b075 c8bc
000000c0: b0ca 903d 3c9c 693d 39da 713d 6cee 693d
000000d0: 4b55 8abe 0682 63be 9d53 4c3d 316f 9a3d
000000e0: 596f bcbc 4b95 09ba 688c 92bd d6e8 c1bd
000000f0: 69ea 3c3a 50c9 7d3c a0b8 a43c aede f43b
00000100: 3e51 bdbd b033 d83d 453b 98bd c888 123d
00000110: aeff 73bc 83db 213c 574f a83e 92e2 8d3d
00000120: 724d 22be d426 843d 0f2d f1bb b841 063d
00000130: 7313 d7bd d0a0 9b3d 4883 463d c94d 05be
00000140: deaa 5abd fc5f 783c 3804 383d 0a50 dbbd
00000150: f8d8 d63d 3440 32bd 8e6f b23c c09b 0cbc
00000160: c355 edbe 542b e1bd f8ea 66bc 8468 443b
00000170: 7518 6ebd 4263 ab3d fa69 d03e 2d59 7b3c
00000180: 306d a43d 0008 49bf 2fa9 41be 1092 0b3d
00000190: 3861 3dbd d882 2abe 5243 a0bc c56e 55bf
000001a0: 90b0 8b3d 7275 46be cfb3 7dbf 72c1 a63d
000001b0: 37c9 c23e ec27 eb3d c715 66be 7ddd fabc
000001c0: 20de 6cbd b8fa a8bd 4c45 e9bc 1bb5 8ebe
000001d0: de61 153e 2535 773e ca9b 2ebe 5074 f7be
000001e0: 03dd 3c3d c399 293d 4666 b43d b02d ec3d
000001f0: 9c81 b53d a276 d43d 802b 15bb efb7 683d
00000200: e244 dcbd e5b6 cf3d c39d 86bd 28b0 d13c
00000210: 90bd b33c 400b 483e d232 0f3f 00c1 ecbb
00000220: 066b 1bbc 0f0f ed3c a223 3bbd 00db 923b
00000230: eb85 9dbd 7cc4 5d3d b0cc b6bd 73a3 0ebe
00000240: 5576 9bbd 8d95 29bd 1481 c1bd 298d 39be
00000250: 6cee 203d 58c0 f33d 4ab7 b23c 362a 96bd
00000260: b5c7 83be 98a2 56bd 4b04 7ebc 66bc f0bc
00000270: a737 0dbe 0d8d b23d 89c0 443f 4228 0f3d
00000280: 2dd6 f9bc 6749 2bbf fac6 84be 801d 1abc
00000290: 2cd5 d1bd 83e2 3bbe c094 1539 befc 57bf
000002a0: 98c4 f83c ade1 31bd bfcd 77bf f6d8 d83d
000002b0: 5483 ce3e 5935 e13d 826a 0bbd 7103 d23d
000002c0: 3977 28bd 00a8 56bc 598f eb3d a080 9bbe
000002d0: 274c f13d 127a 5f3e d24a 2ebe d39f c9be
000002e0: 4ea4 8e3c 7f3b ab3d 5434 bfbd 1858 863c
000002f0: 8b7e 12bd ce76 bfbd 6000 92bb dadb 7c3d
00000300: 768c be3d 39d5 c0bd 0e68 d1bc eac5 a73d
00000310: 587b d2bc f851 2a3d 836b 0ebe 9a33 f23d
00000320: 7c94 adbe ec4a 803d 3601 2b3d ea26 dd3d
00000330: a1d2 0fbe 81a7 253c d8c1 413d 48b4 913d
00000340: e2d2 35bd 4ecb 8f3d 0c48 d7bd 5dd3 a93d
00000350: e009 c4bb 8c49 423d ca9b e23b 32fc 9dbd
00000360: f195 7abd 5454 11bd 5f56 84bc 2b4d cdbc
00000370: 2a30 db3b 141d 483d d323 2dbf 88fe b93d
00000380: 37c0 0bbe a3a3 62bd 55ae 953d acb1 63bd
00000390: 1004 7f3c 3a14 c2bd b312 9c3d 1725 da3c
000003a0: 7a3e 943d 4f38 ac3c 9409 5fbd 2a69 fb3d
000003b0: ab38 ccbc 4be4 76bc c655 6ebe f52c 703d
000003c0: 0a88 8cbd 3407 c3bd 5b22 f83d 5d17 da3d
000003d0: 955f 0c3d 6288 45be bb8d a7bd 406a b2bc
000003e0: 42d3 393c 758e ff3c 4c28 e9bd 38ba a6bc
000003f0: 3213 f8bd b2fa f53d 1870 f23c f280 dbbd
0.072154194 -0.021292225 -0.09280358 -0.104389876 0.20011644 0.015784135 0.55226505 -0.064732194
-0.03081942 -0.03926507 0.1289315 -0.0013814121 0.05244534 -0.3613555 0.057050407 0.036126956
-0.08722226 0.13226242 0.18621126 -0.10020899 0.019121066 0.083515555 0.17543066 -0.112039
-0.036055576 0.029189229 0.009165092 -0.038318314 0.032678436 -0.10144027 0.98363245 -0.044887774
0.1409472 0.01987155 -0.09441132 -0.111669466 -0.068887964 -0.07179379 -0.15556574 -0.28695443
-0.045747325 0.18674834 -0.6287948 0.10960859 0.27358016 -0.22002886 -0.032274935 -0.02447018
0.070699096 0.057033762 0.059046004 0.057112142 -0.27018198 -0.22217569 0.049884427 0.07540739
-0.023002313 -0.00052483816 -0.071556866 -0.09468238 0.00072065607 0.015489891 0.020107567 0.0074728345
-0.09244011 0.105567336 -0.0743318 0.035774976 -0.014892502 0.009878996 0.32873031 0.069279805
-0.15849856 0.064527184 -0.0073601077 0.032777518 -0.105017565 0.07599032 0.048465043 -0.13017954
-0.053385608 0.015159603 0.0449259 -0.107086256 0.10490602 -0.04351826 0.021781709 -0.008582056
-0.46354493 -0.10994592 -0.014094107 0.0029969523 -0.058128793 0.08368541 0.40705854 0.015341085
0.08028638 -0.7852783 -0.18912195 0.034074843 -0.046235293 -0.16651475 -0.01956335 -0.83372146
0.06820786 -0.1938074 -0.9910249 0.081423655 0.3804414 0.11482224 -0.22469245 -0.030623192
-0.057829022 -0.08250946 -0.028475426 -0.27872548 0.14588115 0.24141367 -0.17051616 -0.48330927
0.04610921 0.041406404 0.088085696 0.11532152 0.08862612 0.1037419 -0.0022761524 0.056816038
-0.10755326 0.10142306 -0.065730594 0.025596693 0.021940976 0.19535542 0.5593692 -0.007225156
-0.009485966 0.028937845 -0.04568828 0.0044816732 -0.076915585 0.05414246 -0.0892576 -0.13929538
-0.075909294 -0.04140239 -0.09448448 -0.18120255 0.039289877 0.11901921 0.021815915 -0.0733227
-0.25738302 -0.052401155 -0.015503953 -0.02938671 -0.13790761 0.087183096 0.76856285 0.034950502
-0.030497635 -0.6690888 -0.25933057 -0.009406447 -0.102457374 -0.18348126 0.00014265161 -0.8437003
0.03036718 -0.04342811 -0.9679832 0.10588257 0.4033457 0.109965034 -0.03403712 0.10254563
-0.041129325 -0.013101578 0.11501951 -0.3037157 0.11782103 0.2182391 -0.17020729 -0.3937975
0.017412331 0.08360957 -0.09336153 0.016399428 -0.035765212 -0.09348832 -0.004455611 0.061733104
0.093041345 -0.09415669 -0.025562312 0.08192046 -0.02569358 0.041582078 -0.139082 0.118262485
-0.33902347 0.0626429 0.0417492 0.10798438 -0.14045192 0.010110737 0.047304004 0.07114464
-0.044390567 0.07021199 -0.10511789 0.082922675 -0.0059826225 0.04743342 0.006915544 -0.07714118
-0.06117815 -0.035480812 -0.016154466 -0.02506121 0.006689091 0.048855856 -0.6763279 0.09081751
-0.13647543 -0.055331837 0.07308642 -0.055589363 0.015564933 -0.09476514 0.07620754 0.026629014
0.07238479 0.021022944 -0.054452494 0.12275918 -0.024929365 -0.015069078 -0.23274907 0.058636624
-0.06861885 -0.09522858 0.12115928 0.106489874 0.03427084 -0.19290307 -0.0818133 -0.02177918
0.011341872 0.031195858 -0.11384639 -0.020352468 -0.12113036 0.12010707 0.029594466 -0.10717954

models.524287.layers.3.bias f4 [32]
00000000: 3c8c b53d 0707 5e3e 99fb 1d3e 3288 9d3e
00000010: aa8c 363e 7769 1c3c b48a e1bc a182 fb3e
00000020: bde7 1ebe c8c4 0b3e 8ace f53e dd28 213e
00000030: ede4 0b3e a915 ee3d 84e5 7f3e 0e56 13bf
00000040: 5ea9 6b3e 1565 943d 72c5 0c3f c575 1d3e
00000050: 2b1d 493e ee86 3f3d 41ff 893e 33fa 85bd
00000060: 649c 2a3e 15fd 5a3e d7cc 21bf aa46 163f
00000070: d710 1f3e 28cd 013f cc79 85be f97c c73d
0.08864638 0.21682368 0.15428008 0.3076797 0.17827097 0.009546629 -0.02753196 0.491231
-0.15518089 0.13649285 0.4800914 0.15738244 0.13661547 0.11625225 0.24989897 -0.57553184
0.23013827 0.07245842 0.5498878 0.15376957 0.19640033 0.04675954 0.26952556 -0.06541862
0.16661221 0.21385606 -0.63203186 0.58701575 0.15533768 0.5070367 -0.26069486 0.097406335

models.524287.layers.6.weight f4 [16, 32]
00000000: dd8d 0abf 53b8 88be 7ac5 17be 98ba 673e
00000010: cfe7 b6be c007 2e3d 23b8 0bbd cf50 b73d
00000020: ff3d d03d 59e9 2f3e d2ea 0b3e f976 abbe
00000030: 387e aa3d bfba 203d c241 b23d 6d0c a2be
00000040: 1d46 08bf b922 b9be 136f 093e 3932 cf3e
00000050: 3e0f 7fbe f63a af3d 97f2 5cbd 6824 243d
00000060: 1d0f a0be 1fe5 f5bc b03c 8fbe cbd9 4e3d
00000070: a883 52bd 3bca 5a3d f005 d23e 37ab fe3d
00000080: 4ffb c53e 6c84 42bd b025 8a3e 284d 6fbd
00000090: bb47 c23e 97da 023d b9ed 7cbe f702 783c
000000a0: b4fa 8dbe f010 16be 12ad f73d 24dd 103e
000000b0: 7316 a2bd 858c 1abe a2c4 9c3d 38d1 fa3e
000000c0: bc85 023f 5ed5 523e 4160 803e 2817 3ebe
000000d0: 4a32 9f3e 7f6e 8ebe dbc4 643e 50bd aabe
000000e0: 0800 c83e a214 8b3d fc43 913e 379c 433e
000000f0: 6e41 4c3d d3f4 3b3e 08e4 6bbe 696b 73bd
00000100: 1095 f5bd 783f 55bf 0894 36bf e376 d3bd
00000110: 8684 55bf a289 e43d ff2d d9bc 53d4 363e
00000120: 4eb2 3e3e 630a 51be 3726 863d 62e6 51bf
00000130: c6da dd3c dfa4 2f3c d9c3 14bb d5fc afbe
00000140: 04f2 32bf f4e1 29bf 9a58 143e be67 f63d
00000150: 8c18 63bf ccf4 bb3d eb6f 3e3e 90c6 1f3d
00000160: b88f 93be af14 953a 52c1 cbbe 4d3a cf3d
00000170: cc37 41bf 1777 623e e64c c13d 1cba 70bd
00000180: 9b21 90be 9d49 03bf 40d6 06bf 14ad bdbc
00000190: 2a76 15bf b51a eabd b350 ccbd a8f8 773e
000001a0: 9e28 bd3d f00d f53c 0d44 4e3e a482 0ebf
000001b0: cb1b 863d 8305 e5bd a7ad 473d a765 2bbe
000001c0: a839 37bf dc4c 46bf 6f88 b23d 211c c03e
000001d0: c115 3ebf d0a1 463e ee55 ca3d 7f3c 43bd
000001e0: 0a12 b1be 03bb 1e3e bed9 22be 7ef4 513e
000001f0: 95cc 0ebf 2278 173e 816d 963e d9b6 a93d
00000200: 1dad 60be 58e8 c9be 1384 03bf 8125 893e
00000210: 55ca 17bf bb5e b9bd b303 023e 41cd 443e
00000220: d4f0 0c3e 146a 183d 1a8c 993e a1ad ffbe
00000230: b0bb cdbd f64b 49bd cae9 883c 5409 b0be
00000240: 5b48 41bf 0cff 15bf 0b68 893e 2e49 a83d
00000250: 3139 03bf 291b bbbd 0c38 b23d 27a5 24bd
00000260: 2939 b3be fba5 ed3d 05db e3be 437c 033e
00000270: 67bd eebe 98f7 633e 062f 523c a1bd ec3c
00000280: e9da 88be 19b7 ddbe 8900 9abe ebcb 5a3e
00000290: fc98 4bbf 4d5c 05be 66ce d43d 32a0 313e
000002a0: 9cf7 483e da6e 943c 7d51 9d3d cb37 b6be
000002b0: 2bcb 8f3d 8ca4 e83d 66a1 7a3e 6de0 e1be
000002c0: 95d3 3ebf 2a9f edbe 44e0 683e cbbe 0c3d
000002d0: 1cce 22bf 79ad 8ebd 3a5b 883e 3e64 e5bd
000002e0: ccae 5ebe fbdc e03d 5644 bcbe addf 283e
000002f0: 25ee e3be d027 1c3d 27bf 733d 9a45 b2bd
00000300: 6b5e 11bf ceed 86be 78c6 79be 441c 583d
00000310: 1dc6 01bf 414e c9bd 0700 cb3d aaac 8d3e
00000320: cca2 8f3e a49c 6c3e 0081 a23e a7a9 47be
00000330: f262 223c 8b20 e03d 4961 f83d 9739 5fbe
00000340: 9842 24bf eeb2 e2be f10c 453e 8ea8 f83d
00000350: 7664 e0be 0364 023d 51c2 4d3e 16a8 e33d
00000360: 67af 4cbe 2c2b 9f3d 08eb b9be 36c1 0b3e
00000370: eeb7 6dbe 1272 933e 0382 97bd f317 d73d
00000380: 0b1f 463f 017b 39be 53ef f93d a36c dfbc
00000390: 59e0 c83e 8f6c 213e ca65 fdbd fa13 f83d
000003a0: f659 dabd 912d 1bbe f601 073e 6135 3b3e
000003b0: 03ad 19be 8bf1 83bd 4bd2 64bd c6f3 4d3e
000003c0: d2b2 113f fbea 863e 6d21 333d be67 30be
000003d0: 3a03 6a3e 0b17 17be f704 9b3d d69a 81be
000003e0: e54f d43e 30bc 07bd 4605 ef3e a09f af3d
000003f0: 0213 e2bd 173c 5d3e 890e 3dbe 4dc0 b5bd
-0.54122716 -0.26703128 -0.14821425 0.22629774 -0.3572373 0.04248786 -0.034111153 0.0895096
0.10168075 0.17178859 0.13663796 -0.33489206 0.083248556 0.039240595 0.087039486 -0.31650105
-0.53231984 -0.36159304 0.13421278 0.40468004 -0.24908158 0.08556168 -0.05394229 0.040073782
-0.3126153 -0.03001648 -0.27975988 0.050500672 -0.05139509 0.05341552 0.41020155 0.124350004
0.38668296 -0.04748957 0.26981878 -0.05842319 0.3794535 0.031946745 -0.24700059 0.015137426
-0.27730334 -0.14654899 0.120935574 0.14146858 -0.07914438 -0.15092666 0.07654692 0.48987746
0.5098531 0.20589206 0.25073436 -0.18563521 0.31093055 -0.27818677 0.2234072 -0.3334756
0.39062524 0.06791045 0.2837218 0.1910256 0.049867086 0.18355112 -0.23036206 -0.059428606
-0.11991322 -0.8329997 -0.7131963 -0.1032541 -0.8340534 0.11159064 -0.02651119 0.17854433
0.18622705 -0.20414118 0.06550258 -0.8199216 0.027081858 0.010720461 -0.0022699742 -0.34372583
-0.69900537 -0.663604 0.14486924 0.12031506 -0.8870933 0.09177551 0.18597381 0.039007723
-0.28820586 0.0011373962 -0.3979593 0.10118542 -0.75475764 0.22115742 0.09438495 -0.058771238
-0.2815064 -0.512842 -0.5267067 -0.02315382 -0.5838343 -0.11430875 -0.0997633 0.24215949
0.09236263 0.029913872 0.20143147 -0.5566809 0.0654827 -0.11182692 0.048749592 -0.16737996
-0.7157235 -0.7746103 0.08717429 0.3752146 -0.74251944 0.19397664 0.09879671 -0.047665115
-0.34584075 0.15501027 -0.15903375 0.20503423 -0.5578092 0.14791921 0.2938042 0.082868285
-0.21941037 -0.39435077 -0.51373404 0.26786426 -0.5929311 -0.090512715 0.12696724 0.19218923
0.13763744 0.03721054 0.29989702 -0.49937156 -0.10045564 -0.049144708 0.016713042 -0.34382117
-0.7550103 -0.58592296 0.2683719 0.08217083 -0.5125914 -0.0913604 0.08702096 -0.040196564
-0.35004547 0.11603924 -0.44503036 0.12840371 -0.46628878 0.22262418 0.012828594 0.028899016
-0.26729515 -0.43303755 -0.30078533 0.21366851 -0.7953031 -0.13023491 0.1039093 0.17346266
0.19625705 0.018119264 0.07681558 -0.35589442 0.07021173 0.1135951 0.24475631 -0.44116536
-0.745416 -0.46410495 0.227418 0.03436164 -0.6359575 -0.06966681 0.266321 -0.1120076
-0.21746367 0.10979649 -0.36770886 0.16491576 -0.44517627 0.038123906 0.05950847 -0.08704682
-0.56784695 -0.26353306 -0.24392116 0.05276133 -0.5069292 -0.09829379 0.099121146 0.27670795
0.28053892 0.23106629 0.31739044 -0.19498311 0.009911286 0.10943707 0.12127931 -0.21799313
-0.64164114 -0.44277138 0.19243218 0.12141524 -0.43826646 0.03183366 0.20093657 0.11116044
-0.19988786 0.07771906 -0.36312127 0.13647923 -0.23214695 0.28797966 -0.07397845 0.10502615
0.7739112 -0.18113329 0.122038506 -0.027273482 0.39233664 0.15764068 -0.1237293 0.12113185
-0.1066169 -0.15154101 0.13184342 0.18282081 -0.15007405 -0.06442555 -0.055864614 0.20112523
0.56913483 0.2635115 0.04373305 -0.17227075 0.22852793 -0.14754884 0.07569306 -0.25313443
0.41467205 -0.033138454 0.4668371 0.08575368 -0.11038782 0.21604954 -0.18462576 -0.08874569

models.524287.layers.6.bias f4 [16]
00000000: a64f 093f efbc 1e3d 82f3 3b3f 876b dc3e
00000010: 3b21 203f 2fd4 f43e faed ba3e 2425 eb3d
00000020: b6f8 523e 0a5a bb3d 3b66 673c 59fc 203e
00000030: 5672 d5bc 9b5f a13c 2504 133f c799 a03e
0.5363716 0.0387544 0.7341844 0.43050787 0.62550706 0.47818133 0.36509687 0.114816934
0.20602688 0.09148033 0.014123495 0.15721263 -0.026055496 0.019698909 0.574282 0.31367323

models.524287.layers.9.weight f4 [1, 16]
00000000: 9fbb da3e 7d9b c0be 1c0e 5e3f 93eb 2a3f
00000010: 2c49 173f 4b1a 1f3f 5746 b93e fa86 18bf
00000020: 7a19 cbbe e3b9 11bf aa1a dbbe 3b13 c2be
00000030: 57e5 0fbf 53b9 e3be 6948 153f e7e0 b93e
0.4272127 -0.37618628 0.8674028 0.6676571 0.59096026 0.62149495 0.36186478 -0.5958096
-0.39667875 -0.56924266 -0.4279378 -0.37905297 -0.5620932 -0.4447733 0.58313614 0.363044

models.524263.layers.0.weight f4 [64, 17]
00000000: 35e5 2abe 33d2 863e df21 debd 6e5f 8a3d
00000010: bf40 55bc 5481 29be 7b29 203e 9aae 493a
00000020: 1e98 973c e47c 98bd f044 2e3e ca83 6bbd
00000030: 37fc a63d 348b 89bd a185 eb3d 5766 843e
00000040: 01be 09bd 184d 9bb7 ba38 033d 573e f63d
00000050: ca75 5bbe cb0b 5dbe bb10 21be cb8b 47be
00000060: 29f5 e2bd ee5a 25be a91b bf3d c653 89bb
00000070: a49c 2c3c 4090 0fbe 0575 5fbd 9929 ae3d
00000080: 7ec2 1dbe d1d1 173e d393 22be 1075 15be
00000090: 22b1 293e 31fa 15be 5a34 21be 30d3 dc3d
000000a0: 091c 05be ecb4 8cbd c01b ea3c 1ce9 4ebd
000000b0: a8d0 4cbe 80b1 583e 9080 023d c67a 23be
000000c0: 9a6f 1e3e 4e45 403e 409c 3e3e 1751 4c3f
000000d0: e7d1 b4bc 87e0 45bb 4a69 3fbf 5fa0 2cbf
000000e0: 76bd b23d 0669 39bd 23ac 3c3a 5c3b 9a3d
000000f0: a344 aebd 815a 07bd 77d0 be3c 4019 2d3e
00000100: 4c31 503c 8262 a1bc 2cdf 1a3d cfac 0f3e
00000110: d37e 2ebe a34f 03be 3fd3 913c 21d2 88be
00000120: 39ee 70be 753b 14be 0a67 cabd 7ddc 0cbe
00000130: c9e9 e3bd e33e 9dbd bc54 793e 3965 80bd
00000140: 5574 ffbd af4d cbbc 9fb9 41be dbdf cabd
00000150: 4891 143e 4074 f9bf 2707 2fbf 3680 553b
00000160: a467 85bd f4b8 b13d 4444 d1bc b989 9d3d
00000170: a312 f7bb fe85 35bf 97aa 50bd 6d2d 333d
00000180: 4d95 f6bb f6b8 473b ac46 70bb 31ce 2d3c
00000190: 669f 0c3d 662a 0fbd 1211 b2bd 68c0 0c3d
000001a0: d874 c23d cc03 523e 5c70 76be 8091 4d3e
000001b0: e0ba 023c 30e6 8b3c 5af1 733e 4c7c 1fbe
000001c0: 4c8c e63d ac1a d13d a0df f93c 4780 6dbe
000001d0: 1005 9b3d 2c11 f2bd d60e 1c3e 79fb 62be
000001e0: 64fe 2a3e 507d 883c 9cc3 24bd 8098 823c
000001f0: dc8b d1bd 08f3 873d b696 2bbe 2419 56bd
00000200: 589e b8bd fa0f 3f3e 7020 53bc 20d9 06be
00000210: 3441 26be 54d2 0b3e e628 90bd c0e5 423d
00000220: e870 d3bd 9cd8 813d 143c 4b3e 30e5 783d
00000230: 9d33 4cbe 50d6 4bbe b8ce 7c3d 9a61 473e
00000240: 1aad 1ebe 4ed7 653e 484f 513e 4007 4fbe
00000250: 08e3 343d 6f1c 21be 7e74 96bd aa44 033e
00000260: a27a 733e edea 86bf 04b7 113e d65d febc
00000270: 6c15 2bbf 9e90 d2be 9375 19be 1137 89be
00000280: 29ad ebbd 160a f9be 45ce 313e e2d1 5a3e
00000290: 77c4 82bd 566a 6d3e 258d 4a3a 94f4 763d
000002a0: 3fea 1d3e 4e84 163d e637 d1bf 8e62 533e
000002b0: 75f3 e5bd ece1 6b3d af45 8fbe 6a30 99bc
000002c0: 8f3b d1bd 102f 673c 952b 0dbf 3686 803d
000002d0: 3c37 1d3d d66f 8abd 6510 713e 90db 233b
000002e0: f421 a9bd da34 44be 97f2 433e 3ce0 f8be
000002f0: c8f2 0e3d 6403 30bd 20e6 6bbf 57bd 5bbf
00000300: 40a1 223c 6afa 79bc a3aa b7bd f4de e0bd
00000310: bc36 9abd 1e6e 053d 7b40 313d 6c67 313e
00000320: c13b 0f3c 3125 8c3d 3fbe 623d 6101 353d
00000330: 608f 24c0 084e 553d 9e88 48bb 1ca1 4e3e
00000340: 150b f6bd deac b53b 8bff 30bd ba42 993d
00000350: e91a 3ebf 5eaf 0a3e 7fb3 033d 77ca 56bc
00000360: bf91 4dbd 751d 2dbb 1257 4cbe c32d 253c
00000370: ebc4 843d 71e8 bfbf d993 533b 7d9b ad38
00000380: 380d 74bf 7872 48bf c216 3f3d 2127 333d
00000390: f11b ac3a 3c19 67bf 08e6 00bd 2dec f5bb
000003a0: 3b4d 05bb bae4 cb3c 91ee 1d3b 38ef 6d3c
000003b0: 95c4 9cbb 4677 a6ba ba51 02c0 f336 1dbf
000003c0: 9303 543a ac95 c23d 2300 a63e bfc3 0bbd
000003d0: 10a5 1c3d c096 653c 7050 25bf 4820 e5bd
000003e0: 11d7 623d ad02 abbb fde0 a53d 827f d3bb
000003f0: 090f 19be a131 d7bd 6c3f d5bd baba 9abf
-0.16688998 0.26332244 -0.10846304 0.06756483 -0.013015925 -0.16553241 0.15640824 0.0007693559
0.018505152 -0.07445696 0.17018485 -0.05749873 0.08153575 -0.06716004 0.11500097 0.2585933
-0.033628467 -1.851334e-05 0.03203652 0.12023609 -0.21431652 -0.2158653 -0.15729038 -0.1948692
-0.11081917 -0.16147968 0.09331448 -0.004190895 0.010535393 -0.14019871 -0.054554958 0.08504028
-0.15406224 0.14826132 -0.15876703 -0.14595437 0.16571477 -0.14646222 -0.15742627 0.10782468
-0.12998976 -0.068704456 0.028577685 -0.05051528 -0.20001471 0.21161461 0.031860888 -0.15964803
0.1547226 0.18776438 0.18614292 0.79811233 -0.022072745 -0.0030193643 -0.74770033 -0.67432207
0.08727543 -0.045266174 0.0007197281 0.07530853 -0.08509185 -0.033045296 0.023292763 0.16904163
0.012707066 -0.019700292 0.03781049 0.14030765 -0.17040567 -0.12823348 0.017800925 -0.26722816
-0.23528375 -0.14475806 -0.098829344 -0.13755985 -0.11128575 -0.0767801 0.2434873 -0.06269307
-0.124733604 -0.024817316 -0.18918465 -0.09905978 0.14508545 -1.9488602 -0.6837029 0.003257764
-0.065139085 0.08677855 -0.025545247 0.07692284 -0.0075400635 -0.7090758 -0.050943937 0.043744493
-0.0075251223 0.0030475236 -0.0036663217 0.010608242 0.0343317 -0.034952544 -0.08694662 0.03436318
0.094949424 0.20509261 -0.24066299 0.20075035 0.007979125 0.017077535 0.23822537 -0.15574759
0.11257228 0.102101654 0.03050214 -0.23193465 0.07569325 -0.118196815 0.15240034 -0.22166242
0.16698605 0.016661316 -0.04022561 0.015941858 -0.10231754 0.066381514 -0.1675671 -0.05227007
-0.09014577 0.18658438 -0.012886152 -0.13168764 -0.1623581 0.13654453 -0.07039051 0.047582388
-0.103242695 0.06340143 0.19847137 0.060765445 -0.19941564 -0.19905972 0.06172058 0.19470826
-0.1549572 0.22445413 0.204404 -0.2021761 0.044161826 -0.15733503 -0.07346438 0.12819162
0.2377725 -1.0540444 0.14229971 -0.031050604 -0.6682956 -0.4112596 -0.14986257 -0.26799825
-0.11507637 -0.48640507 0.17363842 0.21369126 -0.06385129 0.23185095 0.00077267207 0.06029184
0.15421389 0.03674727 -1.6345184 0.20643064 -0.11228076 0.057588503 -0.27982852 -0.018699843
-0.10216438 0.014110342 -0.55144626 0.06275599 0.038382754 -0.06759612 0.2354141 0.0025002696
-0.08258429 -0.19160786 0.1913551 -0.48608577 0.034899503 -0.042971984 -0.9214802 -0.85835785
0.00992614 -0.015257457 -0.08968093 -0.10980025 -0.07529971 0.03257572 0.043274384 0.17324609
0.008742274 0.06843031 0.055357214 0.04419077 -2.571251 0.05207637 -0.0030599008 0.20178646
-0.120138325 0.005544289 -0.043212455 0.0748343 -0.7425981 0.1354346 0.032153603 -0.013109795
-0.050187822 -0.0026415263 -0.1995509 0.010081711 0.064828716 -1.499281 0.003228417 8.278245e-05
-0.9533267 -0.78299665 0.046652563 0.043738488 0.0013130886 -0.9027288 -0.031469375 -0.007504961
-0.0020340222 0.024889339 0.0024098495 0.014522366 -0.0047841766 -0.0012700341 -2.0362382 -0.6141197
0.0008087691 0.09501204 0.3242198 -0.034122225 0.038243353 0.014012992 -0.6457586 -0.11187798
0.055380885 -0.005218825 0.08099554 -0.006454409 -0.14947142 -0.10507513 -0.104124874 -1.2088234

models.524263.layers.0.bias f4 [64]
00000000: f337 713e 5007 06bd 7a4b 2fbe 5053 10be
00000010: c03a e33c 91f8 4f3e 029d 44be b893 b83d
00000020: 2e7a 6c3e c8fa 8f3d 7e1d cebe e5de 10be
00000030: f05c c8bd fcc0 92be 96be 12be 2750 9a3d
00000040: 6fca b3be 3191 f4bd 82a4 cabe 64f4 5abe
00000050: 2a5a 143e 6d4e 0a3e f812 8cbe c353 1fbe
00000060: 1282 023d 89bb 253e 784d 573e 085f 42bd
00000070: 1882 16be 9874 14be 41f0 5cbc e0e5 c53c
00000080: a9f5 a8bc 885e b3bc ae33 22be 12e8 bb3d
00000090: a829 183e 4290 67be 26c5 e1bd be51 92be
000000a0: 9bff ee3c 7624 3abe 100b 48be 74da f2bd
000000b0: b537 04be e5d3 cfbd 1c04 d73d a825 1e3e
000000c0: d7b5 3a3e 6e6f 83be 647a 763c 5033 273d
000000d0: 0c8e 50bd 3730 5ebd 13ca 1d3d ee73 0ebe
000000e0: 4026 17bc d591 71be 358f 37be ab36 83be
000000f0: 73b8 b0be 4047 da3d bee0 593c eb29 4cbd
0.23556499 -0.032721817 -0.17118636 -0.14094281 0.027737975 0.20309664 -0.19200519 0.0901255
0.23093483 0.070302546 -0.40256876 -0.14147528 -0.097833514 -0.2866286 -0.14330515 0.07534819
-0.35115382 -0.119417556 -0.39578635 -0.2138229 0.1448752 0.1350648 -0.27358222 -0.15559296
0.031862326 0.1618482 0.21025646 -0.04745391 -0.14698064 -0.14497602 -0.013485015 0.024157465
-0.020624952 -0.021895662 -0.15840027 0.09175123 0.1485964 -0.22613624 -0.11023931 -0.2857799
0.029174617 -0.18177971 -0.1953547 -0.11858073 -0.12911876 -0.101478375 0.10498831 0.15444052
0.18233429 -0.25670952 0.015043829 0.04082042 -0.050916716 -0.0542452 0.03852279 -0.13911411
-0.009225428 -0.23590787 -0.17925723 -0.25627646 -0.34515724 0.10658121 0.013298212 -0.049844664

models.524263.layers.3.weight f4 [32, 64]
00000000: fcbb 2cbd 372f 9a3c d6e0 f5bd ff3c 81be
00000010: 6d76 8a3d eea3 9ebe fc0d 08bd d297 ab3d
00000020: a0ba 88bd d30f 99bc 67e8 1cbe a2e3 27bd
00000030: 7406 8dbe dad2 6ebc 88f2 8bbe c8c9 2abc
00000040: 58dc 81bd 20ca a3bc b690 ebbd 0078 edba
00000050: 0042 353d 563e 5f3b 045d b0bd 429d 943d
00000060: 8669 83bd 322c 22bd 20ad 68bc f817 e0bc
00000070: 2ebf febd d2c7 803d 9ac3 a33c 727b ec3d
00000080: 02c5 cd3c 0014 3f39 2485 36bd 90ba 0ebc
00000090: c08c 943d bb01 39be 6063 42bc 627b 873c
000000a0: d48c 393e b62e 2bbe 883b f7bd 903c 9d3d
000000b0: 54ba 603d 8078 62bb 7df4 65bd 0bb5 82bd
000000c0: 5416 d83d a814 e33c 942b 6abc 9816 fbbd
000000d0: 364f 423e f138 94bc 8c83 8abe 7fa8 16be
000000e0: e849 ef3d b723 86be e836 a4bd f568 20be
000000f0: d421 9bbe 24c9 91bc e2a4 acbd 408d 02bd
00000100: a826 fd3c d564 933c 02f7 f4bd 676f 6fbe
00000110: c945 08be 2e55 94be a0ff 94bb a47f 7dbd
00000120: 20a3 9abd 5ebf bb3b bce4 0bbe 5a66 73bd
00000130: 6161 1cbe bc54 fcbd d9e4 54be a840 1e3d
00000140: 53d5 733c 0aae ebbd ba17 b6be a00d f93d
00000150: 5afd 9abd 2459 16be 6038 873c fed2 9e3d
00000160: f88e 623d be11 4bbe d8f0 bcbc 2ede 97bd
00000170: bc1a d03d 7479 eabd 8d3a 83be 149a fbbd
00000180: 9709 1ebd bcb5 63bd c4fc 503d 22a9 f53d
00000190: eaff f3bd c049 26be 6ad4 863d 2cc9 c23c
000001a0: 9e24 973e 3938 a6bd d47d 723d bf06 113e
000001b0: 9819 4c3d 540e bc3d cd36 53be cd80 13bd
000001c0: 1464 3c3d c046 7b3b 2973 413d 1ad6 a83d
000001d0: 4b13 cc3e 653b 5dbd dce3 a8be d0cd 19bd
000001e0: a0a2 3bbc 6f1d d3be af5a 15be 54cd 2cbd
000001f0: 6349 96be b562 23be 4010 673b e3c1 f63c
00000200: 6335 93bd d601 7d3d 626e 8e3d 1270 b13b
00000210: 9504 783b d11b b6be 3cec 1e3d 70da 763d
00000220: 5e80 a73d 32bc 0abd 0531 89bd 8a60 783c
00000230: 6699 21be ddea 48bf 31e2 afbd 5fbe 9fbc
00000240: 401a 7e3d 4264 833d 1894 ea3d 58b1 9e3d
00000250: a8e4 a23c f23b f8be d6f1 3bbd 96ac db3d
00000260: 7a0a 98bd 9f12 3ebf 1498 7abd 6828 713d
00000270: 1c5a 913d 5636 7abd cbf4 e83c 50b6 08bd
00000280: f0b4 5b3d 285a 3dbd f041 e6bd 42cb a2bd
00000290: 5a05 b93d dfd8 3bbd 4e95 b3bd 98e7 7bbc
000002a0: f82f 063e 0ad7 7fbb 70e0 0c3c e1ff 683d
000002b0: 9923 783e 42fe 9c3d 240b 12bd 4e52 c1bd
000002c0: 0ed7 bcba 8a9b 443d 8427 15bd 40d6 553c
000002d0: f3a5 0f3e 4bee 4f3c 3f1f f63d 1dc9 203f
000002e0: cc31 5bbd 21fd 85b9 c1fa 80bd f1ec 49be
000002f0: 1b32 05bd 8e91 1d3f 16e3 c93b 6d8b 363f
00000300: a6c9 cfbd 79bc 1dbb 0aee 853d 5839 cb3c
00000310: 5769 edbc 7df7 c3bd aef2 f63d d041 213d
00000320: 081f bd3d f818 abbd a067 96bd 9ecd 983d
00000330: dbed aabc a4f6 c03c db8c 86be 419a 233d
00000340: 62df 1ebd c848 f73c 7a0a af3d 7898 da3d
00000350: 2066 37bc dc83 473e 07d1 1a3e a877 f53c
00000360: d7b7 dfbd bcbf 2b3e e615 a7bd a2a7 9c3d
00000370: 4ea0 b33d 298c 0d3e 045e ef3c 0e82 dd3d
00000380: 1057 753d f49e 6bbd 983a 09bd 0cd3 44bd
00000390: 70a9 68bc 4fb9 f6bc 1863 be3d b302 933c
000003a0: 681c 833d 0c65 2fb8 2a34 f83d 47b5 263c
000003b0: 23f9 4bbd f46d 1cbd fd19 f0bc 510f fd3c
000003c0: fd51 823b 608f 47bc 602e 233d ece4 c7bd
000003d0: 8296 d83d 5833 e7bd 66a2 b8bc 9a11 a1bd
000003e0: 10a2 eabc 447d 01bc 5867 c1bc 02d2 37be
000003f0: 675d 2cbd 3d9f 3fbd da25 80bd fd90 1ebe
-0.042171463 0.018821342 -0.12005775 -0.2524185 0.06760869 -0.30984443 -0.03321646 0.08378567
-0.06676221 -0.018684303 -0.1532303 -0.040988572 -0.27543986 -0.014576638 -0.27333474 -0.010424085
-0.06340855 -0.019993842 -0.11502211 -0.0018117428 0.044252396 0.0034064255 -0.08611491 0.07256557
-0.064166114 -0.03959293 -0.0142014325 -0.02735518 -0.124388084 0.06288113 0.019990731 0.11546983
0.025118355 0.0001822263 -0.044560567 -0.008711472 0.072534084 -0.18067066 -0.011864513 0.016538326
0.18120128 -0.16717038 -0.120719016 0.07677567 0.054865196 -0.0034556687 -0.056141365 -0.063821875
0.10551134 0.02771981 -0.014292616 -0.12260169 0.18975529 -0.018093558 -0.27053487 -0.14712714
0.116840184 -0.26199123 -0.08018285 -0.15665038 -0.30299246 -0.017796107 -0.084298864 -0.031872988
0.030902222 0.017992416 -0.119611755 -0.2338234 -0.13307871 -0.28971237 -0.0045470744 -0.061889306
-0.07550645 0.0057296 -0.13661474 -0.059423782 -0.15271522 -0.12320849 -0.20790423 0.03863588
0.014882403 -0.11507805 -0.35564977 0.12160802 -0.07567854 -0.14682442 0.016506374 0.07755087
0.055312127 -0.19830987 -0.023064062 -0.07415424 0.10161349 -0.114489466 -0.25630608 -0.122852474
-0.038583364 -0.055593237 0.051022306 0.1199515 -0.11914046 -0.16239071 0.065834835 0.023777567
0.29520124 -0.08116192 0.05920203 0.1416273 0.049829096 0.091824204 -0.20626374 -0.036011506
0.04599388 0.003834173 0.047228966 0.08243962 0.3985847 -0.05401172 -0.32986343 -0.037549794
-0.011452347 -0.41233394 -0.14585374 -0.042188004 -0.29352865 -0.15955622 0.0035257488 0.03012175
-0.07187917 0.06176933 0.069546476 0.005414971 0.0037844528 -0.35568097 0.03879951 0.060266912
0.08178781 -0.033870883 -0.06698803 0.015159735 -0.15781173 -0.7848337 -0.085880645 -0.019499956
0.062036753 0.06415607 0.11454028 0.077486694 0.019884422 -0.48483235 -0.04588493 0.107262775
-0.07423873 -0.74247164 -0.06118019 0.058876425 0.07097265 -0.061086975 0.028437039 -0.03337699
0.053639352 -0.046228558 -0.11243045 -0.079489246 0.09034224 -0.04586112 -0.08768712 -0.0153750405
0.13104236 -0.0039038085 0.008598432 0.05688465 0.2423233 0.07665683 -0.035655156 -0.094395265
-0.0014407353 0.047999896 -0.03641464 0.013051569 0.14028148 0.012691091 0.120176785 0.62806875
-0.053514287 -0.00025556333 -0.062978275 -0.19719292 -0.032518487 0.61550224 0.006161104 0.71306497
-0.10145883 -0.0024068637 0.06539543 0.024807617 -0.028980894 -0.09568689 0.12058006 0.039369404
0.09234434 -0.08354372 -0.07343984 0.07461093 -0.020865371 0.023555107 -0.2627934 0.03994203
-0.038787253 0.030186072 0.0854692 0.10673612 -0.011193782 0.19483894 0.151188 0.029964283
-0.109237365 0.1677236 -0.08158474 0.07649161 0.0877081 0.13822998 0.029219635 0.108158216
0.059897482 -0.057524636 -0.033503145 -0.048052832 -0.014200553 -0.030117659 0.092962444 0.017945623
0.064019024 -4.181736e-05 0.121193245 0.010175056 -0.049798142 -0.038190797 -0.029309267 0.030891092
0.003977059 -0.012180179 0.03983915 -0.0976046 0.10575582 -0.1128909 -0.022538375 -0.07864685
-0.02864173 -0.007903401 -0.023608848 -0.17951205 -0.042081263 -0.04678272 -0.062572196 -0.15484996

models.524263.layers.3.bias f4 [32]
00000000: c08b 073e 5a7b 6d3c 6f85 1f3d 6c30 883e
00000010: e6ab 19bd e596 3b3e 9a5e a8bd 7e87 b63d
00000020: dc76 733d cbf0 033e 050f a3bd d5b0 aebd
00000030: b6b5 ff3d c0f5 65bd dd71 a5bd 304e c63d
00000040: 2b41 24be fdd8 09be e4fd bcbd a1fe 6abc
00000050: 211a a4bd b205 9cbd 6fce 1b3d a020 543d
00000060: 77eb f2bd 3ebe 213e e57f df3d 2453 603d
00000070: 5850 31bd e3e8 7ebd 5cb3 9ebd b9e5 4b3e
0.13236904 0.014494741 0.03894561 0.26599443 -0.03751745 0.1831928 -0.08221169 0.08912562
0.059439525 0.12884824 -0.07961849 -0.08529822 0.124858305 -0.05614257 -0.08078358 0.09682882
-0.16040485 -0.1346168 -0.09228113 -0.014342935 -0.08012796 -0.07618274 0.038038667 0.051788926
-0.118613176 0.15795228 0.10913066 0.05476679 -0.043289512 -0.062233817 -0.07749054 0.19911851

models.524263.layers.6.weight f4 [16, 32]
00000000: 66eb d13e e147 073f aed8 98be 76db 413e
00000010: d9a0 ccbd 4d27 9a3d 4efa 22be 4748 ef3d
00000020: 29b0 3a3e 7580 213d e6a9 22be 7741 a9be
00000030: d851 043e d917 d8bc 9e7a 93bd 4936 0bbe
00000040: 4c0d 093e 66a6 793e fa2b 73be 0d10 693e
00000050: 857a 42be 73a0 52bd 94e5 8d3e 93df 4dbe
00000060: 60df d8bc 6afd 3e3e 7cd5 5d3e ea56 22be
00000070: 34f2 583e cd35 af3e fffe e33d fd32 8e3c
00000080: 1f73 003f 90e0 c03e cb69 60be 9201 f4bc
00000090: 7645 2abe cb70 123d 3189 d7be f874 ca3d
000000a0: 17d3 ad3d cf8e 38bd 3c08 bdbe 5b34 7cbe
000000b0: 20de 093e cdc0 87be f1bc 45bd 2e7c 79be
000000c0: 7b2c 933d fc0d ad3d 8084 6cbe 42c8 ff3d
000000d0: a65e a0be 48b8 eabd ae57 b33d 9686 c3be
000000e0: 901b 1e3e 2751 e13d 492c e33c 0a44 1bbe
000000f0: 8c13 c63d ba04 763e adb3 073e 1cf2 0f3e
00000100: 86c0 0abe 985a 9bbe 4140 8c3e 1701 a9bc
00000110: 0772 b43e 7ad7 04be 58f2 ea3d 1148 2ebd
00000120: 7473 fbbd abcf a5be ea31 d73e 728e b73d
00000130: 29c7 d3bc 7a3d 263e 5fd8 823e 7e37 4cbc
00000140: c6d2 b3be 8583 17be 9235 803e fb2c 50be
00000150: 520c 173e 107e 813e 6303 13bd f82b d33e
00000160: a315 d4bd 561e 27be ab1b 30be 49f3 bf3e
00000170: 082e d9bd 1c83 66bd fcf4 6dbe 095e 993d
00000180: 0a1c f33e d527 fa3e 0c93 91be 546b 0b3e
00000190: 2089 5fbe 4a20 d53d 55d2 d1be d62b d33d
000001a0: 2cec 893d 41f0 f7bb 724f c9be eb19 cbbe
000001b0: 2fb3 9cbd ed77 99be ce31 6dbe 003b d0be
000001c0: 6f98 723c 5fab 5ebc 4f11 29be 67b0 543d
000001d0: a210 9fbe 8c61 88be 661e 0f3e 51ae a2be
000001e0: 56cd eabd 1faa 8b3d 4676 ba3c a1b0 6abe
000001f0: 9d50 3d3e 7738 a43d 4974 da3d 0d79 b53d
00000200: 8541 c73e eb4f b93e bb10 48be 7b6d 313e
00000210: b200 85bd 5008 143e 25ba c6be 1bb2 b53d
00000220: 69b8 033e e491 283e 5060 d3be 2938 7cbe
00000230: 2a01 5e3e 101d 49be 8c2d 9cbe f82a 67be
00000240: aa4b ae3d 487f 613e eb79 83be 3949 a53d
00000250: 0d0a d8be 5f85 84be dc64 8a3d d7aa e2be
00000260: 4757 22be a7ac 603e 7a80 ce3d 12a6 01be
00000270: 8986 2b3e 77fd ba3e 71c5 7a3e d4c5 2c3e
00000280: 9a66 26be 82b5 94bd 7a73 343e 9e83 f13d
00000290: 3ef9 9b3e 35e5 6a3d c9ac b23e 46c4 9d3d
000002a0: 4a37 6bbd f18a 93be 5db2 5d3c 3d15 71bd
000002b0: 11b2 533a fd57 3a3e 8bf5 973d c4a1 0e3e
000002c0: 8be3 0bbf afab 49be 541b e43d 05a0 d7be
000002d0: f7a2 91bd 9ad2 1e3f d65d d43c 21bf b83e
000002e0: 2ee5 12be 5c24 063d 0233 803c ebd2 86be
000002f0: 8303 8ebe 6516 44be 14fa 02be 61f1 683d
00000300: 6e8d 1a3f 77fe b93e 4a08 8dbe 7208 3c3e
00000310: 1077 d5bb b532 0c3e 86c0 9dbe a5e9 95bd
00000320: cf55 873e cbef 3b3d 052f 96be 0a1f cbbe
00000330: 3984 de3d 7cbf 44be 72fc 1cbe 7dc5 c9be
00000340: 9bf3 e53d 780c 6c3e 7e23 60be 319f 8f3e
00000350: 0148 ebbd c9e0 80be 4b0c 4e3d 952c babe
00000360: 9ed5 603d aa7e b73c d377 043e 7cc6 2cbe
00000370: fd93 883e 9f1f c23e e0dd f33d 0039 113e
00000380: 954e 7fbe 5752 5ebe 0f7d 9a3e 8fd1 f3bd
00000390: d3e2 723e 2fb6 d83d 354b fe3e f88b 553d
000003a0: c57e 3d3e 61e6 293c 2ec5 a83e 2fda 3e3d
000003b0: 3baa 323d f156 113e 8c56 6f3e 24bd 8b3d
000003c0: 6306 dfbe 2739 8fbe 2fac 88bd 02b0 87be
000003d0: fdf7 a03d 161f 833e de50 b6bc 3072 a23e
000003e0: b27c 19bd cab6 1cbd a098 573d 959d b7be
000003f0: dfc5 1bbe d099 acbc 78fa 47be b1e7 0d3c
0.40999907 0.52844054 -0.29852813 0.18931374 -0.09991617 0.07527027 -0.15915796 0.11683708
0.18231262 0.039429147 -0.15885124 -0.33057758 0.12921846 -0.026378559 -0.07201122 -0.13594927
0.13383979 0.24379882 -0.23747244 0.22760029 -0.1899205 -0.051422548 0.27714217 -0.20104818
-0.026473701 0.18651357 0.21663469 -0.15853468 0.21186143 0.34220734 0.11132621 0.017358297
0.5017566 0.37671328 -0.21915357 -0.029785905 -0.1662806 0.0357521 -0.42096856 0.09885591
0.08487528 -0.045058068 -0.36920345 -0.24629347 0.1346364 -0.26514283 -0.04827589 -0.24363777
0.07186218 0.08449933 -0.2309742 0.12489368 -0.3132221 -0.1146093 0.08756958 -0.38188618
0.15440202 0.11001807 0.027731078 -0.15162674 0.09671697 0.2402524 0.13252135 0.14057201
-0.13550004 -0.30342555 0.27392772 -0.020630402 0.35243246 -0.12972823 0.11472005 -0.042549197
-0.1227788 -0.32385 0.4203027 0.08962716 -0.025851803 0.16234389 0.25555703 -0.012464402
-0.35121745 -0.14796264 0.2504087 -0.20329659 0.14750794 0.2529149 -0.0358919 0.41244483
-0.103556894 -0.16320166 -0.17198054 0.374903 -0.10604483 -0.05627738 -0.23237985 0.07488639
0.4748233 0.48858514 -0.284325 0.13615161 -0.21829653 0.10406549 -0.40980783 0.103110954
0.06734499 -0.0075664823 -0.39318424 -0.3966821 -0.07651364 -0.2997431 -0.2316353 -0.40670013
0.014806851 -0.013590663 -0.16510509 0.051926043 -0.31067377 -0.26636922 0.1397644 -0.31773618
-0.11464946 0.068195574 0.022761475 -0.22918941 0.18487783 0.08018582 0.10666711 0.08860979
0.38917175 0.36193785 -0.19537632 0.1732692 -0.06494273 0.14456296 -0.38813892 0.088718615
0.12863316 0.16461903 -0.41284418 -0.24630798 0.21680132 -0.19639993 -0.305035 -0.22574985
0.085105255 0.2202121 -0.25678954 0.08070607 -0.42195168 -0.25883004 0.06757519 -0.44270965
-0.15853606 0.21940862 0.10083099 -0.12661007 0.1675054 0.36521503 0.2448938 0.1687234
-0.16250077 -0.07261182 0.17622176 0.11792682 0.30463594 0.057347495 0.3489745 0.07703452
-0.057425775 -0.2881694 0.013531295 -0.058858145 0.0008075545 0.18197627 0.074198805 0.13928896
-0.5464408 -0.19694398 0.11138025 -0.42114273 -0.07111161 0.620401 0.02592365 0.3608332
-0.14345238 0.03274952 0.015649322 -0.26332793 -0.27737054 -0.19149168 -0.1279071 0.056870822
0.60372055 0.36326954 -0.27545387 0.18362597 -0.0065144375 0.13691218 -0.30810946 -0.07319955
0.26432654 0.04588298 -0.29332748 -0.39672118 0.10865063 -0.1921367 -0.15330675 -0.39408484
0.11228105 0.23051631 -0.21888539 0.2805114 -0.11488343 -0.25171497 0.050304692 -0.36362138
0.05489122 0.022399265 0.12936334 -0.16872591 0.26675406 0.3791475 0.11907554 0.141819
-0.2493232 -0.21711098 0.30173537 -0.119052045 0.23719339 0.10581624 0.49666753 0.052135438
0.1850539 0.010369868 0.32962936 0.046594795 0.043619376 0.14193322 0.23372859 0.06823185
-0.4355956 -0.2797329 -0.066734664 -0.2650147 0.078598 0.25609654 -0.022255357 0.31727743
-0.037472434 -0.03826026 0.05263579 -0.35862413 -0.152122 -0.021069437 -0.1952914 0.008661197

models.524263.layers.6.bias f4 [16]
00000000: 80c8 a73e 29f3 d63e 1b04 5fbd 7e25 de3e
00000010: 524d 0e3f dbb4 75bd a522 013f 4592 a93c
00000020: ca56 8fbb a27c d73e 65bc f7bd 162c 1bbe
00000030: 4eea b9bd 82a9 6bbd 32f5 ac3d 90dc 263d
0.32770157 0.4198239 -0.054447275 0.4338798 0.5558673 -0.05998693 0.5044349 0.02069963
-0.0043743597 0.42087275 -0.1209648 -0.15153536 -0.09077893 -0.057534702 0.08445205 0.04073769

models.524263.layers.9.weight f4 [1, 16]
00000000: 963a 8b3e ddcc eb3e 2134 17bf df22 f93e
00000010: 01e4 843e 7907 ebbe da61 943e 66e0 e3be
00000020: 9ad9 1dbf 68a2 e53e 8185 90be c71c b8be
00000030: 31e3 e0be 2936 c0be f74a d2be 081b efbe
0.27193135 0.46054736 -0.5906392 0.48659417 0.25955203 -0.4590414 0.28980905 -0.4450714
-0.6166016 0.4485047 -0.28226855 -0.35959455 -0.43923333 -0.3754132 -0.4107282 -0.4670031

models.524281.layers.0.weight f4 [64, 17]
00000000: 7cf4 52be b0d2 34be f0d5 aa3d 52c0 b1bd
00000010: 71a6 30be 24f8 b43d bcef 843d 5869 263e
00000020: 2976 68be da65 423e a44e 12be 48c0 213e
00000030: 5189 febd 25ca f3bd 50ea 6abe d0c4 223e
00000040: f073 a03d c058 893c d2c4 2cbe fc19 1ebd
00000050: 0c0b 203e dc6c de3d a0ed 083d 08b7 60bd
00000060: 1a04 c8bd 7a8d 233e b013 53be 5604 53be
00000070: 56d3 6bbe 21cd f4bd 60a9 6ebe 0250 47be
00000080: 102c 9cbc d03d f63d 1645 873d 0c17 243c
00000090: a954 2abe 5abc d7bd caaa 303e 7c56 a6bd
000000a0: 5a37 933c 22da 6fbc 9e70 723f dcec 72b9
000000b0: ef6f 8b3d 4658 723c 5c75 16bb 1136 493b
000000c0: b279 9cbd 4ce2 a8bd 66d7 60bd 5ada 00be
000000d0: 4e7c 5fbe 60d4 a83d 5c7b 50bd a29f 643e
000000e0: b8d1 52bd 2a84 6a3e c0e0 1abb 8e76 b2bd
000000f0: e543 09be e8c4 c23d c083 febb 2067 cfbd
00000100: 5036 6bbe 7044 98bc 3076 d03d c079 4e3b
00000110: a027 1d3c 2403 d83d adbd febd cc1b 393e
00000120: f0dd 613d baa5 17be 9e49 ffbd d231 6ebe
00000130: 1411 2abd e24f 2f3e aa2c 41be c8f7 b73d
00000140: f0ff 403d 34ef 10be 0414 f53d 68a6 653d
00000150: 76a7 033e 951c 2e3e 80f9 fabc 1972 85be
00000160: 5c8d 453e 03cc 2e3d a7ce 6a3e 7f7d 68be
00000170: 31f8 ddbd 796a 09bf 0818 9c3e 0d1c 98bc
00000180: ffe3 1abe 53f0 05be ef03 423c c1d2 7a3d
00000190: 7d93 d03c e695 393d a8d3 393d 0825 943d
000001a0: de8c 39be 1e58 11be a6f4 533e ecf8 a0bd
000001b0: 7e2f 26be f87c 153e 6ca9 35be 0836 e73d
000001c0: d06e fc3d 5814 bfbd b712 51be 8cd4 afbd
000001d0: d217 103e 441d 4ebd b487 5b3e 800c deba
000001e0: 48c9 09be da48 363e 8426 ab3d d643 b3bd
000001f0: 9cb4 753e 9041 3a3d d420 1b3e 5a77 603e
00000200: 00ae 0ebe 8c9c 00be 4c32 eb3d 0a03 293e
00000210: ab62 32be f4b5 5bbd a613 0abe 40d9 1e3d
00000220: 981e 4dbd 4e4d 5fbe 80bd fa3d ba52 26be
00000230: a028 9e3b bd1c f1bd 4849 efbd e842 3a3e
00000240: c69d 06be 769c c4bd 7a0c 5cbe a868 0cbd
00000250: 3217 143e 6f1d 0cbe 2cc0 35be 76af 85bd
00000260: e058 be3d c739 ddbe 23d0 09bc e53a 383d
00000270: aec0 0b3e 726d 5dbc 6328 deba f44c 08be
00000280: edb2 c33d b54f 1cbf 394c 0a3e f342 39be
00000290: 6ed5 17be 5368 b6bd a72f 1f3b 6b50 ebbd
000002a0: f9e3 1ebe 012a 4fbe 201e efbc 8044 bc3d
000002b0: 161a 35be 28e8 fc3d ef00 47be 6889 333e
000002c0: b0f3 163e 0026 853c 4842 a6bc 3883 7f3d
000002d0: 7031 90bd 30f8 213e b0cc 163e 82ac e0bd
000002e0: 2e79 5a3e b173 17be 603e 963c d387 983e
000002f0: b4fd 8b3d 1e1e 8e3e 15b1 b4be ed76 2fbc
00000300: 06f2 c4bd e825 7b3e 6a76 73be da98 5b3f
00000310: 30c9 253e 44f2 00bc 938c ec3d 2661 9bbe
00000320: 6f95 3d3c a3d5 c5bd f121 37be 8939 a8bd
00000330: e381 9cbe b328 583d 26af 053d 3ee2 23be
00000340: 91f4 a13c 1728 cfbd 1b16 1d3e f223 c5bd
00000350: 7132 6dbf af44 7abd b1a5 813a 5f84 7bbc
00000360: 2ecb afbc 0acf 07bc 3215 2f3b 8a7c 86bc
00000370: 450a e93c 75a6 1b3f 8838 babd 90a8 b3bd
00000380: e191 fc3d 43b0 34bc 71ca c5bd c64b ff3d
00000390: f680 e4bd 9f8b 793f 57d8 273d 9810 9a3d
000003a0: ada7 1a3e 6740 20bd 9662 f83b 4b99 cabb
000003b0: 564f 243d b1e1 3dbe 844b 353e 2e67 00be
000003c0: 28ca c83d b439 103e 5834 70be b8c5 2f3d
000003d0: a8ff 01be b08b 34bd 9717 23be a455 403e
000003e0: d870 d53d 018f 01be aa42 4b3e 6067 93bc
000003f0: 88cb 203d e0b9 ae3d c890 0ebe b8f0 483d
-0.20601076 -0.17658496 0.083415866 -0.0867926 -0.17250992 0.088363916 0.06491038 0.16251123
-0.22701325 0.18984166 -0.14287812 0.15796006 -0.12428535 -0.119037904 -0.22940946 0.1589539
0.07834613 0.016765952 -0.16871956 -0.038599 0.15629214 0.10860607 0.03342974 -0.054862052
-0.09766407 0.15971938 -0.20612979 -0.20607123 -0.23029837 -0.11953188 -0.23306799 -0.19464114
-0.01906398 0.120235085 0.06604974 0.01001526 -0.16633858 -0.10533972 0.17252651 -0.08121964
0.01797073 -0.014639409 0.9470309 -0.00023167155 0.06808459 0.014791554 -0.0022958135 0.0030702392
-0.07640399 -0.08246288 -0.05489292 -0.12583295 -0.21824762 0.08243632 -0.050898895 0.2232652
-0.051469535 0.22901979 -0.0023632497 -0.08714019 -0.13404806 0.09510213 -0.0077671707 -0.101270914
-0.22969937 -0.018587321 0.101787925 0.0031505674 0.009591967 0.10547474 -0.124385215 0.1807701
0.055143297 -0.14809313 -0.12465213 -0.23261192 -0.041520193 0.17120317 -0.18864694 0.089828074
0.04711908 -0.14153749 0.11966708 0.0560669 0.1285685 0.1700309 -0.030636549 -0.26063612
0.19292206 0.04267503 0.22930394 -0.22704123 -0.108383544 -0.5367809 0.30487084 -0.018568063
-0.15126036 -0.13079958 0.011841758 0.061236147 0.025460953 0.04530897 0.045367867 0.07233626
-0.18120143 -0.1419377 0.20698795 -0.07859978 -0.16229054 0.14598453 -0.1774041 0.112896025
0.12325823 -0.09330052 -0.20417295 -0.08585462 0.14071587 -0.05032088 0.21438485 -0.0016940981
-0.13455689 0.17801228 0.08356956 -0.08753173 0.23994678 0.04547268 0.15149242 0.21920529
-0.13933563 -0.12559718 0.11484203 0.16505066 -0.17420451 -0.05364032 -0.13484058 0.038781404
-0.050078005 -0.21806833 0.122431755 -0.16242495 0.00482662 -0.117730595 -0.11683899 0.18189585
-0.13146123 -0.09600155 -0.21489134 -0.034279495 0.14461973 -0.13683103 -0.17749089 -0.06527607
0.09294295 -0.43208143 -0.00841144 0.04497804 0.1364772 -0.013514863 -0.0016949292 -0.13310605
0.09555612 -0.61059123 0.13505639 -0.18091945 -0.1482751 -0.08906617 0.0024289878 -0.11489948
-0.15516652 -0.20230867 -0.02918917 0.09192753 -0.17685732 0.12348968 -0.1943395 0.17532885
0.14741397 0.016253471 -0.020295277 0.062381 -0.070406795 0.15817332 0.1472652 -0.10970403
0.21335289 -0.14790227 0.01834029 0.29791126 0.068354994 0.27757353 -0.35291353 -0.010709506
-0.09616475 0.24526179 -0.2377564 0.8578011 0.16190028 -0.007870261 0.1155025 -0.30347556
0.011571272 -0.096598886 -0.17884041 -0.08214099 -0.30567846 0.05277319 0.032637738 -0.16004273
0.019769939 -0.101150684 0.15340464 -0.09625997 -0.9265509 -0.061100658 0.0009891299 -0.015351384
-0.021459188 -0.008289108 0.0026715514 -0.016416807 0.02844728 0.6080087 -0.09092814 -0.08772385
0.12332512 -0.011028352 -0.09657753 0.124656245 -0.1115741 0.9747867 0.040977802 0.07522696
0.15103026 -0.03912392 0.0075801117 -0.0061828247 0.040114723 -0.18543126 0.17704588 -0.1253936
0.09804183 0.14084512 -0.23457468 0.04291317 -0.12695181 -0.04407853 -0.15926968 0.1878267
0.10421914 -0.12652208 0.19849649 -0.017993629 0.039256603 0.085315466 -0.13922417 0.049057692
