models/Ensemble/antikaon.pt (torch, 73127 bytes, 28 tensors)

models.524287.layers.0.weight f4 [64, 19]
000000 e0 7c 76 bd f5 53 65 3e 93 68 06 3e f5 0b 64 3e
       -0.060177684 0.22395308 0.1312583 0.22270186
000010 90 cd 1a bd c2 77 2d be 93 f2 1c be 6c 11 11 bd
       -0.037793696 -0.16940215 -0.1532691 -0.035417005
000020 c6 bc 84 3d 3c cd 14 be ef d3 4a 3e a6 fb bd 3d
       0.06481318 -0.14531416 0.19807409 0.09276514
000030 77 c9 66 3e f8 ee 9b bd e9 f5 0f be 98 22 c9 bd
       0.2253779 -0.07613939 -0.14058651 -0.09821051
000040 eb e8 63 3e 1c 63 fd bd 23 c3 2b be 57 9d 05 40
       0.2225682 -0.12372419 -0.16773658 2.0877283
000050 0d 71 07 3e 83 24 b4 39 17 53 ae bc a7 be 92 3f
       0.13226719 0.0003435948 -0.021279855 1.1464432
000060 bd 7c 59 bd 10 1a 4e be 9f 76 05 3d a9 32 ad 3c
       -0.053097475 -0.2012713 0.03258383 0.02114232
000070 1d 65 af 3b 6f 3f a8 3f b4 5c 00 bd 39 9a 69 bd
       0.00535263 1.3144358 -0.03133841 -0.057031844
000080 26 b8 94 bb 50 12 88 3a b5 96 0b 3c 04 26 02 3b
       -0.0045385538 0.0010381434 0.008519818 0.0019859085
000090 e5 7b a9 bc f0 0d ed ba 8b d4 2f be 39 01 41 3e
       -0.02068896 -0.0018085819 -0.17170922 0.18848123
0000a0 22 2b b0 3d 02 2b e2 3d 6b 7f 0c 3e d8 8e 18 be
       0.08601977 0.11043359 0.13720481 -0.1489824
0000b0 24 91 23 3d f6 8e c5 3d d8 5c b3 3c e3 80 67 3e
       0.03993334 0.09646408 0.021894857 0.2260776
0000c0 0e b7 fb 3d 5b e4 15 3e 47 a4 26 3e 28 a2 4e be
       0.12290774 0.14637892 0.16273604 -0.20179045
0000d0 e8 18 ab 3c 3e dc 4a be 52 70 eb 3d da 3a dc 3d
       0.0208859 -0.19810578 0.11496033 0.107534125
0000e0 5a 96 47 be 33 9f 4a 3e cd c2 34 be 30 c5 e5 bd
       -0.19490948 0.19787292 -0.17652436 -0.11219251
0000f0 3e 92 e4 3d 3e 6e 8a 3d 80 cb 2c bc 7e 95 8d bd
       0.11160706 0.06759308 -0.010546565 -0.06913279
000100 a3 6b 3c 3e 9a 75 8d 3d 08 66 ca 3c bb 6b 54 be
       0.18400435 0.06907196 0.024706855 -0.20744221
000110 75 96 04 3e 4c dc 3b 3d 7e b0 8c bd f7 70 41 3e
       0.1294802 0.04586439 -0.06869601 0.18890749
000120 8a d4 14 be be 6a 97 3d bc 57 3b bd 31 ac 1a 3e
       -0.14534202 0.07393406 -0.045737967 0.15104748
000130 46 1f 14 bf cf b0 04 be 22 a4 46 be 86 e4 23 bf
       -0.5786022 -0.12958072 -0.19398549 -0.64020574
000140 53 7c ae 3f 8b 24 40 bf 1b df bd be b3 51 45 bc
       1.3631691 -0.7505576 -0.37084278 -0.012043404
000150 11 e7 24 bd 20 0d a3 3d 8b db 04 3f 18 af d9 bd
       -0.040259425 0.07961488 0.51897496 -0.106290996
000160 0a 9c bb bd d5 b6 ab be 40 80 ab bd 8d 63 85 3c
       -0.091606215 -0.33537927 -0.08374071 0.016282821
000170 ec 06 d7 3d 99 66 3f 3e 5a 62 6c bd 59 b0 53 be
       0.10499367 0.18691482 -0.057710983 -0.2067274
000180 e0 28 a6 bd e8 84 1b 3a 1f 35 d2 be 73 d5 78 3f
       -0.08113265 0.00059325853 -0.41056153 0.972007
000190 06 51 7a bf 2f c8 54 bf e0 4d 0d 3e 8e 78 a2 bd
       -0.9777988 -0.83117956 0.13799238 -0.0793315
0001a0 8f dd 9f 3b 2f 1d aa 3f a0 ab 15 3d 7d c6 0a be
       0.0048787068 1.3290156 0.036540627 -0.1355228
0001b0 1c cf 3f 3c da a7 24 3c 8d 60 67 3c fe 35 56 ba
       0.011707094 0.010049785 0.014122141 -0.00081714976
0001c0 3a 15 93 bc 69 f2 0c bd 7a 7c a3 3e 2b ab 87 be
       -0.017954458 -0.034410868 0.31930906 -0.26497778
0001d0 bc 0f d4 3b e9 d1 f1 ba 0a 63 bc bf a5 c3 09 3e
       0.0064716022 -0.0018449399 -1.4717724 0.13453539
0001e0 04 c0 0e 3e 7c de 13 bd 03 21 86 3d e9 0e 08 3d
       0.13940436 -0.03610085 0.06549265 0.033217344
0001f0 13 40 5e bf 67 5e 9a bd 9b b6 aa bc 93 eb 40 3c
       -0.8681652 -0.07537537 -0.020839026 0.011774915
000200 cb 4a 17 bd 79 0e 8e bb b4 45 b1 3a b8 f1 65 bc
       -0.036936563 -0.0043352214 0.0013524801 -0.014034681
000210 a6 ad a0 3c 6a f8 a2 3d 20 14 4c bc 01 b1 2d 3e
       0.019614052 0.079575375 -0.01245597 0.16962053
000220 0d 4e e5 bd 32 8a 8d bd d0 85 84 bd e8 fc 67 bd
       -0.11196528 -0.06911124 -0.06470835 -0.056637675
000230 80 ad 97 bd 00 de b8 bc 13 fb 40 3e 11 5f 09 be
       -0.074061394 -0.022566795 0.18845777 -0.13415171
000240 89 61 ea bd 22 75 e2 3d 4c a5 58 3d 9d 6d f5 bd
       -0.114443846 0.110574976 0.052892014 -0.11983798
000250 69 22 41 be 62 b5 9e 3d 68 7e a4 bd 5a b5 00 be
       -0.18860783 0.0774944 -0.080319226 -0.1256918
000260 8d 39 a4 be 9c 92 88 3d e8 e3 07 ba bb d8 47 be
       -0.32075158 0.066685885 -0.0005183802 -0.1951627
000270 89 24 0b be 6c ba a3 bf 17 4e 85 bf 32 ff ec bd
       -0.13588156 -1.2791266 -1.0414456 -0.11572112
000280 11 10 62 be a5 6f 00 3b b7 76 42 bf f3 33 3a 3e
       -0.22076441 0.0019597795 -0.75962394 0.1818388
000290 a9 41 96 3a d3 45 1a bc 8e af f4 bc ae ad b9 3b
       0.001146366 -0.009416061 -0.029868867 0.005666456
0002a0 dd 0d 8b bb d1 a6 c8 bc 0e a2 f3 bb a4 31 e3 bf
       -0.004243596 -0.024493607 -0.00743509 -1.7749524
0002b0 2d 13 b6 be f5 08 9c ba aa 78 f9 bd 03 4d 92 bf
       -0.35561505 -0.0011904525 -0.12181218 -1.1429752
0002c0 75 05 0c 3e bd 64 5d 3e 2f 75 b6 3d 53 33 32 3b
       0.13673957 0.2162046 0.0890907 0.0027191236
0002d0 81 d9 a6 3a cd ea 9a bf 18 f2 a7 bc b2 47 f1 bd
       0.0012729616 -1.2102906 -0.020501181 -0.11781253
0002e0 d7 06 92 bc 8d af ce 3c 74 ff c2 bb f2 88 54 bd
       -0.017825527 0.025230194 -0.0059508625 -0.051888414
0002f0 d5 62 d8 bd 12 ca ac bd 3e aa 8b 3d 33 ff 2f be
       -0.10565726 -0.08436979 0.068195805 -0.17187195
000300 da 6a 4d be 56 5c 83 3d 60 b4 18 be d1 6a e1 bd
       -0.20060292 0.06414096 -0.14912558 -0.11006702
000310 f3 44 10 3e 8f 93 15 3e 6a b0 a3 bd 48 1e 92 bc
       0.14088802 0.1460707 -0.07992633 -0.017836705
000320 4f df 61 3e cc 08 46 be 74 53 99 bd e0 f5 53 bc
       0.22057842 -0.19339293 -0.074866205 -0.012937039
000330 d8 06 2e be cc 94 81 bd ef ad 5b 3e 00 68 61 3a
       -0.16994798 -0.06327209 0.21453069 0.0008598566
000340 4f 31 4d 3e 1a ae 1f bf 12 92 fc be d4 63 d7 b9
       0.20038341 -0.6237503 -0.49330193 -0.00041082373
000350 46 6e 3f bf ad c7 6e 3f 44 fe 4c bf 1b 37 80 bf
       -0.7477764 0.9327343 -0.8007548 -1.0016817
000360 55 5d a4 bc a3 b1 57 3d 85 dc da 3c 99 b3 87 3e
       -0.020064035 0.052659642 0.02671648 0.2650421
000370 4e 64 b5 bd eb f0 c3 3c 7a 1b 1d 3c d5 78 af 3d
       -0.08857022 0.02391859 0.00958907 0.08567969
000380 13 61 82 3c 64 b8 cd 3c 16 eb c9 3d fa c1 7f bb
       0.01591543 0.025112338 0.09859292 -0.003902553
000390 db 4d 8f be 60 75 1c bf ac 01 e0 3c 8d 57 0d be
       -0.27989087 -0.611166 0.027344547 -0.13802929
0003a0 dc 58 0a 3d ab 4a b6 be 3b d5 0e bf cc 53 b7 3d
       0.03377615 -0.35603842 -0.55794114 0.0895153
0003b0 2e d5 fd 3d 26 db 62 3a 82 d3 08 bf d5 1a 14 3e
       0.123941764 0.00086538715 -0.53447735 0.1446336
0003c0 ef a5 0d 3e 49 64 ab bc f1 46 0a 3d 83 c3 94 3a
       0.1383283 -0.020921843 0.03375906 0.0011349771
0003d0 fc 6c 63 3d 7e a1 5f bd b3 36 0b be f0 ff 24 bc
       0.055523857 -0.05459737 -0.13595085 -0.010070786
0003e0 5e 66 2e be a8 5c 15 be ea bc f1 3d 1c c2 6b 3d
       -0.17031237 -0.14586127 0.118036106 0.057558164
0003f0 78 37 44 bd 0a 3a ee 3d 38 59 fd 3c e8 ac 34 be
       -0.04790446 0.11632164 0.030926332 -0.17644083

models.524287.layers.0.bias f4 [64]
000000 a6 14 aa 3d 88 70 83 be 07 2b 46 3e ad 48 3a be
       0.083047196 -0.25671792 0.19352351 -0.18191786
000010 f3 58 ad be 89 db 4f 3e 4c b1 1d 3d a2 40 d2 3d
       -0.33856925 0.2029859 0.03849916 0.10266234
000020 4e a1 99 bd 05 9e e0 bd 6a ae db 3d e3 90 d6 bc
       -0.075014696 -0.1096764 0.10726626 -0.026192134
000030 da 1a ae 3d 00 90 46 3b 54 b7 2b be 45 9a 97 be
       0.08501215 0.0030298233 -0.16769153 -0.29609886
000040 5a b6 2e be 21 a8 15 be 4c e3 98 be d3 83 06 3e
       -0.17061749 -0.14614917 -0.29860914 0.13136224
000050 44 04 db 3d 9c ba 00 be 44 34 c8 bd 33 fc af be
       0.10694173 -0.12571186 -0.09775594 -0.343721
000060 ce 2e d0 be 56 a5 8f bd d6 9e 99 3d 64 3c 93 be
       -0.4066071 -0.07013957 0.07500999 -0.28757012
000070 7d 34 70 bd 7a f0 65 be 0c 5c 50 3d a8 4c 04 be
       -0.058643807 -0.22455016 0.050869033 -0.12919867
000080 1e d2 03 be aa d5 e1 3d f7 9b aa be e3 25 70 be
       -0.12873122 0.11027081 -0.33322117 -0.23451953
000090 37 b3 dd bd b0 85 92 bc b6 fe c0 bd 92 84 dd bd
       -0.10825198 -0.017886013 -0.09423582 -0.108163014
0000a0 e5 e3 2c 3e 4b dd 87 be ec fa 22 bd 47 2f f0 3d
       0.1688381 -0.2653602 -0.03979008 0.117277674
0000b0 36 fe 63 be 29 03 05 3e ac b1 36 b9 8e c4 f1 3d
       -0.22264943 0.12989487 -0.0001742306 0.11805068
0000c0 59 f7 64 3e 93 dc 1c bc c7 db 25 be df af 5a be
       0.2235998 -0.009574073 -0.1619712 -0.21356152
0000d0 cf dd 2c 3e ce 3e 55 be b7 bd f6 bd 40 b5 53 bb
       0.16881488 -0.2082474 -0.12047904 -0.0032304078
0000e0 f8 fe b5 bd 74 bb d0 bd 96 7f 89 bd 99 d9 81 be
       -0.08886522 -0.10192004 -0.06713788 -0.25361326
0000f0 48 37 51 be 4c 38 db 3d ce 05 83 be ef 6c 86 3c
       -0.20431244 0.10704097 -0.25590366 0.016409365

models.524287.layers.3.weight f4 [32, 64]
000000 ca 19 c6 bd 37 d1 ca 3e 00 2d 25 bb 44 d1 87 3d
       -0.096728876 0.39612743 -0.0025203824 0.06631711
000010 2a 5a 46 bc c6 45 8b 3e e2 a3 66 3d f0 32 1f bc
       -0.012106458 0.2720167 0.056308635 -0.009716734
000020 ec 07 14 bf f1 28 71 bd e4 db 89 3d 52 b9 07 be
       -0.5782459 -0.058876935 0.06731394 -0.13254288
000030 5e e1 00 3b ae bf ac bd e0 5e c4 bb 10 a7 ba bb
       0.001966558 -0.084349975 -0.0059927553 -0.005696185
000040 5a 55 da bd b4 f6 38 bd a3 79 77 3c 4b 9c 35 3d
       -0.10660811 -0.04515715 0.015104684 0.044338506
000050 27 70 74 be 8e 2a 8b bd 50 68 48 3d 4e 2f 21 3d
       -0.23870908 -0.06795226 0.048927605 0.039351754
000060 0b 44 c7 3d 3c 44 14 bd 80 13 94 bb 55 06 9f bd
       0.09729775 -0.036197886 -0.004518926 -0.077648796
000070 88 62 83 3c 18 8f 8c bd e0 3a 8f 3b 8c 3a 47 bd
       0.016038194 -0.068632305 0.004371032 -0.04863982
000080 aa a1 cf 3d 94 3b 95 bd 05 d7 8d bc ad 21 1a bf
       0.10138257 -0.07286754 -0.017314443 -0.60207635
000090 e9 af 0a 3e 42 73 52 3d 38 45 44 3d d8 5f 87 3c
       0.13543667 0.05137945 0.047917575 0.016525194
0000a0 88 98 23 bd a5 2c 9a bc d0 a7 77 bd 50 c4 20 bd
       -0.039940387 -0.018820116 -0.060462773 -0.03924972
0000b0 04 bd a1 be 9a 8c 61 3f 61 df 4b bf 84 61 9f bd
       -0.3158952 0.88105166 -0.79637724 -0.077822715
0000c0 20 75 2a 3c 60 4e fd 3c f7 4f 98 ba 85 18 0d bd
       0.010403901 0.030921161 -0.0011620511 -0.03444721
0000d0 f0 13 e6 3d fa 9a 99 3d 8f 88 6c 3c 56 df 97 bd
       0.112342715 0.075002626 0.014436855 -0.07415645
0000e0 7f 35 01 be 49 3f b5 3c 10 7e f4 3c bd 67 cc be
       -0.12618063 0.022124903 0.029845268 -0.39922896
0000f0 80 a4 f3 bc d1 14 58 3d 7f 97 25 be 28 ee 16 bd
       -0.029741526 0.052754227 -0.16171072 -0.036848217
000100 e0 46 b3 bd 9e 9b ea 3d e0 0c e6 3d 36 69 b7 3d
       -0.08753753 0.11455463 0.112329245 0.08955614
000110 67 60 0b 3c 3c 60 86 3e d1 6c 4b bd 68 ad b2 3c
       0.008506871 0.26245296 -0.049664322 0.021811202
000120 b9 c8 5a be 12 72 40 be 4a 8e cf 3d f2 5e 78 3d
       -0.21365632 -0.18793514 0.10134561 0.060637422
000130 99 74 bc 3d f8 98 9d 3d 40 69 74 bc 75 f5 ba bd
       0.09201927 0.07695192 -0.014917672 -0.091288485
000140 74 f8 68 3e b6 a7 df 3d 7e 44 d7 3d 52 bc 77 be
       0.22751027 0.1092066 0.10511111 -0.24192932
000150 d2 3a 80 be e6 97 ca bd 70 55 e1 3d dc f7 fc bd
       -0.25044876 -0.098922536 0.11002624 -0.12351963
000160 31 02 34 3e 17 cf 8b be 26 69 81 bd 3a 04 4a bd
       0.17578961 -0.27306435 -0.063188836 -0.049320437
000170 fb 42 44 3d ef f4 44 bd ee 14 81 3d c0 0b b1 3b
       0.04791544 -0.04808515 0.0630282 0.005403012
000180 10 47 9e 3c fc 4a 4a bd 78 ad 8c bd 05 07 25 be
       0.019320995 -0.049387917 -0.06869024 -0.16115959
000190 17 4b 58 3c e5 8f a9 bd 04 3b 5c bd e0 1a b1 3b
       0.013201497 -0.08279399 -0.05376722 0.005404815
0001a0 1c 9a 67 3d 17 d4 b5 bc f8 38 8a bd a3 e2 e8 3e
       0.056543455 -0.022195859 -0.06749147 0.4548541
0001b0 89 1a ec bd 3d 72 95 3e 4b 86 6a be 30 31 c9 bd
       -0.11528499 0.2918872 -0.22902791 -0.09823835
0001c0 70 93 ee bd 2a 19 ac 3d 29 87 88 bd df 96 9a 3d
       -0.11649215 0.08403237 -0.06666405 0.075483076
0001d0 f0 b2 0a 3f 50 fe 78 3c 8a b0 8f bc 68 54 b1 3c
       0.54179287 0.015197352 -0.017540235 0.021646693
0001e0 89 7d 0b bd 72 13 36 3d 00 4d 5f 3a 5b 47 4b be
       -0.034055267 0.04445214 0.0008518249 -0.19851439
0001f0 48 03 91 3c c3 25 4b 3d 73 94 f3 bd 6c 58 c1 be
       0.01770176 0.04959656 -0.11893549 -0.37762773
000200 00 b0 8c 3d fa 49 67 3c 4c e2 7b bd 30 0c a8 3c
       0.06869507 0.0141167585 -0.06149511 0.020513624
000210 20 78 84 3d f2 bf d0 3e 47 59 87 be 30 1a 5f bd
       0.064682245 0.40771443 -0.264353 -0.054468334
000220 06 53 7c 3e 18 69 50 be cc c1 fb 3d 80 d9 95 3d
       0.24641046 -0.2035259 0.12292823 0.073168755
000230 61 6c 10 3e e0 89 fd bc b8 f3 de 3c c0 c9 5d 3d
       0.14103843 -0.030949533 0.027215824 0.054147482
000240 d9 52 99 3d cc 68 20 3e b2 ab a2 bc 4f 97 f7 be
       0.07486505 0.15664977 -0.019857261 -0.48357627
000250 74 e2 95 3d ec da c7 3d 00 86 35 ba 5b a8 2d bd
       0.07318583 0.09758553 -0.00069245696 -0.042396884
000260 3f 70 1e be 49 ab a4 be 0c ee 23 bd 1c 32 0d 3e
       -0.15472506 -0.3216193 -0.04002194 0.13788646
000270 c2 d0 18 be 0c c7 b7 3c 94 73 bd 3d 16 1c e1 bd
       -0.14923385 0.02243378 0.092505604 -0.10991685
000280 58 d5 42 bd 4c f0 a4 bd 02 ba ce 3c b5 91 ff 3d
       -0.04756674 -0.080536455 0.02523518 0.12478963
000290 f9 85 80 bd 07 b3 2d bd b4 90 52 bd 00 b3 f5 bc
       -0.06275553 -0.042407062 -0.05140753 -0.02999258
0002a0 b0 75 ce 3c be 6c 24 bb 76 bf c7 bd ea 04 2f 3e
       0.025202602 -0.002508923 -0.09753315 0.17091718
0002b0 95 a5 66 3d aa 75 07 3f 4e da 0d 3e 40 3f 0f 3b
       0.056310255 0.52913916 0.13852808 0.0021857768
0002c0 68 4a 5f bd ef 75 0d 3e 2a 39 a9 3d d9 47 a0 bc
       -0.05451432 0.1381452 0.08262856 -0.01956551
0002d0 c3 6e 4a 3e b6 77 c3 3d 16 d6 ed bd a4 ca b1 3d
       0.19768815 0.095443174 -0.11613099 0.08681229
0002e0 5c 16 d1 3d 07 be 1a 3d f0 ed fd bc ba d3 66 bd
       0.10209343 0.03777888 -0.030997247 -0.056354262
0002f0 dc 75 ec 3d c1 f6 e1 3d ac 31 f5 3d 2b 41 bd be
       0.115459174 0.11033393 0.11972365 -0.36963782
000300 80 e0 cb 3c fc 2f 27 3d 98 1a f6 3d 78 c7 da bc
       0.024887323 0.040817246 0.12016791 -0.026706442
000310 94 af 41 3d 4c a3 4f 3e f9 75 43 3c 86 63 b4 3d
       0.047286585 0.20277137 0.011929982 0.08808045
000320 91 2b e2 be 86 e1 99 be c0 eb da bc 23 34 35 bd
       -0.44173864 -0.30054873 -0.026723742 -0.044239175
000330 60 40 37 bd 3c a8 65 bd 20 4b 1f bd fd fb 83 bb
       -0.044739127 -0.056068644 -0.038890004 -0.004027842
000340 a1 5e 67 3e 74 39 ac 3c ca b8 ca 3d 1c 87 31 be
       0.22594692 0.02102349 0.09898527 -0.17336696
000350 bc 4a 38 be e6 9a fa bd 80 f3 24 bd b6 f8 37 bd
       -0.17997259 -0.12236576 -0.040271282 -0.044914924
000360 f1 27 d7 3d f5 fb aa be c0 25 69 bd 24 76 af bb
       0.10505665 -0.33395353 -0.056920767 -0.0053546596
000370 0c 49 ab 3d 30 19 3f bd 50 04 cd 3d c0 1a 19 bc
       0.08363542 -0.04665488 0.10010588 -0.009344757
000380 68 6b 86 3c 22 5b c2 3d ce a4 ea bc f1 37 06 be
       0.016408637 0.094900385 -0.028643038 -0.13107277
000390 1c e3 f7 3d 5b bc 3a be 38 b3 5f bd 40 11 4f bb
       0.121038646 -0.18235914 -0.054614276 -0.0031595975
0003a0 08 87 a7 3c c8 b8 9b bd 24 51 d8 bd 4f 53 a8 3e
       0.02045013 -0.076036036 -0.10562351 0.3287606
0003b0 4d ea 18 be e6 d1 ec 3d 2f 6f 81 be 3a e9 a8 bd
       -0.14933129 0.115634724 -0.2528014 -0.082476094
0003c0 70 d8 9e bd 22 79 db 3d b9 dd 71 bd 51 7b 91 3d
       -0.07756126 0.107164636 -0.05904934 0.07103599
0003d0 e9 8b 9f bc 0c 96 ac 3d ad 23 71 bd aa a1 a5 3d
       -0.019475894 0.08427057 -0.058871914 0.080874756
0003e0 d2 d2 bd 3d ea df ae bb 8e b3 b1 3d f7 2e 05 bf
       0.092687264 -0.005336751 0.086768255 -0.5202479
0003f0 46 e9 be bd a1 36 17 3d 99 76 6f bd 26 07 e2 be
       -0.09321837 0.036917333 -0.058462713 -0.4414608

models.524287.layers.3.bias f4 [32]
000000 09 80 56 3e 2e 47 79 3e a4 c9 67 bd 13 71 2c 3e
       0.20947279 0.24343559 -0.056588784 0.1684001
000010 ac 0a 19 3b 41 1f 4f 3c 4d 96 19 3e 86 c1 a8 3d
       0.0023352308 0.012641729 0.14998741 0.08240037
000020 69 f5 42 3e 30 88 01 bc 07 fa d1 be d0 81 bb bd
       0.19038929 -0.007906005 -0.41011068 -0.09155619
000030 4f 37 12 3e 41 2e 3f 3e ed 50 c0 3d 4a b2 8f bd
       0.14278911 0.18669988 0.09390435 -0.07016428
000040 13 5c 46 bd 42 09 00 3b c9 05 1c 3e 11 ad 76 3e
       -0.048427653 0.0019536768 0.15236582 0.24089457
000050 b2 ee e9 3d cd d1 0f be 33 b7 f2 3d 0d 37 cd bd
       0.11422481 -0.14044876 0.11851349 -0.10020266
000060 c4 e0 41 3e a6 20 e5 bd 2a 1a 85 3d b8 2c 44 bd
       0.18933398 -0.11187868 0.06499131 -0.04789421
000070 a7 db 8a be 15 b4 f8 3d 7f ee 2e 3e 19 eb a8 3d
       -0.27120706 0.12143723 0.17083167 0.08247966

models.524287.layers.6.weight f4 [16, 32]
000000 f8 50 e9 be 17 19 1e 3d 49 2c 45 be c8 f7 3d bd
       -0.45569587 0.038598146 -0.19255175 -0.04637888
000010 19 1d 64 3d b7 43 7f be 17 6f 44 be 08 37 b0 be
       0.055691812 -0.24928175 -0.19183002 -0.34416986
000020 1a a1 9f be aa f3 c5 be 5c c9 9b bc 77 d0 3d bf
       -0.31177598 -0.38662463 -0.019016914 -0.7414622
000030 b9 d1 8d be 8b 9f 2d 3e 83 25 4a 3e 4c 89 3c bc
       -0.27699068 0.16955392 0.19740872 -0.0115073435
000040 b2 07 10 3e ec aa 35 bd 61 a7 e5 be be 1f 7c 3e
       0.14065436 -0.044352457 -0.44854262 0.24621484
000050 45 ad 9f 3e fa bc da be c4 a0 b4 be 21 dc c5 be
       0.31186882 -0.42722303 -0.35278904 -0.38644508
000060 69 5e a7 be 2b 98 3a be ce 83 b2 be ac 80 10 bf
       -0.32689217 -0.1822211 -0.34866184 -0.5644634
000070 73 b9 fc be 97 11 8f be de f7 38 3e c6 45 19 be
       -0.49360237 -0.27943107 0.18063304 -0.14968023
000080 6a a9 46 3e b0 47 c4 3d 8b da 47 3e 6e 2e 1a 3e
       0.19400564 0.09583986 0.19516961 0.15056774
000090 58 cb 9e bd 5c fa 7e 3d d5 26 02 3e f3 4c 7b 3e
       -0.077536285 0.06225048 0.12710126 0.24541073
0000a0 d5 9c ca 3a db 5a 86 3e 17 a5 f0 3d 7f 52 1d 3d
       0.0015458117 0.26241192 0.117502384 0.038408753
0000b0 d5 04 0f 3d cb d8 a2 ba 44 54 5a be 8b 7a e9 bd
       0.034916718 -0.0012424228 -0.21321207 -0.11400326
0000c0 bb d9 87 bd 51 97 ed bc 64 52 8a 3e df ee 6d 3d
       -0.06633326 -0.029002817 0.27015984 0.058089133
0000d0 7d 6d a7 bd 69 51 91 3e 71 dd 54 3e db 0c 5f bd
       -0.0817518 0.28382424 0.20787598 -0.05445562
0000e0 80 8b 97 3e 6d b5 95 bd 6a 5e ca 3c 8e b3 95 3d
       0.29598618 -0.07309995 0.024703223 0.07309638
0000f0 33 48 8b 3e a8 b9 8e 3e bf 2b d0 3d 87 b7 35 3e
       0.2720352 0.2787602 0.10164594 0.17745791
000100 6f 41 b5 3e 18 a1 45 3e f1 9e 91 3d 32 6c ac 3d
       0.35401484 0.19299734 0.07110394 0.08419074
000110 9b fe ae 3d 00 14 10 3e 42 ff 3e 3e e9 db c1 3e
       0.08544656 0.1407013 0.1865206 0.3786309
000120 e7 cc 76 3c 03 c3 83 3e 68 e6 29 bc c5 29 1d 3e
       0.015063501 0.2573472 -0.010369875 0.15347965
000130 53 9a 25 3e 2b be ca 3d 6c 1b 7b be 73 8a 1d 3e
       0.16172151 0.09899553 -0.2452218 0.15384845
000140 83 bf b5 bd 4f 19 06 3e 61 fc f7 3e e1 dd 05 3d
       -0.088744186 0.13095592 0.48434737 0.032682303
000150 35 3e 03 be 32 55 85 3e db 5b 48 3f 2f c5 ab bd
       -0.12816699 0.2604156 0.7826516 -0.08387219
000160 fb 43 22 3f 47 cf 36 be 9b bc bf 3e df 38 a7 3d
       0.6338498 -0.17852508 0.37448582 0.08165144
000170 6c 00 c7 3e 7e 7c bd 3e 04 3f 04 3e 0a 04 8f 3e
       0.3886751 0.37009043 0.12914664 0.2793277
000180 7f c7 57 3e a0 3c b4 3d 8f 74 4b 3e 8b 1b e6 3d
       0.21072195 0.08800626 0.19868682 0.11235722
000190 cb 71 52 bb f5 46 73 bd 2a 7a 97 3e 1d 2a 11 3f
       -0.0032111283 -0.05939384 0.2958539 0.56704885
0001a0 79 28 24 3e 5f 8e 53 3e 0c 73 8c bd a9 5f 04 3d
       0.16031064 0.20659779 -0.06857881 0.03231779
0001b0 34 3e 62 3d 84 01 8a bb 1b 07 2f be c6 a9 ca 3d
       0.055235103 -0.0042116065 -0.17092554 0.09895663
0001c0 af dc da bd 87 32 99 3d be 91 6b 3e 36 a1 58 3d
       -0.10686623 0.074803405 0.23004815 0.052888118
0001d0 18 6f a0 3c 75 be af 3e 99 ea 3b 3f f9 c4 9f bd
       0.019584224 0.34324995 0.7340484 -0.078012414
0001e0 e3 5c 21 3f 95 21 41 3b a5 bb c9 3c 1e 5a 1c 3e
       0.6303236 0.002946948 0.024625609 0.15268752
0001f0 8d 08 52 3e e0 ac 9a 3e ab 29 d3 3c ef 41 b8 3d
       0.20511074 0.30210018 0.025776705 0.08996951
000200 0f a4 a1 3e 0f a7 2c 3e 8f b3 80 3e 96 9c 94 3d
       0.3157048 0.16860603 0.25136992 0.07256429
000210 92 8f 3c 3a 18 1a 1d 3e a5 5f 6f 3e b7 8e 0d 3f
       0.00071930245 0.15341985 0.23376329 0.5529589
000220 f1 68 89 3d 3e 97 c2 3e 00 f3 c1 bd 5d 4e f9 3d
       0.06709469 0.38006014 -0.09470177 0.1217315
000230 c5 43 89 3d 26 58 82 b8 32 b1 26 be af 0a 11 be
       0.06702379 -6.215302e-05 -0.16278532 -0.14164232
000240 b0 20 33 be 89 07 5d 3e 9e 63 72 3e 23 33 41 3d
       -0.17492938 0.21584906 0.23670813 0.04716791
000250 bd 98 96 3c 64 e2 a8 3e 8b e0 77 3f dc b0 56 3e
       0.018383378 0.32985222 0.96827 0.20965904
000260 d1 48 11 3f e6 d2 8a 3d 51 fe 55 3e b8 7a b1 3e
       0.56751734 0.06778507 0.20897795 0.3466394
000270 f8 e9 83 3e 99 a7 a0 3d d0 61 a1 3d 85 82 39 3e
       0.25764441 0.07844467 0.078799844 0.18116195
000280 f9 29 8c be 9e a6 64 bd 68 cd 19 be 08 51 24 be
       -0.27375773 -0.05582296 -0.15019763 -0.16046536
000290 6a 97 0f be 33 24 8d be 9a 12 5f be 75 75 f8 be
       -0.14022604 -0.2756668 -0.2178444 -0.48527113
0002a0 f5 e8 d7 be 8a 0f 33 be 00 be 94 3d 32 a2 ca be
       -0.4216992 -0.17486396 0.07262802 -0.3957687
0002b0 92 44 e5 bd 2e e2 b9 3d 09 f3 76 3e e4 d0 d5 3d
       -0.111947194 0.090763435 0.24116148 0.10440233
0002c0 5d 1f 07 3e fa 09 48 be ca e9 c2 be 97 b3 ba 3e
       0.13195558 -0.19535056 -0.38068992 0.3646514
0002d0 4f f5 1c 3e 8f c8 c1 be 6a df b4 be 99 3f 8d be
       0.15327953 -0.37848327 -0.353267 -0.27587584
0002e0 7d e1 d5 be 99 9c e2 3c 8c df 39 be 8f 79 e5 be
       -0.41773596 0.027662562 -0.18151683 -0.44819304
0002f0 0c 1d ec be c5 ea f5 be 4a 5c 28 3e ab 11 9c bd
       -0.4611591 -0.48030677 0.16441455 -0.076205574
000300 1c fb 9b 3e 42 1d e1 bc 71 0d e6 3d 36 ff 07 3e
       0.3046502 -0.027479772 0.112330325 0.13280949
000310 d3 0d 22 bc bf 67 12 3d b3 f9 81 3e 0d 85 df 3e
       -0.009890991 0.03574347 0.25385818 0.43656197
000320 76 77 62 3e bf bd 4a 3e 26 c9 33 bd ac c6 d8 bd
       0.22115883 0.19798945 -0.043893002 -0.10584769
000330 75 b2 6c bd 18 12 8c 3c d9 01 14 be 01 8d a1 bd
       -0.057787377 0.017098472 -0.1445383 -0.078882225
000340 bb f4 a0 bd bb 8f f6 3d e2 59 e5 3e 7c a1 77 3d
       -0.07859179 0.12039133 0.44795138 0.060456738
000350 04 1a d4 bc 3e 7a e4 3d 19 8a 38 3f 50 33 a2 3d
       -0.025891311 0.11156128 0.7208572 0.07919943
000360 c4 13 1f 3f e5 dd e7 bd 15 e5 67 3e 4c f9 ff 3c
       0.62139535 -0.1132162 0.22645982 0.031246804
000370 ff c7 88 3e 39 37 49 3e a3 a0 24 3d 43 21 9d 3d
       0.26715085 0.19649972 0.040192258 0.0767236
000380 a5 ec d3 be 22 09 03 bf e9 be b0 be 29 a8 0c bf
       -0.41391483 -0.5118581 -0.34520653 -0.5494409
000390 7d fc 96 bd 08 35 b4 be ba 97 0b bf 19 1f ac be
       -0.07372377 -0.3519671 -0.5452839 -0.33617476
0003a0 e2 fb d3 bd 49 ae 81 be 4a cf b6 be 2b c7 16 bf
       -0.10350777 -0.25328282 -0.35705024 -0.58897656
0003b0 b5 c7 9b be f2 c7 70 3e fe 68 78 3e e6 7d 5e bd
       -0.30425802 0.23513773 0.24258801 -0.054319285
0003c0 2a d8 1c 3e fe 18 d5 be 21 2c c5 be ef 4e 74 3e
       0.15316835 -0.4162063 -0.3851023 0.23858236
0003d0 ca 89 ab 3e c2 21 c3 be 6e 43 d7 be ec 55 ce be
       0.33503562 -0.38111693 -0.42043632 -0.40299928
0003e0 bc 8b a3 be 13 cd d9 3d 66 8f bf be 10 3f bb be
       -0.31942546 0.10634818 -0.37414092 -0.3657155
0003f0 06 ea 04 bf 5e 7a 83 be 38 c3 9a 3e 0e 8b 24 be
       -0.5191959 -0.25679296 0.30227065 -0.1606867

models.524287.layers.6.bias f4 [16]
000000 12 11 41 3f c6 ae e1 bc 9e 51 a5 bd 37 a6 65 bc
       0.7541667 -0.027549159 -0.08072208 -0.0140166795
000010 f4 4c 13 bd 08 0d 2e 3f d6 d4 3b bd 16 00 eb 3e
       -0.03596206 0.67988634 -0.045857273 0.45898503
000020 cf 8c 98 ba 84 69 70 bd 7f 40 bf bd 52 2c 02 3f
       -0.0011638644 -0.058694378 -0.093384735 0.5084888
000030 c4 90 aa bd 36 1b 05 3d 76 aa 3b 3d 8b 8b 78 bd
       -0.08328393 0.032496653 0.04581686 -0.060679954

models.524287.layers.9.weight f4 [1, 16]
000000 2f fd 4d 3f 6e c1 be be 7a a1 6c be f2 99 dc be
       0.8046445 -0.3725695 -0.23108473 -0.430862
000010 7e 44 7a be af 8b 59 3f 67 9e 10 bf 0e 89 74 3f
       -0.2444019 0.84978765 -0.564917 0.9552163
000020 35 21 d1 be 51 51 bf be f6 28 ea be 3b 99 8c 3f
       -0.40845647 -0.37366727 -0.45734376 1.0984262
000030 8f b4 bd be 05 bf 70 be 71 7b cc be 03 08 dc be
       -0.37051818 -0.23510368 -0.39937928 -0.42974862

models.524263.layers.0.weight f4 [64, 17]
000000 36 90 18 be 48 24 0d 3d 04 e8 1e bd 70 99 97 3c
       -0.14898762 0.03445843 -0.038795486 0.018505782
000010 e6 10 62 3e 0a 82 44 be 6c 15 77 3e f8 95 81 bc
       0.22076759 -0.19190231 0.24129266 -0.015818581
000020 b4 74 45 3e ec bb 7d bd 9e ca 3d 3e e4 69 86 bd
       0.192828 -0.061946794 0.18534324 -0.06563166
000030 54 22 ac 3d 66 9d ee bd b8 10 56 3d ac ec b3 3d
       0.08404985 -0.11651115 0.052262038 0.08785376
000040 68 64 62 3e c3 4e 1a bf d2 0f fb bd b3 a5 ab 3a
       0.22108614 -0.6027643 -0.12258877 0.0013095647
000050 f3 d4 a1 bf dc 9e af bf a8 db 51 3d 38 f6 2a 3e
       -1.2643112 -1.3720355 0.05123487 0.16695487
000060 41 e8 37 bd 58 78 4f 3f b5 e6 15 be c6 f2 97 3b
       -0.04489923 0.81043005 -0.14638789 0.004637095
000070 05 c1 8b 3c ff c6 42 3d 89 a4 81 3c 6e d0 a4 3d
       0.017059812 0.04755306 0.015825527 0.08047567
000080 88 b2 41 3e fe b9 18 bd 92 03 57 be 69 a8 21 3e
       0.1891576 -0.03728675 -0.20997456 0.157869
000090 92 55 28 3e d4 06 3a be ba 77 47 be b1 0c 70 3e
       0.16438892 -0.18166667 -0.19479266 0.23442341
0000a0 f3 54 a0 3a 55 05 1a be 30 c4 1b be 48 e5 86 3d
       0.0012232348 -0.15041097 -0.15211558 0.06586701
0000b0 4e fb ca bd bd 22 36 3b 77 9c e3 bd cb b4 b5 bd
       -0.09911214 0.0027791702 -0.11113828 -0.08872374
0000c0 c3 6c 68 3e 58 a9 f6 3d 39 7a 9d 3d f6 75 2d 3d
       0.2269774 0.120440185 0.07689328 0.042348824
0000d0 7a 76 c5 3d a8 7c 72 3c 20 95 45 be 9b 4e 68 3e
       0.09641738 0.014800228 -0.19295168 0.22686236
0000e0 8a 88 00 bd e2 1c 8d 3d 18 0b 89 bd 03 87 de 3f
       -0.031380214 0.068902746 -0.06691569 1.7384952
0000f0 7b 85 02 bc 8c 47 da 3d e9 58 91 bd 43 7b 09 bd
       -0.007966395 0.10658178 -0.070970364 -0.033564817
000100 32 7a 62 3b 5e 19 d4 3c d9 24 e1 bd cc da 6a bd
       0.0034557697 0.025891002 -0.10993356 -0.057337567
000110 a2 8c 02 3e de 85 2f 3e 2c 29 44 3e c8 d7 d1 3d
       0.1274896 0.1714091 0.19156331 0.10246235
000120 e2 fd 3f 3e 2e 22 f6 bd 94 4f 4c 3e d0 c7 61 3d
       0.18749192 -0.12018238 0.19952232 0.055122197
000130 00 00 94 b8 50 e8 8e bc 48 be 0f 3d 7e 46 1d be
       -7.05719e-05 -0.01744476 0.035093576 -0.15358922
000140 cc 28 97 3d 20 f6 10 be 88 c8 09 3e d0 cd eb 3c
       0.07380828 -0.14156389 0.13455403 0.028784662
000150 d2 de df bd c7 31 70 be 4c 7a 39 bd 05 bf 47 be
       -0.109311715 -0.23456489 -0.045282647 -0.19506462
000160 40 93 bb bd 08 41 fd bd 00 16 ff bc cc 41 4c bd
       -0.09158945 -0.12365919 -0.03113842 -0.049867436
000170 be 37 56 be 08 17 73 3e 08 cc b8 bd 35 2f 04 be
       -0.20919701 0.23739254 -0.09023291 -0.12908633
000180 c0 c1 6c 3e f8 26 c5 bd dc e8 ef bd ee c9 20 3e
       0.23120785 -0.09626573 -0.11714336 0.1570203
000190 e8 b0 e6 3d 40 1e 4f be 74 5f 0f 3e 62 7d 27 3e
       0.11264211 -0.20226383 0.14001256 0.16356423
0001a0 44 b6 b6 3d 0e 35 1a be 82 7d 0e be 18 c6 0c be
       0.08921483 -0.15059301 -0.13915065 -0.13747442
0001b0 68 3b 03 be 5c 0f 63 bd 16 28 66 3e 7c cd 24 3e
       -0.1281563 -0.05543457 0.22476229 0.16094011
0001c0 90 1a 77 3e 90 2a 6d be cb 70 16 be 7e fb c7 bd
       0.24131227 -0.23160768 -0.14691465 -0.09764765
0001d0 e0 19 60 3d 58 d6 82 3d 20 f4 3c bd 0e 7d a2 3d
       0.054712176 0.06388539 -0.046131253 0.079340085
0001e0 2d 0c 3b bc 76 08 28 3d 7b 96 65 be 9f 1d 28 3e
       -0.011416477 0.041023694 -0.22420685 0.1641755
0001f0 78 1b 38 3e 82 a9 da 3d cd dd de 3d fc 15 71 3e
       0.17979228 0.10676862 0.10882149 0.23543543
000200 25 8c 72 3e dd 07 2e 3e 7b cd 31 bd 42 fc 43 3e
       0.23686273 0.16995187 -0.043408852 0.19139197
000210 5a f6 15 bd be 8c cd 3d 93 8d 4c 3e e8 c4 a3 bc
       -0.036611892 0.1003661 0.19975881 -0.019991353
000220 ad 76 25 40 d6 fa c5 3c 17 d7 3d bb ea 3e 38 3f
       2.5853684 0.02416746 -0.0028967315 0.71971
000230 08 83 86 3e 74 63 f4 bd 52 af 15 bb d8 dc 87 bd
       0.26271844 -0.11933032 -0.0022840095 -0.066339195
000240 fc d0 b1 bf 67 92 7a 3d ae a7 8a 3d ef 69 39 3c
       -1.3891902 0.061174776 0.067702636 0.01131676
000250 9a e0 b9 bc 98 1b eb bb 56 6e 76 3d c1 09 e7 3d
       -0.022690106 -0.0071749203 0.06016382 0.11281157
000260 68 96 27 bd 8c d7 6d 3e 56 32 5b 3e ca 04 29 be
       -0.040914923 0.23226756 0.2140592 -0.16505733
000270 2e 29 76 3e d2 5a c9 bd 61 15 1c be f4 90 b9 bd
       0.24039146 -0.09831776 -0.1524253 -0.09060851
000280 4a cd 08 be f2 64 3a be 08 59 e1 bc 58 62 ff 3d
       -0.13359562 -0.1820257 -0.027508274 0.124699295
000290 c7 51 4e be 84 9b 5b 3e 30 48 e4 bd 00 1a 82 3d
       -0.20148383 0.21446043 -0.11146581 0.06352615
0002a0 ae 13 02 3e 40 82 5a be 80 36 90 bd 70 43 0c be
       0.1270282 -0.21338749 -0.07041645 -0.136976
0002b0 20 17 1e bd 74 da 8e 3d ab 5b 5f be 40 26 2c bb
       -0.038596272 0.069752604 -0.21812312 -0.0026267916
0002c0 b6 6c 3d 3e 58 ac b1 3d 20 2a a7 bd bc c9 63 be
       0.18498501 0.0867545 -0.081623316 -0.22244924
0002d0 a0 63 a4 bd 04 8b 98 3d be 82 53 3e d2 ff 1e be
       -0.080268145 0.0744839 0.20655343 -0.15527275
0002e0 90 77 f8 3d b5 0e 23 be 20 a4 7f 3d dc 9b eb 3d
       0.1213218 -0.15923579 0.06241238 0.11504337
0002f0 c6 99 62 3e dd 8d 08 be 63 0a 36 be f0 41 d4 bd
       0.22128972 -0.13335367 -0.177774 -0.10364139
000300 84 c6 e4 bd 25 bd 0a be 68 59 38 3e 94 10 85 3d
       -0.11170676 -0.13548715 0.18002856 0.06497303
000310 84 ad 6b be e8 11 27 3e d4 5d cf 3d 2e b3 77 be
       -0.2301541 0.16315424 0.10125318 -0.24189445
000320 8f d3 52 be c0 ec ea 3c cc a4 84 3d 4c 7f a2 bd
       -0.20588516 0.028677344 0.06476745 -0.07934436
000330 40 1e 42 3d 70 19 d6 3c 10 bd da 3d 6d 54 6c be
       0.04739213 0.026135176 0.10680592 -0.23079081
000340 d6 40 15 be f0 62 92 3c 40 18 29 3b d8 ab 49 3e
       -0.14575514 0.017869443 0.0025801808 0.1969446
000350 f0 63 35 3e 5e 83 3f 3e 66 f8 8a bd e4 66 26 bd
       0.17713904 0.18702456 -0.067856595 -0.040625468
000360 00 ec fa 3d 6f da 07 be 04 91 76 3e 86 6c 46 be
       0.12252045 -0.1326692 0.24078757 -0.19377336
000370 63 bb 5d be b8 cf ff bc 66 e5 11 3e 5f f5 f0 bd
       -0.21653514 -0.031226978 0.14247665 -0.11765551
000380 80 be 0c 3c 00 31 11 be 1c a1 4b 3e e3 c3 34 be
       0.008590341 -0.14178848 0.19885677 -0.1765285
000390 ed b6 66 be d2 e4 64 3e 7e ba 02 3e 26 27 6d 3e
       -0.22530718 0.22352913 0.12766454 0.23159465
0003a0 48 41 7c 3d e8 ad ef bd 42 cb d1 bd f0 c9 23 3d
       0.061585695 -0.11703092 -0.102438465 0.039987504
0003b0 e8 8f b3 bc 1c 2a 71 be 43 14 66 be c8 8b 84 bd
       -0.021919206 -0.2355122 -0.22468667 -0.06471974
0003c0 10 77 2f bc c8 d6 9e bc c0 84 a9 bd 80 4d 21 bc
       -0.010709539 -0.019389525 -0.08277273 -0.009845138
0003d0 c8 8e 3a be 40 4e 37 3c f7 bf 5f be 2e bc 00 3e
       -0.18218529 0.01118809 -0.21850573 0.12571785
0003e0 b8 a4 1f 3d 86 88 58 3e 74 1d c2 bd 3c e5 35 be
       0.038975447 0.2114583 -0.09478274 -0.17763227
0003f0 b0 31 c7 bd 80 fd e7 3b 32 84 61 be 7a 17 5d be
       -0.09726274 0.00707978 -0.22023085 -0.21590987

models.524263.layers.0.bias f4 [64]
000000 70 cc 88 bc ee 34 6e be 8c 76 52 bc a9 ac 64 be
       -0.016699046 -0.23262379 -0.012845647 -0.2233149
000010 3d 8a 4b be a8 c4 26 3d c0 43 6b be 7a 84 44 be
       -0.19876952 0.04071489 -0.22975063 -0.19191161
000020 4a f3 24 be 98 ac fd bd e4 10 6d be d7 25 40 be
       -0.16108432 -0.12386435 -0.23150975 -0.18764435
000030 b6 77 48 3e e4 e5 bc bd a8 5e c4 bc 73 fe bb 3d
       0.19576916 -0.09223536 -0.023970917 0.09179392
000040 7c 23 8e 3d 8a 41 e7 bd 62 1a 78 3e e4 0a 0d bd
       0.06940362 -0.112917975 0.24228814 -0.034434214
000050 06 60 ef bd 3c f8 54 3e ae 93 84 be 78 6f d3 bd
       -0.11688237 0.20797819 -0.2589392 -0.10323995
000060 41 a4 5b be 39 c7 81 3d dd 90 ee bd 2e 18 29 3e
       -0.21449377 0.06336827 -0.11648724 0.1651313
000070 e6 d1 1b 3e 53 5b cb 3c 02 17 76 3e a6 55 1b 3e
       0.15216789 0.02482382 0.24032214 0.15169391
000080 3c 4d c8 bd cd bd 1c 3e bc 01 fb 3d 3e 46 4f be
       -0.09780356 0.15306778 0.1225619 -0.20241639
000090 53 6b f3 3d f7 45 3b be 6c f9 8a 3d b3 f9 3f be
       0.11885705 -0.18288408 0.06785855 -0.18747596
0000a0 82 4f f4 3d a1 a4 c2 3c 5c d4 85 be da 82 3f 3e
       0.119292274 0.023760142 -0.2613858 0.1870226
0000b0 8b e4 c3 bd b6 bc 8e bd e9 ec 1f be 08 2a 28 3d
       -0.095650755 -0.069695875 -0.15617718 0.04105571
0000c0 c5 d6 76 be 1c 63 37 3e e4 ea 43 3e 00 36 6d 3b
       -0.24105366 0.17908901 0.19132572 0.0036195517
0000d0 cc 60 c0 3d d8 8a a3 3d e0 c3 29 3c 0c 10 12 3e
       0.093934625 0.07985467 0.010361642 0.14263934
0000e0 1a 5d b7 bd dd 71 29 be 3f 1d d3 bd c6 1a 0d 3e
       -0.089533046 -0.16547342 -0.103083126 0.13779745
0000f0 70 05 a8 bc d0 dc 25 3d 84 de ce 3d ef 31 1d 3d
       -0.020510405 0.040493786 0.10101035 0.0383777

models.524263.layers.3.weight f4 [32, 64]
000000 48 80 d7 bd bb cc cf bd a8 14 e1 3d f8 f2 0d 3e
       -0.105225146 -0.10146471 0.10990268 0.13862216
000010 9c 8e d3 3d 88 91 0b bd 2a 62 89 bd e7 39 0e 3c
       0.10329935 -0.034074336 -0.067081764 0.008680797
000020 b4 94 59 bc d2 11 e9 bd 50 54 b5 bd 58 4f d0 bd
       -0.0132800825 -0.11380352 -0.08853972 -0.101713836
000030 10 1c 44 3c c8 c5 66 3d 9c 4b e6 3d 1a e6 90 bd
       0.011969581 0.056340963 0.1124489 -0.070751384
000040 3f 73 3d bf 5e d8 6f bd a4 ab ed 3d b0 74 c6 3d
       -0.74003977 -0.058555953 0.116050035 0.09690225
000050 a4 7c b2 bd 50 18 14 bc 7a 54 87 bd 75 ec 86 3d
       -0.087151796 -0.009039 -0.066079095 0.06588069
000060 50 28 95 3d 4c 8d c2 3e 62 93 19 bc 80 30 19 bb
       0.072830796 0.37998426 -0.009373518 -0.0023374856
000070 70 64 0b bc 54 30 84 3d 8a a0 ee 3d e8 5d df bd
       -0.008507833 0.0645453 0.11651714 -0.10906583
000080 9c bd 62 3d 01 ae b2 bd 80 a4 94 3a f0 e0 0e 3e
       0.055356607 -0.08724595 0.0011340529 0.13952994
000090 15 d0 f5 ba 2f da 42 3d 90 25 71 3d 63 7f a2 be
       -0.001875403 0.047571357 0.058873713 -0.31737813
0000a0 cd 1c c5 3d 67 b8 38 3d c3 bb 30 3d 96 ee ce 3d
       0.09624634 0.045097735 0.043147814 0.101041004
0000b0 8a d1 ad bd 08 82 ee bc 06 98 60 3f 24 5b fd bd
       -0.08487232 -0.029114738 0.8773197 -0.12370899
0000c0 7e e2 bd 3d 00 ef 83 3b a8 e6 2a 3d 94 20 58 bd
       0.092717156 0.0040262938 0.041723877 -0.052765444
0000d0 64 b7 f6 bd d6 af cd bd 08 17 c7 3c d4 49 05 ba
       -0.12046698 -0.10043304 0.024302974 -0.00050845486
0000e0 28 88 87 3c 49 9a 01 bf 5e 24 7a be 80 dd f5 bb
       0.016544417 -0.50626045 -0.24427935 -0.0075032115
0000f0 8a 2d d5 bd 44 de 88 bd 90 11 65 bd ef 23 09 be
       -0.104090765 -0.06683019 -0.055924952 -0.13392614
000100 dc 98 be 3d 69 02 ba bd 36 9b e5 bc 45 17 17 3e
       0.09306499 -0.09082491 -0.028028112 0.1475497
000110 02 5e f7 bd d2 c3 c5 3d e0 a0 c0 bc e0 73 11 bc
       -0.120784774 0.096564904 -0.023514211 -0.008877724
000120 9d b3 13 bb 7c 98 4c bd fc df 37 bd 78 46 31 bd
       -0.0022537478 -0.049950108 -0.044891343 -0.043280095
000130 74 30 a6 3d cc 37 f8 3d fc 88 8e 3d 44 59 d1 bd
       0.081147105 0.121200174 0.069597214 -0.10222104
000140 69 15 34 bf 66 c4 ae bc d8 45 5a bd ec 4d 76 3d
       -0.7034517 -0.021333884 -0.053289264 0.060132906
000150 8e c4 8d 3d 70 02 01 3d b0 1d fc bd 55 ce c0 3d
       0.069222555 0.031496465 -0.1231035 0.09414355
000160 90 02 80 bd 47 c5 f9 3d 8d f0 96 bc 3a 58 d0 3d
       -0.06250489 0.12195831 -0.01842525 0.10173078
000170 b8 81 35 bd 2e 2d 95 3d 40 19 77 3c 5c c9 00 3d
       -0.044313163 0.07284008 0.015081704 0.03144203
000180 11 17 81 bd dc af bc bd 90 7e 05 bc cf 09 20 3e
       -0.06303228 -0.0921323 -0.008147851 0.15628742
000190 2d 3f 38 3d 91 11 bf bc e0 3b 86 3d ab a9 9d be
       0.044982124 -0.023323806 0.06554389 -0.3079351
0001a0 56 4d 01 3e ce 82 32 3d 3c 7c 38 bd 72 bd 8f bd
       0.12627158 0.043581776 -0.045040354 -0.07018556
0001b0 ab 01 21 be 62 63 53 3d 9f 0c 00 3f 0a 6f bf bd
       -0.15723293 0.05160845 0.5001926 -0.09347351
0001c0 ac 05 68 3d a8 f0 43 3d 80 fe da 3d 20 7e e5 3d
       0.056646034 0.04783693 0.10693073 0.11205697
0001d0 74 6c c8 bd b2 3f 8b bd 60 6b e4 3b 2b d4 fd 3d
       -0.09786311 -0.06799258 0.006970808 0.123939835
0001e0 7e 4c c9 bd 29 80 00 bf 02 78 2f bd e0 63 b3 3b
       -0.09829043 -0.50195557 -0.042839058 0.0054745525
0001f0 b0 26 40 3d 6c 52 54 bd 90 72 cb bd 40 60 94 3e
       0.046911895 -0.051836416 -0.099339604 0.28979683
000200 70 d4 bd bc 64 88 20 be 48 66 9e 3c fd d6 a6 3e
       -0.023172587 -0.15677029 0.01933588 0.32585898
000210 48 e8 ec 3c 12 1f a7 bd d8 f4 83 bc 18 ab 4a 3d
       0.028919354 -0.08160223 -0.016107962 0.049479574
000220 e0 fd 08 be 0c 33 0e bd 60 0c 9d 3d 22 79 94 bd
       -0.13378096 -0.03471665 0.07668376 -0.07249667
000230 68 74 e5 bc c0 4f 4a bd 74 dd 38 3d f4 9c a1 bd
       -0.028009608 -0.04939246 0.04513307 -0.078912646
000240 3d bf e3 be 2a 6e 80 be 46 6a ec bd 0e aa 90 bd
       -0.4448184 -0.25084049 -0.115437075 -0.07063685
000250 78 37 ce 3c 5c 51 ef 3d e7 2d 6a bc 94 ce 2f be
       0.025172934 0.1168544 -0.0142931705 -0.17168647
000260 10 3a 2e bc 42 4c ff 3e 54 95 01 3d 9e 1f e0 3d
       -0.01063396 0.49862868 0.03163655 0.109435305
000270 06 78 ee 3d 90 13 aa 3e 9c 38 9b bd ba 46 dd 3d
       0.116439864 0.3321805 -0.07579157 0.10804506
000280 82 5c 86 3a d7 52 f3 bd fe ee ce bd 7b 01 8c 3d
       0.0010250958 -0.11881035 -0.10104178 0.0683622
000290 aa bc 52 3c 45 8d 9d 3d 00 93 71 3a d2 04 35 be
       0.012862364 0.07692961 0.0009215325 -0.1767762
0002a0 9c 89 f5 3d b7 6f 77 3e d5 79 e4 3b 70 c1 76 3d
       0.119891375 0.2416371 0.0069725313 0.06024307
0002b0 aa bc 82 3d c3 fe 02 bb d5 39 11 3f a2 2d b5 3d
       0.06383641 -0.0019988276 0.5672887 0.088465944
0002c0 10 76 10 bc 80 60 b3 bb 74 73 73 3d 84 33 95 3d
       -0.008817211 -0.00547415 0.059436277 0.072852165
0002d0 54 6d 08 3d 78 0b d3 bc 80 c0 60 bb 5c 51 98 bc
       0.03330739 -0.025762305 -0.0034294426 -0.018593483
0002e0 52 67 e3 3d bc 5e 5b be 05 f7 67 bd 10 c7 e9 bc
       0.11103691 -0.21422857 -0.05663206 -0.028537303
0002f0 48 0e f4 bd 80 38 92 bd 58 b1 fa bd 64 c0 09 bd
       -0.119167864 -0.07139683 -0.12240857 -0.033630744
000300 30 ef bd bc c0 26 12 3e a7 c2 8a 3b 4d 48 bc bd
       -0.023185343 0.14272594 0.00423463 -0.09193478
000310 1c fb 86 3d 9a 9f ff 3d 8c 3f 7b bd 10 98 24 3c
       0.06590864 0.124816135 -0.0613399 0.01004602
000320 49 8a d9 3c 78 b5 a5 bd 3a ce b4 bd e8 5c 54 3d
       0.026555197 -0.08091253 -0.08828397 0.051846415
000330 c0 84 c6 3d 34 08 3a bd 48 93 8f bc 00 a6 4d 3b
       0.09693289 -0.04541798 -0.017526284 0.0031379461
000340 9b cd 9d 3e 5c 6a d6 be c8 e7 ce bc 38 bf 96 bc
       0.30820927 -0.4187802 -0.025257006 -0.018401727
000350 44 17 f6 bd a8 60 b9 3d 99 e5 dd be cd 30 df 3b
       -0.12016156 0.09051639 -0.43339232 0.0068112374
000360 30 e3 aa bc ad 5c 99 be 06 aa aa bd 00 a7 d5 3a
       -0.020860285 -0.29953519 -0.08333211 0.001630038
000370 70 70 f3 3d 54 7f 94 be 00 a7 5e 3a 9c b8 e6 bd
       0.1188668 -0.29003394 0.0008493513 -0.1126568
000380 8e 17 9a bd c2 ed 1f 3e 42 cc 93 3d ee 7f 7c be
       -0.07524024 0.15618041 0.072166935 -0.24658176
000390 24 d1 b8 be 39 b6 be 3d ce dc d0 bd ec ba ba 3d
       -0.36097062 0.093121 -0.10198365 0.09117684
0003a0 32 14 9b 3c 1c 8e 6e bd 05 9d d8 3d f4 26 df 3d
       0.018930528 -0.058240995 0.10576824 0.108961016
0003b0 f0 a9 5f 3e ec 14 fc bb 6c f1 a4 be a2 99 ef bd
       0.2184217 -0.007692924 -0.3221544 -0.11699225
0003c0 f2 0b b1 bd 0e 69 97 bd 2a ba b3 bd 48 20 cf 3d
       -0.086448565 -0.073930845 -0.08775742 0.10113579
0003d0 c0 84 91 bd f0 46 bc 3c 92 d8 b3 3d 5f 53 ab bd
       -0.07105398 0.022983044 0.08781542 -0.08365511
0003e0 6e 99 c4 bd 91 b4 62 3e 99 37 8e be a8 4c b7 3c
       -0.09599577 0.22139193 -0.27776793 0.02237542
0003f0 6c 50 1b 3d 2a 87 c5 3d 80 2d 90 3a 58 d8 be be
       0.037918493 0.09644921 0.0010999888 -0.37274432

models.524263.layers.3.bias f4 [32]
000000 79 7a 69 3e c0 b7 e1 3d ee 80 ad bc b2 59 f6 3d
       0.22800626 0.11021376 -0.021179643 0.12028827
000010 bf 30 7a be 3d 99 37 3e e4 f1 01 3e ab f9 8b 3e
       -0.24432658 0.1792955 0.1268993 0.2733892
000020 8c df 88 3d d9 d6 01 3e 53 7a e0 3d ef 38 8d be
       0.06683263 0.12679614 0.109608315 -0.275825
000030 5e 0b 7c bd 5f a1 2a be d9 35 f6 bd 80 ab 00 3e
       -0.061534278 -0.1666312 -0.120219894 0.12565422
000040 54 2f eb 3d 41 60 70 3d c7 74 37 be b8 d2 c3 be
       0.114836365 0.058685545 -0.17915641 -0.38246703
000050 63 3d 65 be 06 69 a6 3d 7e ef bb bc e0 e2 f4 3b
       -0.22386698 0.081255004 -0.022941347 0.0074733347
000060 b8 a3 0a 3e 56 49 19 bc da d4 d6 bc 59 c3 24 3e
       0.13539016 -0.009355864 -0.026224542 0.16090144
000070 ff 67 bd 3d 13 f8 90 be 1b 1a 21 be 2e e3 2d 3e
       0.09248351 -0.28314266 -0.15732615 0.16981193

models.524263.layers.6.weight f4 [16, 32]
000000 da 6a ed 3d 78 9e 84 bc 15 60 02 3f 05 6a eb be
       0.11592646 -0.016188845 0.5092786 -0.45979324
000010 6d e9 cb bc 77 5b 0f 3f ee 19 75 3e ae 60 d7 3e
       -0.02489158 0.5599894 0.23935673 0.42065948
000020 0f 39 7d 3c 1a ad 41 bc e5 0c bb 3d e3 82 4a bd
       0.015455498 -0.011821056 0.09133319 -0.04944123
000030 79 ae cc bd 56 e2 19 3e 2a c6 f1 3e 54 01 e7 3e
       -0.099942155 0.15027747 0.472215 0.451182
000040 34 ff 42 3d 92 40 0b be 7a 09 e9 3e fe 72 ad bd
       0.047606662 -0.1359885 0.45515043 -0.08469199
000050 dd c1 2c bd 9f e1 ac bd ba 02 85 3e 36 2c 87 3e
       -0.04217707 -0.08441471 0.25978643 0.26400918
000060 20 5b f0 3d 5b 99 7f 3c df 64 e4 be 3f a3 bb 3d
       0.11736131 0.015600528 -0.4460821 0.09161996
000070 0b 13 95 3e 3e 6b c9 be 0a e6 7f 3e 31 71 e9 3e
       0.2911609 -0.39339632 0.24990097 0.4559417
000080 78 6d 01 bf aa d7 f3 be fc 31 84 bd 8f 43 3a 3e
       -0.5055766 -0.47625476 -0.06454846 0.18189834
000090 0c 52 c1 be 50 d9 d8 be 1a 20 44 3e 58 fc b2 be
       -0.3775791 -0.42353296 0.19152871 -0.34958148
0000a0 4c e0 9b be f6 24 b7 be 60 0a b6 be 45 55 2b bf
       -0.30444562 -0.35770386 -0.3555479 -0.66926986
0000b0 74 05 1f bf 29 b0 02 bf 76 0b 05 be 92 d7 ec bd
       -0.62117696 -0.5105005 -0.12992653 -0.11564554
0000c0 0b c4 a4 be 00 65 9c be 43 8b 9f be c9 f6 67 bf
       -0.3218082 -0.30545807 -0.31160936 -0.9061094
0000d0 d0 82 6d 3d 6e 8e e0 be 84 6c 08 be 54 12 74 be
       0.05798608 -0.43858665 -0.13322645 -0.23835117
0000e0 01 68 83 be c9 12 aa be 20 3a d7 3e d5 10 cd be
       -0.25665286 -0.33217457 0.42036533 -0.40051904
0000f0 4b 97 ca 3d b2 2d 1d bf 41 da 52 bd cb c5 01 bf
       0.09892138 -0.6139785 -0.051477674 -0.50692433
000100 ce 5e a7 3e 84 d9 4f 3d 19 62 19 3f 54 a3 de be
       0.32689518 0.05074455 0.5991531 -0.43483984
000110 d9 ad 28 bd 60 bb 15 3f 16 b7 76 3d aa 8c 10 3f
       -0.04118142 0.58489037 0.060233198 0.56464636
000120 70 1f f2 3d 42 10 36 bd 8d 6a 8a 3e e0 f4 49 3e
       0.118224025 -0.0444491 0.27034417 0.19722319
000130 8f 32 85 bd e8 0a 09 3e f6 6b 00 3f 5a 08 08 3f
       -0.06503784 0.13383067 0.50164735 0.53137743
000140 94 88 92 3d aa 66 b3 3d cf 64 df 3e 41 43 aa 3e
       0.071549565 0.08759816 0.43631598 0.33254436
000150 d0 94 eb bd ab a4 35 3e 08 60 8a 3e bb 8f e0 3e
       -0.11502993 0.17738597 0.2702639 0.43859658
000160 1a 24 5f 3d 33 14 a6 3e 38 f7 bc be 88 5d 6a 3e
       0.05447779 0.32437286 -0.36907363 0.22887242
000170 26 6c e7 3e 95 82 a4 bd ee a2 7f 3e a6 60 18 3f
       0.45199698 -0.08032719 0.24964496 0.59522474
000180 fa 99 15 3e 67 f3 60 3d 6c 7e 1d 3f 5d cc 8e be
       0.14609519 0.054919627 0.6152103 -0.27890292
000190 ae 63 c2 3d 89 e5 13 3f 1a b0 fd 3d ff 6d ba 3e
       0.09491669 0.5777212 0.12387104 0.36412045
0001a0 03 e8 1a 3e 34 cc aa 3d 96 47 89 3e 15 a5 a4 3d
       0.15127568 0.0833973 0.26812428 0.080392994
0001b0 f7 c0 7b be c6 ca 93 3e 57 b8 c2 3e fd 2a 61 3e
       -0.24585329 0.2886564 0.38031265 0.21989055
0001c0 7f 20 27 3e cb 8f b3 3d ba 56 c8 3e 50 55 05 3e
       0.1632099 0.08767661 0.39128667 0.13020825
0001d0 cb ed d5 bd 6e 28 e8 3d fa 40 f4 3e 59 16 d5 3e
       -0.10445746 0.11335836 0.47705823 0.41618612
0001e0 07 81 f4 bc c1 37 e1 bc 95 7e 89 be 09 6a 9b 3e
       -0.029846681 -0.027492406 -0.26854387 0.30354336
0001f0 e4 fa f8 3e 79 75 49 be 64 28 ab 3e 12 30 00 3f
       0.48628914 -0.19673719 0.33429253 0.5007335
000200 ce 2d 6e be 63 0a 4b bd e9 3b 6a 3d aa d0 da bd
       -0.2325966 -0.049570452 0.05718604 -0.10684331
000210 33 49 63 3d 79 4f 40 be 8a 63 b5 3e 5e 30 ce 3c
       0.05548973 -0.18780316 0.35427505 0.025169548
000220 75 f3 88 bd 93 98 8e bd 9c d4 49 be 85 b1 36 3e
       -0.06687061 -0.06962695 -0.1971001 0.17841156
000230 c6 1a c9 3b 68 93 fc bd c8 0a 2a be de 4c f8 bd
       0.006137225 -0.12332803 -0.16605675 -0.12124036
000240 46 73 07 bd 3c 25 16 be 86 d3 7a be 3f 79 2e be
       -0.033068918 -0.14662641 -0.24494752 -0.17038439
000250 24 45 18 be b6 d2 15 be 6c c9 97 bb d7 e0 a7 bc
       -0.14870125 -0.14631161 -0.0046321657 -0.020492954
000260 b1 be 06 be 8b 6a 59 be 44 f4 46 bc 4a 16 d7 bc
       -0.1315868 -0.21232049 -0.012143198 -0.026255745
000270 73 4e a0 3c 3c ca b0 3c 3e f4 a3 bd 29 79 54 be
       0.019568658 0.021580808 -0.0800557 -0.20749344
000280 e5 b9 bd be e3 8e aa be e3 d8 77 be fe 34 b2 3e
       -0.3705589 -0.3331214 -0.2420383 0.34806055
000290 7e d2 14 bf ec 1c be be 88 b1 84 3e 0e d6 88 be
       -0.58133686 -0.3713144 0.25916696 -0.2672581
0002a0 38 44 2a be c5 c7 8e be e9 fd 4e be 37 59 0b bf
       -0.16627586 -0.27886787 -0.20214047 -0.54433006
0002b0 36 55 d9 be e1 6c 8b be a8 3e 8b bd 00 94 25 bd
       -0.42447823 -0.27231506 -0.0679906 -0.040424347
0002c0 2a 6a 5d be e0 28 4d be d3 79 73 be 79 11 86 bf
       -0.2162253 -0.20035124 -0.23776941 -1.0474082
0002d0 de c8 e7 3c aa a1 ad be 90 af 26 be ae 30 71 be
       0.028294023 -0.33912402 -0.1627791 -0.23553726
0002e0 24 84 de be 1c b6 93 be b1 0d a3 3e 79 3b c2 be
       -0.4346019 -0.28849876 0.31846383 -0.37936
0002f0 7b 69 f6 3c 43 93 f4 be 49 64 bf bd e6 68 98 be
       0.030079594 -0.47768602 -0.093453 -0.2976753
000300 34 c0 f4 3e 74 d7 29 3d 6b b9 c4 3e 37 76 d1 bc
       0.4780289 0.041465238 0.38422713 -0.025569065
000310 ad 1d b5 3e 9e 24 05 3f 8b 45 9d bb 8f 73 a5 3e
       0.35374203 0.52009 -0.00479955 0.32314727
000320 33 50 bf 3d 56 c9 80 bd 02 05 88 3e 45 61 fb 3e
       0.09341469 -0.06288402 0.2656632 0.49097648
000330 c8 b9 2a 3e 73 0f 76 3e 01 3b 92 3e 29 ed c6 3e
       0.16672432 0.24029331 0.2856064 0.38852814
000340 80 2c 4a 3d bf 52 16 3e 60 e1 ec 3e 0c ce 71 3f
       0.049358845 0.14680003 0.46265697 0.9445503
000350 2a de c1 bd a4 a4 a4 3e 8b 21 ac 3e d2 fd a8 3e
       -0.094662026 0.3215686 0.3361934 0.3300615
000360 f6 a1 86 3e 0e 76 1b 3e 8e 62 53 3d 56 79 c7 3e
       0.2629544 0.15181753 0.05160766 0.3895976
000370 4b 69 22 3e 2c e7 db 3e 2f 26 71 3e ed e4 08 3f
       0.15860479 0.42949808 0.23549722 0.53474313
000380 57 d7 a6 be e7 a7 a1 be 8b 14 81 be 41 96 83 3e
       -0.32586166 -0.31573412 -0.25210986 0.25700572
000390 ae 2d d8 be 05 7f bd be 99 e8 ab 3e 2b af 90 be
       -0.4222235 -0.3701097 0.33575895 -0.28258643
0003a0 aa 30 e2 be a6 e2 ba be db 78 8b be a4 3e a7 be
       -0.44177753 -0.36501044 -0.27240643 -0.32664979
0003b0 22 cc b1 be d9 7f 6b be 39 46 91 be 79 f9 8a bd
       -0.34726053 -0.22997989 -0.28373888 -0.067858644
0003c0 0b 16 e9 be a2 c8 b5 be 7e 12 24 be 1a 36 6e bf
       -0.4552463 -0.35504633 -0.16022679 -0.930513
0003d0 7f 85 9e 3d 30 b3 bf be 1b fc 45 be ad 41 57 be
       0.07740306 -0.37441397 -0.19334452 -0.21021147
0003e0 c4 55 2a be 32 2e 9d be 7f 87 7b 3e 23 58 a0 be
       -0.1663428 -0.30699307 0.24563406 -0.31317243
0003f0 4c 30 cd 3b d5 3d 1e bf b9 f6 b8 bd 2e 39 bd be
       0.006261861 -0.618131 -0.090314336 -0.36957687

models.524263.layers.6.bias f4 [16]
000000 14 ed 14 3e 56 ee f4 3e 3a 14 11 3e d0 38 aa 3d
       0.14543563 0.47838086 0.14167872 0.083116174
000010 62 70 1b 3d f1 c9 cb 3e 63 46 5d bd 80 7c d4 3e
       0.037948973 0.39802507 -0.054022204 0.41501236
000020 de 82 26 3e 18 04 89 bd c6 a8 3f 3d b8 c8 8b be
       0.1626086 -0.06690234 0.046791814 -0.27301574
000030 16 c1 7b 3d cf c1 38 3e b4 de ae 3e 02 72 c5 3c
       0.061463438 0.18042682 0.34154284 0.024102215

models.524263.layers.9.weight f4 [1, 16]
000000 f6 37 25 bf 5f 57 6a 3f 02 fd c1 be 6f f1 c6 be
       -0.64538515 0.9153957 -0.37888342 -0.38856074
000010 8a 5b 03 3f ed 51 5f 3f ff 60 f8 be 7a 43 80 3f
       0.5131155 0.87234384 -0.48511502 1.0020592
000020 6f ed 03 bf 63 24 d7 be 6b b4 bf 3e 35 33 3b bf
       -0.5153417 -0.42019948 0.37442335 -0.7312501
000030 bd 21 04 bf fe 27 c3 be 1d 4d 99 3f 2f 73 34 bf
       -0.5161398 -0.3811645 1.1976658 -0.70488256
