models/Ensemble/kaon.pt (torch, 71199 bytes, 28 tensors)

models.524287.layers.0.weight f4 [64, 19]
-0.40749922 -0.0017208579 -0.11225965 -0.49491888 0.4714065 -0.45394412 -0.32775155 0.2118925
-0.02776215 -0.12490784 -0.073264614 0.14470527 -0.1209882 -0.016379725 -0.1646859 -0.0030913542
-0.1778419 0.18095145 0.17602496 -0.11329837 0.06757565 0.0042947195 -0.25417197 0.3174818
-1.548613 -1.2230451 -0.018798484 0.0941869 0.019626826 -0.122176275 -0.04421159 0.043134265
-0.033381637 -0.0087402435 0.01610469 -0.014071132 -0.048630588 0.007996686 -1.3211428 0.30294642
0.000672571 0.32703388 -0.46692637 -0.9025754 -1.0048043 0.16433808 -0.058202818 0.010281703
-0.11937484 0.05409167 -0.06794973 0.025914326 -0.004800278 0.0032128973 -0.04950072 -0.045436032
0.0038098628 1.2913113 0.7076151 -0.016488986 0.38521552 0.23142573 -1.1928866 -1.2375531
-0.06303199 0.22885197 0.05640383 -0.4051627 -0.08998129 0.002403239 0.05946726 -0.026572337
0.011788508 -0.15583578 -0.072689295 0.06374059 0.67236966 0.127049 0.0014610075 -0.3113583
2.0511837 -0.4112273 -0.75702363 0.03730351 0.049706288 -0.015810017 -1.0625051 -0.060936432
-0.0072410274 -0.013187358 0.019790908 0.011024015 0.021334592 0.024212338 0.0023950785 0.020776587
0.59328103 -0.06285022 -0.63847476 1.5527483 -0.34089267 -0.32430458 -0.01213878 -0.25252306
-0.14978746 -0.7266306 0.015951853 0.105597265 0.20913193 0.23990929 0.017467678 -0.022095224
0.097035356 0.063740395 -0.18658994 -0.10531005 -0.069523975 -0.036932543 -0.06042902 0.1131392
0.11766954 -0.051128954 0.102610454 0.16583629 -0.04028307 -0.093589604 -0.06971952 -0.16118434
0.09344782 -0.12824959 -0.15451774 -0.07085572 -0.11348722 -0.0028527826 -0.016346902 -0.07096158
0.22564106 -0.0739703 -0.038184613 -0.21243069 -0.14284721 0.19853367 -0.0848005 0.16593157
0.03344877 -0.09546265 0.038385645 0.12163408 -0.19517592 0.13901927 -0.13125676 -0.1976637
0.6046242 0.20194018 0.0016298889 0.2527718 -0.5837301 0.6602104 0.5476751 0.03795766
0.017844044 0.04831879 -1.2168852 -0.031428304 -0.1687886 -2.524879e-05 0.022247085 -0.0082689505
0.07607952 0.16366453 0.0023777997 -1.2038386 -0.5073525 0.0010951017 -0.35322526 -1.2697874
0.36940923 0.06260687 0.011127669 0.007354114 0.0174787 1.1856931 -0.04130801 -0.0070923604
0.008501739 0.056746006 -0.0069305147 0.010486323 0.07096719 0.03855589 2.124999 0.07790076
-0.0013288857 0.24596153 1.0906203 -0.25272945 0.08299189 0.023394857 -0.026612915 0.014353577
-1.1618207 0.01225961 -0.04506633 -0.0068421806 0.005278055 0.007967207 0.0061838264 0.05401144
0.052054327 0.07208593 -0.0025219917 -0.2157358 0.0019032657 -0.03780411 0.10991414 0.16887526
-0.09042649 -0.20939976 0.20243196 -0.033141255 -0.14083858 0.0025966614 0.20348705 0.026485935
-0.08270283 0.102690086 0.10759528 0.028972015 -0.13812509 -0.009766534 -0.057245657 0.11665048
0.20290615 -0.1511434 -0.05971317 0.0648592 0.19037135 0.14379404 0.17284866 0.14104189
0.19695733 -0.023149475 0.03024228 -0.069138095 0.20288984 -0.18758337 0.046024725 0.119702056
-0.1950826 -0.11912076 0.22880255 -0.017645404 0.061648354 0.0766149 -0.21340592 0.08206399
00000000: bda3 d0be 698e e1ba 63e8 e5bd 0266 fdbe
00000010: 315c f13e 5d6b e8be 0dcf a7be 59fa 583e
00000020: 736d e3bc aecf ffbd c20b 96bd 9e2d 143e
00000030: a9c8 f7bd c62e 86bc 6ca3 28be 5198 4abb
00000040: 301c 36be 564b 393e e33f 343e fa08 e8bd
00000050: 1a65 8a3d b8ba 8c3b d422 82be f98c a23e
00000060: f338 c6bf be8c 9cbf 47ff 99bc 10e5 c03d
00000070: 70c8 a03c 8e37 fabd 3617 35bd 8ead 303d
00000080: 2fbb 08bd 3d33 0fbc fced 833c 9b8a 66bc
00000090: de30 47bd 8804 033c 351b a9bf cb1b 9b3e
000000a0: 7a4f 303a fc70 a73e f910 efbe 2e0f 67bf
000000b0: 6d9d 80bf 3e48 283e 1466 6ebd 9774 283c
000000c0: cc7a f4bd 3a8f 5d3d 3a29 8bbd 484a d43c
000000d0: a74b 9dbb 798f 523b 44c1 4abd 221b 3abd
000000e0: e4ae 793b b049 a53f 4326 353f e913 87bc
000000f0: f83a c53e defa 6c3e 82b0 98bf 2468 9ebf
00000100: ea16 81bd 2c58 6a3e b407 673d 7c71 cfbe
00000110: 1c48 b8bd a97f 1d3b f193 733d 3bae d9bc
00000120: 9624 413c 6a93 1fbe 20de 94bd 6d8a 823d
00000130: 6b20 2c3f 2219 023e 477f bf3a 5b6a 9fbe
00000140: 9846 0340 628c d2be 4dcc 41bf 91cb 183d
00000150: d298 4b3d 0284 81bc 2b00 88bf 7b98 79bd
00000160: 2446 edbb ca0f 58bc 8b20 a23c 129e 343c
00000170: e2c5 ae3c f458 c63c c0f6 1c3b a933 aa3c
00000180: 44e1 173f 9eb7 80bd 1573 23bf 75c0 c63f
00000190: 7c89 aebe 400b a6be bce1 46bc b44a 81be
000001a0: e261 19be 7704 3abf 76ad 823c 6143 d83d
000001b0: ae26 563e c8aa 753e 6018 8f3c 0b01 b5bc
000001c0: 79ba c63d 538a 823d 6f11 3fbe ccac d7bd
000001d0: 9662 8ebd 9446 17bd 6c84 77bd 86b5 e73d
000001e0: bafc f03d 986c 51bd 6e25 d23d fdd0 293e
000001f0: dcff 24bd e8ab bfbd 1cc9 8ebd 820d 25be
00000200: 9261 bf3d dc53 03be e639 1ebe ce1c 91bd
00000210: fd6b e8bd c0f5 3abb f0e9 85bc 4e54 91bd
00000220: 730e 673e be7d 97bd 7867 1cbd 6e87 59be
00000230: 8a46 12be 694c 4b3e e2ab adbd f7e9 293e
00000240: 9401 093d ec81 c3bd 443a 1d3d 4a1b f93d
00000250: 32dc 47be 115b 0e3e 2c68 06be 5a68 4abe
00000260: a7c8 1a3f 68c9 4e3e ffa1 d53a 4e6b 813e
00000270: 566f 15bf 8c03 293f 6f34 0c3f 7e79 1b3d
00000280: ac2d 923c ece9 453d e5c2 9bbf f7ba 00bd
00000290: ebd6 2cbe 5dcd d3b7 853f b63c 7e7a 07bc
000002a0: 94cf 9b3d ad97 273e dcd4 1b3b 6217 9abf
000002b0: dae1 01bf 8489 8f3a f1d9 b4be 6588 a2bf
000002c0: 3523 bd3e 0838 803d d450 363c c8fa f03b
000002d0: 7e2f 8f3c cbc4 973f 9732 29bd 0867 e8bb
000002e0: e14a 0b3c 806e 683d 5f19 e3bb d4ce 2b3c
000002f0: 3f57 913d c8ec 1d3d fcff 0740 6f8a 9f3d
00000300: 012e aeba 57dd 7b3e 7299 8b3f c165 81be
00000310: a7f7 a93d 92a6 bf3c 5403 dabc 442b 6b3c
00000320: 8ab6 94bf 88dc 483c 7997 38bd 5f34 e0bb
00000330: 89f3 ac3b e388 023c b2a1 ca3b 1a3b 5d3d
00000340: eb36 553d caa1 933d 0048 25bb d8e9 5cbe
00000350: 0077 f93a 7cd8 1abd aa1a e13d a3ed 2c3e
00000360: 8631 b9bd e46c 56be 534a 4f3e 20bf 07bd
00000370: fd37 10be c02c 2a3b e95e 503e 08f9 d83c
00000380: 1a60 a9bd 2e4f d23d ea5a dc3d b856 ed3c
00000390: aa70 0dbe d003 20bc 6c7a 6abd 72e6 ee3d
000003a0: a1c6 4f3e 56c5 1abe cc95 74bd e6d4 843d
000003b0: b5f0 423e bf3e 133e 3dff 303e 496d 103e
000003c0: 2faf 493e f8a3 bdbc a8be f73c 4698 8dbd
000003d0: 5bc2 4f3e db15 40be 6c84 3c3d 5a26 f53d
000003e0: bcc3 47be 96f5 f3bd 374b 6a3e 188d 90bc
000003f0: fc82 7c3d 46e8 9c3d 1587 5abe 2a11 a83d

models.524287.layers.0.bias f4 [64]
-0.23263343 -0.3506386 0.057725567 -0.18086971 -0.085307464 -0.065881446 0.2276511 0.1318049
-0.21980551 -0.21829969 -0.25318456 -0.08359636 -0.17216781 0.19765483 -0.10525095 0.017151162
0.15427895 -0.0039406177 0.18932897 -0.416125 -0.05192346 0.047006443 0.13002324 -0.017595828
-0.15526521 0.019378781 -0.25206453 0.0113634225 0.11922754 0.07900877 0.12904693 -0.09818183
-0.28049794 -0.08797925 0.07811688 -0.2254429 -0.10533633 -0.12500808 0.137484 -0.21949989
0.033173732 0.122722186 0.15630148 -0.13441265 -0.096586734 -0.025398383 0.10409774 0.20090298
0.01621081 0.14515053 0.12557016 -0.034815907 -0.18724464 0.042833526 -0.12081779 0.17276041
-0.11246723 -0.16846564 0.097606756 0.14563072 -0.034372635 -0.11499326 0.09322365 -0.22849517
00000000: 7537 6ebe e786 b3be a571 6c3d e935 39be
00000010: aeb5 aebd daec 86bd 5f1d 693e ddf7 063e
00000020: b214 61be f489 5fbe 68a1 81be 9234 abbd
00000030: c24c 30be 0766 4a3e cf8d d7bd 9880 8c3c
00000040: 4dfb 1d3e 4c20 81bb 74df 413e 560e d5be
00000050: b2ad 54bd d489 403d d024 053e 2025 90bc
00000060: d8fd 1ebe 40c0 9e3c 9a0e 81be a62d 3a3c
00000070: 922d f43d 5acf a13d e124 043e 8e13 c9bd
00000080: 6d9d 8fbe 772e b4bd befb 9f3d 81da 66be
00000090: 93ba d7bd 1e02 00be 9bc8 0c3e 94c4 60be
000000a0: 2ee1 073d c555 fb3d 7f0d 203e 78a3 09be
000000b0: 44cf c5bd 4510 d0bc 3231 d53d 83b9 4d3e
000000c0: 88cc 843c 57a2 143e 7795 003e 209b 0ebd
000000d0: 0fbd 3fbe 3572 2f3d 516f f7bd 1be8 303e
000000e0: 3855 e6bd 4282 2cbe 0de6 c73d 3820 153e
000000f0: 52ca 0cbd 9681 ebbd 0aec be3d a3fa 69be

models.524287.layers.3.weight f4 [32, 64]
-0.05242964 -0.37703395 -0.5561861 -0.12386639 0.09781203 -0.112747386 -0.0634329 0.030676484
-0.109315276 0.053965256 -0.09354352 0.079735935 -0.08513816 0.00568223 0.06449516 -0.08767815
0.09586199 0.019941017 -0.08505161 0.07037612 0.014263299 -0.052343577 -0.77501136 0.07513185
0.038548544 0.09243727 0.018529885 -0.04512485 0.118466765 -0.02687496 -0.23834804 -0.070335954
-0.08615467 -0.0020438947 -0.09174059 -0.085823715 0.04643444 0.040693656 0.09354125 0.15103735
-0.25494432 -0.05512005 0.10138154 0.01800999 0.0879294 0.03721918 -0.004203408 -0.04395634
-0.04201688 0.01791276 -0.25558224 -0.03207791 -0.60929435 0.2835484 0.09101735 0.029091015
-0.11402165 -0.6973353 0.017293395 -0.18247248 -0.56532186 -0.053228106 -0.015229046 0.009226325
-0.034737434 0.03735292 0.029853921 -0.21536444 0.16936398 -0.030760325 -0.089424044 -0.07762538
0.17560266 -0.18647464 0.3212383 -0.06299326 0.09827332 -0.077037066 0.07960658 0.04285671
0.08301866 0.12251137 -0.050897904 0.12150724 -0.23910193 0.013520762 0.07474244 -0.10519855
0.122107565 0.08588058 0.1251705 -0.26203817 0.04313883 0.11052276 0.010140421 -0.0854557
0.054986134 0.035888106 0.010587886 -0.112064615 0.009702536 0.6108571 -0.06469682 -0.17697299
-0.012295703 0.12231471 0.05796802 0.04728459 -0.056431577 0.0073480704 -0.075185366 -0.11624095
0.12104651 -0.10791409 0.30095568 0.09332608 0.15882774 0.57956696 0.00817962 -0.07838793
0.11272888 0.05636831 -0.12602684 0.059120093 0.1611866 -0.16213973 0.075313345 0.018735494
-0.081789136 -0.34370002 -0.11295156 -0.063099384 -0.28481096 -0.12828508 -0.05492419 -0.0019543618
-0.009345095 0.07510557 0.53356683 -0.028610945 -0.095436275 -0.05875434 -0.11609906 -0.083356336
0.0040965974 0.07318769 -0.0534384 -0.039248724 -0.100369826 0.12397373 -0.49686012 0.066453174
0.075449556 -0.06979889 -0.03647817 0.08502263 -0.011420399 0.1001081 -0.51385164 0.10807575
0.058743827 0.12773545 0.09903574 -0.097009525 0.057327796 0.2687561 0.059164986 0.08514323
0.0057864487 0.070526734 0.06384824 -0.11534613 -0.0047985613 0.03776588 0.005008692 -0.049124762
-0.06574236 -0.008739293 -0.21453983 -0.035682335 -0.45308575 1.0552936 -0.10970755 0.103891924
-0.36492193 -0.4430038 0.09489993 -0.44267064 -0.6033552 0.09965601 -0.028511837 0.019510081
0.04853239 0.0072428794 0.21931386 -0.26416308 0.21461292 0.021636315 -0.029347569 -0.07833372
0.1960956 -0.18056956 0.13382503 0.091443 0.053027302 0.038680673 0.11734621 0.057011425
-0.060430825 0.05307703 -0.025575 0.13205199 -0.23595679 -0.028677046 0.1411768 -0.027469948
0.0877921 0.0020527244 0.024913512 -0.1718795 0.10292335 -0.019399896 0.07968837 -0.0074349195
-0.054781545 0.050314143 -0.048925295 0.023983136 0.028982537 0.87655616 -0.11043158 -0.15893787
-0.059218545 0.073338106 0.018780991 0.054616988 -0.02069661 0.007812499 0.01539117 -0.010928333
-0.04358177 -0.067752 0.3028527 -0.03972584 0.03419275 0.66232234 -0.040597484 -0.036643654
0.06483818 0.09424342 -0.15508188 0.055582445 0.052046545 -0.08729671 -0.0217904 -0.06456622
00000000: 76c0 56bd 980a c1be 3662 0ebf a9ad fdbd
00000010: ac51 c83d 1ae8 e6bd 1ce9 81bd 404d fb3c
00000020: b0e0 dfbd ac0a 5d3d bf93 bfbd 984c a33d
00000030: ea5c aebd 0032 ba3b 0a16 843d 9a90 b3bd
00000040: 4a53 c43d 585b a33c 8a2f aebd 5b21 903d
00000050: 9db0 693c 3866 56bd 2567 46bf bade 993d
00000060: 14e5 1d3d c04f bd3d fccb 973c d6d4 38bd
00000070: b49e f23d e028 dcbc 8211 74be 4c0c 90bd
00000080: dc71 b0bd ddf2 05bb 7ee2 bbbd 58c4 afbd
00000090: 0a32 3e3d 64ae 263d 8e92 bf3d 89a9 1a3e
000000a0: 1088 82be 90c5 61bd 20a1 cf3d b089 933c
000000b0: 5414 b43d 2473 183d bebc 89bb 900b 34bd
000000c0: e419 2cbd c8bd 923c addb 82be 2064 03bd
000000d0: b7fa 1bbf 422d 913e 4e67 ba3d 4850 ee3c
000000e0: 2f84 e9bd 9184 32bf e1aa 8d3c 11da 3abe
000000f0: efb8 10bf b705 5abd 4083 79bc 032a 173c
00000100: d748 0ebd 60ff 183d 3690 f43c 7f88 5cbe
00000110: c06d 2d3e 14fd fbbc f423 b7bd 0efa 9ebd
00000120: 2fd1 333e 35f3 3ebe 5979 a43e 9c02 81bd
00000130: 8643 c93d 9cc5 9dbd c608 a33d 848a 2f3d
00000140: b005 aa3d 3ee7 fa3d 527a 50bd cad8 f83d
00000150: 23d7 74be 3086 5d3c 9012 993d 5672 d7bd
00000160: 8813 fa3d 28e2 af3d b22c 003e de29 86be
00000170: 58b2 303d c259 e23d 0224 263c 6603 afbd
00000180: 2439 613d 68ff 123d d078 2d3c 2282 e5bd
00000190: 63f7 1e3c 2261 1c3f c47f 84bd 6838 35be
000001a0: eb73 49bc 2280 fa3d e06f 6d3d 7cad 413d
000001b0: cc24 67bd 15c8 f03b c9fa 99bd bc0f eebd
000001c0: 3ce7 f73d 1002 ddbd dd16 9a3e be21 bf3d
000001d0: bda3 223e 805e 143f d003 063c da89 a0bd
000001e0: 66de e63d 75e2 663d 2e0d 01be e927 723d
000001f0: 1a0e 253e f507 26be e23d 9a3d 2e7b 993c
00000200: 1081 a7bd 73f9 afbe 2653 e7bd 403a 81bd
00000210: bed2 91be 2a5d 03be 30f8 60bd c014 00bb
00000220: 2b1c 19bc f3d0 993d d697 083f 8061 eabc
00000230: 1874 c3bd 64a8 70bd 58c5 edbd bab6 aabd
00000240: c03c 863b 6de3 953d 39e2 5abd 45c3 20bd
00000250: b28e cdbd f0e5 fd3d 7364 febe 9a18 883d
00000260: 4c85 9a3d b8f2 8ebd 226a 15bd 5820 ae3d
00000270: a01c 3bbc 7a05 cd3d c88b 03bf d256 dd3d
00000280: 5e9d 703d 15cd 023e 40d3 ca3d eeac c6bd
00000290: 8dd0 6a3d 669a 893e fc56 723d 935f ae3d
000002a0: 409c bd3b 5270 903d dec2 823d 983a ecbd
000002b0: 403d 9dbb 65b0 1a3d f41f a43b 0c37 49bd
000002c0: eea3 86bd 402f 0fbc 54b0 5bbe a427 12bd
000002d0: dbfa e7be dc13 873f 5aae e0bd 4ac5 d43d
000002e0: 0cd7 babe 65d1 e2be e55a c23d baa5 e2be
000002f0: 7d75 1abf 7318 cc3d a891 e9bc 9bd3 9f3c
00000300: e6c9 463d ad55 ed3b d093 603e 6240 87be
00000310: 7dc3 5b3e a43e b13c 506a f0bc 6e6d a0bd
00000320: 49cd 483e 3ae7 38be 6e09 093e 7846 bb3d
00000330: 2833 593d a06f 1e3d 3653 f03d d084 693d
00000340: 5086 77bd 4d67 593d aa82 d1bc a338 073e
00000350: a89e 71be 20ec eabc a790 103e a808 e1bc
00000360: 58cc b33d 0087 063b 6c17 cc3c 2e01 30be
00000370: 7ac9 d23d 88ec 9ebc a833 a33d a0a0 f3bb
00000380: 9d62 60bd 3416 4e3d e465 48bd 4878 c43c
00000390: c96c ed3c fc65 603f f429 e2bd 9cc0 22be
000003a0: 258f 72bd 4a32 963d 98da 993c 10b6 5f3d
000003b0: f08b a9bc feff ff3b 3f2b 7c3c c00c 33bc
000003c0: cc82 32bd 90c1 8abd 820f 9b3e 90b7 22bd
000003d0: b20d 0c3d f58d 293f 8c49 26bd a817 16bd
000003e0: e1c9 843d b202 c13d c9cd 1ebe 6baa 633d
000003f0: c22e 553d 9ec8 b2bd c881 b2bc 4b3b 84bd

models.524287.layers.3.bias f4 [32]
0.18699768 -0.115518294 0.07578314 -0.14542054 0.32922426 -0.24913047 0.19005892 0.20336474
0.17117667 -0.066407196 0.30623412 0.3112994 -0.26069957 0.19645016 -0.067583196 0.051829197
-0.09008124 0.09900207 -0.13373639 -0.19685937 -0.19403657 -0.252227 -0.11550122 0.15191142
0.21993263 0.121739216 -0.13268176 0.20825155 0.042106587 0.22591254 0.2556643 -0.13632724
00000000: 527c 3f3e db94 ecbd 3134 9b3d 1fe9 14be
00000010: 1590 a83e 0f1c 7fbe ce9e 423e d93e 503e
00000020: f048 2f3e 7f00 88bd b8ca 9c3e a362 9f3e
00000030: 6a7a 85be 3b2a 493e 0f69 8abd da4a 543d
00000040: 837c b8bd 99c1 ca3d 31f2 08be 8195 49be
00000050: 86b1 46be e623 81be e78b ecbd ab8e 1b3e
00000060: 0536 613e 6952 f93d badd 07be e53f 553e
00000070: f577 2c3d 9e55 673e 6ee6 823e 5e99 0bbe

models.524287.layers.6.weight f4 [16, 32]
0.8506297 0.25093406 0.24106264 0.39131838 0.04499004 0.5814685 0.077574566 -0.44028428
-0.093595654 0.076690346 0.28927016 0.36351568 0.3719581 0.42645398 0.12698388 0.3227471
0.12520869 -0.101039365 0.065081395 0.3442954 0.41031426 0.12064455 0.011162707 -0.24658215
0.06565107 -0.040004026 0.17585965 0.79211956 -0.42750284 0.7024168 0.7281723 0.22677223
0.78296065 0.093272455 0.023108821 0.11078738 0.08130831 0.4116095 0.13669947 -0.15998839
-0.032712217 0.053406674 0.17550862 0.2505526 0.13977341 0.30416948 0.025928568 0.26198274
0.052174415 -0.0545054 0.068050385 0.1816635 0.3290548 0.054261915 0.15946588 -0.18407723
0.19876647 -0.015146011 0.10921483 0.71136177 -0.13537297 0.5259265 0.4195204 0.09702819
0.85428566 -0.033256933 0.21300656 0.0965649 0.075794436 0.39808074 0.12803566 -0.28927302
-0.0199705 0.10276948 0.07441249 0.119734675 0.27856869 0.2350064 0.18820703 0.19365117
0.12744516 -0.10724792 0.20820963 0.29442972 0.269288 -0.08497416 -0.004017462 -0.049295645
0.23599313 -0.091880344 0.25730827 0.89625925 -0.19932863 0.8394083 0.6794945 0.16849269
0.766172 0.16935602 -0.07444616 0.033629473 0.10147383 0.29461846 0.17373396 -0.05501655
-0.0954585 0.011300773 0.14940213 0.19541262 0.13091785 0.22812156 0.19890836 0.20219903
0.19110614 0.013925547 0.08922049 0.18937103 0.35386473 0.0012066452 0.053482544 -0.13054332
0.08248651 -0.11843281 0.15009873 0.92423105 -0.13615748 0.6736685 0.5803153 -0.13886607
0.9458512 0.24317189 0.12304219 0.24939074 0.08387687 0.43011498 -0.005669365 -0.31491044
0.044015985 0.09340255 0.2700516 0.20760347 0.4083228 0.27415538 0.22405608 0.38982576
0.24203931 0.20589246 0.14771047 0.36332813 0.5367965 0.18482053 0.1622407 -0.23083474
0.14865457 -0.17205194 0.110918306 0.8922456 -0.20901087 0.66386807 0.55551755 0.13890529
0.72008985 0.008956979 0.043393455 0.16680516 0.12695198 0.61532027 -0.0495289 -0.37589058
0.07788228 0.05263273 0.30011913 0.27779624 0.224755 0.40251508 0.18367037 0.2658571
0.10278998 0.112858586 0.08013878 0.08406562 0.13425909 0.13529831 -0.051568575 -0.29983065
0.24066171 -0.068121605 0.2932763 0.8810252 -0.3637327 0.70574623 0.6736868 0.0029884344
-0.39315665 -0.05215003 -0.56044596 0.012188792 0.12605378 -0.44532603 0.15493143 0.0015627262
0.32303202 -0.08522469 0.21294601 -0.07062008 -0.5192036 -0.95097023 -0.054985426 -0.3343436
0.006467721 -0.15472546 -0.10770632 -0.40688404 -0.34535804 -0.38037786 -0.11878993 0.11584043
0.12543423 0.20186238 -0.10115999 -0.312601 -0.036904056 -0.55299664 -0.3301592 -0.062802
0.9021814 0.24963869 0.17056109 0.24728921 -0.010622202 0.4964572 0.023884362 -0.50130624
0.03123489 0.08704711 0.25802937 0.2242828 0.2689851 0.2971234 0.12216886 0.21939419
0.2822343 0.014098539 -0.0181029 0.22426558 0.20604964 0.14464504 0.15653476 -0.2811857
0.15405218 -0.03501872 0.12886265 0.81927854 -0.14219807 0.82555693 0.7499547 0.18565089
00000000: dec2 593f 6e7a 803e 20d9 763e e25a c83e
00000010: 7a47 383d 1fdb 143f 6adf 9e3d f16c e1be
00000020: 14af bfbd d40f 9d3d 381b 943e ba1e ba3e
00000030: 4b71 be3e 2d58 da3e 1008 023e 1c3f a53e
00000040: b536 003e baed cebd 6549 853d 7d47 b03e
00000050: b614 d23e 7d14 f73d c9e3 363c 0880 7cbe
00000060: 1174 863d 43db 23bd 8d14 343e 59c8 4a3f
00000070: a7e1 dabe 96d1 333f 8069 3a3f fb36 683e
00000080: 1c70 483f a105 bf3d b64e bd3c 7ee4 e23d
00000090: f984 a63d 7bbe d23e f2fa 0b3e ffd3 23be
000000a0: 3ffd 05bd f5c0 5a3d 88b8 333e 6e48 803e
000000b0: c320 0f3e 1abc 9b3e 2668 d43c 9a22 863e
000000c0: d7b4 553d 0e41 5fbd 005e 8b3d ff05 3a3e
000000d0: df79 a83e be41 5e3d 064b 233e be7e 3cbe
000000e0: 7089 4b3e f926 78bc 06ac df3d ce1b 363f
000000f0: 369f 0abe 1ea3 063f 61cb d63e b7b6 c63d
00000100: 77b2 5a3f 6c38 08bd 641e 5a3e d1c3 c53d
00000110: 1d3a 9b3d 3dd1 cb3e c81b 033e 981b 94be
00000120: 2d99 a3bc ce78 d23d 9365 983d 7437 f53d
00000130: 8ea0 8e3e 85a5 703e 58b9 403e 7e4c 463e
00000140: fc80 023e cca4 dbbd e834 553e 7ebf 963e
00000150: 1ee0 893e ef06 aebd eaa4 83bb 3bea 49bd
00000160: 2fa8 713e c32b bcbd e9bd 833e 3f71 653f
00000170: ce1c 4cbe 76e3 563f 5af3 2d3f 5989 2c3e
00000180: d923 443f aa6b 2d3e 3a77 98bd 0fbf 093d
00000190: 83d1 cf3d 3bd8 963e 51e7 313e 0959 61bd
000001a0: bf7f c3bd e126 393c dffc 183e 3f1a 483e
000001b0: 540f 063e b398 693e a2ae 4b3e 430d 4f3e
000001c0: 54b1 433e fa27 643c 3bb9 b63d 7bea 413e
000001d0: c22d b53e 4b28 9e3a 8310 5b3d 26ad 05be
000001e0: b0ee a83d e78c f2bd 7bb3 193e 689a 6c3f
000001f0: de6c 0bbe 8a75 2c3f 8b8f 143f e832 0ebe
00000200: 4e23 723f 0d02 793e 8bfd fb3d 4960 7f3e
00000210: a3c7 ab3d 0838 dc3e 15c6 b9bb f13b a1be
00000220: 1b4a 343d d649 bf3d 3444 8a3e 0196 543e
00000230: b00f d13e 185e 8c3e f56e 653e 3e97 c73e
00000240: 27d9 773e 79d5 523e 6a41 173e 2506 ba3e
00000250: 7f6b 093f 9841 3d3e 6d22 263e f15f 6cbe
00000260: e738 183e 622e 30be 2329 e33d 356a 643f
00000270: f206 56be 42f3 293f 6636 0e3f 303d 0e3e
00000280: cf57 383f 4bc0 123c 56bd 313d f9ce 2a3e
00000290: b3ff 013e a185 1d3f d1de 4abd bb74 c0be
000002a0: bf80 9f3d 6b95 573d 37a9 993e 4f3b 8e3e
000002b0: 2d26 663e 7516 ce3e 1614 3c3e 6c1e 883e
000002c0: 8e83 d23d 6722 e73d cd1f a43d 992a ac3d
000002d0: 377b 093e a48b 0a3e 9239 53bd 6783 99be
000002e0: 0670 763e 5783 8bbd 5028 963e de8a 613f
000002f0: 2c3b babe c9ab 343f bd76 2c3f 9cd9 433b
00000300: d44b c9be 459b 55bd 6379 0fbf 80b3 473c
00000310: 3e14 013e c601 e4be 58a6 1e3e 64d4 cc3a
00000320: 7464 a53e 488a aebd 850e 5a3e 43a1 90bd
00000330: 87ea 04bf c972 73bf 6638 61bd 162f abbe
00000340: 2def d33b 5a70 1ebe 2295 dcbd 1b53 d0be
00000350: c5d2 b0be e3c0 c2be 2348 f3bd bf3d ed3d
00000360: d571 003e 03b5 4e3e f82c cfbd 3d0d a0be
00000370: b528 17bd 3091 0dbf a00a a9be 569e 80bd
00000380: 5cf5 663f 49a1 7f3e 91a7 2e3e 6239 7d3e
00000390: bf08 2ebc a32f fe3e 23a9 c33c 9b55 00bf
000003a0: 50e0 ff3c c145 b23d 6d1c 843e 64aa 653e
000003b0: 6ab8 893e 8f20 983e ab33 fa3d dfa8 603e
000003c0: 0481 903e 8ffd 663c 884c 94bc e0a5 653e
000003d0: adfe 523e d41d 143e a64a 203e 92f7 8fbe
000003e0: dbbf 1d3e ca6f 0fbd 92f4 033e 3dbc 513f
000003f0: 5f9c 11be b357 533f 08fd 3f3f 441b 3e3e

models.524287.layers.6.bias f4 [16]
0.16990967 -0.06352587 0.013138206 -0.031368334 0.05053914 0.083572015 0.43232408 0.13317004
0.487267 0.49798664 0.20367692 0.3565041 0.47202924 -0.00038996493 0.5347119 -0.0337923
00000000: cdfc 2d3e da19 82bd a141 573c 157c 00bd
00000010: 2102 4f3d ce27 ab3d 9559 dd3e ba5d 083e
00000020: 0f7b f93e 1bf8 fe3e af90 503e b587 b63e
00000030: d1ad f13e 3574 ccb9 e1e2 083f cb69 0abd

models.524287.layers.9.weight f4 [1, 16]
-0.28986013 -0.5103774 -0.4370074 -0.5803321 -0.25051036 -0.37152898 0.63733494 -0.28113234
0.6469223 0.63218886 0.74974483 0.8958114 0.70190215 -0.29920292 0.74360424 -0.29688257
00000000: 8c68 94be 18a8 02bf 6fbf dfbe a590 14bf
00000010: e542 80be 0c39 bebe 6228 233f 94f0 8fbe
00000020: b39c 253f 21d7 213f 47ef 3f3f e553 653f
00000030: dcaf 333f 2031 99be d95c 3e3f fe00 98be

models.524263.layers.0.weight f4 [64, 17]
0.41784132 0.050776556 -0.0037129882 1.0542473 0.837756 0.11829278 -0.10162768 0.045082044
-0.18886425 0.05143645 -0.08563623 -0.011679295 0.03841457 -0.0056544263 0.07313497 0.1522644
0.071818724 -0.23532724 -0.0712955 0.11858529 -0.16722104 -0.10803664 -0.08968836 0.0019475967
-0.036553964 -0.04785794 0.101774186 0.1628207 -0.08192256 -0.18315452 -0.15902072 0.22956356
-0.0040245056 0.016811013 0.76272553 0.6607183 0.2430463 0.26029542 0.15109721 0.114795685
-0.30664593 -0.17338818 -1.3122874 0.012775725 0.13109212 0.08744195 -0.049357273 -0.0772504
0.1629789 -0.019576203 0.12228621 -0.01402742 0.09090745 0.013137908 0.08439132 -0.013561574
-0.03065825 -0.011650025 0.03039159 -1.5791684 0.07288424 0.043025054 0.015331257 -0.08640844
0.00046949263 0.019045014 -0.04208345 -0.05407853 -0.1074298 -0.0129187405 0.11474869 -0.21284297
0.011054069 -0.0031765848 0.11200893 -0.15007845 0.17557201 -0.0563526 -0.06702496 0.03022495
0.013151258 -0.10161026 0.021561801 -0.18367326 -0.09347585 -2.0290818 -0.33862016 -0.00067320815
0.37742412 0.22690211 0.052039016 0.032150034 -0.016475508 -0.83128935 -0.0056089633 -0.04873966
0.0065851845 -0.026539795 -0.0005937533 0.0054965355 0.11850157 0.021327937 -1.5586325 -0.43017247
0.0026913874 -1.0917958 -0.5619522 0.15847173 -0.16937776 0.04259835 -1.0848206 0.06713963
-0.082939945 -0.006708282 -0.0047501787 0.00813865 0.008343742 0.012223753 0.0058701313 -0.15447557
0.22948846 0.14624187 0.17725968 -0.09376885 -0.07127613 0.026852071 0.14881009 -0.021008596
0.03846243 0.19455087 -0.06329675 -0.076532274 -0.12163257 0.18682906 0.048823804 0.16437793
0.050966382 -0.11302711 0.06617078 -0.15530455 0.0039850026 -0.21596266 0.05337271 -0.016434327
0.18402585 0.07723883 0.20664442 -0.21360645 -0.16790017 -0.07223661 -0.035281315 0.114246786
0.21457428 0.8324688 0.10838776 0.0012485284 0.32053733 0.3147554 0.010973203 -0.035580825
0.15483706 -0.9614566 -0.064901784 0.08963357 -0.104028195 -0.064921774 0.0027041172 -0.03945685
-0.04445685 0.037733942 -1.9052205 0.026839236 -0.0008730546 -1.0102293 -0.8438941 -0.1478985
0.07543124 0.014911945 -0.90811634 -0.01723274 0.09194702 0.010272145 0.012395247 0.0095825195
0.0024385743 -0.0012388114 -0.013708109 -0.078287125 -0.0036545396 -0.10519481 -0.0023343414 -0.07173219
-0.066670835 0.12816563 0.054841787 -0.028486267 0.10634625 0.13472027 -0.23031859 0.1052852
-0.1684537 0.022111177 -0.12076922 -0.08816378 0.94510823 0.03574638 8.217425e-05 0.8670899
0.657907 -0.040395867 -0.013717535 -0.14787179 1.1662699 0.09054719 -0.0149503825 0.032935016
-0.0454896 -0.009534245 0.11330075 -0.08725804 0.0059143077 -0.00019143522 -0.17381778 0.18851444
0.091588974 0.17112467 0.11670506 -0.086769596 -0.111423016 0.2273506 0.23052046 0.13089839
0.22605032 -0.23895226 -0.16519214 -0.07471247 -0.023347676 0.040952682 0.83917004 0.347175
0.01168647 0.886187 0.69643205 0.17100203 0.08392206 0.09051224 1.0408752 -0.028078292
-0.03236838 0.074250504 0.07721031 -0.02000521 -0.14022659 0.043891255 -0.11041393 0.028633833
00000000: 4cef d53e 14fb 4f3d 9b55 73bb 93f1 863f
00000010: 2d77 563f 7c43 f23d 2c22 d0bd f3a7 383d
00000020: a165 41be 07af 523d 0c62 afbd 845a 3fbc
00000030: 9958 1d3d c448 b9bb cac7 953d 33eb 1b3e
00000040: b215 933d a0f9 70be 6003 92bd d8dc f23d
00000050: fe3b 2bbe 5042 ddbd 88ae b7bd 8046 ff3a
00000060: 9cb9 15bd b006 44bd fc6e d03d 78ba 263e
00000070: 04c7 a7bd dc8c 3bbe 54d6 22be b612 6b3e
00000080: 00e0 83bb 40b7 893c fb41 433f d624 293f
00000090: 21e1 783e 7145 853e 3ab9 1a3e 001a eb3d
000000a0: b200 9dbe ac8c 31be 09f9 a7bf 4651 513c
000000b0: 033d 063e c414 b33d da2a 4abd 7535 9ebd
000000c0: f1e3 263e 465e a0bc 3171 fa3d 44d3 65bc
000000d0: af2d ba3d 6140 573c 5bd5 ac3d 5d31 5ebc
000000e0: 0327 fbbc bfdf 3ebc c9f7 f83c 3122 cabf
000000f0: 5544 953d 0a3b 303d f42f 7b3c e8f6 b0bd
00000100: 3c26 f639 4a04 9c3c b25f 2cbd 7381 5dbd
00000110: 2804 dcbd 20a9 53bc 5c01 eb3d 82f3 59be
00000120: 201c 353c 402e 50bb f064 e53d 2aae 19be
00000130: 26c9 333e fcd1 66bd 6244 89bd 509a f73c
00000140: 6078 573c 0a19 d0bd 60a2 b03c d814 3cbe
00000150: 4470 bfbd 7adc 01c0 9f5f adbe 3c7a 30ba
00000160: bc3d c13e 0759 683e dd26 553d c1af 033d
00000170: a5f7 86bc 61cf 54bf 65cb b7bb 3da3 47bd
00000180: 88c8 d73b fc69 d9bc 1ca6 1bba 481c b43b
00000190: f3b0 f23d edb7 ae3c 4581 c7bf 913f dcbe
000001a0: fd61 303b f7bf 8bbf 19dc 0fbf 6a46 223e
000001b0: 5d71 2dbe 9c7b 2e3d 67db 8abf 8180 893d
000001c0: 6bdc a9bd 26d1 dbbb 63a7 9bbb f957 053c
000001d0: 31b4 083c 2346 483c 3b5a c03b d82e 1ebe
000001e0: 06ff 6a3e 6ec0 153e 9083 353e e209 c0bd
000001f0: 38f9 91bd e0f8 db3c ac61 183e 381a acbc
00000200: c88a 1d3d 5838 473e baa1 81bd f4bc 9cbd
00000210: 7f1a f9bd 1e50 3f3e 78fb 473d b052 283e
00000220: 20c2 503d c27a e7bd 8c84 873d 2808 1fbe
00000230: a094 823b 5125 5dbe 589d 5a3d 48a1 86bc
00000240: 4671 3c3e 642f 9e3d 989a 533e a6bb 5abe
00000250: 06ee 2bbe caf0 93bd 2483 10bd 38fa e93d
00000260: 5cb9 5b3e ad1c 553f 67fa dd3d a9a5 a33a
00000270: 781d a43e 9f27 a13e f3c8 333c 33bd 11bd
00000280: 9b8d 1e3e 0522 76bf 3aeb 84bd ce91 b73d
00000290: bc0c d5bd b5f5 84bd 8f37 313b 829d 21bd
000002a0: 6318 36bd e88e 1a3d 44de f3bf f5dd db3c
000002b0: b4dd 64ba 324f 81bf 7209 58bf b472 17be
000002c0: b27b 9a3d 3b51 743c 507a 68bf ad2b 8dbc
000002d0: b84e bc3d 804c 283c 6f15 4b3c 0000 1d3c
000002e0: 7dd0 1f3b 9d5f a2ba fa97 60bc 0055 a0bd
000002f0: 0081 6fbb 6070 d7bd c0fb 18bb 54e8 92bd
00000300: b88a 88bd da3d 033e c8a1 603d 085c e9bc
00000310: 10cc d93d 1cf4 093e a3d8 6bbe c49f d73d
00000320: 207f 2cbe 8022 b53c da55 f7bd 368f b4bd
00000330: 9df2 713f cc6a 123d f754 ac38 9bf9 5d3f
00000340: 986c 283f 2376 25bd 83bf 60bc b46b 17be
00000350: 5548 953f ce70 b93d 73f2 74bc dee6 063d
00000360: 4e53 3abd 8635 1cbc 390a e83d 58b4 b2bd
00000370: cfcc c13b 00bc 48b9 4afd 31be ee09 413e
00000380: 0093 bb3d 4e3b 2f3e 1003 ef3d 42b4 b1bd
00000390: c031 e4bd 98ce 683e 8e0d 6c3e 3a0a 063e
000003a0: bc79 673e e7af 74be 2128 29be da02 99bd
000003b0: a043 bfbc 00be 273d d9d3 563f ecc0 b13e
000003c0: 9c78 3f3c 27dd 623f 5f49 323f 281b 2f3e
000003d0: 54df ab3d 7b5e b93d 663b 853f 7204 e6bc
000003e0: b594 04bd a610 983d 7020 9e3d f7e1 a3bc
000003f0: 8f97 0fbe 51c7 333d b320 e2bd 8091 ea3c

models.524263.layers.0.bias f4 [64]
0.10636229 0.05614075 -0.031415038 0.10807901 0.10978785 -0.35811707 0.11824756 -0.16342226
0.10957262 -0.32689667 -0.10502391 -0.15657318 -0.18773429 -0.12681346 0.16687734 0.24138075
-0.0965033 -0.05405722 0.026911782 -0.011136251 0.0324035 -0.17736974 0.011193693 0.10048127
-0.21162717 0.14123367 0.036439996 0.09464679 0.2372998 -0.21994334 -0.31217796 -0.21486415
-0.13062622 -0.07760902 -0.11641235 -0.10126975 -0.081925556 -0.12245704 -0.17676407 0.094123155
0.12172492 -0.3731284 -0.34015518 -0.31044635 -0.17731284 -0.26302847 0.21004705 -0.03400251
-0.40645936 0.1051901 0.091899596 -0.1870469 -0.010412126 -0.047367476 -0.1418842 0.04263118
0.021401718 -0.29936 0.015772909 0.057361066 0.2386458 0.18549368 0.019435706 -0.35055694
00000000: 79d4 d93d d8f3 653d 0ead 00bd 8758 dd3d
00000010: 74d8 e03d 1f5b b7be c72b f23d 2a58 27be
00000020: 9c67 e03d 005f a7be c716 d7bd b854 20be
00000030: 6b3d 40be 63db 01be e5e1 2a3e 842c 773e
00000040: 86a3 c5bd 1b6b 5dbd 1976 dc3c d274 36bc
00000050: 88b9 043d 6aa0 35be c065 373c 20c9 cd3d
00000060: cbb4 58be 8f9f 103e 1b42 153d 2dd6 c13d
00000070: b8fe 723e d438 61be cad5 9fbe 5905 5cbe
00000080: e1c2 05be 7af1 9ebd 9969 eebd 8466 cfbd
00000090: 96c8 a7bd c2ca fabd a401 35be a4c3 c03d
000000a0: ea4a f93d b00a bfbe d228 aebe d3f2 9ebe
000000b0: 7f91 35be abab 86be 9316 573e 3746 0bbd
000000c0: 711b d0be e86d d73d db35 bc3d 3989 3fbe
000000d0: 9f97 2abc 6604 42bd 174a 11be 089e 2e3d
000000e0: a852 af3c b745 99be 3036 813c 70f3 6a3d
000000f0: 915f 743e 0ef2 3d3e a137 9f3c 337c b3be

models.524263.layers.3.weight f4 [32, 64]
-0.003402614 -0.021034524 0.16635953 0.47509202 -0.0782159 0.08463053 -0.005012387 0.09350948
-0.060924098 0.02164462 0.010291049 0.041712984 -0.09970668 -0.049028054 -0.04685881 0.06447759
-0.051206768 0.036884893 0.03553094 -0.10135643 0.017689124 0.06379719 -0.05952756 -0.052068338
0.0024293065 0.052161694 -0.07833207 0.46398732 0.05221823 0.16662285 0.08031891 -0.06858201
-0.10298012 0.076108605 0.26391456 -0.079952404 0.38117766 0.07784243 -0.10834781 -0.055732638
0.061433762 0.18576196 -0.09519562 -0.06601786 0.013364326 0.1368209 0.0139700025 -0.023879593
-0.03867546 -0.020247191 0.06087213 0.110904455 0.08887906 -0.21484327 0.040867846 -0.11723359
0.19194396 0.106326364 0.07163726 0.043495446 0.24491978 0.0487829 0.035088226 0.03342498
-0.1348712 0.05134058 0.0052575003 -0.16438815 -0.10648462 0.08223391 -0.25487345 0.107099116
0.04960291 -0.09875109 -0.039047442 -0.0006609112 -0.040474907 0.04923995 -0.17840664 0.03370534
-0.04156804 0.027494507 -0.07191806 -0.0106021715 -0.052827984 0.09956077 0.06408638 0.03591883
-0.069862664 0.11806185 0.07704395 -0.09820073 0.102159485 -0.017263738 0.013504344 -0.0050023994
-0.119945146 -0.07149865 0.07062317 0.11510374 -0.24812065 0.014843829 -0.12306173 -0.09050496
-0.061808057 0.099254936 0.06984397 0.029576495 -0.0768293 -0.12025787 0.04493265 -0.09127676
0.027718987 0.07831693 -0.03736813 0.09625749 -0.116213836 -0.009908964 0.040576026 -0.099987686
-0.25541183 -0.074922726 -0.09078342 0.120046064 0.021073483 0.04467684 0.033276014 -0.06561211
-0.014050715 -0.1202355 0.12403516 0.054157563 -0.052749082 -0.11064013 0.5304022 0.016581088
0.09546067 0.060708508 0.23797576 -0.05774598 0.04262989 -0.047877982 -0.108885475 0.06512736
0.07330392 -0.016553568 -0.0823497 0.095105626 0.034140214 0.123193905 -0.11202593 -0.010402143
-0.04986225 -0.03427026 0.00028179647 0.0047923503 0.014508367 -0.04190807 0.026000159 -0.22780518
-0.117844306 0.011799067 0.3417727 -0.011326164 0.6665302 -0.12773508 -0.1544299 0.012194544
0.2886025 0.12937906 -0.018887477 -0.044872936 -0.1038271 0.06467893 -0.04048262 -0.21932422
-0.029759679 0.12228586 -0.10932534 -0.03736365 -0.15208733 0.07767539 0.049994126 0.07886769
0.45112693 -0.124679245 -0.047198966 0.104882374 0.36226398 -0.025149316 -0.01994737 -0.038165342
-0.18310978 0.067355394 0.23990127 0.29986486 0.12131329 -0.5515705 0.6134546 -0.03009738
0.11295058 -0.146266 0.48853347 -0.06136626 -0.17471333 0.017894551 -0.031701215 -0.079720795
-0.066392794 -0.0060285567 0.0003204563 -0.08365174 -0.055755615 0.013186082 -0.10936439 -0.08343476
-0.051320165 -0.1209001 -0.021163741 -0.04696876 0.0830034 -0.1301165 -0.11470541 0.25131437
0.04197069 -0.05337894 -0.3596345 0.107923 0.4565209 -0.08640008 0.09670761 0.10039531
-0.13326713 0.09580642 0.11479356 -0.50800323 -0.03280035 0.09340523 -0.024423553 0.07235935
-0.06719335 -0.1216284 0.20738007 -0.056290716 0.03838438 -0.25630993 -0.021730682 0.105204776
0.60632515 -0.14639641 -0.06620005 -0.06255554 0.25441858 0.008893326 -0.113323554 -0.041797694
00000000: 64fe 5ebb 9850 acbc 275a 2a3e 433f f33e
00000010: a82f a0bd c552 ad3d f33e a4bb e681 bf3d
00000020: 8c8b 79bd 0f50 b13c ca9b 283c 3cdb 2a3d
00000030: 0433 ccbd a4d1 48bd 06ef 3fbd d40c 843d
00000040: 30be 51bd 9d14 173d e488 113d f693 cfbd
00000050: c8e8 903c 1aa8 823d 2cd3 73bd 9c45 55bd
00000060: 0035 1f3b 80a7 553d 906c a0bd bf8f ed3e
00000070: c8e2 553d 2e9f 2a3e 3e7e a43d ba74 8cbd
00000080: 3ee7 d2bd d4de 9b3d cf1f 873e 16be a3bd
00000090: b829 c33e da6b 9f3d 75e5 ddbd e847 64bd
000000a0: f8a1 7b3d 6238 3e3e ecf5 c2bd 5f34 87bd
000000b0: 0cf6 5a3c c71a 0c3e 70e2 643c 239f c3bc
000000c0: 296a 1ebd 70dd a5bc 0e55 793d e021 e33d
000000d0: 3906 b63d e0ff 5bbe 0b65 273d 2a18 f0bd
000000e0: f58c 443e a3c1 d93d 8eb6 923d 4828 323d
000000f0: 40cc 7a3e 94d0 473d acb8 0f3d a2e8 083d
00000100: ad1b 0abe 804a 523d 1c47 ac3b 5e55 28be
00000110: 9c14 dabd 416a a83d c67e 82be c856 db3d
00000120: 6c2c 4b3d 033e cabd 36f0 1fbd 0041 2dba
00000130: 04c9 25bd d4af 493d 3bb0 36be 9c0e 0a3d
00000140: 4043 2abd 293c e13c c749 93bd bbb4 2dbc
00000150: 2862 58bd 84e6 cb3d b83f 833d a01f 133d
00000160: 2814 8fbd 69ca f13d 38c9 9d3d 771d c9bd
00000170: fe38 d13d af6c 8dbc 5341 5d3c 2beb a3bb
00000180: cda5 f5bd e26d 92bd e1a2 903d 82bb eb3d
00000190: 5713 7ebe 8833 733c ca07 fcbd aa5a b9bd
000001a0: 722a 7dbd 2c46 cb3d 5b0a 8f3d 684a f23c
000001b0: ae58 9dbd c249 f6bd 4c0b 383d 4fef babd
000001c0: ee12 e33c a064 a03d 530f 19bd a622 c53d
000001d0: 8501 eebd 3559 22bc 0c33 263d 58c6 ccbd
000001e0: 57c5 82be 1671 99bd a8ec b9bd b6da f53d
000001f0: 4ca2 ac3c 10ff 363d 6e4c 083d a45f 86bd
00000200: f834 66bc 083e f6bd 2506 fe3d 52d4 5d3d
00000210: 6c0f 58bd 4b97 e2bd 70c8 073f 10d5 873c
00000220: e280 c33d 7ca9 783d ebaf 733e 0c87 6cbd
00000230: ae9c 2e3d b41b 44bd 59ff debd 7e61 853d
00000240: 5e20 963d 599b 87bc f6a6 a8bd bdc6 c23d
00000250: 9cd6 0b3d 164d fc3d da6d e5bd c06d 2abc
00000260: 5c3c 4cbd f95e 0cbd 15be 9339 2609 9d3b
00000270: 80b4 6d3c cca7 2bbd 49fe d43c c345 69be
00000280: 5b58 f1bd e050 413c d5fc ae3e 6091 39bc
00000290: b9a1 2a3f fccc 02be df22 1ebe a0cb 473c
000002a0: b5c3 933e f27b 043e e9b9 9abc afcc 37bd
000002b0: 4da3 d4bd 6376 843d 1bd1 25bd 8796 60be
000002c0: 92ca f3bc 0271 fa3d f7e5 dfbd a00a 19bd
000002d0: c8bc 1bbe 4614 9f3d a4c6 4c3d 6285 a13d
000002e0: 1cfa e63e d557 ffbd b453 41bd 92cc d63d
000002f0: aa7a b93e f005 cebc ab68 a3bc 4353 1cbd
00000300: 2181 3bbe a0f1 893d aea8 753e e387 993e
00000310: 1a73 f83d b933 0dbf 5c0b 1d3f c88e f6bc
00000320: a252 e73d c1c6 15be 0f21 fa3e 305b 7bbd
00000330: 0de8 32be 9897 923c 22d9 01bd a844 a3bd
00000340: f2f8 87bd 338b c5bb eb02 a839 9a51 abbd
00000350: 0060 64bd 700a 583c 70fa dfbd d8df aabd
00000360: 1835 52bd 799a f7bd 955f adbc 5162 40bd
00000370: b0fd a93d 433d 05be acea eabd 47ac 803e
00000380: 75e9 2b3d e0a3 5abd 0322 b8be bc06 dd3d
00000390: 1bbd e93e 86f2 b0bd a40e c63d 0e9c cd3d
000003a0: 2e77 08be 2836 c43d e318 eb3d 800c 02bf
000003b0: a959 06bd 3e4b bf3d e713 c8bc 2431 943d
000003c0: ab9c 89bd 5018 f9bd 715b 543e 1891 66bd
000003d0: f138 1d3d 0e3b 83be 8b04 b2bc 9a75 d73d
000003e0: 2038 1b3f f1e8 15be e493 87bd 1e1d 80bd
000003f0: 2743 823e 50b5 113c 2e16 e8bd 0f34 2bbd

models.524263.layers.3.bias f4 [32]
-0.2539604 -0.18541643 0.062121913 0.028635569 0.31974834 -0.1852505 0.060184132 0.13189268
-0.022906592 -0.26579538 -0.1029287 0.13742673 -0.06224945 0.28326827 0.078152284 -0.3319708
0.16877113 0.09693991 0.067913905 -0.080041155 0.22063166 0.10031392 -0.15270095 -0.37243336
0.14038046 -0.13138223 0.25542772 0.22483635 0.11764491 0.19708535 0.051299132 -0.0787036
00000000: 1907 82be cedd 3dbe 8c73 7e3d 2495 ea3c
00000010: 0eb6 a33e 4fb2 3dbe a383 763d e00e 073e
00000020: 9ba6 bbbc 5516 88be 48cc d2bd 98b9 0c3e
00000030: 47f9 7ebd 8a08 913e 4e0e a03d 14f8 a9be
00000040: 57d2 2c3e 6e88 c63d 7216 8b3d 9eec a3bd
00000050: 44ed 613e 6271 cd3d a35d 1cbe 96af bebe
00000060: e5bf 0f3e 1089 06be 6cc7 823e 803b 663e
00000070: d1ef f03d bed0 493e 0a1f 523d 5a2f a1bd

models.524263.layers.6.weight f4 [16, 32]
0.2765296 -0.13653338 0.07925986 0.08437886 0.3102048 0.2072004 -0.033377085 -0.06813304
0.1481235 0.049874607 0.10377339 -0.67923766 0.18133739 0.52129906 0.24418542 0.2974426
0.2968181 0.18577528 -0.060631968 -0.020833304 0.14028834 0.30730823 -0.04031819 0.35276115
0.013034278 0.1860899 0.24148817 0.5262385 0.6166868 0.4104622 0.1571657 -0.13539298
0.16231689 -0.12528819 0.2818626 -0.45728165 0.35765433 -0.12432677 -0.45105663 -0.5418864
0.0050699958 -0.4130181 -0.3933021 0.085414834 -0.0015872094 -0.41478541 0.2284877 -0.41939253
-0.10639725 -0.13886559 -0.43040898 0.17786154 0.24693666 -0.43090665 -0.019836226 -0.5250846
-0.4895614 -0.23094073 -0.08382538 -0.3332591 -0.104993105 0.22866023 -0.3430796 0.24990356
0.38801557 0.032920603 -0.06178492 0.17453474 0.25160435 0.23646136 0.22292331 -0.032445922
0.18015485 0.12987734 0.18422861 -0.35785255 0.08812542 0.65149146 0.22681822 0.37362275
0.26650602 0.18866342 -0.004169461 0.16813357 -0.0124238655 0.41895995 0.15537217 0.37799984
-0.11666681 0.21457595 0.29643708 0.4305741 0.77008593 0.3372273 0.2608346 -0.078663535
0.45391947 -0.005152739 0.1054846 0.18246663 0.357814 0.1617365 0.12244119 -0.07395744
-0.0061369273 0.10718864 0.07577286 -0.64862305 0.13455452 0.56028557 0.15278774 0.29705065
0.19254176 0.025996726 0.024385922 0.21648945 0.16316603 0.20577508 -0.014467805 0.20678651
0.015688198 0.21621944 0.21468331 0.442048 0.57667214 0.6150381 0.011824655 0.072812654
0.37131253 0.119334534 -0.069761 0.22360079 0.20236202 0.15371454 -0.045686163 -0.12832075
0.09269547 0.101528555 0.23437889 -0.50365955 0.08348946 0.6334698 0.2012137 0.55785114
0.073001206 0.053733952 0.08972582 0.12994099 -0.0037820013 0.28617302 0.0062919315 0.6869259
-0.06516587 0.12231083 0.24966057 0.4994701 0.6987228 0.56185275 0.042512264 0.005152081
0.39286897 -0.13406253 0.028028158 0.15999947 0.12467675 0.42055798 0.18002842 -0.17300312
0.07445778 0.35732245 0.43267483 -0.3703555 -0.00064493687 0.7644573 0.1455384 0.53433585
0.06145856 0.061376315 0.088280655 -0.037960764 0.020871239 0.2876348 -0.08355153 0.7057621
-0.00547375 0.17338036 0.4543319 0.4482121 0.61126643 0.44244498 0.0915392 -0.07881799
0.25653037 -0.15721391 0.1350839 -0.15412009 -0.05593635 0.04713548 -0.16521828 0.041222714
0.2634603 0.13205628 0.17667846 -0.16539903 0.272023 0.055502243 0.016271923 0.02063312
0.055900082 0.029665828 0.11990819 0.10863963 -0.031723596 -0.16811042 -0.023968019 0.00799137
-0.0026768164 -0.03312925 0.119930156 -0.24853794 -0.08376883 0.032623917 -0.09241898 -0.038299914
0.51662916 0.037229348 0.004819602 -0.05668378 0.22041906 0.27506217 0.021956878 -0.011947518
0.21345988 0.038419954 0.2761233 -0.49013785 0.019865131 0.6782452 0.0991169 0.11505455
0.19427319 0.25951862 0.00077378383 0.08912143 0.13568397 0.103796974 -0.0075436616 0.21522424
-0.037651043 0.043279056 0.33562368 0.3064436 0.65601575 0.39967066 0.13251822 0.0035070668
00000000: 4a95 8d3e 68cf 0bbe fe52 a23d d3ce ac3d
00000010: 2ad3 9e3e 572c 543e 69b6 08bd 5689 8bbd
00000020: b0ad 173e 5149 4c3d 2587 d43d 85e2 2dbf
00000030: 82b0 393e db73 053f be0b 7a3e 654a 983e
00000040: 8bf8 973e e03b 3e3e 3a59 78bd 9baa aabc
00000050: bfa7 0f3e 8157 9d3e b024 25bd 1c9d b43e
00000060: b98d 553c 5a8e 3e3e ad48 773e 91b7 063f
00000070: 30df 1d3f 1a28 d23e 0cf0 203e 75a4 0abe
00000080: 6636 263e 8c4b 00be 4b50 903e d220 eabe
00000090: 781e b73e 099f febd e5f0 e6be 11b9 0abf
000000a0: 3522 a63b 1c77 d3be e55e c9be f9ed ae3d
000000b0: e909 d0ba c15e d4be aef8 693e 9eba d6be
000000c0: cde6 d9bd c832 0ebe 915e dcbe 5621 363e
000000d0: f7dc 7c3e cc9f dcbe 957f a2bc f26b 06bf
000000e0: cba7 fabe ba7b 6cbe a4ac abbd f0a0 aabe
000000f0: a006 d7bd e825 6a3e 21a8 afbe b8e6 7f3e
00000100: faa9 c63e c1d7 063d 2f12 7dbd 3cb9 323e
00000110: 49d2 803e ed22 723e 0246 643e 04e6 04bd
00000120: 837a 383e 91fe 043e 6da6 3c3e 7338 b7be
00000130: 1a7b b43d 25c8 263f 0943 683e 7b4b bf3e
00000140: 7a73 883e fc30 413e f99f 88bb 352b 2c3e
00000150: 788d 4bbc eb81 d63e e219 1f3e 3289 c13e
00000160: 02ef eebd ccb9 5b3e 9ac6 973e 3574 dc3e
00000170: 5a24 453f 0fa9 ac3e 1d8c 853e 591a a1bd
00000180: 2268 e83e 4fd8 a8bb 4f08 d83d 88d8 3a3e
00000190: 6633 b73e 419e 253e 72c2 fa3d 0077 97bd
000001a0: 4718 c9bb b885 db3d cd2e 9b3d 290c 26bf
000001b0: a9c8 093e e06e 0f3f 6474 1c3e 0617 983e
000001c0: ab29 453e 16f7 d43c fcc4 c73c 69af 5d3e
000001d0: ff14 273e b4b6 523e 5f0a 6dbc d8bf 533e
000001e0: 8984 803c a168 5d3e f1d5 5b3e 1e54 e23e
000001f0: c9a0 133f 2373 1d3f 33bc 413c cd1e 953d
00000200: ad1c be3e aa65 f43d dbde 8ebd 9bf7 643e
00000210: fd37 4f3e 5867 1d3e 6a21 3bbd 8466 03be
00000220: 1fd7 bd3d 34ee cf3d 0501 703e d5ef 00bf
00000230: 86fc aa3d 142b 223f f70a 4e3e 55cf 0e3f
00000240: a881 953d 2218 5c3d 2cc2 b73d 400f 053e
00000250: 74db 77bb 4585 923e 8c2c ce3b 60da 2f3f
00000260: af75 85bd 1a7e fa3d 05a7 7f3e 8cba ff3e
00000270: 7fdf 323f 95d5 0f3f 5721 2e3d cad2 a83b
00000280: 1f26 c93e b047 09be 4f9b e53c e7d6 233e
00000290: 8656 ff3d 6053 d73e 5f59 383e bb27 31be
000002a0: 527d 983d f8f2 b63e 8e87 dd3e 3c9f bdbe
000002b0: fb10 29ba 79b3 433f 0508 153e 3cca 083f
000002c0: f9bb 7b3d bb65 7b3d 7dcc b43d bf7c 1bbd
000002d0: 29fa aa3c de44 933e 111d abbd d3ac 343f
000002e0: 255d b3bb 9f8a 313e 319e e83e 0e7c e53e
000002f0: f57b 1c3f 2688 e23e e778 bb3d 546b a1bd
00000300: f357 833e affc 20be 6f53 0a3e a8d1 1dbe
00000310: 841d 65bd 2211 413d fb2e 29be 26d9 283d
00000320: 45e4 863e c339 073e 33eb 343e 5d5e 29be
00000330: 9946 8b3e 5256 633d b24c 853c ca06 a93c
00000340: 7cf7 643d c005 f33c 6d92 f53d 747e de3d
00000350: 9af0 01bd 2325 2cbe 9458 c4bc 3cee 023c
00000360: 876d 2fbb 89b2 07bd f19d f53d bb80 7ebe
00000370: fe8e abbd a8a0 053d 2a46 bdbd 5fe0 1cbd
00000380: cf41 043f cd7d 183d c0ed 9d3b 402d 68bd
00000390: 89b5 613e f3d4 8c3e e9de b33c 86bf 43bc
000003a0: 3a95 5a3e 3e5e 1d3d 0860 8d3e 59f3 fabe
000003b0: 33bc a23c 7aa1 2d3f cdfd ca3d b8a1 eb3d
000003c0: 8def 463e a0df 843e c1d7 4a3a 4c85 b63d
000003d0: bdf0 0a3e 8293 d43d d230 f7bb be63 5c3e
000003e0: fb37 1abd 6145 313d ded6 ab3e 2de6 9c3e
000003f0: a6f0 273f a2a1 cc3e dbb2 073e d1d6 653b

models.524263.layers.6.bias f4 [16]
-0.0090865055 0.4609674 0.028905941 -0.033430737 0.15404046 0.14997035 -0.24460827 0.001686863
-0.07051555 0.02822323 0.35373253 0.3617341 0.16871372 0.35791048 0.060065012 -0.14985342
00000000: 91df 14bc eb03 ec3e 27cc ec3c abee 08bd
00000010: c8bc 1d3e d491 193e 977a 7abe bb19 dd3a
00000020: 756a 90bd 6734 e73c 6e1c b53e 3635 b93e
00000030: 4ac3 2c3e 0b40 b73e bb06 763d 2d73 19be

models.524263.layers.9.weight f4 [1, 16]
-0.39755452 0.99481285 -0.3536821 -0.33693168 -0.35939556 -0.302511 -0.34161708 -0.41004333
0.21064238 -0.4717847 0.79795104 1.1482797 -0.37442496 0.9533415 -0.43117216 -0.9496111
00000000: 448c cbbe 0eac 7e3f d215 b5be 4f82 acbe
00000010: b202 b8be b9e2 9abe 6fe8 aebe 33f1 d1be
00000020: a3b2 573e c48d f1be 8546 4c3f d4fa 923f
00000030: a1b4 bfbe 300e 743f 99c2 dcbe b719 73bf

models.524281.layers.0.weight f4 [64, 17]
-0.17606395 -0.17229751 0.09355 0.14146289 -0.16803904 0.11881009 0.13118538 0.10094482
0.16107246 0.03967595 -0.043949515 0.038698196 0.15499038 -0.1497479 -0.10627726 -0.06536101
0.055756897 -0.40687424 -0.283927 0.3341942 -0.03682809 -0.06480537 0.066043764 -0.054954812
0.09985536 0.37806097 0.037378065 -0.19528006 -0.058931056 -0.016654937 0.008599963 0.093513325
-0.20934431 0.063028224 0.10000688 -0.0038161874 0.034017175 0.16033944 0.109383464 0.16637793
0.108356625 -0.07890274 0.11706194 0.067717284 0.09312111 -0.1715988 0.13289821 -0.09761898
0.002671972 0.22086361 0.12064576 0.23007321 0.239871 -0.20500818 -0.13047263 -0.07118055
-0.07751748 -0.21444848 0.14273992 0.016389012 0.023931473 -0.10434249 0.16268829 0.086008996
-0.14250973 -0.20466748 -0.21424668 0.15882269 0.18290314 -0.05968526 -0.1759007 -0.17538218
-0.15521538 -0.107394636 -0.14345229 -0.22022943 -0.052242145 -0.06783661 -0.090959504 0.1809859
0.11292279 -0.14246504 -0.21359701 -0.19803137 -0.12678799 0.29297385 0.26798764 1.0623472
-0.27858278 -0.40235138 0.0040772418 0.20223048 0.08934084 -0.8601016 -0.16890171 0.03354303
-0.015363074 0.009795033 0.008908573 -0.0034634357 -0.055985082 0.026314477 0.21339668 -0.069356024
0.33398834 -0.30024856 -0.4694658 0.09775863 -0.021055887 0.12757094 -1.0320834 -0.17131183
0.20643735 0.09090555 0.053761814 0.033180565 -0.19169725 0.009759561 -0.18726277 0.08852357
0.073598325 0.10327944 0.014342487 -0.04372643 0.017192543 -0.03898795 -0.042875007 -0.1780619
0.23282212 -0.1399482 0.08747107 -0.08531061 -0.15499589 -0.06856744 -0.059968144 -0.23148203
0.18060687 0.19257706 -0.14554095 -0.048671246 0.03633192 0.22072119 -0.03761585 -0.20416498
-0.16724527 0.12300187 -0.13327265 0.039711505 -0.026989073 -0.1537334 -0.22001599 -0.024725094
-0.15900388 0.04939273 0.20925602 -0.042411625 0.15192309 0.026052326 -0.10508728 -0.15330046
-0.108894214 -0.20475143 -0.113196746 0.07590881 -0.008051008 -0.11575732 -0.16821723 0.08315912
0.038909346 -0.14446026 0.20011547 0.10900465 -0.19715385 0.19126609 -0.1298386 -0.16773309
0.360917 -0.10388789 -0.5263107 0.31025523 -0.13221568 -0.13626602 -0.013813087 0.002966496
0.17631996 0.23298657 -0.107118614 0.03016988 0.12604265 0.3113668 -0.6981921 -0.65441096
-0.15077603 -0.00986189 0.076526545 -0.9523482 -0.19367516 0.14405385 0.05147326 -0.068836235
0.02606538 0.19334449 0.028564297 0.19974896 0.35925266 -0.048419688 -0.14814228 0.06181825
-0.29890114 0.024796475 -0.048867285 0.027304895 -0.94593924 -0.0005986815 0.06589814 -0.0014029485
-0.087122284 0.0138254175 0.003433858 -0.105073385 -0.09114713 0.050267845 -0.18675402 -0.12695499
0.00685212 0.074882925 -0.2042512 0.03840339 -0.11355165 0.028650135 -0.09894389 -0.0638684
0.099898696 -0.16208443 -0.11005835 -0.19321397 -0.10777247 -0.11315386 -0.07338429 -0.50771654
0.79374796 -0.07788741 -0.1569847 -0.1317853 0.26875153 -0.06575858 -0.044662677 -0.028333226
0.19044729 0.08655599 -0.0065115783 0.016029524 -0.10773964 -0.039976593 -0.18693036 -0.114874706
00000000: 1c4a 34be c26e 30be 2497 bf3d a6db 103e
00000010: 6d12 2cbe b452 f33d 7655 063e 28bc ce3d
00000020: 2ef0 243e 4083 223d 6804 34bd 0082 1e3d
00000030: ccb5 1e3e 8357 19be e4a7 d9bd fedb 85bd
00000040: 5861 643d d251 d0be e15e 91be 811b ab3e
00000050: 0dd9 16bd aeb8 84bd f441 873d 4c18 61bd
00000060: f880 cc3d 3591 c13e be19 193d 7ff7 47be
00000070: b161 71bd ef6f 88bc dce6 0c3c ea83 bf3d
00000080: 5b5e 56be f114 813d 68d0 cc3d 0019 7abb
00000090: 9855 0b3d 0630 243e 7004 e03d fa5e 2a3e
000000a0: 14ea dd3d c297 a1bd 2cbe ef3d 5caf 8a3d
000000b0: 48b6 be3d 99b7 2fbe 7816 083e 76ec c7bd
000000c0: 401c 2f3b 122a 623e 2015 f73d 5098 6b3e
000000d0: bea0 753e aaed 51be 9e9a 05be 1cc7 91bd
000000e0: 7cc1 9ebd 6298 5bbe 6a2a 123e 4042 863c
000000f0: f00b c43c 84b1 d5bd c297 263e 7c25 b03d
00000100: 12ee 11be 5a94 51be 7b63 5bbe 6aa2 223e
00000110: f64a 3b3e 8878 74bd 501f 34be 6397 33be
00000120: c8f0 1ebe b8f1 dbbd 28e5 12be d383 61be
00000130: dcfb 55bd eced 8abd fa48 babd 5e54 393e
00000140: 1044 e73d 5be2 11be 2db9 5abe bcc8 4abe
00000150: b6d4 01be ab00 963e ad35 893e fefa 873f
00000160: 67a2 8ebe 0001 cebe 629a 853b 8215 4f3e
00000170: 55f8 b63d 9e2f 5cbf 92f4 2cbe 6b64 093d
00000180: 67b5 7bbc 597b 203c 43f5 113c cffa 62bb
00000190: 9d50 65bd 7591 d73c a984 5a3e 880a 8ebd
000001a0: 8500 ab3e 2eba 99be d25d f0be ad35 c83d
000001b0: 657d acbc f5a1 023e 4f1b 84bf 5e6c 2fbe
000001c0: 5064 533e b02c ba3d 5935 5c3d 58e8 073d
000001d0: 494c 44be 91e6 1f3c d0c1 3fbe d84b b53d
000001e0: b8ba 963d 2c84 d33d c0fc 6a3c 7c1a 33bd
000001f0: 60d7 8c3c d4b1 1fbd b49d 2fbd dc55 36be
00000200: ec68 6e3e 954e 0fbe 0824 b33d 54b7 aebd
00000210: 3eb7 1ebe 166d 8cbd 28a1 75bd a009 6dbe
00000220: 02f1 383e ec32 453e b008 15be 805b 47bd
00000230: c8d0 143d bc04 623e 1413 1abd a010 51be
00000240: 5842 2bbe 68e8 fb3d a078 08be 88a8 223d
00000250: 3018 ddbc 4a6c 1dbe df4b 61be 488c cabc
00000260: ead1 22be 0850 4a3d 3647 563e d0b7 2dbd
00000270: ba91 1b3e b06b d53c 0038 d7bd ccfa 1cbe
00000280: ee03 dfbd 5caa 51be b2d3 e7bd 1476 9b3d
00000290: 60e8 03bc 2c12 edbd 2341 2cbe 544f aa3d
000002a0: 685f 1f3d 64ed 13be 12eb 4c3e d43d df3d
000002b0: b3e2 49be 42db 433e 69f4 04be 39c2 2bbe
000002c0: 1dca b83e 2dc3 d4bd 4cbc 06bf c6d9 9e3e
000002d0: 8c63 07be 5289 0bbe 4950 62bc 8b69 423b
000002e0: 388d 343e 0894 6e3e 0161 dbbd d326 f73c
000002f0: 5311 013e 786b 9f3e b8bc 32bf 7a87 27bf
00000300: 0865 1abe c493 21bc f3b9 9c3d 17cd 73bf
00000310: c852 46be da82 133e a0d5 523d 03fa 8cbd
00000320: 1087 d53c 19fc 453e acff e93c fe8a 4c3e
00000330: f7ef b73e b953 46bd 9cb2 17be 2235 7d3d
00000340: 9209 99be fa21 cb3c 1029 48bd 84ae df3c
00000350: 1329 72bf d6f0 1cba 9bf5 863d 24e3 b7ba
00000360: 2b6d b2bd 0184 623c 940a 613b b730 d7bd
00000370: 59ab babd a8e5 4d3d 723c 3fbe 7d00 02be
00000380: c087 e03b 385c 993d 3a27 51be e04c 1d3d
00000390: c48d e8bd b0b3 ea3c 18a3 cabd 70cd 82bd
000003a0: b097 cc3d 76f9 25be 4666 e1bd e2d9 45be
000003b0: d0b7 dcbd 36bd e7bd 814a 96bd b6f9 01bf
000003c0: 1133 4b3f 6f83 9fbd 99c0 20be baf2 06be
000003d0: cd99 893e 6fac 86bd 36f0 36bd 151b e8bc
000003e0: 9d04 433e 4444 b13d 145f d5bb 5950 833c
000003f0: 9aa6 dcbd 7fbe 23bd ac6a 3fbe 6e43 ebbd
