models/Ensemble/pion.pt (torch, 71199 bytes, 28 tensors)

models.524287.layers.0.weight f4 [64, 19]
00000000: e0d0 84bd 36f5 f53d d04b 173c 5c51 45bd
00000010: 7ed0 8fbd 184a 56bd 28cd 73bd 4209 a3bd
00000020: 613c 133e 7e8f 903d 26a7 9f3d ebb4 393e
00000030: 7cd0 c3bd 8dce 69be 91de 4cbe c0e8 28be
00000040: fa16 cdbd 6c9b 363d ba7d eb3d 1ad4 d4bd
00000050: 9310 3d3e 5c3c 3f3d fa31 e2bd 9787 033e
00000060: d8d9 8abc f908 263e 02d3 f23d 27af 1a3e
00000070: f113 69be 3b58 263e 2146 593e 6feb 1cbe
00000080: 474e 683e de5a f83d 8a8d 9dbd a5eb 4c3e
00000090: c2c4 b03d 2a5b a1bd 4396 e9bf 8fd3 c03e
000000a0: 00e2 963b a406 013d 64f8 2dbf 78e5 1cbf
000000b0: 2af1 19bf 843d 23bb 582e 3a3d ad33 153d
000000c0: 28e5 e23e 4249 c13d c0b3 84bc d6ce 663d
000000d0: 70cc cabd 8f48 1abb 81cd 92bc d2f7 43bd
000000e0: 6de6 a1bc 1261 65be e8a6 9dbe 828e 80be
000000f0: 9b8c 3c3e 911f 4b3c 5d03 5c3e 2159 1e3b
00000100: 8728 5b3e 2fe5 75bd 6818 533d cc66 72bd
00000110: d462 4e3e 5295 f13d caca 51bd 2af6 eebd
00000120: f57a e4bc e853 a1bd 1185 5bbe 67a0 a53d
00000130: 55f6 6f3e 3885 ddbb 4e5f 323e c9c8 f0bd
00000140: f07f 3fbf 3fc4 a2be f8cb 9abe 4e4a 0b3e
00000150: 3f4d 99ba c175 0a3e 7057 f7be a51b 933e
00000160: 3a11 dabc 7f70 1ebe 8351 d13c 3105 25bd
00000170: e5c3 1ebe 0397 a53e 4699 303e d174 79bf
00000180: 9deb 85be f8e7 a7b8 cf57 02bf ed53 2f3e
00000190: 500b 93bf 1ded 6bbf 58b4 3cbe aed3 adbd
000001a0: 834b 063c cb41 d2bd 5e11 b53d 32be c83d
000001b0: b1d9 81bb 6df0 8bbc 266b 063c 44bd ec3c
000001c0: cebf d1bb 6d7c 053d 0ab1 fdbd 311f 3b3e
000001d0: b6f6 59be dad6 e9bd aaf1 8a3d 166f 5dbe
000001e0: 847f 57be 2013 243c e6d2 94bd b016 10be
000001f0: 5833 e0bc 02c0 8f3d c8de 06be 821c 923d
00000200: de16 53be ccf6 3dbd 86e7 31be b4be c5bd
00000210: 226d 06be 3d66 d73f dcf2 ff3d c7fc 1ab9
00000220: 9155 e9bc 0230 9a3f 297b 493d 8ec2 3bbe
00000230: 3bee 1d3c d851 833d 7c51 1bbc 73d7 563f
00000240: 482f 08be 8d4b e9bc c09d fcbb 05f8 78bc
00000250: d6b3 a1ba a9c6 563c fb52 62be 3a08 72bd
00000260: 7161 263e c953 08be 7f42 563b f9bf d7be
00000270: c332 d53f 652a 86bd 349e 313d 3414 7bbc
00000280: af98 adbd ca98 a1bc c6a3 433f f39c cd3d
00000290: 1639 ce3c 2b23 983c f464 8cbc 0751 8ebb
000002a0: 4c66 173d fc42 7dbd 2046 df3c e668 c6be
000002b0: 29ce 8abe 40aa eabd 23da 24bf c3eb a5bd
000002c0: 7d9f c1be 3499 23bf 4290 23bc 60a3 2bbe
000002d0: e9b3 84be c832 cdbe c456 35be 199d 463d
000002e0: 6701 8d3d ede4 133e e51f 813c 1372 083e
000002f0: 4add ab3d c817 503e 4088 85bd c3ea dcbd
00000300: 2315 2d3e dbbf 543e 4ee6 c93d 6639 b2bd
00000310: cc17 31be f429 763d 6609 c0bd 5761 513e
00000320: 8a12 913d 551f 623e e427 26bd ca10 d93d
00000330: fd3d 553e 226c 23be 280c fcbc 3017 2cbc
00000340: 72c0 84bd 8f0d f03e 1019 733e 1f24 c23d
00000350: 04ce 4fbe 8059 f4be a506 f7bd 8e4f e23d
00000360: e226 083d dbb5 0d3e 04ee 173d 283a 87bf
00000370: 1281 0cbe 7324 28be 92d7 703d f623 9dbd
00000380: 2705 a8bc c9d8 11be 8d77 153b f221 83bd
00000390: 6ea1 afbf 0c0a 18be ef74 24bb 30a2 05bf
000003a0: 1015 6abe 649d 9bbe 816f 17bf e269 39bc
000003b0: 4e5e 71bd c647 3abd 4c22 b9be e597 b43d
000003c0: d485 cdbd 72b0 25bb d908 f0bd cd48 203c
000003d0: 6e85 213d 651e 38be 8020 85bd 28b5 dcbe
000003e0: 61f7 1e3e 35af 773a 8952 3fbf 8a59 ba3d
000003f0: 4b59 83bf 63fe 8ebf 8606 543d 3a70 833d
-0.06485152 0.12009661 0.009234384 -0.048173293 -0.070221886 -0.052316755 -0.059521824 -0.0796075
0.14378501 0.07058619 0.07795553 0.18135421 -0.095612496 -0.22832699 -0.20006777 -0.16495037
-0.10014148 0.044581816 0.1149859 -0.10392018 0.18463354 0.046688423 -0.110446885 0.12844692
-0.01694958 0.1621436 0.11856653 0.15105878 -0.22761513 0.16244595 0.21218158 -0.15324186
0.2268611 0.121267065 -0.07693012 0.20011766 0.086312786 -0.07878716 -1.8248981 0.37661406
0.004604578 0.031500474 -0.6795714 -0.6128764 -0.6013361 -0.0024908492 0.045454353 0.036426235
0.44315457 0.09437801 -0.016198993 0.056349598 -0.099022746 -0.0023541783 -0.017920258 -0.04784376
-0.019763196 -0.2240031 -0.30791402 -0.25108725 0.18413012 0.012397663 0.21485658 0.0024162012
0.21402179 -0.06003302 0.051536947 -0.059180066 0.20154887 0.11796059 -0.051218785 -0.11668046
-0.027890662 -0.07877332 -0.2143748 0.08087235 0.23433812 -0.0067602657 0.17419168 -0.11757047
-0.7480459 -0.3179035 -0.3023374 0.13602564 -0.0011695995 0.13521482 -0.48308897 0.2873203
-0.026619542 -0.15472601 0.025551563 -0.040288154 -0.15504415 0.32341775 0.17245969 -0.9744387
-0.2615632 -8.006388e-05 -0.50915235 0.17121859 -1.1487827 -0.9215868 -0.1842817 -0.0848764
0.008196714 -0.10266455 0.08841203 0.09801902 -0.0039627184 -0.017082417 0.008204257 0.028898843
-0.0064010387 0.032589365 -0.12387283 0.18273617 -0.21285519 -0.11417933 0.06784375 -0.21624407
-0.21044737 0.010014325 -0.07266788 -0.14071155 -0.027368233 0.070190445 -0.13170922 0.07134344
-0.20614192 -0.046377942 -0.17373475 -0.09655514 -0.13127568 1.6828076 0.124974936 -0.00014780751
-0.028483184 1.2045901 0.04918972 -0.18335935 0.009639318 0.06412095 -0.009479877 0.839225
-0.13299286 -0.028478408 -0.007709235 -0.015195851 -0.001233692 0.013108888 -0.22101967 -0.059089877
0.16248108 -0.13313212 0.0032693443 -0.4213865 1.6656116 -0.06551055 0.043363765 -0.015324641
-0.08476388 -0.019726176 0.76421773 0.10039701 0.025173705 0.018571457 -0.017137982 -0.0043431553
0.036962792 -0.06183146 0.027255118 -0.38751906 -0.27110413 -0.11458254 -0.6439535 -0.081016086
-0.37816992 -0.63905644 -0.009983124 -0.16761541 -0.2591851 -0.40077806 -0.1770888 0.048489664
0.06885033 0.14442797 0.015762279 0.13324766 0.08391817 0.20321572 -0.06520128 -0.10786965
0.16902594 0.20776312 0.0985838 -0.08702354 -0.17294234 0.060098603 -0.093767926 0.20447288
0.07083614 0.22082265 -0.040565386 0.105989054 0.20824428 -0.15959218 -0.030767515 -0.010503575
-0.064820185 0.46885344 0.2374003 0.09479546 -0.20293432 -0.47724533 -0.12061814 0.1105033
0.033240207 0.13838904 0.037092224 -1.0564623 -0.13721111 -0.16420154 0.058799334 -0.07672875
-0.02051027 -0.14242853 0.0022806854 -0.06402959 -1.372114 -0.14847583 -0.0025094112 -0.52200603
-0.22859597 -0.30393517 -0.59154516 -0.011316748 -0.058927827 -0.045478605 -0.3615898 0.08818034
-0.10035291 -0.0025282172 -0.117204376 0.009782982 0.03943389 -0.17980345 -0.065003395 -0.4310696
0.15524055 0.000944841 -0.74735314 0.090991095 -1.0261625 -1.1171383 0.051764034 0.0641789

models.524287.layers.0.bias f4 [64]
00000000: c398 64be e662 9e3d 88bb b9bd b9fd 3bbd
00000010: 732d 37be af14 00be 506e d0bc 30a5 c0bc
00000020: f108 263e c9f6 25be a254 c33d b947 113e
00000030: 6131 acbe 12c6 7cbd 47d4 603e db2d 57be
00000040: 80f4 f93a 3077 ddbc 3d63 943c 040d 2bbd
00000050: 863a fe3d 150b fa3d bc73 5fbe 775d c5bd
00000060: f4f8 26be 5a32 ed3d bccc 35be 108b 78bc
00000070: 5118 43be 3eff e63d 0d4a ec3b 3cf3 9bbe
00000080: 4516 27be f0e1 0dbe 4c0c 0e3d 84f9 b1bc
00000090: a93c 193e a3c2 40be de4a 16be 5c2c 363d
000000a0: 98bf 3f3e fbe0 05bc 407a 4ebd 065a babd
000000b0: cd45 183d cae5 033e 6c39 703d 3253 403d
000000c0: 3fcd 03be 858b 3cbe b05b 26bc 4bdd 67bc
000000d0: 9dd5 283d fb45 86be 726a 043b fb57 d6be
000000e0: d222 d53d fe84 0fbe 060a 20be 0fe3 5bbe
000000f0: afd6 f6bd 3df9 05bc 0d81 033e c3c4 26bd
-0.22323899 0.07733707 -0.09068972 -0.045896266 -0.17888431 -0.1250789 -0.025443226 -0.023516268
0.16214348 -0.16207422 0.09537627 0.14187516 -0.33631423 -0.061712332 0.21955977 -0.21013586
0.0019070059 -0.027034372 0.018113727 -0.04176046 0.12413506 0.12209145 -0.21821493 -0.09636968
-0.16305906 0.115818694 -0.17753881 -0.015169874 -0.19052245 0.11279152 0.007210976 -0.3045901
-0.16317089 -0.1385572 0.034679696 -0.021725424 0.14964546 -0.18824248 -0.14676997 0.0444759
0.18725431 -0.008171315 -0.050409555 -0.09099202 0.037175942 0.12880626 0.05864851 0.04695434
-0.12871264 -0.18412597 -0.010153696 -0.014151881 0.041219342 -0.26225266 0.0020205048 -0.41864
0.10407032 -0.14015576 -0.15628824 -0.21473335 -0.120526664 -0.008177099 0.12842198 -0.04071499

models.524287.layers.3.weight f4 [32, 64]
00000000: 0ce8 333d 9cca 923d 7887 52be 8774 6dbd
00000010: eaa0 c0bd 7c9c abbe e0a0 f7bb a81e f5bd
00000020: f15f 0cbe 0edc 77bd d044 c23d 592d 513e
00000030: 4d09 8fbc 24c9 64bd 38b4 88bd ce4c 0abf
00000040: 80d7 82ba dd72 283d 7f67 193a fa18 a9bd
00000050: 70ba e03d f4c0 a63d 5564 473f e9ea c4bd
00000060: e667 d33d 98fb 813d 213c 313d d2fe e4bd
00000070: 0447 febe f035 2a3d 7cd5 d83b 195a 81bd
00000080: 934a d23d 5c2e b83d 9c41 393d 9346 5bbe
00000090: caaf 9f3d 3074 623e 79b4 bf3e 4031 45bb
000000a0: b46c 443e 30b2 78bd 1ed8 9e3d 54a7 94bd
000000b0: c9f5 40bd 65da 2ebd 74a8 b93d b93a 753d
000000c0: 7481 593e a22c ad3d dfd6 5e3e 19c2 183d
000000d0: 7a58 d23d 289b 07bd eb86 d1bb 0735 40bd
000000e0: 8cd3 47bd d6d5 e23e 258a 71bd 4612 9fbd
000000f0: fe69 b6bd 552f 503d 06d9 7d3c 3d92 ac3e
00000100: 4054 9bbb e4be ac3d 411b 9b3e 01a5 efbc
00000110: b1ea 7d3d d3e2 1d3e 56ec ad3d 2886 00bf
00000120: 8c22 90be 8eb1 78bd 50ae 7bbc 615d c73d
00000130: 9ce4 403c 3cc1 3e3e b68b 9b3d 7bf1 b3be
00000140: b067 c93c 9894 f1bd 5a82 61bd feae d53d
00000150: 14fe 443d 7974 b23c a483 7ebe 6af2 50ba
00000160: c0b8 a5bd d20c e53d 86f1 d43c 58c6 bf3c
00000170: 3363 f73d ac08 393d a43c 81bd ac7a 42bd
00000180: 310a 803b 5694 d7bd d482 e53d 5f1b fbbd
00000190: 1e7b ec3d 6a47 85be 1376 16bd 3023 be3c
000001a0: 2512 d6bd d984 123e f4ad 763d c013 d03d
000001b0: 1d1b 77bd 37a9 c03c a7a3 8bbd 2d28 82bd
000001c0: 0bcb f23c 1cc9 cebd a2d8 79bd 0244 363d
000001d0: 274c 933c f478 eb3d c3a2 edbd 1005 823d
000001e0: 0c6e 57bd d561 a2bc ad5c c1ba 7793 7a3d
000001f0: 04ff ab3d a414 90be 5b7c a23c 1cd7 b4bd
00000200: 0042 e9b9 981d 3fbd 116d cebc 1c6d b8bb
00000210: 64e3 efbc db61 4ebd 548a cf3d 0f97 cebb
00000220: 96ef c53d d0a7 29bc c0a9 75bb c304 ebbc
00000230: 5839 80bc 1688 973d b8f8 df3d cd45 7dbd
00000240: a6e9 b33d 7ece fdbc da98 b83c 3c4a 5c3d
00000250: ac8f 033d 142d f8be ba93 35bf ecf6 673d
00000260: 9209 be3d 8048 593b 8c7f a1bd 646f 26bd
00000270: a064 49be 3092 c33d 1bc6 a03a 7284 e73b
00000280: 57cf 5bbd 1064 eabd a869 2f3d 5c7b dfbe
00000290: 6626 e33d 9454 19be ad57 01bf e8e9 6dbd
000002a0: 4cdb 99be bf5c 62bd 9875 5d3d 4055 acbd
000002b0: 533c 913d 9e84 e43c 66e6 88bd e2b0 603d
000002c0: f803 f8be c026 c9bb 802d b1bd d1bf a13d
000002d0: 6fe4 82bb 7de8 98bd bc90 4a3e de2d a73b
000002e0: b432 813d b312 bcbe 0eb8 11be 04bd 263b
000002f0: 8497 e9bd e757 0d3c 82bf 10bc e35c 21be
00000300: a83c 353d e053 143c 6408 3cbe 4f0d e23c
00000310: 2467 d63d 7df7 2fbe ec19 6f3d 3d24 b2be
00000320: f740 22be 39da 813d 9e79 dabd f063 6cbd
00000330: d8c1 b63d d197 ea3c 6894 21bd b042 67be
00000340: 2038 d93d ac63 e63d a432 8a3d 78c6 7ebd
00000350: 4058 103c ea1d 22bc 285a 113e 9962 b639
00000360: d84b 90bd b0fc 71bc 1cf0 843d daf3 e33d
00000370: c4cb 98be 803e 6abd d16e 07bc ed8e 1cbd
00000380: d240 62bd 965c ddbd 20e0 d3bd d120 38be
00000390: f278 a3bd 108d 47be b3a7 983e 18d5 e9bc
000003a0: 4b56 eabd 273f 71bd 508e 033d 10dd adbd
000003b0: 6e72 a7bc a08e 65bd c13f f43d 7ff8 923c
000003c0: 1c6b 163e d410 f43d 7143 11bd 4410 f73d
000003d0: 230c 1cbe 354f e0bb 760e adbd 8cfb 51bc
000003e0: a0f0 4bbc e262 643e 0639 253c 3e74 883c
000003f0: a01d ebbd 1fdb fdbc 1c5c 813d 69bd 9bbd
0.04392247 0.07167551 -0.2055949 -0.057972457 -0.09405692 -0.33517826 -0.0075570196 -0.11968738
-0.13708474 -0.060512595 0.09485781 0.20427455 -0.01746049 -0.055855885 -0.06674999 -0.54023445
-0.0009982437 0.041125167 0.0005851909 -0.08256717 0.1097306 0.08142272 0.7788747 -0.09615118
0.103225514 0.06346816 0.043270234 -0.111814156 -0.49663556 0.041555345 0.006617246 -0.06316013
0.1026813 0.08993217 0.045228586 -0.2141364 0.07797201 0.22114635 0.37442377 -0.003008917
0.19182092 -0.060716808 0.07756065 -0.07258478 -0.0471094 -0.042688746 0.09065333 0.059870455
0.21240789 0.08455779 0.21761654 0.03729448 0.10270782 -0.033106953 -0.0063942573 -0.04692557
-0.04878573 0.4430377 -0.058969636 -0.07767157 -0.08906935 0.05082639 0.015493637 0.3370532
-0.004740268 0.08434847 0.3029423 -0.029253485 0.061991397 0.15418558 0.08492343 -0.50204706
-0.28151357 -0.060716204 -0.015361384 0.097346075 0.011773255 0.186284 0.07595007 -0.35145172
0.024585575 -0.1179592 -0.055055954 0.10433768 0.04809387 0.021784054 -0.24854904 -0.0007970693
-0.08091879 0.11184086 0.025994074 0.023410007 0.120794676 0.045174286 -0.063103944 -0.04748027
0.003907465 -0.1052634 0.11206594 -0.1226108 0.1154692 -0.26031047 -0.036733698 0.023210138
-0.104526795 0.1430849 0.06022449 0.10160017 -0.06032859 0.023518188 -0.068183236 -0.06355319
0.029637834 -0.10096952 -0.060997613 0.04449845 0.017980648 0.11497679 -0.1160331 0.06348622
-0.052595183 -0.01982204 -0.0014752351 0.06117579 0.0839825 -0.28140748 0.019834688 -0.08830091
-0.00044490397 -0.046659082 -0.025198491 -0.005628241 -0.029283233 -0.05038629 0.10133806 -0.0063046287
0.09664838 -0.010354951 -0.0037485212 -0.028688794 -0.015652344 0.07399003 0.10936111 -0.061834145
0.08784799 -0.030982252 0.022533823 0.053781733 0.032119438 -0.48471892 -0.7092854 0.056631967
0.09279169 0.0033154786 -0.07885656 -0.040633574 -0.19667292 0.095493674 0.0012266071 0.0070653493
-0.05366453 -0.11444867 0.04282537 -0.43648803 0.11091308 -0.1497367 -0.5052441 -0.0580844
-0.30050123 -0.05526423 0.054067224 -0.08414698 0.07091584 0.027895268 -0.0668457 0.05485619
-0.48440528 -0.0061386526 -0.086512566 0.07897914 -0.0039945166 -0.074662186 0.19781774 0.0051019033
0.06308499 -0.36733016 -0.14230368 0.0025442252 -0.114058524 0.008626915 -0.0088347215 -0.1575809
0.0442473 0.0090532005 -0.18362576 0.027594237 0.10468891 -0.17184253 0.05837433 -0.34793273
-0.15845095 0.06340451 -0.10667728 -0.057712495 0.089236915 0.028636845 -0.03944817 -0.22584033
0.10606408 0.1124948 0.0674794 -0.062200993 0.008810103 -0.009894827 0.14194548 0.00034787206
-0.07045716 -0.014769718 0.0649111 0.11130495 -0.2984296 -0.05718851 -0.008266167 -0.038222242
-0.0552376 -0.10808675 -0.10345483 -0.17981268 -0.07982053 -0.19487405 0.29815444 -0.028543994
-0.1144224 -0.058898117 0.03211814 -0.0848943 -0.020440307 -0.05604422 0.119262226 0.017940758
0.14689296 0.11917272 -0.035464708 0.12063649 -0.15239005 -0.0068453797 -0.08450024 -0.012816321
-0.012447506 0.22303346 0.010084396 0.016656991 -0.1148026 -0.030988274 0.063163966 -0.076044865

models.524287.layers.3.bias f4 [32]
00000000: 45fb 3e3d 371f 33bc 5657 803e 18a6 e03e
00000010: f049 b03d 0f8f 4a3d d94e 1ebe 4b61 a3be
00000020: 11f8 ce3e 8d40 4e3e ce51 8b3e 70de 053e
00000030: 746d 6b3d 9a12 9b3e f468 223e a49a 8b3e
00000040: 3113 bc3d 6900 823e 8ba8 693e 4ad2 823d
00000050: aaa1 1b3e ad83 ae3e bf74 d93d 6426 6e3e
00000060: 1b46 8c3d e491 883e 88fa 8c3e 81b4 333e
00000070: bd13 4bbe 03b1 223e 361a b63e 64ac 413e
0.046626348 -0.010932735 0.25066632 0.4387672 0.086078525 0.049452838 -0.15459765 -0.31910166
0.40423635 0.20141812 0.2721085 0.13073134 0.05747743 0.3028763 0.15860349 0.2726642
0.09183348 0.25390938 0.228182 0.06387766 0.15198389 0.34084836 0.10617971 0.23256832
0.06849309 0.26673806 0.2753489 0.17549326 -0.19831748 0.15887837 0.35566872 0.18913418

models.524287.layers.6.weight f4 [16, 32]
00000000: be8a 4f3e c74d 82be ef5c 343b dcfa 4f3d
00000010: 8b0d cd3e e8e3 9ebe 1847 083e 4db2 01bf
00000020: ca82 573e ca2e 4d3e dd5a 28be e928 733e
00000030: 5ea9 27be 1ca9 bebe 31b9 1abe c50d 92be
00000040: 1d05 b3be dfb9 60be 830c 9abe cc42 cdbe
00000050: 1ffd 6bbd d84f 03be 7c20 25bf 55c7 8c3e
00000060: c10a 463e b110 14be 0100 1a3d 8af7 bfbe
00000070: 77a7 cdbe 0e81 15be a803 6b3e 5c16 bfbd
00000080: a825 a4be 140d 5e3e 9a4c a33e 1c15 2b3e
00000090: dfed 25be 170b b13d e99e 2dbd 3987 e5bb
000000a0: 6384 0b3e 09db eebe def3 993e b738 c4be
000000b0: 0458 3d3e 82ae 2a3f 2e62 623e fe22 cd3e
000000c0: edec ab3e ddd5 b43e a083 513e 662a 533d
000000d0: 9b81 ba3e 0065 903e e8ce 333e 614e 133e
000000e0: 7813 75be 194d 973e 6000 033f e7a5 1c3e
000000f0: dc82 443e dd03 303e 5033 2b3e 6706 b73e
00000100: 0ca6 69be 4e5c ba3e e9af 303e 6682 293e
00000110: 79e0 e1bd c783 7d3d 0893 623d ec03 b23e
00000120: cf22 9c3d 1a92 7fbe 8f91 d83e 2ed2 92be
00000130: a348 263e 8fe0 393f 11d3 2a3e 29fc ec3e
00000140: eeb1 c23e c75c e83e abbb 523e 6374 bfbc
00000150: 26d6 ab3e 0658 bf3e 01f6 293e ea66 6b3e
00000160: 1e38 8abe a2db 2f3e 50a2 ba3e 024e 6c3d
00000170: d346 57bd 4dd2 84bc b37f 373e 156f 653e
00000180: b692 70be 7362 633e c055 ea3d addd eb3d
00000190: 07f4 03be f2ba f53d a65d 87bb baf5 bc3e
000001a0: 9c9c 6e3e bb6c b4be d894 3f3e 8804 b0be
000001b0: 6eaa e23c 9d82 173f bff4 5d3e ea2d cd3e
000001c0: e76a c33e 236f e13e 52c4 733e 68f7 d4bd
000001d0: 65b4 1a3e 0b29 de3e 448f 15bc 4982 293e
000001e0: baea 61be d90a 703e 14bb 8d3e 83c7 b4bc
000001f0: c664 09be 8bec ff3c cc46 523e 0f00 813d
00000200: d7a4 483e b96f 93be 4223 cabd e150 973d
00000210: 9e38 a63e c75d c0be 8da8 073e e3fd a5be
00000220: fa1a 583e 816a a63e 1ab0 30be 5ad5 483e
00000230: 83aa bebe f291 babe a5c0 2ebe 7056 a1be
00000240: a336 2fbe 5d53 6ebe 8465 b0be 28c5 e4be
00000250: c049 d3bd 181f 06be 494d 23bf cae6 4a3e
00000260: 2869 bcbd f422 32be b6b2 bdbc ef38 90be
00000270: 9fd6 0ebe 5b0c 1cbd 4b40 113e 00da 7bbd
00000280: e1bd 5d3e c1ee a7be 39b7 09be b978 1b3e
00000290: 2a26 803e ee65 95be 2ef2 02be 0c45 b9be
000002a0: a972 773e f6bb b03e 541a e4bd 3aac b03e
000002b0: 475a c3be 1d8b 82be d7c4 02be ac50 5cbe
000002c0: debd 8abe 1715 13be ebd6 a5be 2453 c8be
000002d0: 06ff 1abb 173a 8fbb 3008 26bf bb8b 723e
000002e0: e034 72bd bde1 48be 3db4 fcbd 0b0d 84be
000002f0: 12d1 62be 47cd 1abe a743 ac3d a68d f3bd
00000300: 85d6 b83d 5d93 93be 6e8b 08be a627 5d3e
00000310: 1ce4 943e 6ec5 b7be 9d87 fb3d 2f8d 96be
00000320: 734b 783e 8ef8 a53e c458 ecbd f294 a53e
00000330: 7810 5dbe 4ff1 80be 23be 6fbe 18cf 17be
00000340: 9be2 10be a019 1bbe 8b13 acbe 1c68 cfbe
00000350: c654 3bbd bdad e7bd cbd0 1abf d375 583e
00000360: 02ed e13c e176 83be 68c6 a63c 7d0f a7be
00000370: 8f16 85be 6fc6 92bd 027e dc3d 72cd 0fb7
00000380: 9e57 c43d 0016 82be 00a5 3bbe 01f4 4e3e
00000390: b6aa 2e3e 3a3b a8be b030 c3bd a449 c3be
000003a0: 565d b03d 3c59 6b3e 0c0c 77be b9ac 5a3e
000003b0: 292d 5abe f13e a7be 9fea 6abe d189 15be
000003c0: 2d3d 7bbe 632d 31be 079b 93be df47 bfbe
000003d0: e65f 1c3d 41da 59be 73b6 19bf b4a0 6c3e
000003e0: 9fad 473d 9e57 1fbe be65 90bd 02be b6be
000003f0: 8317 c6be 0450 f6bd 5fec 483e 90ab e6bd
0.2026777 -0.25449964 0.0027521213 0.050776348 0.40049395 -0.31033254 0.1330837 -0.5066269
0.21045986 0.2003738 -0.16440912 0.23746075 -0.16373202 -0.37238395 -0.15109707 -0.2852613
-0.3496484 -0.21945904 -0.3008767 -0.40090024 -0.057614442 -0.12823427 -0.6450269 0.27495828
0.1934004 -0.14459492 0.03759766 -0.37493545 -0.40166828 -0.14600012 0.22950613 -0.093304366
-0.3205998 0.21684676 0.3189438 0.16707271 -0.16204022 0.08644693 -0.042387877 -0.007004645
0.1362472 -0.46651486 0.30068868 -0.3832452 0.18490607 0.6667253 0.22107765 0.4006576
0.33579198 0.35319415 0.20460367 0.051554106 0.36427006 0.28202057 0.17559397 0.14385368
-0.23933208 0.29551008 0.5117245 0.15297662 0.19190544 0.17188974 0.16718793 0.35747072
-0.22817248 0.36398548 0.17254604 0.1655365 -0.11029143 0.06189325 0.055316 0.34768617
0.07623827 -0.24958077 0.42298552 -0.2867598 0.16238646 0.72608274 0.16682078 0.46286133
0.38026375 0.45383283 0.20579402 -0.023370927 0.3356182 0.37371844 0.1659775 0.22988477
-0.2699594 0.17173627 0.3645196 0.05769158 -0.052557778 -0.01621356 0.17919807 0.22405656
-0.23493466 0.22205524 0.11442137 0.11516891 -0.12886058 0.119985476 -0.004131037 0.36906224
0.23301929 -0.35239205 0.18709123 -0.34378457 0.027669158 0.59183675 0.21675394 0.40074092
0.38167498 0.44030103 0.23805359 -0.103987515 0.15107878 0.43390688 -0.0091283955 0.16553606
-0.22062197 0.23441638 0.27681792 -0.02206779 -0.13417348 0.031240722 0.2053482 0.06298839
0.19594131 -0.28796175 -0.09870006 0.07388473 0.3246507 -0.37571546 0.13247891 -0.32420263
0.2110404 0.3250313 -0.17254677 0.19612637 -0.37239465 -0.36439472 -0.17065676 -0.3151126
-0.17110686 -0.23273988 -0.3445245 -0.44681668 -0.10316801 -0.13097799 -0.637898 0.19814602
-0.091997445 -0.17396146 -0.023156505 -0.28168437 -0.13949059 -0.03809772 0.14184682 -0.061487198
0.21654464 -0.32799342 -0.134488 0.15182771 0.25029117 -0.2917933 -0.12787697 -0.3618549
0.24164833 0.34518403 -0.11137834 0.34506398 -0.38154814 -0.2549676 -0.12770401 -0.21515149
-0.27097982 -0.14363514 -0.32390532 -0.3912593 -0.002365054 -0.0043709385 -0.64856243 0.23686115
-0.059132457 -0.19617362 -0.12339065 -0.257912 -0.22150066 -0.1511737 0.08411341 -0.11892252
0.09025291 -0.28823367 -0.13334438 0.21597156 0.29080284 -0.35892814 0.122817256 -0.2940459
0.24247532 0.32416195 -0.11540368 0.323402 -0.21588314 -0.25184104 -0.23412375 -0.14825094
-0.14148943 -0.15146494 -0.3360866 -0.40509117 -0.045735143 -0.11312435 -0.6047484 0.21138696
0.027578834 -0.25676635 0.02035828 -0.32629004 -0.25993773 -0.071667545 0.107662216 -8.571298e-06
0.09587024 -0.2540741 -0.18324661 0.20210268 0.17057309 -0.32857686 -0.09530771 -0.3814212
0.086115524 0.22983259 -0.2412569 0.21354951 -0.2130629 -0.32665208 -0.22941063 -0.14603354
-0.24535055 -0.1730247 -0.28829214 -0.3735952 0.038177393 -0.21274664 -0.6004402 0.23108178
0.048749562 -0.15560767 -0.07050656 -0.3569184 -0.38689813 -0.120269805 0.19621418 -0.11263192

models.524287.layers.6.bias f4 [16]
00000000: e422 cb3e 190a 393e 157a 133e 6b95 1e3e
00000010: 5a5a ec3e dfc3 cd3e 7fc4 ac3e 7369 d03e
00000020: 24d2 0d3e 41f2 333e 4006 9e3e e1c0 ea3e
00000030: 2cc0 013f 2939 9d3e f67c 8b3e 5470 803e
0.39675057 0.18070258 0.1440204 0.15486686 0.46162683 0.401885 0.33743665 0.4070545
0.13849694 0.17572881 0.30864143 0.4585028 0.50683856 0.30707672 0.27243775 0.250857

models.524287.layers.9.weight f4 [1, 16]
00000000: de54 08bf 1c53 b43e ecd5 e13e 8c94 0d3f
00000010: 866b 1cbf 647b 20bf dacb 0ebf 19d9 1cbf
00000020: 2aee ed3e 366e e93e e299 c13e 1537 42bf
00000030: 3379 1abf eeea 19bf dfd9 13bf b537 ed3e
-0.532545 0.35219657 0.44108522 0.5530479 -0.6110157 -0.6268828 -0.557798 -0.61268765
0.46470767 0.45591897 0.37812716 -0.758653 -0.60341185 -0.601241 -0.5775432 0.46331564

models.524263.layers.0.weight f4 [64, 17]
00000000: a845 0e3e 82e5 173e 6deb 54be b616 223e
00000010: ee91 32be a027 b73c b850 21bd 4892 5b3e
00000020: 9573 65be 452e 39be 2774 49be 002e da3d
00000030: 1eb8 f4bd 5be5 2abe a010 e93d aea2 0fbe
00000040: d6ea 3f3e 3cc2 c43d f3d7 2abe 20ca 623e
00000050: 3833 043d 0c48 e93d ee53 91bd d050 593d
00000060: 9b34 65be ca30 593e 8875 6f3d c057 0f3c
00000070: 6c8e 573e f612 693e ba78 31be 8a00 e7bd
00000080: 74a7 8dbd c029 cebb ac98 103e 2e50 553e
00000090: e89c 49be 0018 8e3d a8ee 91bd 144b f43d
000000a0: dc28 48bd a893 7b3d 0abb 63be ac50 fe3d
000000b0: 4a4d 0cbe be46 6dbe e083 dd3d d40d 1bbe
000000c0: 302a 093d 184c e33d 86f0 c6bd 4033 f93f
000000d0: 6fba 993c a020 34ba e225 433d 4cc5 1dbd
000000e0: 067e 1ebd 5c47 1fbd c09c 66bc e8a5 91bf
000000f0: efe8 933d be64 053d f09d 133c 275d cfbc
00000100: 5bcd bb3b 20b0 503c ebc3 803c c75f 003d
00000110: 1e97 6abe fd14 60be c01b eebc 9c94 d73d
00000120: 20c8 2dbd 3074 723d e8b9 9a3d f200 2abe
00000130: e0b2 ce3d 6635 363e 5c86 8fbd 8064 5fbd
00000140: 482f 86bc 4c77 03be a6f1 d2bd 3ca6 c1bd
00000150: 728f 3bbe bf66 59be 608f e7bb 8c5e 5cbd
00000160: 7029 0fbe 8cde 7dbd 60fb 683d 3ef0 663e
00000170: 30cc d33d 5c58 c43d 321b 363e 4c47 8fbd
00000180: a843 163d 7cf8 97bd e6ab cbbd 3040 36bd
00000190: 8063 fdbc b059 1fbe 5856 983f 8777 723c
000001a0: 54ad 283b d084 b03d 6558 1dbe b5f2 c83a
000001b0: 54f5 ff3c 5435 5d3b ce73 acbf 31eb f43b
000001c0: 667a 693c 9a4e 373c 59ea 1cbd 7650 903b
000001d0: 7d02 213c cf85 9a3c 581b 793c ce1e 30be
000001e0: 69b7 cd3e 982d 1b3e 7ca6 2f3e 3256 5d3e
000001f0: 0ddf c53d 237d 3dbe 9a28 5a3e bf49 a43e
00000200: c043 14be 935e dabd 4a53 6bbd 6f91 ac3d
00000210: d862 2cbd bf2c eebd 5edd 74be 0006 07be
00000220: 72ed 0e3e 80af b73c d82b 4ebe f08d 343d
00000230: bc96 46bd b4cb 6f3e c4ee dabd a617 0d3e
00000240: e0a2 103c 50b2 9cbc 5eff 193e 38a2 4abd
00000250: aa69 0e3e b2ba 57be 0e58 783e c418 9abd
00000260: d48d 1abe 98c1 9f3d 5e84 323e 0018 c73d
00000270: d039 acbc 2230 223e 906f 5b3e 20dc 47be
00000280: 6a5f 6e3e 282b 35be 8650 5ebe be5c 47be
00000290: 2aef 47be 9c75 953d 0825 bfbd e8d4 91bc
000002a0: e7eb 37be 0027 693a 24a6 443f 743a 193d
000002b0: 2605 ab3b 1067 fd3e ffcb 403e 6299 69bc
000002c0: db67 fcbc f1f1 db3d 0cc7 9bbf 8318 1fbd
000002d0: fd73 07bd bf5c 1fbc 01d8 713d 52b2 97bb
000002e0: a382 41bc 53c3 803c 5e69 8a3d e7ed 913d
000002f0: fb10 433d 71e0 2abd 06b9 82bf e686 60bf
00000300: 11a3 703e 86c2 8c3d 801d 1fbb 05bb e5be
00000310: e81b 883d b1d6 43be ba93 a2bc 164f 7dbe
00000320: 5acc 7b3c f525 0e3d 1a0c febb 018d b33d
00000330: 8465 10bd 722c 73be 202d 563d 6bda 5ebe
00000340: 968a 5f3e 34e4 c9bd 64bd 05be bc4f f13d
00000350: f04f 553e 2a74 0e3e 04c6 333e 3ef7 05be
00000360: 1046 9dbc 881f 37bd c02a d8bc 0037 573c
00000370: e6e3 bdbd c490 e2bf 4ede 6b3d 479b ff39
00000380: 430d 71bf ea58 0fbf bfda 72bb eeb4 44be
00000390: 53d4 57bc 38f0 823f d844 0f3e d313 27bb
000003a0: fddf c8bc 4f35 3fbd 842f 5739 677a 15bc
000003b0: fd1f f1bc 735d fc3a 9a92 debf 1d94 09bc
000003c0: 55be c53b fd29 e2be 96cc 10bf 5be0 8b3d
000003d0: a8e2 4ebd 2760 823d ee59 2a3f 8bae 473d
000003e0: f4dc 2dbe c75f d3bd 793f f73c 16c4 d13b
000003f0: f6c5 95bd 3ba1 2e3d 6c00 90bd d67f 1f3e
0.13893759 0.14833644 -0.20792933 0.15828976 -0.1743848 0.022357762 -0.03938362 0.2144252
-0.22407372 -0.18084057 -0.19673215 0.10653305 -0.1194918 -0.16689055 0.11380124 -0.14026901
0.18741927 0.0960736 -0.1668394 0.22147417 0.03227541 0.11390695 -0.070960864 0.053055584
-0.22383349 0.21210018 0.058461696 0.008748949 0.21050423 0.2276114 -0.1733121 -0.112794
-0.06916705 -0.006291598 0.1412074 0.20831367 -0.19688761 0.069381714 -0.07125598 0.119283825
-0.04886709 0.061420113 -0.22239318 0.12417731 -0.13701358 -0.23171517 0.10816169 -0.15141994
0.0334875 0.11098498 -0.09713845 1.9468765 0.018765656 -0.00068713166 0.04764355 -0.038518235
-0.038694404 -0.038886413 -0.014075458 -1.1378756 0.07222163 0.03256678 0.009009823 -0.025312973
0.0057312674 0.012737304 0.015718421 0.03134134 -0.22909209 -0.21883006 -0.029065967 0.10526392
-0.042427182 0.059192836 0.0755499 -0.16601923 0.100927114 0.17793807 -0.07008049 -0.054539204
-0.016379967 -0.12838477 -0.10299997 -0.09455535 -0.18316439 -0.21230601 -0.007066652 -0.053801104
-0.13980651 -0.061979815 0.056880355 0.22552583 0.1034168 0.09587166 0.17783812 -0.06996021
0.036685616 -0.074204415 -0.099448964 -0.044494808 -0.030931234 -0.15561557 1.190135 0.014799005
0.0025738077 0.08619082 -0.15365751 0.0015331121 0.031244911 0.003375371 -1.3472841 0.007474326
0.0142503735 0.011188174 -0.03830943 0.004404123 0.009827253 0.018862633 0.015204273 -0.17199251
0.40178993 0.15154111 0.17153352 0.21614912 0.09661684 -0.18504767 0.21304551 0.32087514
-0.1447897 -0.1066257 -0.057452478 0.08426177 -0.042086452 -0.116296284 -0.2391257 -0.13185883
0.13957766 0.022422552 -0.20133913 0.044080675 -0.048483595 0.2341755 -0.10690072 0.13778552
0.008827895 -0.019127995 0.15038821 -0.04947111 0.13907495 -0.21067312 0.2425234 -0.07524255
-0.15093166 0.07800597 0.17433307 0.097213745 -0.02102366 0.15838674 0.21429276 -0.19517565
0.23278585 -0.17692244 -0.21710405 -0.19468972 -0.19524828 0.07297823 -0.09333235 -0.017801717
-0.17961083 0.0008894056 0.7681601 0.03740926 0.0052191196 0.49492693 0.18827818 -0.014257761
-0.03081124 0.10739506 -1.2170119 -0.038841736 -0.0330696 -0.009726702 0.059043888 -0.0046294117
-0.011810931 0.015718138 0.067583784 0.071254544 0.047623616 -0.04171795 -1.0212715 -0.8770584
0.23499705 0.0687304 -0.0024279058 -0.44869247 0.06645948 -0.19124867 -0.019845832 -0.247372
0.015368545 0.034704167 -0.0077529075 0.08767129 -0.035253063 -0.23747423 0.05228913 -0.21763007
0.2183021 -0.098579794 -0.13060528 0.11782786 0.20831275 0.139115 0.17556006 -0.13082597
-0.019198447 -0.044707805 -0.026387572 0.013135672 -0.09271984 -1.7700429 0.057585053 0.0004875308
-0.9416086 -0.5599505 -0.0037056652 -0.19209644 -0.013173181 1.0229559 0.13991106 -0.0025493994
-0.024520868 -0.0466817 0.00020521699 -0.009123421 -0.029434199 0.0019253924 -1.7388489 -0.008397129
0.0060346522 -0.4417266 -0.56562173 0.06829902 -0.050509125 0.06365996 0.6654347 0.04875044
-0.16978818 -0.103210025 0.030181633 0.006401549 -0.07313149 0.04263423 -0.070313305 0.1557611

models.524263.layers.0.bias f4 [64]
00000000: ba35 6a3e 787d a6bd a6cc 05be 530b 8b3c
00000010: 400a febb 5817 4f3e 053e 1abe a66e 0f3e
00000020: 1cea bd3d 546d 9a3d 9b59 113e 53ef dabe
00000030: 88b8 963d 5657 813d a301 5fbd e647 273e
00000040: db8a 12be d382 2f3e 4e0c 62be f1bf cebd
00000050: 8504 153d 2c42 22bb b078 d63d 0011 b3bc
00000060: 982e 7b3d 50b7 3d3d b950 42be 1d2e 093e
00000070: 2dde 84bd 00df bb3b 2eec 5f3d 0b69 e93c
00000080: f2fb 913c 3913 bcbe 16a7 693e afe8 2cbe
00000090: 3340 98be 8066 0a3b 0fdd 013c 99c7 46be
000000a0: c7b1 1ebe e1ad 8dbd 65fb afbe 4300 8dbe
000000b0: 5cb8 9ebd 9fc8 48be 9a79 f8bd 3363 90be
000000c0: c190 3bbe dedb 053e 6df3 81be 27e6 f7be
000000d0: dfd3 46be 408e bc3d 7e80 1c3e 2a5a 583e
000000e0: eea6 1dbd 4670 e9bd 2cd5 6bbe 8b1c c3be
000000f0: d69e b43b 89a2 56be 4a4c 9abe 74ce d93d
0.22872058 -0.081294 -0.13066348 0.016973173 -0.0077526867 0.20223749 -0.15062721 0.14007053
0.092731684 0.07540384 0.14194338 -0.42760715 0.07359415 0.06315486 -0.05444492 0.16336021
-0.14310782 0.17139749 -0.22075006 -0.10095204 0.036381263 -0.002475868 0.10472238 -0.021858692
0.061323732 0.0463174 -0.18976106 0.13396497 -0.06487689 0.005733371 0.054668598 0.028492471
0.017820332 -0.36733416 0.22817644 -0.16885637 -0.2973648 0.0021118224 0.00792624 -0.19412078
-0.15497504 -0.069179304 -0.34371486 -0.27539262 -0.077500075 -0.19607781 -0.12132569 -0.28200683
-0.18316938 0.13072154 -0.25381032 -0.4841778 -0.1941676 0.092068195 0.15283391 0.21128145
-0.038489275 -0.113983676 -0.23030537 -0.38107714 0.005512099 -0.2096044 -0.3013633 0.10635081

models.524263.layers.3.weight f4 [32, 64]
00000000: d80b acbc 5068 493d 02b5 e03d 0f79 4f3e
00000010: 92ee b8bd d018 f3bc 823f 623f e123 e4bd
00000020: 0808 23bd 08de b03d ac72 ea3c 4b0b 1dbd
00000030: 3050 c83c 50b7 85be 0815 c33b e0df 853c
00000040: 0674 643c 34ac 0ebe a0f6 aabd 38ad 5d3f
00000050: 8386 d5bd 5b34 dd3c 324f f2be 2c62 d33d
00000060: dcfc 973d 20e1 ac3c ed4a 903d 517d 9f3c
00000070: 13e6 333d 14ce 003d cc95 473e e1d1 73bf
00000080: 9556 36be 005c a3bc 9256 82bd 0f7b 933d
00000090: 075e 99bc 62a4 f73d 07a0 773d 510d 4abd
000000a0: 7188 c53e d6a8 c53d 1680 323d c055 0e3e
000000b0: 0ae7 c2bd afe0 3dbd b6d4 9b3d dd06 653d
000000c0: 454e cc3d defe 82bd e33d 3bbc f730 2dbe
000000d0: 7271 513d 60b5 c5bd f84d 7c3d f043 843c
000000e0: 5cd1 dbbc 48b0 c1bc 0fdd 82be e624 d53c
000000f0: 197e 89bc 909c 59bc 5fe9 09bf b443 d9bd
00000100: d2b2 e83d 86e6 b2bd ec54 173d 75b7 d6bd
00000110: 08f6 41bd 0acc 8c3d 1c8d d4be 8fbf c93c
00000120: 46db cebd 5e72 ef3d 09ea 1ebe b1b0 473d
00000130: 9e4f 80bd 4632 903e 4f30 083b def5 d73d
00000140: 2d60 a93d 225d d5bd fb57 083e 4d15 07bf
00000150: d4c4 9b3d c710 f6bc 1606 b53d a004 01bc
00000160: 7403 eabd c63b a13d 46f1 943c 17ee 08bc
00000170: c1b3 8bbd 00a8 9e3a 7f17 003e cff5 0b3f
00000180: 0dbf 9abe 6091 b7bd bc86 f4bd 6077 f43d
00000190: 4288 dc3c 9073 1fbd aca4 a43b 91e5 fe3b
000001a0: fbef 2d3e 16d1 e23d 643f 98bd d694 aebd
000001b0: 9aed d1bd fd42 babc 3b37 12bb 4634 273e
000001c0: 07ef c73d a8de 77bd 01de 13bc 8bac 73bb
000001d0: 68ba 98bd 8abd 81bd 34de 44bd 6873 5dbd
000001e0: 98a7 1cbd 446e c13d 6fd8 36bd c454 4fbd
000001f0: 3aeb 89bd 38ee 50bd 91fe fd3d 7aaa f7bd
00000200: 0278 e23d b097 e03d 20a9 8b3b d9e3 b3bd
00000210: 449c 9c3d 3e23 9a3d 81b7 02bf c7e0 7c3d
00000220: b853 a33c 8006 94bb 3535 8dbd e959 bd3d
00000230: 36a3 89bd 33da 313e fe3e 3e3d d074 37bc
00000240: cd99 89bc 7ffd a23d 0a7e 2b3e 2836 04bf
00000250: 14ba f13d c0a0 4e3d 16c7 4b3e 5c1a 6dbd
00000260: 98aa f6bd 68d6 3a3d 08ca 173c 8404 abbd
00000270: 60b9 4dbd b0bf 07bc ab41 5a3e 60b4 083f
00000280: f828 87be c3a7 eebd 4f2a 00be 57fc 9c3c
00000290: f3c2 9dbc 80b5 fe3b 6b87 9eba 9462 80bc
000002a0: e972 fc3d caae 59bc e645 96bd 1228 963c
000002b0: 98c3 f1bc ba96 c0bc 83e7 07be 9090 af3d
000002c0: b125 113e d8e9 ea3d f4e6 66bc c67f 64bd
000002d0: 5500 acbd e896 d23d 80a9 64bb d0cd e13d
000002e0: 3f83 7c3d 6e03 9e3d ef23 99bd b21b ab3d
000002f0: 647e 083e f0bb afbd 5f3c 563e 1855 c23c
00000300: b4f0 09bd 36ad 8a3d b035 213d 688e cdbc
00000310: 7cf4 873d c001 0c3b 3fc2 063f 1188 633c
00000320: f8bb 76bd 3c86 143d ac34 ce3d 6d76 5e3d
00000330: c8b6 bd3d 44e6 32be 963a 6dbd c811 373d
00000340: 5008 b4bd e48f f0bc 3b96 bebd f20c fb3e
00000350: 785a 2abe 0ba5 503d 9068 abbe e0b0 b43b
00000360: 00c5 6b3d dc83 543d 6ee6 193e c9fa 7a3e
00000370: c0f6 e13d 34af 16bd 18a2 d43d ebbc e5be
00000380: cef1 a5bb 9378 4cbe d2e5 423d b4d4 bb3d
00000390: 1b39 d8bd c0b4 653b 6b73 2e3e 8d59 06be
000003a0: 7e6a 613e eac6 3abc 5a41 2a3d 1e78 ea3d
000003b0: 202e 00bc 08c2 e9ba 247e b33d 0169 2dbd
000003c0: 5358 1bbd 7ed7 a43d 6134 183e 040c 0fbd
000003d0: 9ac8 06bd 386e e8bc f008 1bbc 26c0 c2bd
000003e0: 433c 86bb 4224 bdbd d220 93bd b4c3 913d
000003f0: 1358 2f3d 7c15 6f3d 699b ccbe 9288 ee3d
-0.021001741 0.049171746 0.109720245 0.20261024 -0.09029879 -0.029674917 0.88378155 -0.11139656
-0.03980258 0.08636099 0.028619133 -0.038340848 0.024452299 -0.2611642 0.005953435 0.016342103
0.013943678 -0.13932878 -0.08347821 0.86592436 -0.10426047 0.027002504 -0.47326046 0.10321459
0.07421276 0.021103442 0.07045541 0.019468935 0.043920588 0.03144653 0.19490737 -0.95242125
-0.17806466 -0.01994133 -0.06364168 0.07201206 -0.018721594 0.120919004 0.06045535 -0.049329106
0.3858066 0.096513435 0.043579184 0.13899899 -0.095167235 -0.046356853 0.07608931 0.05591475
0.09975866 -0.06396268 -0.011428329 -0.1691321 0.05113358 -0.09653735 0.061597794 0.016145676
-0.026833229 -0.023643628 -0.2555928 0.026018571 -0.01678376 -0.013281956 -0.5387172 -0.106086165
0.11362232 -0.08735375 0.036946222 -0.104842104 -0.047353774 0.06874855 -0.41513908 0.024627475
-0.10100417 0.11691736 -0.15518965 0.04875249 -0.06265186 0.28163356 0.0020780747 0.10544942
0.08270297 -0.10418154 0.13314812 -0.5276688 0.07605901 -0.030037297 0.088390514 -0.007874638
-0.1142644 0.07872729 0.018181454 -0.008357546 -0.06821395 0.0012104511 0.12508963 0.5467195
-0.30223885 -0.08963275 -0.11939761 0.119368315 0.026920442 -0.03892857 0.005024513 0.0077788313
0.16986077 0.11075036 -0.07433966 -0.08524482 -0.10250397 -0.02273702 -0.0022310752 0.16328534
0.09762388 -0.060515076 -0.009025098 -0.00371817 -0.07457429 -0.0633498 -0.048063472 -0.054065138
-0.038245767 0.094448596 -0.04464 -0.05061795 -0.06734319 -0.051008433 0.1240207 -0.12093063
0.11058046 0.10966432 0.0042621046 -0.08783693 0.07646993 0.07526253 -0.51061255 0.061737802
0.019937381 -0.0045173764 -0.06894914 0.092456646 -0.06720583 0.17368393 0.046446793 -0.011197284
-0.01679697 0.07958507 0.16747299 -0.51645136 0.1180307 0.050446272 0.19900164 -0.057886466
-0.12044257 0.04561463 0.009264477 -0.08350471 -0.050225616 -0.008285448 0.21314113 0.5340023
-0.26398444 -0.11653092 -0.1251614 0.019163294 -0.019257998 0.0077731013 -0.0012094801 -0.015672006
0.12326605 -0.013286302 -0.07337551 0.018329654 -0.029512212 -0.023509372 -0.13271908 0.08572495
0.14174534 0.114703834 -0.014093149 -0.055785917 -0.08398501 0.10282689 -0.003489107 0.11025584
0.061648604 0.07715498 -0.07477557 0.08354892 0.13329464 -0.08580768 0.20921467 0.023722216
-0.033676818 0.067713186 0.03935784 -0.025092319 0.066384286 0.0021363348 0.52640146 0.013887421
-0.060237855 0.03626083 0.1006864 0.05431216 0.092633784 -0.17470652 -0.0579172 0.044694692
-0.08790648 -0.029365487 -0.09305998 0.49033314 -0.16636074 0.050938647 -0.33478212 0.005514249
0.05756092 0.051883563 0.15029308 0.2450973 0.11033392 -0.03678818 0.103824794 -0.44870695
-0.0050642258 -0.1996787 0.047582455 0.09171429 -0.10557767 0.0035050362 0.17036216 -0.13120098
0.2201328 -0.011399964 0.04156623 0.11448692 -0.007823497 -0.0017834315 0.08764294 -0.042336468
-0.03792603 0.080489144 0.14863731 -0.03492357 -0.032906152 -0.028372869 -0.00946258 -0.09509306
-0.004096539 -0.09235431 -0.07183994 0.071174055 0.042808603 0.0583701 -0.3996232 0.116471425

models.524263.layers.3.bias f4 [32]
00000000: cf83 45bd 576d 54bd 9fa6 e5bc 153c fbbd
00000010: 124b 323e c40e 843e c8e3 3fbe 9570 17be
00000020: f0de ab3d 710d 973b 0e28 8bbd 6564 31bd
00000030: 68f8 0f3e 10ce ea3d b18a ea3d 201b 3f3e
00000040: cc17 503e 1953 263d 3dbc 60be 8015 ba3c
00000050: 3e1d 82bd f21b acbd 657c 273e 71c3 5cbe
00000060: 7b01 4abe 4464 083e bfab dc3b 00d1 703e
00000070: 35c0 27bc 7196 38be 044d 173e b40f a7bc
-0.048221406 -0.051862087 -0.028033553 -0.12267319 0.1741145 0.25792515 -0.18739235 -0.1478904
0.08392131 0.0046097566 -0.06794749 -0.043308634 0.14059603 0.114650846 0.114522345 0.18662691
0.20321578 0.04060659 -0.21946807 0.02271533 -0.06353234 -0.08403768 0.16356046 -0.2155893
-0.19727127 0.13319498 0.006734341 0.23517227 -0.010238697 -0.18026139 0.14775473 -0.02039323

models.524263.layers.6.weight f4 [16, 32]
00000000: 9516 37be 1a14 af3d 4294 e93d 9813 1dbe
00000010: b39b 7a3d be4b 213e 3217 56be 3a22 68be
00000020: 7d22 e7be 702c c5bd 1efa 0b3e 0a54 afbe
00000030: 06d0 b8bd 58a7 fa3d ef1f 133e b46e 47be
00000040: c880 da3c 13d9 b53e e0bb a9be ca8f 40be
00000050: f79a 7dbe 158f 4b3d 3add ff3d 8e34 87be
00000060: ab4c 08be 0ed8 9cbe d93a d43c 3848 9cbc
00000070: 54f7 90be 07c7 0abe 9c3c 223e 5031 e23c
00000080: 63d5 1c3f 98b1 06bf c046 edbe 3838 a23e
00000090: 2016 bcbe 28d9 94bd 3851 a93e 1713 bc3e
000000a0: e702 4ebb bdf6 7cbb 8141 363e 7f9f f73e
000000b0: 6250 963d 5a51 4dbc 7373 2e3e 71d8 4fbe
000000c0: 7dbf cfbe cfa1 9abe bdd3 8b3e 35c3 80be
000000d0: c164 103d efb3 03bf 10ae 1b3e 07b5 5d3e
000000e0: e036 383f 808a 36be d009 0d3e 969e af3d
000000f0: 5f40 023d b49d 7a3e 81b5 fabd 31a2 8f3d
00000100: 37ba cebd ae64 de3c 276e 1d3c c654 15be
00000110: 1a76 91bd 2e81 b33d cd84 7dbe 9acd ebbd
00000120: c34d c1be 21f6 ae3d a83b 6e3c 5868 8abe
00000130: 4e9b 013e a487 b53d cdaf c93d 7f5f 90be
00000140: 16af cfbd 431c d33e df4a a4bc 23c7 94be
00000150: 6a3f 89be 6aba fb3c 8896 a6bd c3db 31be
00000160: 28af 793b 8e58 cbbe a761 c43d fd4c cf3d
00000170: ea45 4fbe 00b4 c0bd 21b8 983d 705c 323e
00000180: 9ff6 0ebe b4b8 4ebd 7767 1e3e b1eb 68be
00000190: 8a3e c53b 0788 143d 27ff 61be c5b0 25be
000001a0: c047 bebe 6ccf 893e ad39 d03d bb8b 2abe
000001b0: 7f1c 913e e93b 4e3e 9f5a 703d 03e2 8bbe
000001c0: 643d c7bc a366 e33e 6b5b 31be 575d aebe
000001d0: deb2 13be 3293 223e 8dfd 85bd 533b 74bd
000001e0: d7f2 01bd 1549 a2be ef8e 623d a02b 273d
000001f0: 9d26 83be 0e5b bdbd 96de da3b d987 d93d
00000200: 0fed ab3e 9a0d e7be febd b8be 32fd 083f
00000210: 28de a1be c5f6 1bbe cb1e f73d 731a db3e
00000220: 792a 18be 19eb 613c bbb2 ab3e 832f f53e
00000230: 0b45 aabd 7584 dfbd 1283 993e 2098 a4be
00000240: 1454 c2be df51 95be b84b 4e3e ea79 8fbe
00000250: 3ecc 943d db92 d8be 743f ed3d dd35 4c3e
00000260: 05f5 0e3f 91cb cabd 1a99 a3bc 8379 193e
00000270: 2d8e 6a3d 104c 273e 067c 0abe 6207 11be
00000280: f62c 9fbe 3a07 343e 6595 813e 5b23 81be
00000290: 3398 83bd 6aa9 1a3e b2a5 8cbe 627d 6cbe
000002a0: d419 e9be b973 f8bd 794b e03b 142d bfbd
000002b0: b948 423c ece5 dc3c eed5 453e 41ed 40be
000002c0: 43bd 8a3d bf5d 053f 449b b4be 4734 74bd
000002d0: 50f9 94be 197b 3f3e ae8a 283e bfe2 3abe
000002e0: 33d2 25be 1162 71be b2ee d23d d790 663e
000002f0: c6a3 61be 3b4a 05be ed84 8b3e 9909 4f3e
00000300: add5 43be 1cac b53c 6d7d 493e a44c 79be
00000310: 8381 843d f4e4 a23d de43 d4bd cecb 55be
00000320: 2672 01bf 6870 853a 1242 9a3d cd19 3cbe
00000330: 18ef 613c 2b02 853d ec91 793d 7152 acbe
00000340: 38ad 523d 49ce b83e f5f3 8fbe 7422 8bbe
00000350: 61c5 45be edf9 123e 41cf 833c ca61 debd
00000360: ecb2 5abe d83b b2be baa6 f73c 7e15 ec3d
00000370: f1f3 9cbe 9ccb c8bd 7d72 203e e8c3 9cbd
00000380: bae1 3dbe 5a03 a9bd f624 52bd 0d0c 35bd
00000390: 2960 913d 968c c0bd dcd4 82be d661 96be
000003a0: 1984 fabe dbee 47be 0f11 123c 917c 023c
000003b0: 5a01 eabd 409e b9bd d7bd 033e 63d4 9abe
000003c0: bc02 143e 19ca af3e a09c a2be 07f2 acbe
000003d0: d32c 9ebe b634 4bbe 5f4e 3dbd 8e01 c6be
000003e0: 8d71 8dbd 33b9 6ebc 7a46 1dbe c3af 47bd
000003f0: 14cd f0be 8ec3 3ebe 2df1 efbd f34c 82be
-0.17879708 0.08548756 0.11405231 -0.15339506 0.061183643 0.1575155 -0.20907286 -0.22669306
-0.451435 -0.096276164 0.13669631 -0.34243804 -0.09024052 0.122389495 0.1436765 -0.19475824
0.026672736 0.35517177 -0.3315115 -0.18804851 -0.24766146 0.049697 0.124933675 -0.26407284
-0.13310497 -0.30633587 0.025906967 -0.019077405 -0.28313696 -0.13552485 0.15843433 0.027611405
0.612631 -0.52614737 -0.4634304 0.31683517 -0.3673563 -0.07267982 0.33069777 0.36733314
-0.0031434835 -0.0038599216 0.17798425 0.48363873 0.073395506 -0.012531603 0.17036228 -0.2029741
-0.4057578 -0.30201575 0.2730998 -0.2514893 0.035252336 -0.5144643 0.15203118 0.21651088
0.7195873 -0.17826271 0.13773274 0.0857517 0.03179967 0.24474221 -0.122416504 0.070133574
-0.100941114 0.027147617 0.009608782 -0.1458312 -0.07102604 0.087648734 -0.2475769 -0.11513825
-0.3775464 0.08543039 0.01454059 -0.27032733 0.126569 0.08863762 0.098479845 -0.28197858
-0.10140817 0.412325 -0.020055233 -0.2905818 -0.26806194 0.030728538 -0.0813418 -0.17368989
0.0038098786 -0.39716 0.09588938 0.10122106 -0.20241514 -0.09409332 0.07456995 0.17418075
-0.13961266 -0.050469115 0.15469156 -0.22746159 0.006019418 0.03626254 -0.22069989 -0.16180713
-0.37164116 0.26916063 0.10167251 -0.16654865 0.28342053 0.20140041 0.058680173 -0.2732087
-0.024321266 0.44414243 -0.1732003 -0.34055588 -0.14423701 0.15876463 -0.065425016 -0.05962689
-0.03172573 -0.31696382 0.055312093 0.04081309 -0.25615397 -0.09245883 0.0066793663 0.10621614
0.335793 -0.45127565 -0.36082453 0.53511345 -0.31614804 -0.15230854 0.1206642 0.42793617
-0.14859952 0.013788962 0.33534798 0.4788781 -0.0831395 -0.10913936 0.2998281 -0.32147312
-0.37954772 -0.29164025 0.20146072 -0.280227 0.072655186 -0.42299542 0.11584368 0.19942422
0.5584262 -0.099021085 -0.019970465 0.1498776 0.057264496 0.1633761 -0.13523874 -0.14162973
-0.3108899 0.17580882 0.2530929 -0.25222287 -0.06425514 0.15103689 -0.27470165 -0.23094705
-0.45527518 -0.12131447 0.0068449345 -0.0933477 0.011858159 0.026965104 0.19319889 -0.18840505
0.0677438 0.5209617 -0.35274708 -0.059620168 -0.2909646 0.18699302 0.16459152 -0.1825056
-0.16193466 -0.23572566 0.10299434 0.2251619 -0.22035131 -0.13016598 0.27249852 0.20218505
-0.1912448 0.022176795 0.19676752 -0.24345642 0.06470015 0.079538256 -0.10364507 -0.20878527
-0.505648 0.0010180594 0.07532133 -0.18369217 0.013789915 0.06494554 0.060930178 -0.33656648
0.051434726 0.36094883 -0.28115812 -0.27174723 -0.19313575 0.14353152 0.016090037 -0.108584955
-0.21357316 -0.34811282 0.030230869 0.11527537 -0.30654863 -0.098044604 0.15668674 -0.07654554
-0.18543139 -0.082525924 -0.05130478 -0.044200946 0.07098419 -0.09401815 -0.25553024 -0.29371518
-0.48928908 -0.1952471 0.0089152 0.007964269 -0.11426039 -0.09063387 0.12865387 -0.30240163
0.14454168 0.34333876 -0.3176012 -0.33778402 -0.30893573 -0.19844326 -0.04621732 -0.3867306
-0.06906424 -0.014570522 -0.15358916 -0.048751604 -0.47031462 -0.18629286 -0.117159225 -0.25449333

models.524263.layers.6.bias f4 [16]
00000000: 9bf7 ba3e 7cb4 4bbe b8e7 e63e 26f1 d33e
00000010: 9afc 4fbe 111e ba3e 3d38 cf3e f450 7a3e
00000020: 0669 dd3e bfd8 7c3e d064 1b3e 3f12 b23e
00000030: 7259 d63e 81e8 c13e 28cd e03e 9d83 7cbe
0.36517033 -0.19893068 0.45098662 0.4139492 -0.20311204 0.36351064 0.40472594 0.24444944
0.4324419 0.24692057 0.15175176 0.34779546 0.41865116 0.378727 0.43906522 -0.24659581

models.524263.layers.9.weight f4 [1, 16]
00000000: ff20 b83e 3ecd a8be 5b43 b43e 85b8 8e3e
00000010: fcd5 b9be ddf3 623e a14a b63e 963f 093f
00000020: ecd9 db3e c682 983e 7a37 3bbf cd0e cc3e
00000030: 13c5 8c3e 11a0 b43e c3cd eb3e 98be c9be
0.35962674 -0.32969087 0.35207638 0.27875152 -0.3629607 0.22163339 0.35603812 0.5361265
0.429397 0.29787272 -0.73131526 0.39855042 0.27494106 0.3527837 0.4605542 -0.39403224

models.524281.layers.0.weight f4 [64, 17]
00000000: 6cfc be3d 3515 73be c04d a83b f4c5 f43d
00000010: 6f9a f9bd 58d4 ed3d 26b8 3d3e 1ac0 383e
00000020: 04ce 22be 8099 a83a 30ed 023e aed0 cdbd
00000030: 8c65 143e b8d0 cebd b2e1 353e 50a6 e1bd
00000040: 6451 523e 6c00 e5bd 7c6a 82bd eae5 33be
00000050: 8cd2 3d3e 00a2 4c3d d8c2 8e3d 80c7 c83d
00000060: 7066 0ebc 168b 0f3e e467 4fbe e059 303c
00000070: 1a5a 54be 94fe d23d 306a e0bc 883d e53d
00000080: 1436 5cbe a8c8 153d 3979 be3d 5549 c2bd
00000090: eb53 97bd 0d3d b2be 52fe 4ebe 3081 59bd
000000a0: e44f 2c3e ba6f f3bb d0ad 433f 487d 023d
000000b0: e22b 5b3d 61b7 383e d4d1 0f3d 3dd0 c13b
000000c0: 1ebe c23d c228 c43d a673 a4bd d89a 75be
000000d0: e04e e93d c833 95bc 819c 6fbe b462 1cbe
000000e0: 1aad 743e 3411 37be 5809 14bd 0222 c0bd
000000f0: 8a1b ccbd 0c1a 25bd f9be 35be 0c16 6dbe
00000100: 00a1 d7bd d0f5 dbbc 0698 39be b9e8 17be
00000110: 4003 07bc 36f7 31be 0865 99bd b430 fdbd
00000120: 3054 e43d 1ca1 61be 50b5 89bd 27f8 fbbd
00000130: e865 383e 4a86 0bbe 7e9f eebd a0a0 383c
00000140: a019 fa3d de5a 28be e89b c93d 4065 fbbb
00000150: 6781 36be fccf 473e d15c 4bbe 94f9 5cbd
00000160: 6cf7 e3bd 62f4 3a3e 0273 d7bd 6e3c 3fbe
00000170: 7c21 07be 2630 2dbe 0b10 65be 1f9b 72be
00000180: a4a3 e3bd 1ed6 4c3e 7c19 d7bd 987d bfbc
00000190: a093 db3c 4a4b 01be 32ee 68be a02c 253c
000001a0: d0ce 523d efe7 5cbe e0fe c43c 70d2 c93d
000001b0: be02 413e b000 e23d 687c b9bc 5ce3 40be
000001c0: 860f 103e 3d2a 1abe 12f1 88bd e840 07bd
000001d0: 3c04 d2bd 20e9 a43d c827 b93d 9910 763e
000001e0: ba75 51bc ac8f ad3d 4985 cbbc 8663 103e
000001f0: d495 afbb 0b2a 10be 2a6a 403b 411a c23d
00000200: e034 e7bc 91f6 1dbe c246 4d3e 89ff 243e
00000210: 854f 05bd e93d 223e d4cf 343d ea49 d73d
00000220: a41c c63e eab0 c8bc f72c 19be a460 0dbd
00000230: ad24 a33d dc75 f13d 0cae bb3d ac00 f8bd
00000240: 45d3 6cbf 50eb bebd b158 adbd 3345 e7bc
00000250: 7c32 5dbd c337 0b3a 4cc2 56be 1900 9c3c
00000260: 7898 c83d 8255 9c3d 923f 843d 9ab8 5cbe
00000270: 614e 7b3d 17e7 41bd 1ee3 81be 6702 01be
00000280: f9d3 473d 40e7 69bf 8564 253d f108 793d
00000290: 916e 2f3d 8bd6 2dbe dc93 1b3d 2bbd 203e
000002a0: 3dfa e03d f871 553e dedd 13bd 4a52 f1be
000002b0: cadf 10be 9cfb 07be e2a6 3e3e 9289 d93d
000002c0: 7374 0a3e 7d19 ab3d c0bc 8bbf 9380 6d3c
000002d0: 4f8b a53d 5fe0 09be c0e9 b4bd 09ec 423b
000002e0: 453b 2dbd 4b58 733d 14ba 163d 1324 953d
000002f0: a5eb 0b3d 8967 81be 6612 57be 0873 26be
00000300: 6a5a 31be e1ea 163e 0c80 bbbd 0269 443f
00000310: 5c16 353d 21df 87be 0c59 173e ab98 1c3e
00000320: 42ba 0bbb 1c19 363d 2b8d 65bd 34e7 313e
00000330: 9a17 9dbc d632 99be d345 7b3f 6e95 34be
00000340: 7201 75be ab85 90bd 0164 4c3e 1d5c 8a3d
00000350: dbb6 553f e997 9fbd ace4 d13d 9bf2 d43b
00000360: d65c cdbd d45d 1dba 2431 533b 8759 ae3d
00000370: e9a7 2e3a caec 103c 5b99 14be bf62 0a3d
00000380: 1e62 153e 3581 233e 2d71 c4bd 5a5d 66be
00000390: cd84 1d3e 57bb 203e 0616 b03c 6e5a fabd
000003a0: 5925 923d 96fb 343e 8a91 adbc b6a6 13be
000003b0: 58ee 4abe 62d8 dbbc eec8 4cbe 003f 883d
000003c0: 4065 a6bc 4e27 cbbd 2ca1 77bd 4af1 70be
000003d0: 3a94 303e c42b 51bd 895d 09be 7a76 3b3e
000003e0: ee6c 19be 0809 143d 703f be3d 6b82 64be
000003f0: 74ee 0abe f082 f63d 0a74 5cbe afcd acbe
0.093254894 -0.23738559 0.0051362216 0.11951819 -0.12187659 0.11612767 0.18527278 0.18042031
-0.15898901 0.0012863129 0.12785792 -0.10049568 0.14491862 -0.10098404 0.17761877 -0.1101805
0.2053886 -0.11181721 -0.063679665 -0.17568174 0.18537349 0.049959183 0.06970757 0.098036766
-0.008691415 0.14017901 -0.20254475 0.010763615 -0.20737496 0.10302463 -0.027394384 0.11193377
-0.21505004 0.036568314 0.09300465 -0.09486643 -0.07389053 -0.34812203 -0.20214203 -0.05310172
0.16827351 -0.0074290903 0.7643709 0.03185776 0.053508647 0.18038704 0.035112217 0.0059147165
0.09508918 0.095780864 -0.08029871 -0.2398485 0.11391997 -0.018213168 -0.23399545 -0.15272027
0.23894158 -0.17877656 -0.036141723 -0.093814865 -0.0996619 -0.040308043 -0.17748632 -0.23152941
-0.10528755 -0.026850611 -0.18124399 -0.1483487 -0.008240521 -0.1737946 -0.07489973 -0.12362805
0.1114887 -0.22034115 -0.06724036 -0.12303191 0.18007624 -0.13625446 -0.116515145 0.011268765
0.12211919 -0.16440913 0.0984419 -0.007671982 -0.178228 0.19512933 -0.19859625 -0.053948954
-0.11131176 0.18257287 -0.10519983 -0.18675396 -0.13196367 -0.16912898 -0.22369401 -0.23691987
-0.11115196 0.20003554 -0.10502908 -0.023375317 0.026803792 -0.12626377 -0.22747114 0.01008144
0.051466763 -0.2157285 0.024047315 0.09854591 0.18848702 0.110352874 -0.02264233 -0.1883673
0.14068422 -0.15055175 -0.066866055 -0.033020884 -0.10254714 0.080522776 0.09040791 0.24029769
-0.012784416 0.08474669 -0.024843829 0.14100465 -0.005358437 -0.14078538 0.0029360154 0.09477664
-0.028223455 -0.15426089 0.20046523 0.16113104 -0.03254654 0.1584393 0.044143513 0.10512145
0.38693726 -0.024498422 -0.14958559 -0.03451599 0.0796598 0.11790058 0.09164056 -0.12109503
-0.9250987 -0.09322226 -0.08464182 -0.028231239 -0.054003224 0.00053107383 -0.20972556 0.019043015
0.09794706 0.07633497 0.064574376 -0.21554795 0.061354045 -0.047339525 -0.2536859 -0.12598573
0.048786137 -0.91368484 0.040379066 0.060799543 0.042830054 -0.16976373 0.037982807 0.15697162
0.10985229 0.20844257 -0.03610026 -0.47133094 -0.14147869 -0.13279575 0.18618348 0.106219426
0.13520984 0.08354471 -1.0916977 0.0144959865 0.08083212 -0.13464497 -0.08833647 0.0029742739
-0.042292852 0.059410375 0.03679855 0.07282271 0.034160275 -0.25274304 -0.21003112 -0.16254818
-0.17319646 0.14738037 -0.091552824 0.7672273 0.044210777 -0.2653742 0.14780062 0.15292613
-0.0021320735 0.04445754 -0.05604283 0.17373353 -0.019176293 -0.29921597 0.9815342 -0.17635128
-0.23926333 -0.07056745 0.19960023 0.067558505 0.8348214 -0.077926464 0.10248694 0.0064986474
-0.10027473 -0.0006003056 0.0032225335 0.0851317 0.0006662594 0.008845517 -0.14511625 0.033785578
0.1458821 0.15967257 -0.09591899 -0.22496548 0.1538269 0.15696464 0.021494877 -0.12224279
0.0713603 0.17674097 -0.021187562 -0.14419064 -0.19817483 -0.026836578 -0.19998524 0.06652641
-0.020311952 -0.09919606 -0.06045644 -0.23529544 0.17244044 -0.05106713 -0.13414587 0.18306914
-0.1498296 0.036141425 0.092894435 -0.22315376 -0.13567525 0.12036693 -0.2152864 -0.33750674
