models/Delete/antiproton.pt (torch, 18925 bytes, 7 tensors)

layers.0.weight f4 [64, 19]
-0.17488341 -0.3953731 0.05509193 -0.32138202 -0.22044116 0.07541223 0.085845806 0.045858994
-0.022793263 -0.052016515 -0.6117757 0.06801344 -0.1787718 0.05310585 0.073771834 -0.010713616
0.22093615 0.095155805 -0.18771212 0.47678894 0.026979469 8.104763e-05 -0.5682696 1.7421145
-0.14212905 -0.3039401 0.014767961 0.01087219 -0.009480089 0.8972608 0.017508155 -0.05749894
0.00815491 -0.03282319 0.008441157 0.00505191 0.18441291 -0.023909196 -0.06733145 0.16947927
0.15120123 0.101704314 -0.0711164 0.15207203 -0.12777585 0.05893846 0.19725297 -0.19142526
-0.20869534 -0.18447874 0.009551644 -0.11952973 0.06729214 -0.0952702 0.17522542 -0.22275244
0.22402866 -0.16394031 0.027034674 -0.00062344084 -0.40967375 0.64519125 -0.21815516 -0.59613264
-0.0005705392 0.14104813 -0.07381836 0.61298394 -0.11736173 0.063982025 0.042931773 -0.0729086
0.010544808 -0.24615867 -0.1277708 0.0037711526 0.982251 0.022872178 -0.005024517 -0.41761345
0.27720767 -0.4735986 -0.31660384 0.0016743743 0.13629973 -0.20578729 -0.11993236 -0.0015596229
0.11783364 0.06860961 -0.05899683 0.01125578 0.06800594 -0.16476008 -0.020645546 -0.1241007
-0.22521828 0.17509992 -0.10766669 0.08837737 0.016597435 -0.082397595 0.09465371 0.09212275
-0.19643663 -0.06787014 -0.11351815 0.03853549 -0.22085874 -0.05440122 -0.10446689 0.20329066
-0.012400925 -0.20920293 0.9885533 0.12341084 -0.0007746819 -0.17031081 1.4860044 0.016193902
-0.14337334 -0.023198077 -0.03986693 0.000107431755 0.74548346 0.10751859 0.04719774 -0.008292785
0.0047206488 0.004671103 0.020706711 -0.05739595 -0.027150102 -0.19862317 -0.037342668 0.11268239
0.010194153 -0.06136073 0.038145557 -0.15986753 0.09064977 0.014661744 -0.097157985 0.20539214
-0.13926035 0.15414457 0.18489154 0.2194729 -0.12857312 -0.049374416 -0.17773248 0.021744743
0.098184265 0.021413151 0.0008048915 -0.08619362 0.38270175 -0.9718005 -0.66244704 0.021531634
-0.019938923 0.006555983 1.0452026 -0.01026272 -0.023694241 0.0033030056 0.022669833 0.013763804
0.0034576342 0.028604094 0.010851519 0.21424232 -0.35123128 -0.09161056 -0.53799796 0.7936547
-0.46390763 -0.1339924 0.052886594 -0.051434748 -0.016526356 0.45440224 -0.06340493 -0.008076347
0.014524331 -0.042330194 0.019754026 0.14571244 0.10782888 -0.20380458 0.55052465 -0.14370999
-0.16577618 -0.55499107 0.59220237 -0.30677047 -0.44664925 -0.1874121 0.007473767 -0.1783746
0.44909966 0.01775315 0.20918827 0.013035093 0.06404838 0.020830661 0.024337964 0.15576746
-0.123026446 0.01761043 0.1351345 -0.038440704 -0.13492408 -0.20261243 -0.18423715 -0.041164115
0.01823911 -0.11405232 0.21950717 -0.010023788 0.18705575 0.09856503 0.14714183 -0.083284885
-0.18079491 0.08594163 0.12761389 -0.22251396 -0.00464271 0.045737997 0.05133851 -0.16634528
0.19122694 0.004040137 -0.11752785 -0.18619019 0.088609174 -0.11526402 0.13995717 -0.03832005
0.15716852 -0.049713373 -0.0012104958 -0.14469996 0.17232068 0.09396954 -0.0039928854 0.42962417
-0.111601226 0.015556383 -0.015708053 0.017581861 -0.32935208 -0.4349069 0.066316284 0.04828277
00000000: a314 33be 586e cabe 13a8 613d 2f8c a4be
00000010: 54bb 61be ba71 9a3d edcf af3d a4d6 3b3d
00000020: f0b8 babc 450f 55bd 559d 1cbf a14a 8b3d
00000030: f40f 37be 8585 593d b015 973d 2a88 2fbc
00000040: 163d 623e 0ce1 c23d 9b37 40be ae1d f43e
00000050: 0c04 dd3c 1df8 a938 1e7a 11bf 9cfd de3f
00000060: 478a 11be 099e 9bbe 51f5 713c 4521 323c
00000070: 6052 1bbc e2b2 653f 436d 8f3c 0284 6bbd
00000080: 2c9c 053c 9c71 06bd c74c 0a3c 7e8a a53b
00000090: bdd6 3c3e 38dd c3bc 12e5 89bd f98b 2d3e
000000a0: 7fd4 1a3e 5a4a d03d 7aa5 91bd c5b8 1b3e
000000b0: acd7 02be 7469 713d affc 493e fc04 44be
000000c0: 3bb4 55be ffe7 3cbe 807e 1c3c 01cc f4bd
000000d0: 76d0 893d 061d c3bd 4b6e 333e 3719 64be
000000e0: c567 653e f8df 27be d277 dd3c 686e 23ba
000000f0: c2c0 d1be 412b 253f 1164 5fbe 269c 18bf
00000100: 3d90 15ba ec6e 103e 152e 97bd 84ec 1c3f
00000110: 595b f0bd 0209 833d 3ad9 2f3d 1b51 95bd
00000120: 21c4 2c3c 0511 7cbe 59d6 02be 7125 773b
00000130: cd74 7b3f 6f5e bb3c b4a4 a4bb 6ed1 d5be
00000140: 2aee 8d3e 847b f2be e619 a2be ae76 db3a
00000150: 2892 0b3e e7b9 52be 199f f5bd 436c ccba
00000160: c352 f13d 3283 8c3d a9a6 71bd 2a6a 383c
00000170: b346 8b3d deb6 28be d920 a9bc 8228 febd
00000180: 9f9f 66be 654d 333e 5b80 dcbd 32ff b43d
00000190: 58f7 873c 12c0 a8bd ced9 c13d daaa bc3d
000001a0: af26 49be 80ff 8abd 347c e8bd 64d7 1d3d
000001b0: cb28 62be d0d3 5ebd bdf2 d5bd 6d2b 503e
000001c0: 402d 4bbc 4b39 56be d411 7d3f d3be fc3d
000001d0: 0614 4bba f565 2ebe 6435 be3f 13a9 843c
000001e0: 76d0 12be e509 bebc 824b 23bd fc4c e138
000001f0: 01d8 3e3f b532 dc3d 6b52 413d 76de 07bc
00000200: acaf 9a3b 0d10 993b 1fa1 a93c 0418 6bbd
00000210: e469 debc df63 4bbe a0f4 18bd 06c6 e63d
00000220: 6005 273c 6455 7bbd 843e 1c3d 50b4 23be
00000230: 96a6 b93d d037 703c c4fa c6bd 5152 523e
00000240: 449a 0ebe 13d8 1d3e 3554 3d3e 81bd 603e
00000250: aca8 03be d43c 4abd 81ff 35be 0822 b23c
00000260: d514 c93d a26a af3c 5bff 523a 4886 b0bd
00000270: 7cf1 c33e ebc7 78bf 2196 29bf 1c63 b03c
00000280: f456 a3bc 92d3 d63b 33c9 853f f824 28bc
00000290: 6d1a c2bc 3d77 583b 16b6 b93c 9481 613c
000002a0: 7a99 623b 2253 ea3c 92ca 313c 5762 5b3e
000002b0: 96d4 b3be 519e bbbd 3cba 09bf f42c 4b3f
000002c0: 4d85 edbe 4e35 09be 9d9f 583d 3ead 52bd
000002d0: 4862 87bc 69a7 e83e 72da 81bd a852 04bc
000002e0: 76f7 6d3c 6d62 2dbd 32d3 a13c a435 153e
000002f0: 63d5 dc3d 26b2 50be 2fef 0c3f b628 13be
00000300: 3bc1 29be e513 0ebf 939a 173f 0511 9dbe
00000310: 36af e4be f5e8 3fbe 80e6 f43b d5a7 36be
00000320: 64f0 e53e 0e6f 913c 7335 563e 2591 553c
00000330: cc2b 833d 10a5 aa3c 6960 c73c 8181 1f3e
00000340: 4af5 fbbd c043 903c b360 0a3e 0074 1dbd
00000350: 8a29 0abe a279 4fbe aaa8 3cbe b49b 28bd
00000360: 306a 953c 4394 e9bd 7dc6 603e d03a 24bc
00000370: 8b8b 3f3e 76dc c93d 59ac 163e 4491 aabd
00000380: 4d22 39be 2a02 b03d 37ad 023e b3da 63be
00000390: e021 98bb c457 3b3d 5448 523d 6b56 2abe
000003a0: ffd0 433e 2063 843b 71b2 f0bd a4a8 3ebe
000003b0: ba78 b53d 8b0f ecbd ef50 0f3e 7cf5 1cbd
000003c0: c9f0 203e 40a0 4bbd 80a9 9eba 3a2c 14be
000003d0: d574 303e 1a73 c03d c0d6 82bb b3f7 db3e
000003e0: 2f8f e4bd 33e0 7e3c 2dae 80bc d607 903c
000003f0: d6a0 a8be 1eac debe d5d0 873d 27c4 453d

layers.0.bias f4 [64]
0.07252965 0.08575195 0.19083227 -0.017649505 -0.062227625 0.13988228 0.10886278 -0.19661117
0.22309822 0.09931482 -0.32732117 0.17232539 -0.20813397 -0.11615903 0.12148704 -0.20669098
-0.07597393 -0.11068006 0.020382222 0.0943598 0.16930024 0.03331949 0.04831287 -0.22293715
-0.16453524 -0.13229923 0.026436128 -0.029015645 0.030760674 0.18283252 -0.12579672 0.13682766
-0.18733718 -0.05011395 -0.2135285 0.0122293085 0.019058838 0.1484235 0.10185871 -0.18153696
-0.042989258 -0.11307675 -0.06727637 0.051123336 0.033533826 -0.2614785 -0.031264246 -0.18114702
-0.0935486 0.090962395 -0.11713757 -0.123442255 -0.07167289 -0.05744342 0.10636259 0.101485774
0.10015665 0.17460226 0.045076743 -0.31015354 0.054192707 -0.15855816 0.15044682 -0.390217
00000000: 6d8a 943d b89e af3d 8969 433e b295 90bc
00000010: 65e2 7ebd 4d3d 0f3e 73f3 de3d 7054 49be
00000020: dc73 643e 9165 cb3d a496 a7be 1176 303e
00000030: 1221 55be c9e4 edbd 32ce f83d cda6 53be
00000040: 3898 9bbd 3aac e2bd 9ef8 a63c b63f c13d
00000050: 0b5d 2d3e 047a 083d b7e3 453d a349 64be
00000060: ed7b 28be 7379 07be 9490 d83c 38b2 edbc
00000070: cffd fb3c 7338 3b3e dbd0 00be 8d1c 0c3e
00000080: 51d5 3fbe 4944 4dbd 37a7 5abe 705d 483c
00000090: 4821 9c3c 54fc 173e 4d9b d03d d3e4 39be
000000a0: 8115 30bd c894 e7bd 32c8 89bd b466 513d
000000b0: c45a 093d 83e0 85be f00e 00bd 9b7e 39be
000000c0: 6996 bfbd 7e4a ba3d d3e5 efbd 4bcf fcbd
000000d0: 3cc9 92bd cb49 6bbd a1d4 d93d c6d7 cf3d
000000e0: ee1e cd3d efca 323e 64a2 383d 72cc 9ebe
000000f0: 2cf9 5d3d 125d 22be bb0e 1a3e 86ca c7be

layers.3.weight f4 [32, 64]
0.07460088 -0.7009324 -0.108866155 -0.17382261 -0.040445324 -0.082344875 -0.5625844 0.07689777
-0.8142347 0.048528623 0.01472643 -0.0043043643 0.07443076 0.002897101 0.065975785 -0.050278127
0.031097721 -0.07102263 -0.6149576 -0.031684734 -0.057399258 -0.007859483 -0.04810088 0.102882475
-0.007436386 -0.07539264 -0.046327226 0.045043543 0.05208959 0.04250531 -0.07419868 0.019716285
-0.06469552 -0.9273659 0.121811226 0.025778264 -0.100480534 -0.13027446 -0.13486199 0.09477244
-0.7813691 -0.11911189 0.05554621 -0.11134215 -6.930294e-05 -0.050776586 -0.0017183719 0.023735551
0.06458512 0.0058669 -0.12378562 -0.076824844 -0.004182115 -0.039392456 0.025259055 -0.6077341
-0.03764485 0.10693021 -0.046672568 0.048350107 0.058879495 -0.10210957 -0.04128375 0.09983304
-0.029222837 0.18054612 -0.029127508 0.24157423 0.005799572 -0.0021006763 0.25248063 0.08577973
0.6268668 -0.08325127 0.021676628 -0.0013526529 -0.036862478 0.06766425 -0.0008983097 0.14561367
0.058601845 -0.038166627 0.3168647 0.053115685 0.06914669 -0.023391679 -0.0548336 -0.10508102
0.039958283 -0.053443745 -0.00479132 -0.07232493 -0.13257489 -0.123113334 0.07363497 -0.086010344
0.104118794 1.0077057 -0.06970304 -0.032455564 -0.09781995 0.2041229 -0.061738856 -0.06845352
0.3794574 -0.09316607 -0.0665264 -0.040059566 0.0010286814 -0.05033115 -0.023537472 -0.044331655
0.04805361 -0.102442995 0.13795158 -0.053555287 -0.015936732 0.05386965 0.0013679451 0.14482465
-0.0708881 -0.061318636 -0.08335933 0.09386047 -0.042155474 -0.11307925 -0.093548104 -0.009298943
0.024627296 -0.23225296 0.02200231 -0.08000981 -0.005340631 -0.007922098 -0.108147316 -0.042791933
-0.39033997 0.019721951 -0.006441023 0.07814567 0.115502134 0.15273435 0.052143786 -0.038273845
-0.074364096 -0.09265159 0.1071265 0.024342887 -0.044423163 0.06171532 -0.08158792 0.060252517
0.057224527 0.07899875 -0.00596769 0.01871933 -0.10246739 -0.037472695 -0.07135224 0.13046442
0.083552845 -0.47618562 -0.0005518943 0.07404746 -0.17059281 -0.20250468 -0.04620396 0.008626193
-0.12850252 -0.038075734 -0.086879134 0.052665353 0.11323968 -0.044995952 0.052279573 -0.10635212
0.17936295 -0.013929918 -0.14198957 -0.073767014 -0.10529691 -0.15402064 0.075174585 -0.16753116
-0.025521606 0.08302 0.08570406 0.20247531 -0.082769364 -0.11428659 -0.06865208 0.08164141
0.034483302 -0.3374104 -0.039538115 -0.29689038 0.14561403 0.020424977 -0.37451798 -0.087050155
-0.8195722 -0.06274231 -0.042137027 -0.11378601 0.050978974 0.019893551 0.03175591 -0.017830614
-0.07717546 0.019776419 -0.32576483 -0.08349571 0.098618686 0.015414447 -0.022030668 0.009584099
0.06430272 -0.022159595 0.06162598 0.054127693 0.014770231 -0.10732208 0.042390004 -0.117862284
-0.08984895 -0.7048012 -0.11958471 0.061451882 -0.06722423 -0.109942146 0.002185387 0.014413327
-0.5689286 0.08303488 -0.10969122 0.049375862 -0.012591714 0.07507947 0.05380596 -0.054614663
0.16154262 -0.09612763 -0.16993122 0.00041085086 0.08855744 0.009179307 0.026685895 -0.22385874
-0.008828327 -0.056239173 0.11145899 0.078327514 -0.011545107 0.043795034 -0.008204362 -0.04449605
00000000: 59c8 983d 4e70 33bf 38f5 debd 8efe 31be
00000010: ffa9 25bd 6ea4 a8bd 8805 10bf 947c 9d3d
00000020: af71 50bf f3c5 463d 2047 713c a00b 8dbb
00000030: 286f 983d 4add 3d3b 501e 873d 70f0 4dbd
00000040: a6c0 fe3c 5074 91bd dc6d 1dbf dac7 01bd
00000050: 7c1b 6bbd 10c5 00bc 6e05 45bd 0cb4 d23d
00000060: edac f3bb 7567 9abd 9ec1 3dbd 947f 383d
00000070: e55b 553d 0c1a 2e3d 7af5 97bd 0c84 a13c
00000080: 167f 84bd da67 6dbf 2a78 f93d f02c d33c
00000090: bdc8 cdbd ab66 05be 4319 0abe 0e18 c23d
000000a0: ce07 48bf eff0 f3bd 6c84 633d 5a07 e4bd
000000b0: bc56 91b8 1cfb 4fbd fe3a e1ba 0f71 c23c
000000c0: 3445 843d 203f c03b 5183 fdbd 5856 9dbd
000000d0: 200a 89bb fc59 21bd 14ec ce3c 7694 1bbf
000000e0: 7c31 1abd 3afe da3d bc2b 3fbd c30a 463d
000000f0: a02b 713d d21e d1bd 2619 29bd 4475 cc3d
00000100: bb64 efbc 15e1 383e d09c eebc 3c5f 773e
00000110: 560a be3b 80ab 09bb 2445 813e 48ad af3d
00000120: 587a 203f a47f aabd 2f93 b13c 804b b1ba
00000130: 1cfd 16bd 8e93 8a3d 8b7c 6bba c01b 153e
00000140: 7d08 703d 9c54 1cbd 173c a23e d58f 593d
00000150: c89c 8d3d e89f bfbc 3299 60bd b834 d7bd
00000160: 4cab 233d d4e7 5abd 8100 9dbb 181f 94bd
00000170: b6c1 07be d822 fcbd eecd 963d 3126 b0bd
00000180: 3c3c d53d 80fc 803f 78c0 8ebd 20f0 04bd
00000190: d355 c8bd 9805 513e e2e1 7cbd 5c31 8cbd
000001a0: 3e48 c23e dacd bebd fe3e 88bd 8015 24bd
000001b0: d2d4 863a 0928 4ebd a8d1 c0bc 1c95 35bd
000001c0: ddd3 443d a2cd d1bd 2e43 0d3e ca5c 5bbd
000001d0: c08d 82bc 6ca6 5c3d 9f4c b33a ea4c 143e
000001e0: c82d 91bd 4029 7bbd 4cb8 aabd eb39 c03d
000001f0: 38ab 2cbd 1896 e7bd 2696 bfbd 985a 18bc
00000200: 2fbf c93c b8d3 6dbe 303e b43c 2fdc a3bd
00000210: 7600 afbb b0cb 01bc 577c ddbd 9846 2fbd
00000220: a4da c7be ee8f a13c 380f d3bb d60a a03d
00000230: 628c ec3d 6566 1c3e b994 553d 09c5 1cbd
00000240: 344c 98bd 1ec0 bdbd 2365 db3d bc6a c73c
00000250: 10f5 35bd 34c9 7c3d 9117 a7bd 58cb 763d
00000260: 4464 6a3d 19ca a13d 9d8c c3bb 4859 993c
00000270: 6cda d1bd f87c 19bd 2021 92bd 7798 053e
00000280: c11d ab3d 9ace f3be 00ad 10ba 32a6 973d
00000290: e2af 2ebe 635d 4fbe 5d40 3dbd e054 0d3c
000002a0: 2a96 03be 4df5 1bbd b0ed b1bd a0b7 573d
000002b0: 35ea e73d ad4d 38bd 1b23 563d 24cf d9bd
000002c0: ecaa 373e 503a 64bc b765 11be 2913 97bd
000002d0: e8a5 d7bd 96b7 1dbe 22f5 993d 4a8d 2bbe
000002e0: b012 d1bc 6406 aa3d 9c85 af3d b055 4f3e
000002f0: fc82 a9bd 160f eabd 7699 8cbd 9d33 a73d
00000300: 5d3e 0d3d 0ec1 acbe b8f2 21bd 0402 98be
00000310: d81b 153e 4852 a73c d2c0 bfbe 5a47 b2bd
00000320: 7ccf 51bf 0a7f 80bd e097 2cbd a408 e9bd
00000330: 54cf 503d cdf7 a23c 7c12 023d 8211 92bc
00000340: 2b0e 9ebd 2802 a23c a6ca a6be ccff aabd
00000350: 98f8 c93d e08c 7c3c a979 b4bc a006 1d3c
00000360: 25b1 833d 0a88 b5bc 866b 7c3d 00b5 5d3d
00000370: d7fe 713c aecb dbbd 24a1 2d3d c861 f1bd
00000380: ba02 b8bd da6d 34bf d4e8 f4bd f8b4 7b3d
00000390: dbac 89bd 5929 e1bd b638 0f3b e025 6c3c
000003a0: 4ea5 11bf 310e aa3d caa5 e0bd 583e 4a3d
000003b0: 7a4d 4ebc 44c3 993d a363 5c3d a0b3 5fbd
000003c0: 6e6b 253e 90de c4bd 7302 2ebe 7867 d739
000003d0: 9a5d b53d ce64 163c 619c da3c 3a3b 65be
000003e0: b0a4 10bc 0c5b 66bd 9c44 e43d 2d6a a03d
000003f0: b027 3dbc 6c62 333d 976b 06bc 7d41 36bd

layers.3.bias f4 [32]
0.056812275 0.00034359287 0.09485854 0.15063539 0.09851516 -0.047149833 -0.09122921 0.07966949
0.12219031 -0.12567814 0.073058836 0.10893297 0.17437555 -0.10401444 -0.16877542 0.2193948
0.03413036 0.04729079 -0.055590868 -0.20076309 -0.009470726 0.033996634 -0.05787498 0.20762992
0.21881847 -0.010093205 -0.02953437 -0.052458514 0.12139001 0.09878383 -0.09731355 -0.05664703
00000000: fdb3 683d 4124 b439 3245 c23d 2a40 1a3e
00000010: 51c2 c93d 2f20 41bd 61d6 babd c229 a33d
00000020: ea3e fa3d c5b1 00be df9f 953d 4018 df3d
00000030: 818f 323e 8605 d5bd 77d3 2cbe 08a9 603e
00000040: 47cc 0b3d fdb3 413d 40b3 63bd d794 4dbe
00000050: 1b2b 1bbc 0e40 0b3d 510e 6dbd f09c 543e
00000060: f311 603e f85d 25bc 10f2 f1bc bdde 56bd
00000070: 539b f83d 2d4f ca3d 544c c7bd b706 68bd

layers.6.weight f4 [16, 32]
-0.22875416 0.19500607 0.20235597 -0.12162235 -0.062344056 0.36297965 -0.064387694 -0.091822244
0.1304555 0.2324991 -0.33789647 -0.1545395 0.0050235232 0.06129083 0.045866854 -0.06837434
-0.12922028 -0.023858976 -0.030319052 0.2569907 0.19468473 0.1428743 0.026861584 -0.22197348
0.09655804 0.23818861 0.032291427 -0.076546095 -0.018823357 -0.2551066 0.27350828 0.22441992
-0.26680914 0.17156321 0.113151915 -0.15147729 -0.10062061 0.10586975 0.3112298 -0.011021766
0.22178169 0.15351023 -0.09689096 -0.21368115 0.062211663 0.07757628 0.20226043 -0.028489284
-0.077833645 -0.05980585 0.16842051 -0.0024004271 0.016913122 0.07074971 0.13777407 -0.20627049
0.06514765 0.22475082 0.15055169 0.06797084 -0.18655533 -0.09978996 0.2221529 0.039305214
0.36621317 -0.07136768 0.06845186 0.31142345 0.25386652 -0.24900076 -0.43372512 0.2906795
0.19992007 -0.22741823 0.30806956 0.27831057 -0.03478586 -0.21459219 -0.10890408 0.044998694
0.17707866 0.058027107 -0.4715014 -0.28333253 -0.15765671 -0.014666059 -0.17808808 0.4020086
0.09648045 -0.17142873 -0.2519042 0.21390034 0.15718162 0.2864876 -0.34436283 -0.5594715
0.28225204 0.05755622 0.21108371 0.23301136 0.22231014 -0.13714984 -0.124472424 0.007275219
0.11645675 -0.22927245 0.2377443 0.39880794 0.16985878 -0.25377014 -0.24958278 0.23635991
0.26854947 -0.0047887345 0.033063386 -0.29155478 0.072065525 -0.11700804 0.097975336 0.20204793
0.22623384 -0.20441264 -0.11317761 -0.040041126 0.2510126 0.40909812 -0.38006854 -0.3982167
-0.32893774 -0.0062938035 0.15558344 -0.012972098 0.06511539 0.21593031 -0.25054651 -0.17018576
0.10069262 0.06326576 -0.29707938 -0.1226759 0.025372745 0.17311466 0.12716787 0.008945307
-0.031525962 -0.025550378 0.1295296 0.14650442 0.18000993 0.11897017 -0.072927885 -0.32843122
-0.104458354 0.2128518 0.0121835405 -0.041300066 -0.15035117 -0.24658126 0.24240708 0.19094293
-0.18171765 0.18134725 0.0967264 0.03900483 0.042729132 0.20490274 0.30196992 -0.18896008
0.17296919 -0.0025987292 -0.2806107 -0.14993201 0.033348348 0.22138721 0.0030998813 -0.018262068
-0.04398425 -0.1840082 0.29862356 0.21784513 0.23648337 0.1693054 -0.022022285 -0.29082963
-0.0589481 0.2757072 0.034908954 -0.11172101 -0.23081054 -0.19622785 0.083437815 0.35690087
-0.27090546 -0.041969754 0.09225262 -0.031499535 0.006137648 0.047246482 0.18509163 -0.2681386
0.11549468 0.065656304 -0.1857472 -0.2399935 0.20737126 0.15269661 0.1081667 -0.1459008
0.005646264 -0.15984975 -0.047413424 -0.017751053 0.1037763 0.2379155 0.06895626 -0.288999
0.047469158 0.04541777 0.104082264 -0.19192913 -0.19713727 -0.22869006 0.13595758 0.26304892
0.0075467536 -0.12956098 0.24452643 0.18627626 0.014443066 -0.08488314 -0.013872206 -0.026086694
-0.06838926 -0.14748529 -0.12186364 -0.034794074 0.055489708 -0.21399981 -0.030047568 0.24685399
0.067217745 0.075973645 0.08783257 -0.15169293 -0.0054464573 0.0148110585 0.1533714 0.047167428
0.15088691 0.0065619554 -0.15662369 0.0866479 0.009594972 0.08926766 -0.22708349 -0.17609471
00000000: 883e 6abe acaf 473e 6736 4f3e 2315 f9bd
00000010: 7b5c 7fbd 78d8 b93e b2dd 83bd 4d0d bcbd
00000020: 2096 053e 3e14 6e3e c400 adbe 9a3f 1ebe
00000030: 5e9c a43b 180c 7b3d e2de 3b3d d907 8cbd
00000040: 5252 04be e673 c3bc a95f f8bc 4994 833e
00000050: 6f5b 473e a44d 123e d30c dc3c 044d 63be
00000060: 39c0 c53d b7e7 733e 0444 043d 33c4 9cbd
00000070: 7133 9abc 559d 82be 4709 8c3e 56ce 653e
00000080: 359b 88be 44ae 2f3e 31bc e73d dd1c 1bbe
00000090: 2e12 cebd 3dd2 d83d 8359 9f3e a394 34bc
000000a0: bd1a 633e c931 1d3e c56e c6bd 3bcf 5abe
000000b0: a8d1 7e3d 50e0 9e3d 5c1d 4f3e 5c62 e9bc
000000c0: 3f67 9fbd fbf6 74bd 6d76 2c3e 7c50 1dbb
000000d0: 638d 8a3c 39e5 903d a514 0d3e 9238 53be
000000e0: 226c 853d 1425 663e 392a 1a3e 4c34 8b3d
000000f0: 5c08 3fbe ae5e ccbd 0d7c 633e 81fe 203d
00000100: 4b80 bb3e 3829 92bd 7d30 8c3d e572 9f3e
00000110: cbfa 813e 0efa 7ebe 3811 debe f2d3 943e
00000120: d9b7 4c3e 53e0 68be 4bbb 9d3e b97e 8e3e
00000130: 9e7b 0ebd 0ebe 5bbe 1a09 dfbd 8d50 383d
00000140: 1c54 353e d5ad 6d3d a268 f1be f610 91be
00000150: c370 21be e949 70bc b95c 36be 12d4 cd3e
00000160: 8b97 c53d 038b 2fbe 96f9 80be b108 5b3e
00000170: 38f4 203e 81ae 923e 5350 b0be 8639 0fbf
00000180: 5783 903e 12c0 6b3d 5426 583e 889a 6e3e
00000190: 45a5 633e 0271 0cbe 66eb febd f664 ee3b
000001a0: e080 ee3d 66c6 6abe 3e73 733e 8e30 cc3e
000001b0: 76ef 2d3e 29ee 81be a192 7fbe 5508 723e
000001c0: 517f 893e d1ea 9cbb 796d 073d ab46 95be
000001d0: 1797 933d e9a1 efbd 4ba7 c83d a7e5 4e3e
000001e0: d8a9 673e 8c51 51be aac9 e7bd 2a02 24bd
000001f0: b984 803e 4f75 d13e 5898 c2be 0fe3 cbbe
00000200: 876a a8be 403c cebb 4451 1f3e ec88 54bc
00000210: 385b 853d d61c 5d3e a247 80be 2d45 2ebe
00000220: ef37 ce3d 7b91 813d ca1a 98be 813d fbbd
00000230: 81da cf3c f844 313e 4b38 023e 568f 123c
00000240: 5e21 01bd 074f d1bc 68a3 043e 4105 163e
00000250: 8654 383e a2a6 f33d 375b 95bd 2328 a8be
00000260: 43ee d5bd d2f5 593e 799d 473c 422a 29bd
00000270: a8f5 19be cc7f 7cbe 9039 783e 8b86 433e
00000280: 3114 3abe 18b3 393e 7e18 c63d 87c3 1f3d
00000290: be04 2f3d 06d2 513e cd9b 9a3e c07e 41be
000002a0: d61e 313e 714f 2abb 35ac 8fbe c787 19be
000002b0: 4798 083d 54b3 623e 6127 4b3b 559a 95bc
000002c0: d428 34bd a56c 3cbe 30e5 983e cb12 5f3e
000002d0: b228 723e 655e 2d3e 1468 b4bc 9fe7 94be
000002e0: 9073 71bd 7e29 8d3e b1fc 0e3d fccd e4bd
000002f0: 9959 6cbe f4ef 48be 72e1 aa3d b6bb b63e
00000300: 1fb4 8abe 7ae8 2bbd f1ee bc3d a805 01bd
00000310: 531e c93b 8785 413d a988 3d3e 7649 89be
00000320: 7a88 ec3d d076 863d 8434 3ebe dbc0 75be
00000330: 2259 543e 805c 1c3e 8186 dd3d 0567 15be
00000340: 4c04 b93b a7af 23be 9434 42bd a86a 91bc
00000350: ab88 d43d 1fa0 733e f138 8d3d adf7 93be
00000360: 056f 423d fc07 3a3d 1529 d53d 1289 44be
00000370: 5ade 49be ba2d 6abe 7738 0b3e 59ae 863e
00000380: c24a f73b a2ab 04be 2365 7a3e 34bf 3e3e
00000390: 9ca2 6c3c 36d7 adbd 4048 63bc c3b3 d5bc
000003a0: ab0f 8cbd 6206 17be a593 f9bd 3b84 0ebd
000003b0: 2d49 633d c422 5bbe 5126 f6bc 4bc7 7c3e
000003c0: 75a9 893d 1298 9b3d 90e1 b33d 6455 1bbe
000003d0: 3278 b2bb 15aa 723c 640d 1d3e a232 413d
000003e0: 1982 1a3e ac05 d73b f661 20be 7474 b13d
000003f0: 3b34 1d3c f7d1 b63d 9388 68be 2c52 34be

layers.6.bias f4 [16]
0.017641922 -0.02794795 0.14580019 0.28549108 0.051510263 -0.076589584 0.07201827 0.19715096
0.10966944 0.1392777 0.11779753 -0.065930426 0.12124609 0.18405364 0.37914813 0.26741734
00000000: cb85 903c 19f3 e4bc a54c 153e e32b 923e
00000010: 6dfc 523d 00db 9cbd 517e 933d f1e1 493e
00000020: 5f9a e03d d09e 0e3e d53f f13d 8806 87bd
00000030: df4f f83d 8f78 3c3e b41f c23e edea 883e

layers.9.weight f4 [1, 16]
-0.2257512 -0.15786915 0.6009768 0.314398 -0.43252483 -0.28497818 -0.32281867 0.27592218
-0.22117372 0.5924964 0.2798463 -0.386721 -0.41650805 0.5328112 0.40283155 0.55707264
00000000: 532b 67be 73a8 21be 9ed9 193f c6f8 a03e
00000010: e573 ddbe a9e8 91be 7d48 a5be ac45 8d3e
00000020: 5d7b 62be d8ad 173f 0448 8f3e 4b00 c6be
00000030: 8b40 d5be 5166 083f f03f ce3e 509c 0e3f
