models/Delete/antipion.pt (torch, 18905 bytes, 7 tensors)

layers.0.weight f4 [64, 19]
000000 1c fc 8d bf 24 c5 1a bf e9 7d 55 bc 56 76 56 be
       -1.1092563 -0.6045706 -0.013030508 -0.20943579
000010 cb b7 17 3f bc 58 66 3e 6c a0 ae bd a3 1e b3 bc
       0.5926482 0.22494787 -0.08526692 -0.021865195
000020 53 12 f1 3b cb 91 05 bd d9 8f 2d 3f bc e6 2a 3d
       0.0073569207 -0.032609742 0.6779762 0.04172395
000030 8a 3a 66 3d 40 9d 2e bd 76 fc 92 bb 21 d2 4b 3b
       0.05620817 -0.042630434 -0.004485662 0.0031100588
000040 da a3 be bd 9c 2a 64 3d 8f f5 bf 3c e1 5d 07 40
       -0.09308596 0.055704698 0.023432521 2.115105
000050 52 a2 b4 3d 24 9b 41 ba 0a 98 6a be ad b6 2a 3f
       0.08820023 -0.00073854835 -0.22909561 0.6668499
000060 b9 36 57 3e c7 00 f8 3e 5c b8 08 be 12 65 42 3d
       0.21016969 0.48438093 -0.13351578 0.04745967
000070 ac 98 a5 3c 05 1a f2 be e1 0d 2d bd 90 15 5f 3e
       0.020214401 -0.47285476 -0.042249564 0.21785569
000080 67 48 56 bc 48 79 1e 3d 81 67 ba bb b8 54 6a 3d
       -0.0130787855 0.03868988 -0.005688608 0.0572097
000090 7a 4f 93 3d 55 90 44 bc 0f 1e 1b 3e 23 72 73 bb
       0.07192893 -0.011997302 0.15148185 -0.0037146888
0000a0 e1 cb 0e be c7 ff cf bd 7c b6 44 bf c2 72 81 3d
       -0.13944961 -0.101562075 -0.7684095 0.063207164
0000b0 b6 40 a7 3c 8d 8d e8 3c 69 2b 5f be b4 4b 14 be
       0.020416599 0.02838781 -0.21793903 -0.14482003
0000c0 7c 6f eb 3e 4e 1d bf 3d 36 fc d9 bc ce c0 3f 3d
       0.45983493 0.09331761 -0.026609521 0.046814732
0000d0 3c 30 b2 bc 2f fc df 3b 09 6a 16 be bd 0d 27 3d
       -0.021751516 0.0068354825 -0.14688887 0.040784586
0000e0 5d 87 1e 3c bc d3 08 bd 0e 8e 60 be ae 1e f2 3d
       0.009675828 -0.03340505 -0.2192919 0.11822258
0000f0 fc 4e 44 be 74 2b b7 bd d6 bd 91 bd c6 68 00 be
       -0.19170755 -0.08943835 -0.071162865 -0.12539968
000100 ed 42 33 be d0 a1 7c bd 28 cf 00 be 6b 59 27 3e
       -0.17505999 -0.061677754 -0.12579024 0.16342704
000110 a6 94 89 3d 02 0d 40 be a0 88 86 bb a4 3c 44 3d
       0.067178056 -0.18754962 -0.0041056424 0.047909394
000120 81 38 23 be 64 ca 68 be 53 fd 25 3e 0d a2 60 3e
       -0.15939523 -0.22733456 0.16209917 0.21936817
000130 14 46 4a bf 7b d7 c6 be 5c 3a a6 3a 27 5f cd bd
       -0.7901318 -0.38836274 0.0012682187 -0.100279145
000140 fe fb e9 be ff 08 01 3e ac 51 25 3e 3f 19 00 bd
       -0.45700067 0.12601088 0.16144437 -0.031274077
000150 fd 08 63 3b b6 f7 06 3c 04 e9 93 3f 1f c8 03 3b
       0.0034642809 0.00823777 1.1555486 0.0020108295
000160 3d 89 4f 3d 0e 99 1c 3c 1d dd 27 3c cc da 36 3b
       0.05066799 0.009557975 0.010245589 0.002790141
000170 26 30 59 3c 95 15 43 3c f4 31 18 ba 60 f2 8c bd
       0.013256108 0.011907001 -0.00058057834 -0.06882167
000180 34 20 54 3d 22 ee 84 3d 94 b1 d0 bd 3c 22 61 3d
       0.051788524 0.06490733 -0.1019012 0.05496429
000190 56 42 14 be 90 74 1c bc 00 91 f0 bb b8 6d 01 be
       -0.1447843 -0.009549275 -0.007341504 -0.1263951
0001a0 2b dd 4e 3e e0 be d1 bc 9b 9f 2a 3e 82 e9 d4 bd
       0.20201556 -0.025603712 0.16662447 -0.103961006
0001b0 bb ff 51 3e 40 be d7 bb f9 32 17 be 6a 7a 94 bd
       0.2050771 -0.006583959 -0.14765538 -0.07249911
0001c0 26 1f ad bd ac 7b c0 bd 00 fc 5c bc be 69 06 be
       -0.08453207 -0.093985885 -0.013487816 -0.13126275
0001d0 1f 0f 13 3e a6 28 d8 3d 7c 57 34 3d e2 a8 c2 3d
       0.14361237 0.10554628 0.044028744 0.09504868
0001e0 35 b1 3b 3e c2 32 c6 bd db 30 1e 3e f8 1b 5a bd
       0.18329318 -0.0967765 0.15448324 -0.05324933
0001f0 0c 17 7d bd 61 e2 41 3e 7d 58 46 3e 12 da 27 be
       -0.061789557 0.18934013 0.19369693 -0.16391781
000200 c9 26 3a 3e 99 19 57 be 90 93 b0 bc 24 ca 2c bd
       0.18178858 -0.21005858 -0.021554738 -0.042184964
000210 f4 b0 32 3d 4f 45 40 bf df 8d 20 bd da 1f dc 38
       0.043625787 -0.75105757 -0.0391978 0.0001049635
000220 21 20 8a bd 8d 16 44 bf a8 c7 4b 3e b1 e7 81 3e
       -0.06744409 -0.7659691 0.19900382 0.2537208
000230 61 be 31 3c 33 50 27 3d 6a 91 27 3b 88 ac 88 3f
       0.0108486125 0.04084797 0.0025568851 1.0677652
000240 42 6f 78 bd 44 56 33 bc 56 f5 3d bb c8 47 ac 3c
       -0.06065298 -0.01094586 -0.0028985343 0.021030322
000250 0a 13 c7 3a 9f 15 84 3b f3 78 0f bc 22 03 92 bc
       0.0015188169 0.0040308977 -0.008756864 -0.01782376
000260 78 a3 2c 3e dd cf 2a bf 11 79 28 be 9c 35 3d 3d
       0.16859233 -0.66723424 -0.16452433 0.046193704
000270 cc 52 62 be d6 fc 24 bd d0 1f ba be c2 74 17 be
       -0.22101897 -0.040280186 -0.36352396 -0.14790633
000280 68 53 a1 3d 20 21 40 3d a3 95 53 3f f1 f3 92 bd
       0.078772366 0.04690659 0.826502 -0.071754344
000290 67 78 3c 3e 24 c2 b8 3d 69 48 8e bd 64 5a 4b 3c
       0.18405305 0.090214044 -0.06947405 0.0124116875
0002a0 1f 8d cb bd c5 ad 8e bd 5a ff 01 be 65 f6 e4 3c
       -0.09939026 -0.06966738 -0.12695065 0.027949521
0002b0 a8 bf 06 bf 7d d6 25 3b eb 14 31 3d 20 c9 f4 3e
       -0.52636194 0.0025304847 0.04323284 0.47809696
0002c0 e3 ae 0d be f1 72 bf 3d 22 21 c0 3d 27 1e d6 3d
       -0.13836245 0.09348095 0.093813196 0.1045497
0002d0 23 77 05 3d ee 3b 52 bf 16 d1 d6 3c d4 ff 83 bd
       0.03258432 -0.82122695 0.026222747 -0.0644528
0002e0 89 bd 85 3c 99 25 0d be a0 f0 2a bb 65 92 42 3d
       0.016325729 -0.13783874 -0.0026083365 0.047502894
0002f0 f0 e7 35 3d 74 28 65 bc 4d 00 86 bf 34 42 e1 be
       0.044410646 -0.013986696 -1.0468842 -0.4399582
000300 3a d6 a2 3c 83 db c4 be a6 3c 9f 3e 6a 1a 19 be
       0.019877542 -0.38448724 0.3110096 -0.14951482
000310 3f 4b fc bd e2 00 fc 3d 3e 85 0b be a6 3b 37 3e
       -0.123190396 0.12304856 -0.13625047 0.17893848
000320 5d c2 71 3e 7d b9 ff bb 47 8a 26 be 73 cb e2 3c
       0.236093 -0.0078040943 -0.16263686 0.027684903
000330 46 a9 61 3d af 41 bc 3b d9 fc 97 3e 96 72 37 3e
       0.055093072 0.005745135 0.29685095 0.17914805
000340 a2 db c0 bc ec 82 88 bf e0 ba 14 bd 43 7c 36 bc
       -0.02354223 -1.0664954 -0.03631103 -0.011138025
000350 33 dd d5 be 7c 75 ed 3e 0f da d3 bc d7 a4 ab 3d
       -0.41770324 0.46378696 -0.025860814 0.0838105
000360 7d 4c 0f bd 1a e7 d2 bd c1 bf c7 bc 72 7d 3b bf
       -0.034985054 -0.102979854 -0.024383428 -0.7323829
000370 b5 67 e3 3d 32 69 9c ba 18 31 0f bd 8a 03 24 bd
       0.11103765 -0.0011933206 -0.03495893 -0.040042438
000380 29 c0 e6 3a 16 cb 68 3e 1f 8f 46 3e 9e c7 5b bb
       0.0017604876 0.22733721 0.19390534 -0.003353573
000390 ca 86 56 3f 73 27 62 be 27 bc d6 bc 55 8f a1 3e
       0.8379942 -0.22085361 -0.026212765 0.31554666
0003a0 cb 3a 49 bc c7 d3 6c 3e 2e 69 19 3e c6 3d 01 3d
       -0.012282084 0.23127662 0.14981529 0.031553052
0003b0 3e aa bb 3d 83 d1 30 be b2 25 9c 3e ce 52 e2 ba
       0.091633305 -0.17267422 0.3049751 -0.0017267109
0003c0 d6 2d bd 3d 7b bf 36 bc 79 d5 05 3e f2 73 53 3a
       0.09237258 -0.011154051 0.13069715 0.00080662884
0003d0 05 cc 17 3e cf 31 7b 3e 55 be f0 3d 90 f0 e1 3f
       0.14823921 0.24530719 0.11755053 1.7651539
0003e0 cd 82 f6 3d 75 22 4b bb a9 f8 ff ba 5a 7e 96 bc
       0.12036667 -0.003099588 -0.0019529063 -0.018370796
0003f0 b0 b5 e6 be 18 ae 8d be 1a e0 58 be 2e 68 fa 3c
       -0.45060492 -0.27671885 -0.21179238 0.030567255

layers.0.bias f4 [64]
000000 56 36 ce bd 59 56 8b 3d 20 56 a5 bd b0 65 5b bc
       -0.100689575 0.06803579 -0.08073068 -0.013390943
000010 e0 1c 54 be e1 bf da bd a7 53 25 3e f9 86 28 3d
       -0.2071414 -0.10681129 0.16145192 0.041144345
000020 05 52 01 be d2 f8 9d 3d 88 80 e4 3c 88 21 9b bc
       -0.12628944 0.07713474 0.02789332 -0.018936887
000030 a5 84 82 be d5 9f 90 bd da 12 8a be 75 c5 6a 3e
       -0.25491825 -0.070617355 -0.26967508 0.22926886
000040 0a eb d5 3d c7 1b 7a be 6f 76 33 be 9c f0 4d be
       0.10445221 -0.24424659 -0.17525648 -0.20111316
000050 d9 fd d9 bd 16 bc ce 3d 88 98 3d be 7b 03 7d be
       -0.10644121 0.10094468 -0.18515217 -0.24708359
000060 3a e5 94 be dd 92 cc 3d a4 3a 19 be 1a 78 b5 bb
       -0.29081136 0.099889494 -0.14963776 -0.005537999
000070 b0 91 e2 bc 6f 88 ec bd c1 08 f7 3b bd ea 57 be
       -0.02765736 -0.1154946 0.0075388853 -0.2108564
000080 61 d2 1f 3e 04 b9 d3 bd 8e ea ca be 11 e9 a1 bd
       0.15607597 -0.10338023 -0.39632076 -0.07905782
000090 f5 6b 4d be ea 2c 18 be ad b0 63 3e b4 25 17 be
       -0.20060714 -0.14860883 0.22235365 -0.14760476
0000a0 66 f0 42 be ed 32 64 3d 5d 82 8d be e8 9c 3b be
       -0.19037017 0.05571263 -0.27638522 -0.18321574
0000b0 20 61 56 bd d4 c5 15 bd cf 29 02 be 3a cf 0d 3c
       -0.05233872 -0.036565617 -0.12711261 0.008655364
0000c0 0e 22 ec 3b 3e 52 b5 3d cc 74 53 bd 66 f2 29 3e
       0.007206208 0.08853577 -0.051625058 0.16596374
0000d0 1c d2 45 be 7f 4c 36 be bf 2e 98 bd bc 09 a2 be
       -0.19318432 -0.17802618 -0.07430791 -0.31648052
0000e0 19 13 27 3e 13 e0 60 3e 6b c6 9e be c4 62 38 be
       0.16315879 0.21960478 -0.31010756 -0.18006426
0000f0 6d 80 4b 3e 86 d2 2c 3c 00 1e a8 b9 1f b5 9d 3d
       0.1987321 0.01054824 -0.0003206581 0.07700562

layers.3.weight f4 [32, 64]
000000 2f 6b 2e bd 0f 7a 31 3e f7 94 44 3b ba d3 87 3d
       -0.042582687 0.17331718 0.0029996017 0.066321805
000010 bb 3f a1 be 28 ca 1b bd 90 60 29 3c f4 01 9a be
       -0.31493935 -0.038034588 0.010337964 -0.30079615
000020 35 15 17 bd 45 20 a4 3d e1 01 93 bb f9 97 ce 3d
       -0.03688546 0.080139674 -0.004486308 0.1008758
000030 ad 0b 95 3d 00 05 0e be 5c 03 ef 3c 00 49 b7 3c
       0.072776176 -0.13869095 0.029176407 0.022373676
000040 9c 9c 59 3d 40 9f 9e bd db b1 05 bd 00 df 95 3d
       0.05312787 -0.07745218 -0.03264032 0.073179245
000050 96 5e a3 be 50 5f f3 bd 78 da b6 bc 38 95 d7 be
       -0.319081 -0.11883414 -0.02232097 -0.42106032
000060 44 f4 ae be d5 71 37 3d 68 1a 11 bd ad 01 76 3d
       -0.34170735 0.044786293 -0.035425574 0.060060192
000070 a8 d6 06 3d 5e ee ac 3d 08 cb 68 bd ce 76 3a bd
       0.032919556 0.084439024 -0.05683425 -0.045523457
000080 54 0d 25 3d 42 9a ab 3d 2e 9f aa bd 41 17 d2 bc
       0.040295914 0.08379032 -0.08331142 -0.025645854
000090 c5 4a 98 3d f2 37 c5 3d b8 9c 9f bd 2e 3a 76 bd
       0.07436136 0.09629811 -0.077935636 -0.06011408
0000a0 19 7b f3 bd 46 8d ae 3d b4 29 08 3e bc 29 22 be
       -0.118887134 0.085230395 0.13297158 -0.15836233
0000b0 d2 99 cf bd 30 2a aa bc 68 4b 35 bd 4a 85 8b 3c
       -0.10136761 -0.02077207 -0.044261366 0.01703133
0000c0 da 34 d0 3d 1a ee e0 bd 7b 04 e9 3d 70 27 0d be
       0.10166331 -0.10982914 0.11377808 -0.13784575
0000d0 c0 87 88 bd cc d0 2b bd 6c df de 3c c2 c1 04 bd
       -0.06666517 -0.04194717 0.027206145 -0.032411344
0000e0 20 57 2c 3c ac 90 83 3d f2 6f b1 3c 80 4a 4b bc
       0.010518819 0.06424078 0.021659825 -0.012407899
0000f0 f8 74 d7 3c 27 ac 2e bd 10 ad 1e bc 6d 41 6c be
       0.026300892 -0.042644646 -0.009684816 -0.23071833
000100 85 c9 2f 3c 99 22 82 bd 4d 35 87 bd 30 87 aa bd
       0.010729198 -0.06354255 -0.06601963 -0.08326566
000110 d6 a3 a6 be 10 28 16 bc 00 f7 20 ba 46 c5 05 bf
       -0.32546872 -0.009164825 -0.00061403215 -0.5225414
000120 15 ae 62 bd f8 13 52 bd e2 3c a6 3d 91 0d 1b bd
       -0.0553418 -0.051288575 0.08117081 -0.037854735
000130 35 2c 53 3d ca b0 d1 bc 99 61 c1 bd 88 7c 8a 3d
       0.05155583 -0.025596995 -0.094424434 0.06762034
000140 9e 47 c4 bd 34 9f 65 3d 42 d9 80 3d fc 0d e1 bd
       -0.095839724 0.05606003 0.06291439 -0.109889954
000150 db cc 00 bc f0 ca e6 bd b4 b0 07 3d 57 88 a5 be
       -0.007861341 -0.11269176 0.0331275 -0.32330582
000160 b6 d3 80 bd e2 17 f4 3c c4 27 a5 3d a8 ac 22 3d
       -0.06290381 0.029796544 0.08064225 0.03971544
000170 c0 7d 27 3b 54 b2 03 bd fe 01 b7 3d 31 b2 a0 bd
       0.002555713 -0.03215249 0.08935927 -0.07846487
000180 a0 1e c9 3d e8 7b b7 3c c6 90 a2 ba 92 2e b5 bd
       0.098202944 0.02239795 -0.0012402765 -0.08846773
000190 3e 69 e7 b8 18 c5 86 bd 48 1b 91 bd b1 75 7e bd
       -0.00011034541 -0.065805614 -0.070852816 -0.062123958
0001a0 37 cb e1 3d e5 07 84 bd 9e ef b5 3d c4 c5 df 3d
       0.11025088 -0.06446818 0.08883594 0.10926393
0001b0 a8 a6 a5 bc 55 57 80 3d e0 2f 18 bd 31 f3 5c bd
       -0.02022107 0.06266657 -0.037155032 -0.053942863
0001c0 b1 5a b5 3d 84 aa f9 3d 09 a3 35 3b 80 51 09 bf
       0.08855189 0.121907264 0.0027715585 -0.53639984
0001d0 29 0e d8 3c e2 cb 45 bd 9d 26 fc 3d 2d 73 73 bc
       0.02637394 -0.04829014 0.123120524 -0.014859003
0001e0 d4 41 57 3d 88 cf 96 bc 20 17 b2 bc c8 ba f3 bc
       0.052553013 -0.018409505 -0.021739542 -0.02975215
0001f0 00 2b 06 3c ae d6 f8 3c 18 0f 72 3d f8 a3 f8 bd
       0.008188963 0.030375805 0.059096426 -0.121406496
000200 b1 14 bf bc 83 57 87 bf 33 a3 b9 3c 68 bb 41 3d
       -0.023325296 -1.0573581 0.022660827 0.047297865
000210 b8 21 6e 3e e2 e8 a4 3d 22 d9 84 3d 9a b9 99 3e
       0.2325505 0.08052231 0.06486727 0.30024415
000220 56 c6 3c 3d e8 1a 9a bd 31 5a b5 bc c8 db e9 3d
       0.046087585 -0.07524663 -0.022137733 0.11418873
000230 bd a6 58 bd af a7 46 be bc 23 b2 3e e2 68 85 3d
       -0.05289339 -0.19399904 0.34792888 0.065141454
000240 12 e2 85 bd 92 84 8b 3d e5 e2 d1 be ac ff 5d bd
       -0.0653726 0.06812395 -0.4099342 -0.054198906
000250 ac 99 97 be da 8e ef 3d 3c c5 64 3d 80 91 0f 3e
       -0.2960943 0.11697169 0.05585216 0.14020348
000260 fa ab 1f be 20 71 ca 3e 10 71 69 bd 58 8f 92 bd
       -0.15592948 0.39539433 -0.05699259 -0.07156247
000270 58 4d 85 bd 5e a8 a0 3d 56 b0 e7 bd 6a 1a c9 bd
       -0.06508893 0.078446135 -0.1131293 -0.09819491
000280 7a d3 cc bd e4 c7 2b bd bd 33 95 3c 13 8e 38 be
       -0.100012735 -0.041938677 0.018213147 -0.18022947
000290 c4 3e 97 3d d3 31 1e be 80 4d 23 3d b3 24 02 bd
       0.073850185 -0.15448694 0.03986883 -0.03177328
0002a0 3a ff 14 3e 89 5d 12 3e 21 25 f2 3d 81 48 8d 3e
       0.14550486 0.14293493 0.11823488 0.2759438
0002b0 6c 33 61 bd 66 53 e9 bc 09 25 2b be b2 dc bf 3c
       -0.05498068 -0.02848215 -0.16713347 0.023420665
0002c0 d4 43 94 3c 00 73 88 bc d4 36 41 3d b8 e7 a8 3e
       0.01809875 -0.016656399 0.04717143 0.32989287
0002d0 30 9f 3a bc d9 e9 57 bd d3 bb 9e 3d 2e 12 70 bc
       -0.011390492 -0.05271325 0.077506684 -0.014652772
0002e0 02 57 9f bd 02 91 c9 bd 32 a3 eb 3c 80 cf a9 3c
       -0.07780267 -0.09842111 0.028764341 0.020728827
0002f0 2e ce dc 3d 72 5c df 3c f8 ef 2f bd 3a 5e cf 3e
       0.10781513 0.027265761 -0.04295346 0.40501577
000300 01 cc df bc 24 9f a2 3e a8 1c b6 bc 54 50 43 bd
       -0.027318956 0.3176204 -0.022230461 -0.04768403
000310 63 88 83 be c4 ee b4 3d 04 3e fe bd 87 d3 57 be
       -0.25689992 0.088346034 -0.12414172 -0.21076785
000320 4a 48 cc 3b 7e cd 86 bd 85 a9 fc bc 69 cd ee 3c
       0.0062342035 -0.06582163 -0.030842552 0.029150682
000330 42 0f 70 bd e3 27 f6 bd 44 dc 73 be 70 75 ac 3d
       -0.0586083 -0.120193265 -0.23814493 0.08420837
000340 d0 d7 94 bc 1f 37 57 bd c2 91 97 be 80 36 9a bd
       -0.018169314 -0.052542802 -0.29603392 -0.07529926
000350 a1 03 de bd 6e 8f 8d 3d d8 4f 60 bd 8d 10 8d be
       -0.10840536 0.06912123 -0.054763645 -0.2755169
000360 ef f9 06 be 2f 2e bb 3c 1c c8 e7 3d 9e 59 f8 bc
       -0.1318128 0.02284917 0.11317465 -0.03031617
000370 98 2b 68 3d 58 61 0d bd f3 70 15 3d bd a3 1e bd
       0.0566822 -0.034516662 0.03648467 -0.03873037
000380 84 1b 8f 3d 08 4b 91 3d c2 62 08 3d 19 9b c1 3d
       0.0698767 0.07094389 0.033297308 0.09453411
000390 2f bb 50 3d 0d ea 3e 3d e0 2a 63 bc 09 06 4d be
       0.050959762 0.046609927 -0.013865203 -0.20021833
0003a0 ad fc 1f 3d 91 05 de bd a1 66 6d 3c 7c 08 cc bd
       0.03905933 -0.108409055 0.014489801 -0.09962556
0003b0 3c 42 5b 3d 06 de 76 3c c4 df b8 bd ed 41 37 bc
       0.053529963 0.015067583 -0.09027055 -0.0111851515
0003c0 46 1f 68 3d 60 d5 83 3b 62 39 d8 3d ae 68 99 be
       0.05667045 0.004023239 0.1055782 -0.29962677
0003d0 c3 44 34 3d 57 ab 3e bd d2 0b 6a bd 6c 09 83 bd
       0.04401089 -0.04655012 -0.05714018 -0.063982815
0003e0 3c e5 de bd d6 b6 d9 bd cf 09 45 3b 5e ef a4 3d
       -0.10883567 -0.10630576 0.003006566 0.08053468
0003f0 72 91 92 3d a0 c0 36 3d 42 32 d2 3d ed 2a ea bd
       0.07156648 0.044617295 0.10263492 -0.11433969

layers.3.bias f4 [32]
000000 18 55 71 3e 9d c4 03 3e f7 f7 51 be 7b 1c 8b 3d
       0.23567617 0.12867971 -0.20504747 0.067925416
000010 4a c7 d4 3d 6e 51 29 3e dc 55 33 be ee f5 c9 3e
       0.10389574 0.16534969 -0.17513222 0.39445442
000020 0f e5 ec bc b7 4b 66 3e 49 4a 44 39 31 85 e4 bd
       -0.028917817 0.2248982 0.0001871969 -0.11158217
000030 26 29 ae 3d 3e 35 0f 3e 66 3e a6 3c 64 c6 5d 3e
       0.08503942 0.13985154 0.020293426 0.21657711
000040 bc 4c 9e ba 45 7b d4 3d 82 4a 42 3e 3f 02 61 3b
       -0.0012077312 0.10375074 0.18973735 0.0034333614
000050 a1 43 a1 3c fd 7e 5f 3d 87 94 65 3e 22 78 64 3e
       0.019685568 0.054564465 0.2241994 0.22311452
000060 b0 4c 40 bc ac 33 b1 3e 27 23 67 3c 99 68 77 3e
       -0.011737034 0.34609735 0.014107502 0.24160995
000070 d3 ef ff bc 44 4e 93 be 73 62 61 3d 25 6d 90 3d
       -0.031242287 -0.2877065 0.05502553 0.07052068

layers.6.weight f4 [16, 32]
000000 ae 2a 50 3e 18 6d 2e 3e 13 da 0c 3c 82 45 f5 3d
       0.20328781 0.17033803 0.008596915 0.11976148
000010 7d 05 a0 3d 5c 92 10 3d e0 fb ca 3d b5 24 62 3e
       0.07813547 0.03529583 0.099113226 0.22084315
000020 86 09 10 bf cb 37 6b bc 8f 99 b5 bd 2c 75 9b 3d
       -0.5626453 -0.014356564 -0.088671796 0.07590708
000030 90 5d d7 be 8d b3 b7 3d 64 ac e8 be 11 ad 78 3e
       -0.4206357 0.089697935 -0.45444024 0.2428477
000040 b5 be d4 be 83 ac 80 3e ed 89 06 bf 20 59 bf 3d
       -0.41551748 0.25131616 -0.5255421 0.09343171
000050 ab 6d 10 3e 51 e4 ee 3b bc 20 cf 3c 7c dd c4 3e
       0.14104335 0.007290401 0.025284164 0.3845023
000060 cf d6 d1 be 93 ea 35 3e 25 dc 65 3e 22 7e 49 3e
       -0.40984198 0.17765264 0.2244726 0.19677022
000070 a6 cb a1 be a1 d2 b3 bd 0b a9 de bd 10 05 69 be
       -0.31600684 -0.08780409 -0.10872086 -0.22755837
000080 72 73 7c 3e 9c 3e 8e bc 37 bf 3c 3e 43 e5 cc 3d
       0.24653414 -0.017363839 0.18432318 0.10004666
000090 13 12 0a 3e 07 c2 88 3e ff 41 a6 3d 89 5c 8d 3d
       0.13483457 0.2671053 0.081180565 0.06902415
0000a0 cf 46 03 bf e5 69 c6 3d de 6c d5 bd 20 38 50 bd
       -0.5127992 0.096881665 -0.104211554 -0.050834775
0000b0 51 75 66 be 5b e0 7c 3e 8d 4c f6 be 90 4f 4b 3e
       -0.2250569 0.2469496 -0.4810528 0.1985457
0000c0 19 f4 9b be b6 46 ac 3e a1 fc eb be 09 5d d1 3d
       -0.3045967 0.33647698 -0.46091178 0.10222823
0000d0 8c ff 17 3e 79 0f 80 3b d2 fa 36 3e 48 e9 92 3e
       0.14843577 0.0039080945 0.17869118 0.28693604
0000e0 3d 98 18 bf 52 34 09 3e 6c 41 38 3c 72 ef f0 3d
       -0.596073 0.13398865 0.011246067 0.117644206
0000f0 63 c8 92 be ce b8 0b be bc ab 34 3c f3 25 4d 3c
       -0.28668508 -0.13644716 0.011027273 0.012521255
000100 0d f6 f6 3d d5 12 5f be fd 8a 8f be 83 28 c1 bc
       0.12058649 -0.21784528 -0.28035727 -0.023578888
000110 01 80 6c be 67 5e 3d bd 2d 1b 02 be f8 6e e5 3d
       -0.23095705 -0.046232607 -0.12705679 0.11202806
000120 c4 f0 44 3e 2f 3b 5a 3d 2b f2 9c 3e 18 0a b1 be
       0.1923247 0.053279098 0.3065351 -0.34578013
000130 b9 51 78 3e 50 8d 00 bf 06 4b 40 3e 9f 81 18 be
       0.24249925 -0.50215626 0.18778619 -0.14893197
000140 da cb ac 3e 27 29 21 3d d1 3c 78 3e 61 8a ca be
       0.33749276 0.039345887 0.2424195 -0.395587
000150 c9 cd 94 be 06 ac 80 3e 9e e1 8d 3e 5b e3 40 be
       -0.29063252 0.25131243 0.27711195 -0.18836729
000160 37 8a 1e 3f ff 4d 64 3e 66 95 d0 3c 5e f4 97 be
       0.6192965 0.22295378 0.025461864 -0.29678625
000170 37 28 b1 3d 2b 23 35 3e f2 c5 83 be e5 f6 f0 3e
       0.086502485 0.17689197 -0.25736958 0.47063366
000180 72 1e 99 3d e9 f1 56 3e a4 db f4 3c d4 3d b6 3e
       0.0747651 0.20990719 0.029889889 0.35594046
000190 aa 8b 75 bc 9c 10 93 3d 65 4b e5 3d ce 4e ac 3e
       -0.014986912 0.07180902 0.11196021 0.33653873
0001a0 25 1f 9b be ed 57 12 3e 2e 91 64 be 6b 90 c8 3d
       -0.302972 0.14291354 -0.22321007 0.097931705
0001b0 04 0c c3 bd 1b 11 f8 3d c9 90 2e be ef 25 6d 3e
       -0.09523776 0.121126376 -0.17047419 0.23159002
0001c0 ae f4 92 be f9 c0 68 3e 13 c4 99 be 5d aa 33 ba
       -0.287023 0.22729863 -0.30032405 -0.0006853694
0001d0 29 15 08 3e 8d 1f 72 3c 6d 45 f9 3c 1d ed 34 3e
       0.13289322 0.01477803 0.030428613 0.17668577
0001e0 ff b6 57 be bc db 2a 3e 81 80 85 3e 71 d9 60 3e
       -0.21065901 0.16685385 0.26074603 0.21957947
0001f0 24 4c de bd e1 2d ea bc 27 a3 95 3d 87 da 14 bd
       -0.108543664 -0.02858633 0.073065095 -0.036341216
000200 c0 f9 5b bc ae 8c 96 be a7 b5 01 bf 30 50 4c be
       -0.013426244 -0.29404205 -0.50667804 -0.19952464
000210 ce 93 59 be 3c 69 1c bd 61 54 f4 be bd c2 df 3d
       -0.2124779 -0.038186297 -0.47720626 0.10925815
000220 3b 58 6c 3d 4b 09 a0 bd 39 6f bd 3e 5a 2e 14 bf
       0.05770133 -0.078142725 0.3699892 -0.57883227
000230 b5 eb ea bb 86 a6 e8 be 73 b0 a0 3d fd 7d ef bd
       -0.0071692117 -0.45439547 0.07846155 -0.11693952
000240 20 1a bb 3e c5 25 d4 3d c2 8f 8e 3e 6f d2 ee be
       0.3654337 0.103587665 0.27844054 -0.46644923
000250 03 28 9b be 6c 7c fe 3d 13 bd a8 3e dc 57 b7 bd
       -0.30303964 0.12426075 0.32956752 -0.08952305
000260 37 1f 38 3f ae 31 c5 3c ac f0 80 3d 88 9f bd be
       0.7192263 0.02407154 0.062959045 -0.37035775
000270 86 39 a5 3e 1b 7b 93 bd e1 8a 3f be 1f f0 a2 3e
       0.3227045 -0.07201215 -0.18705322 0.31823823
000280 3f 4e 3e 3e 68 09 72 3e f0 37 83 3e 5f fb 1f 3e
       0.18584536 0.236364 0.25628614 0.15623234
000290 d9 22 ed 3d 8c 8b 8d 3e 83 ec a1 3d 01 39 c3 3d
       0.11578912 0.27645528 0.07906439 0.09532357
0002a0 74 c5 a0 be 2e 58 8e 3d ae 7b bf bd 1d b1 48 3d
       -0.31400645 0.06950413 -0.09349762 0.048997033
0002b0 63 a2 a1 be 13 16 b7 3c 17 2a 68 be de b4 5b 3e
       -0.31569204 0.022349393 -0.22672306 0.21455714
0002c0 d2 ca 99 be 7c 6a 39 3e 6f a1 0a bf 08 5d 8a 3c
       -0.30037552 0.18107027 -0.5415258 0.016890064
0002d0 61 02 09 3e 6a f4 35 bd c9 ec 04 3e ac 40 cd 3e
       0.13379814 -0.044422545 0.12980951 0.40088403
0002e0 b1 22 d2 be a3 e3 28 3e 45 d1 c4 3d ab 27 b3 3d
       -0.41042092 0.16493087 0.096102275 0.087478004
0002f0 2f 52 78 be 58 ee 44 3b 32 3a 6c 3d 50 f5 19 be
       -0.242501 0.003004929 0.057672687 -0.15034986
000300 b8 a7 1e 3d 77 59 32 be 57 20 b7 be d6 39 1b be
       0.038734168 -0.1741694 -0.3576686 -0.15158781
000310 d7 5f 23 be 25 aa 2f 3b 46 4a cf be 55 6d 47 3d
       -0.15954529 0.0026804295 -0.40486354 0.04868825
000320 d3 58 3c 3e 85 d0 b2 bd 2d c2 88 3e 98 3e 9e be
       0.18393259 -0.08731178 0.26710644 -0.3090713
000330 c5 2c 41 3e 8e 38 ed be 8e 3c 2d 3e 71 1c 26 be
       0.18864734 -0.4633221 0.16917631 -0.16221787
000340 bd 24 a1 3e fc 76 e7 bc b9 53 e7 3d 46 8e b2 be
       0.31473342 -0.028254978 0.11295266 -0.3487417
000350 2a 72 45 be 3d e9 61 3e 90 f4 3e 3e c6 0c d1 bd
       -0.19281831 0.2206163 0.1864798 -0.102075145
000360 8f e7 49 3f 1c 27 b0 3d 3a 46 39 be 98 e0 8e be
       0.78868955 0.086012095 -0.18093196 -0.27905726
000370 73 1c f3 3d 25 b9 34 be 69 90 14 be 13 ea 5f 3e
       0.11870661 -0.17648752 -0.14508213 0.21866636
000380 37 4a 32 3e 09 f5 fd bb 85 ac b2 3d 71 38 8d 3e
       0.17411123 -0.0077501577 0.08724312 0.27582124
000390 51 b4 f8 3c 20 43 18 3e fb 0e 61 3d e5 63 0d 3e
       0.030359419 0.14869356 0.054945927 0.13807638
0003a0 68 95 c3 be bb 6b dc 3c e9 ea 98 bd dd dc 8c 3d
       -0.38199925 0.026906839 -0.074666806 0.06878064
0003b0 d2 05 00 bf c4 70 b2 3c c2 12 d2 be c0 90 6d 3e
       -0.5000888 0.021782286 -0.41029936 0.23199749
0003c0 63 08 15 be c6 fe 64 3e 6d 1a f6 be a7 d1 0c 3e
       -0.1455398 0.22362813 -0.48067036 0.13751851
0003d0 79 26 13 3e c2 26 02 bd 67 43 2b 3e 2a d3 9e 3e
       0.14370145 -0.031775244 0.1672493 0.3102048
0003e0 0c 93 f0 be ef ab 03 3d 41 aa 55 3d 1f 97 0d 3d
       -0.46987188 0.03214639 0.05216432 0.03456795
0003f0 4e 2a 54 be b6 c3 28 bc 62 f4 7d bd c7 aa 2b be
       -0.20719263 -0.010300567 -0.06200064 -0.16764365

layers.6.bias f4 [16]
000000 2e 5e eb 3e 3e 46 ec 3e 2d 53 18 3d 4e 0c 99 3e
       0.4597029 0.4614734 0.037188698 0.298922
000010 71 7a 94 3e 88 a0 ed 3e 7e 7d 62 3e 6b 11 fc 3e
       0.28999665 0.46411538 0.22118184 0.4923204
000020 59 9e 83 be 21 30 1a bd ca 5a 0e 3f 48 2e ed 3e
       -0.25706747 -0.037643556 0.55607283 0.46324372
000030 84 72 03 3e cd a4 98 3e 13 04 4d 3e 3e 71 e6 3e
       0.12836653 0.29813233 0.20021085 0.45008272

layers.9.weight f4 [1, 16]
000000 08 3a f0 3e 84 24 cd 3e 48 29 d0 be d3 cb cc 3e
       0.46919274 0.40066922 -0.40656495 0.39999256
000010 48 6e 4a bf 5e a3 e6 3e a9 39 20 bf 56 ff 05 3f
       -0.79074526 0.45046514 -0.6258798 0.52342737
000020 e0 c3 82 be 67 9e 93 be 03 c3 45 3f 1e 3f a3 3e
       -0.25540066 -0.2883179 0.7725069 0.31884092
000030 10 74 dd 3e b7 96 36 bf be 30 16 bf 7f e5 0c 3f
       0.4325261 -0.7132372 -0.58668125 0.55037683
