models/Delete/antikaon.pt (torch, 18905 bytes, 7 tensors)

layers.0.weight f4 [64, 19]
000000 50 8d 25 3f aa db c5 3e ab 6f 8c be 3b c0 36 3e
       0.6466875 0.38644153 -0.27428946 0.17846768
000010 df 64 a9 bc 5a ea f0 3d 67 17 5e 3e 05 4f ce bd
       -0.020677982 0.11763449 0.21688615 -0.100736655
000020 b1 d1 9b bd 5b 2b a7 3d ec d4 08 3f af 91 7d be
       -0.07608355 0.08162566 0.53449893 -0.24762605
000030 2a 46 39 bd f3 77 29 be c4 6f 52 bd 5e da 16 3c
       -0.04523293 -0.16549663 -0.05137612 0.009207336
000040 b0 54 ce 3d f2 6c 4f be 55 a1 03 3d 30 f6 44 3f
       0.100747466 -0.20256403 0.03213628 0.7693815
000050 8b 92 9d 3e e4 b3 ec 3b 97 11 00 bf c1 bf d2 3f
       0.30775866 0.007223593 -0.5002684 1.6464769
000060 30 99 13 3d 18 e5 8f bc 81 34 2b bd 8b 1e 96 bd
       0.036034763 -0.017565295 -0.04179812 -0.07330044
000070 18 4f 6e b9 96 f3 58 3f 26 9c 5d 3e 2d bc 15 3c
       -0.00022726913 0.8474668 0.21641597 0.009139103
000080 d0 b0 cd bc 1a 69 b7 bd 90 92 94 3b 88 10 04 3d
       -0.025108725 -0.089555934 0.004534073 0.032242328
000090 61 ca 24 be 1c 7f 58 bd 01 35 11 3e 20 4f d7 bc
       -0.16092826 -0.052855596 0.14180376 -0.026282847
0000a0 93 6b e6 bd 00 0e 78 ba 0a 31 f5 3d 6b d5 10 be
       -0.11250987 -0.00094625354 0.11972244 -0.14143912
0000b0 a5 e7 29 be 2e 87 38 be c7 5d 19 3e ea 7c 9c 3d
       -0.16592272 -0.18020317 0.1497718 0.07641013
0000c0 34 03 41 3d 78 e0 eb bc e0 a4 89 bc 6d 1a 4c 3e
       0.047122195 -0.028793558 -0.016802251 0.19931956
0000d0 af 8b 0f 3e 86 86 d8 bd 90 10 58 3c e0 be 29 3c
       0.14018129 -0.10572533 0.013187543 0.01036045
0000e0 80 ab 33 bd 9a b1 52 be 2b 4a 96 be c9 c0 f5 bc
       -0.043864727 -0.20575562 -0.2935346 -0.029999154
0000f0 46 42 78 3d 1c a7 3f bd 52 b3 89 bd 92 85 92 be
       0.06061008 -0.046790227 -0.06723656 -0.2861753
000100 11 bd 12 be 28 be 6a 3e a0 12 4c be 1e 59 84 3f
       -0.14329936 0.22924101 -0.1992898 1.0339696
000110 63 65 cf 3c 95 f1 63 3e 38 7a 91 bd 71 db f2 bd
       0.0253169 0.22260125 -0.071033895 -0.118582614
000120 6d 0e e2 3b 6b 64 60 3e 04 b0 fe bc be 22 91 3d
       0.0068986923 0.21913306 -0.03108979 0.07086705
000130 59 03 00 3e 7e a6 c9 be af ab be bd 84 49 20 be
       0.12501277 -0.39384836 -0.0931009 -0.15653044
000140 ca 99 93 3e 5b d7 50 be 07 34 eb be c3 83 11 be
       0.2882827 -0.20394652 -0.4593813 -0.1421042
000150 70 13 0b be f4 a9 a5 bc 33 47 21 3e bd 96 09 be
       -0.13581634 -0.020222642 0.15749817 -0.13436408
000160 57 b7 0f be 29 50 ab bd 1b 2e 7f 3e f7 cd 32 3c
       -0.14034782 -0.08364899 0.24919932 0.010913364
000170 70 f5 83 3c 9e 71 31 be 8a 82 29 ba c7 22 67 be
       0.016108245 -0.17328498 -0.000646629 -0.2257186
000180 e7 0b 0f 3e 3a 66 a1 3d cc db 34 bd 00 9b e2 3a
       0.13969384 0.07880826 -0.044154927 0.0017288625
000190 94 3b 5b bd c0 f3 39 be ce 0a ce bd 80 2e a1 bb
       -0.053523615 -0.1815939 -0.100606546 -0.0049188733
0001a0 5a a2 cb bd af 6a 3d 3e d8 04 05 bd 2e 17 16 be
       -0.099430755 0.18497728 -0.032475322 -0.1465728
0001b0 b2 71 c0 3d 59 d2 e9 bd a0 c7 15 be 5e a8 fd bd
       0.09396686 -0.11417074 -0.14626932 -0.12385629
0001c0 2e 5b 9c 3d 59 bd 2c 3e 24 90 27 be e4 35 cb 3d
       0.07634579 0.16869105 -0.16363579 0.09922388
0001d0 ec e0 01 be a5 44 5c be 67 62 41 3e 95 5d 16 be
       -0.12683457 -0.21510561 0.18885194 -0.14684136
0001e0 cd c3 f0 3d 32 05 26 3e 25 74 b3 3d 8d b2 4f 3e
       0.11756096 0.1621292 0.08762387 0.20282955
0001f0 06 27 44 be 2d 2d 71 bd 61 04 9e bd 39 8c f8 3c
       -0.19155511 -0.058880974 -0.07715679 0.0303403
000200 c1 a0 7d bd a6 d1 ff bc bd 93 f9 bd e3 2e 20 be
       -0.061920885 -0.031227898 -0.12186382 -0.15642886
000210 b1 c9 d9 3c ef 02 33 3e 88 ec b7 bc c0 5d cf bd
       0.026585432 0.17481588 -0.022451654 -0.10125303
000220 21 c6 54 3e 7e fb 1b be 48 79 e4 3c 34 c9 f8 bd
       0.20778705 -0.15232655 0.027889863 -0.121477515
000230 38 77 d9 3c 19 39 4f 3e 3b f3 35 be 14 1d 00 bd
       0.026546106 0.20236625 -0.17768566 -0.03127773
000240 be b6 dc 3d 56 d9 ad bd 73 ea 64 be 78 bc ec bc
       0.10777043 -0.08488719 -0.2235506 -0.028898463
000250 1c 51 60 be c4 93 15 3d 8b c5 5b 3e 08 77 dc bc
       -0.21905941 0.036517873 0.21462075 -0.026912227
000260 6a 93 f0 bd 6d 35 16 bc 62 29 d2 3a b2 f5 2e bf
       -0.11746867 -0.009168011 0.0016034062 -0.6834365
000270 e8 a0 cd 3f 62 c2 0a be ea c4 b2 be 20 05 29 bd
       1.606473 -0.13550714 -0.34915859 -0.041264653
000280 70 05 87 bd fb b1 6f bc 08 a1 13 3f e5 8d 62 3d
       -0.06592834 -0.014629836 0.5766759 0.055311102
000290 9c be 82 3d 19 01 7e bc a6 44 bb 3d db 3e f2 3b
       0.06384012 -0.015503191 0.09143953 0.007392747
0002a0 ad 10 b5 3d 89 57 6b 3d 66 de 7b 3c 6c 74 30 3d
       0.08841071 0.057456527 0.015372848 0.04307978
0002b0 46 8f ae 3d 9d 37 0d 3e 40 63 d2 3b 68 99 5d be
       0.08523421 0.13790746 0.006420523 -0.21640551
0002c0 a8 ec c8 3c 0c 09 07 3d 6b 9f 42 3e 64 2e 0c 3d
       0.024526909 0.032967612 0.19006126 0.03422393
0002d0 f4 20 03 be 90 ca 1e be a8 13 08 bd 73 98 02 3e
       -0.1280554 -0.15506959 -0.03322187 0.12753467
0002e0 95 a7 43 be 0e 0d 9e 3d 84 59 45 be fe 3b 02 be
       -0.19106896 0.07717334 -0.19272429 -0.12718198
0002f0 2c 76 01 be 80 e3 8f 3c 55 8d 29 3e 90 8f 9c 3d
       -0.12642735 0.017564535 0.1655782 0.0764457
000300 12 2d 2e 3d ea 0d 5c 3e c8 4e c2 3e 68 1e 8e bf
       0.04252345 0.21489683 0.3795073 -1.1103029
000310 ef 30 39 bf 6e cd 3e 3a 0d 42 6a 3d 76 85 2c 3e
       -0.7234029 0.0007278536 0.057191897 0.16847786
000320 95 1e 54 3f c8 92 42 3d c0 71 64 3d 5e 47 52 bb
       0.82859164 0.047503263 0.055772543 -0.0032085995
000330 ee 10 51 bd de d6 ab 3b 3b 58 15 be d3 a6 21 be
       -0.051041536 0.00524412 -0.14584439 -0.15786295
000340 0f 95 2c 3d 69 b8 90 3e 2d ea 8b be 29 20 37 be
       0.04213434 0.28265694 -0.273271 -0.17883362
000350 93 2f 6e 3e d7 33 5e 3e 6f 4d fc be 60 03 c5 be
       0.23260336 0.21699463 -0.49277827 -0.38479137
000360 18 cb 58 3c 1d 7d 42 3d 14 1e 91 bd 56 21 1f 3f
       0.013232015 0.0474826 -0.07085815 0.6216024
000370 dc 9c be bd 7e 1a 50 bd 98 fa d5 3d 06 0f bb 3d
       -0.09307262 -0.050806515 0.104481876 0.09133725
000380 4f 72 6e 3c 46 20 0b 3e a9 e8 36 be fb c0 14 be
       0.0145536205 0.1358653 -0.1786219 -0.14526741
000390 98 7e 3e be 4d 71 0b 3e 6c c7 7d 3d 4f fb 13 3e
       -0.18602979 0.1361744 0.06195776 0.14451335
0003a0 dc ec a0 bd 32 d2 f9 bd 46 e8 1f be fe 5d c5 bd
       -0.07857677 -0.12198295 -0.15615949 -0.09637068
0003b0 ba 6a ad bd 1f 81 4e be 0d fd 13 3e cb cd 00 3e
       -0.08467622 -0.20166443 0.14452 0.12578504
0003c0 f8 da 0b be f8 d4 bf bc 02 48 d1 3d e8 f3 a2 bd
       -0.13657749 -0.023416981 0.102188125 -0.07956678
0003d0 ac 65 4f 3d 0f 86 0d 3e 71 50 37 3e 60 b2 77 3c
       0.05063407 0.1382067 0.1790178 0.0151182115
0003e0 18 b1 33 bd c2 41 90 3d 4a 59 b7 3d 5c 28 81 bd
       -0.04387006 0.07043792 0.089525774 -0.06306526
0003f0 73 5a d8 bd 38 68 fb bd 80 4b 84 bd bd 96 dc bd
       -0.10564127 -0.122757375 -0.06459713 -0.107709385

layers.0.bias f4 [64]
000000 f4 a0 17 be 36 cc 6c be 5a 76 da 3d ec d2 1d bd
       -0.14807492 -0.23124775 0.10667105 -0.03853123
000010 86 cc 94 be 60 05 58 bd a9 a1 e4 bd f4 8a 3e bd
       -0.2906229 -0.0527395 -0.11163647 -0.046519235
000020 b9 28 7f 3d fe f7 cb bd 29 c8 d7 bd 7f a4 92 be
       0.062294696 -0.0995941 -0.105362244 -0.28641126
000030 39 83 31 3e b6 0a bd 3d 56 fb 0f be 0e 5b ef bd
       0.17335214 0.092305586 -0.14060721 -0.11687289
000040 c7 a0 41 be 3f 7b 59 3e 5b 89 d4 bd 33 a3 4e be
       -0.18908988 0.21238421 -0.10377761 -0.20179443
000050 7f 4c 0e 3e 93 bd 2c 3e 89 9d d7 bd ae 39 ce bd
       0.13896368 0.16869192 -0.10528094 -0.10069595
000060 1f 9f cb 3d e8 f1 d6 bd 9d bb 61 be 2d 1b 83 be
       0.09942459 -0.10495359 -0.22044225 -0.2560667
000070 6f 5e 46 be f4 78 34 be a9 aa 04 bd bd 6a 46 bd
       -0.19371961 -0.17624265 -0.032389317 -0.048441637
000080 43 4f a9 bd 3e a2 c5 3d 47 33 11 be e7 73 62 3e
       -0.08267071 0.09650086 -0.14179717 0.22114526
000090 6b 5d 32 3e 85 7e 80 be 6d 4b 5a be a4 95 6b 3d
       0.17418449 -0.25096527 -0.21317835 0.057515755
0000a0 4a 7f 43 3d a8 5d 3a 3d 25 ae 18 bc 79 4f e3 3d
       0.047728814 0.045499474 -0.009318863 0.110991426
0000b0 c0 2c 8a bc 6c 54 c9 bd d2 4d 09 be 85 56 22 be
       -0.016867042 -0.09830555 -0.13408592 -0.15853317
0000c0 11 09 a6 bd ce 8a 46 be f1 de ca 3c 90 48 9a be
       -0.08107198 -0.19388887 0.02476451 -0.30133486
0000d0 83 4a 88 be 00 70 89 ba a1 b1 0e be 65 a4 d3 bc
       -0.26619348 -0.0010485649 -0.13934948 -0.025835225
0000e0 92 48 c6 bd 69 85 3b 3e da 21 8a 3d 75 77 3b 3e
       -0.096818104 0.1831261 0.06744738 0.18307288
0000f0 ae a4 42 be 5a 32 af 3d 8d 57 40 3e 11 c0 62 3e
       -0.19008133 0.08554526 0.18783398 0.2214358

layers.3.weight f4 [32, 64]
000000 3a 9b 88 3d f0 83 e5 bd b0 13 0c bc 46 b7 f1 bc
       0.06670232 -0.11206806 -0.008549616 -0.029506337
000010 8c 2d da bd a8 d1 50 3d 63 e7 89 bd 00 19 9b 3d
       -0.106532186 0.050981194 -0.06733587 0.07573128
000020 a8 56 16 3c 08 75 02 3d db 36 a6 3d b0 c9 81 3d
       0.009175934 0.03184989 0.081159316 0.06337297
000030 8c 94 1a bd ba 49 fd 3d de bc 94 bd b3 41 54 3c
       -0.03773932 0.12367578 -0.07262586 0.012955117
000040 ab 56 a2 be 90 76 9f 3d 61 27 c0 ba 30 9a 27 3d
       -0.31706747 0.07786286 -0.0014660173 0.04091853
000050 fe 05 ce bd 13 ca 09 bf a0 49 80 3d a8 ef 99 3c
       -0.10059737 -0.53823966 0.06264043 0.018791035
000060 a6 47 e9 be a0 90 87 bd 60 d2 30 3c 70 f0 9a be
       -0.45562476 -0.06619382 0.010792345 -0.30261564
000070 ea 98 f3 3d cc d4 ef 3c 38 f8 49 be 50 ac 4d 3d
       0.118944004 0.029276274 -0.19723594 0.050213158
000080 ba ee 26 3d 18 17 2b bd fa 0a 91 3d a8 c7 03 bd
       0.04075501 -0.04177007 0.07082172 -0.03217283
000090 c8 22 9e bc 94 42 58 3d ab c3 b3 3d bc e4 53 bd
       -0.019303694 0.05279787 0.08777555 -0.05173181
0000a0 5d 09 96 3c d9 53 03 bc f2 99 2f bf 6f c9 d7 3c
       0.018315012 -0.008015596 -0.68594277 0.026341168
0000b0 ee c2 87 3d cf eb 29 bf 0d d8 ad be f2 92 aa bd
       0.06628977 -0.6637544 -0.33953896 -0.08328809
0000c0 23 7e 93 3d b8 a3 bc 3d c2 89 92 bd ed 34 66 3c
       0.07201793 0.092109144 -0.071551815 0.014050704
0000d0 9b 61 3e be 74 0d 55 bd 87 61 88 3d 14 cf 11 bd
       -0.18591921 -0.052014783 0.06659227 -0.035597876
0000e0 b8 fc 58 bd 80 da 8f bb 48 41 2f 3d 3a 06 9c bd
       -0.052975386 -0.004390061 0.042786866 -0.07618375
0000f0 30 ae f3 bd 0f cb fb be 58 83 0e bd a7 cd 07 bf
       -0.11898458 -0.4917836 -0.034793228 -0.53048176
000100 44 4b 36 3c 45 f8 0b 3d 62 02 b2 bd d6 00 dd 3d
       0.011126343 0.034172315 -0.08691861 0.10791175
000110 31 58 58 3c aa db 9d 3d 04 b9 59 bd 30 3c 30 bd
       0.01320462 0.07707913 -0.05315496 -0.04302615
000120 70 30 7b 3d 64 bf 1b bd 84 61 a2 3d 08 8e d0 39
       0.06132549 -0.03802432 0.07928756 0.00039778673
000130 a6 a5 bc 3d 0c 75 3a bd c4 fe 48 bd fd 41 18 be
       0.092112824 -0.04552178 -0.04907109 -0.14868923
000140 14 42 11 3f 38 d7 8a 3d 66 9d e3 bc 5f 1e 28 3d
       0.5674145 0.06779331 -0.027785014 0.04104459
000150 28 6b 76 bd 56 39 59 3f 79 dc a8 bd 58 f3 d7 3c
       -0.060160786 0.8485311 -0.08245177 0.026361153
000160 54 95 e0 3e 98 81 ab bd 44 ba 2d bd 26 b0 97 3e
       0.43863928 -0.083743274 -0.042413965 0.29626578
000170 18 59 bd 3c 02 0e 43 bc 01 1f 32 be 3b d8 98 3e
       0.023113772 -0.011905195 -0.1739464 0.2985247
000180 f6 67 86 3d f0 5d 13 3c 16 06 88 bd 2a 28 f2 3d
       0.06562798 0.008994564 -0.06641786 0.11824067
000190 74 62 49 bd da 05 6d bc c9 c7 96 bb e4 87 a0 3d
       -0.049166158 -0.014466727 -0.004601453 0.07838419
0001a0 20 0e 0e bd 3d 0f a3 bc f6 ab ea 3e c3 45 73 bd
       -0.03468144 -0.019904727 0.4583432 -0.0593927
0001b0 00 c2 0f 3a 1b 68 b5 bd e9 97 13 3f 55 ad 1a bd
       0.00054839253 -0.08857747 0.5765367 -0.03776296
0001c0 fd 1d d0 3d f0 71 e6 3c 83 2a 30 3d a0 50 c7 3b
       0.1016197 0.028130502 0.043009292 0.0060826093
0001d0 83 4c 5b be 00 6d 14 ba 0b 30 38 3d 71 c6 8f 3e
       -0.21415906 -0.0005661994 0.044967692 0.28081086
0001e0 a0 54 4a bd 6c a1 f9 bd 3c 00 f9 bd 7e 6b 8b 3d
       -0.04939711 -0.12188992 -0.12158248 0.06807612
0001f0 ce 87 ad 3d de a2 03 3f 50 2d bb 3d 10 0b cc 3d
       0.08473168 0.5142039 0.09139502 0.099630475
000200 36 21 94 3d 37 1e c9 3d 22 be c3 3d 88 29 17 be
       0.07232897 0.09820216 0.09557749 -0.14761937
000210 2b 5d a3 bd 16 47 b4 3d 30 ba de bc d0 f1 66 3c
       -0.07976755 0.08802621 -0.02718839 0.0140957385
000220 d0 63 04 3e 8c 2e ff bd a1 41 3b be c9 35 a9 bd
       0.129287 -0.1246005 -0.18286754 -0.08262212
000230 4a b0 f3 bd c8 01 5e 3d 54 14 d7 3d 14 97 86 3d
       -0.11898859 0.054200917 0.10501924 0.065717846
000240 82 96 22 bf dc c7 31 bd 5e 58 ea bd f8 4d b5 3e
       -0.63510907 -0.04340349 -0.11442636 0.35411048
000250 8a 5e c9 3d 11 ae 7a be 88 43 11 3d ec ae 60 bd
       0.09832485 -0.24480464 0.035464793 -0.05485432
000260 2d 2a 50 be a8 a1 a0 bc a7 fc d8 3c e1 54 96 be
       -0.20328589 -0.019608334 0.026487662 -0.29361632
000270 20 3f a1 3d 75 da 9a 3c 70 51 e9 3d 49 5d 42 bd
       0.07873368 0.018902997 0.11392486 -0.047452245
000280 fa ee 11 be 68 22 9d bd 50 e8 0c bc 20 e4 38 bd
       -0.14251319 -0.07672578 -0.0086003095 -0.045139432
000290 60 b8 7b bc 50 9b 01 bd 48 8d 2c bc 18 d8 a0 3d
       -0.015363783 -0.03164226 -0.010531731 0.078537166
0002a0 f7 1a ee 3d e3 f9 5a bc f1 5d 46 3e a9 16 d8 bd
       0.11626237 -0.013365242 0.19371773 -0.10551197
0002b0 10 7b 15 bc 51 51 bb 3d e4 35 5c be b9 a2 62 bd
       -0.009123579 0.09146369 -0.21504933 -0.055330966
0002c0 dd d4 4f 3b e0 4e c1 bd da e1 8f bd 2f 21 16 be
       0.003171257 -0.09438872 -0.070255 -0.14661096
0002d0 69 fb 08 be 8a ab 95 bd 23 b8 da bd 66 c7 8d be
       -0.13377155 -0.07308109 -0.106796525 -0.2769119
0002e0 00 fe 95 bc c0 f9 00 bd ac 0f a2 bd 98 c5 b0 bc
       -0.018309593 -0.03148818 -0.079131454 -0.021578595
0002f0 64 d9 42 bd c9 5f 06 be 64 42 bf bd 73 0d 3f 3e
       -0.0475706 -0.13122477 -0.09338835 0.18657474
000300 3b 77 d5 3c 5a 4f 01 be 10 b1 25 bc 99 88 c1 bd
       0.02605783 -0.12627926 -0.010113016 -0.09449882
000310 58 e7 b5 3d 70 fe 72 bd 58 4b fc 3c 2a 7f 85 3d
       0.08882016 -0.05932468 0.030797645 0.06518395
000320 ae 0c 65 3d 40 11 7a 3b 1b a3 c8 3d 6e c2 79 bd
       0.055920295 0.0038157254 0.09796735 -0.06097644
000330 18 26 a1 3c 08 a2 cb bc f2 87 95 3d 7b d1 d7 3a
       0.019671485 -0.024857536 0.0730132 0.0016465628
000340 a9 2c 0a bf f6 3f c1 bd 82 85 f8 3c c9 64 7a bc
       -0.53974396 -0.09436028 0.030337099 -0.015282818
000350 70 be 3d bc 61 2e 4f bf 20 6e 29 bc 7e 37 d2 3d
       -0.011581048 -0.80930144 -0.010341197 0.102644905
000360 a6 64 33 bf e6 fb a6 bd c1 0b 2d 3d 8e 07 07 bf
       -0.7007545 -0.081535146 0.042247538 -0.527459
000370 b4 d4 24 3d cd e9 e1 bc 3c 6e 03 be f3 a1 64 3e
       0.040241912 -0.027577305 -0.1283502 0.22327404
000380 07 f1 1b bd 48 fa cb 3d d0 e3 b3 3c bc 23 1c bd
       -0.03807166 0.09959847 0.021959215 -0.038120016
000390 d0 34 a5 3c 6a 99 b1 3c ad a0 4b 3d 74 a2 66 3d
       0.020166785 0.021679599 0.04971378 0.05630727
0003a0 16 b5 b5 3c e9 9a ed bc 2c 22 18 bf 24 17 ca bc
       0.022181075 -0.029004531 -0.5942714 -0.024669237
0003b0 34 3e 08 3d 03 ac 0b bf 17 60 29 bf 6e 58 a2 3c
       0.033262447 -0.54559344 -0.66162246 0.019817557
0003c0 27 77 59 3c 60 8c 3e 3d 64 bb 2e bd 88 49 03 3e
       0.013273037 0.04652059 -0.04265918 0.12821019
0003d0 07 65 e1 bd 30 e2 10 bd 66 3c 48 3d 46 04 f6 be
       -0.110055976 -0.03537196 0.048885725 -0.48050135
0003e0 cc 16 2f bd 58 ca ad bd 8c 89 af bd 5e a9 e2 3d
       -0.04274635 -0.0848586 -0.08571157 0.110674605
0003f0 54 05 e5 bd 42 8b 6c bf 10 46 c3 3d 35 37 e6 be
       -0.11182657 -0.9239999 0.09534848 -0.44963995

layers.3.bias f4 [32]
000000 63 fa 07 3d 4a 3d cf bd 46 3b 1a bd 1f f2 4a 3e
       0.03319777 -0.10119112 -0.037654184 0.19818924
000010 74 91 12 3e 51 c9 a4 bd 70 6e 45 3e 36 53 06 3e
       0.14313298 -0.080462106 0.1928041 0.1311768
000020 21 49 6e 3e 3c 52 df bd 3a ba 23 be 3d c8 5a 3e
       0.23270084 -0.10904357 -0.15989009 0.21365447
000030 dd 9d bf 3d 03 68 fb 3d 72 30 de b9 a3 2d 65 be
       0.09356282 0.12275698 -0.00042379234 -0.2238069
000040 80 39 57 be a4 42 99 bd ae 55 2f bd 94 d6 97 3e
       -0.21018028 -0.07483414 -0.04280632 0.29655898
000050 a5 14 84 bd 45 11 b3 3e cc b7 ee bd 19 4f 48 be
       -0.0644925 0.34974113 -0.1165615 -0.19561423
000060 03 17 44 3e 7e db 64 3d 40 05 0b be 93 72 4e 3d
       0.19149403 0.055873387 -0.13576221 0.050402235
000070 a3 e4 cd 3d ff fc da 3d 1e 96 30 3d 10 f0 0e bd
       0.100533746 0.106927864 0.043111913 -0.03489691

layers.6.weight f4 [16, 32]
000000 c3 e2 c0 bd 2b 56 ae 3e 22 20 0a be 8c 6d 37 be
       -0.09418251 0.34050116 -0.1348882 -0.17912883
000010 50 9b 03 be 34 63 b7 bd 2f 40 f0 3d 77 62 33 3e
       -0.12852216 -0.08954468 0.11730992 0.1751803
000020 20 2d 8e bd 02 01 0f bd 22 1b bb 3d 19 23 3d 3e
       -0.06942201 -0.03491307 0.091360345 0.1847042
000030 8f e7 4d 3c 95 75 bf 3c 4c 95 70 3e a9 52 37 3e
       0.012567415 0.023371497 0.23494452 0.17902626
000040 d8 49 30 3e 7b 20 62 bd d3 3e 61 3e 35 d4 42 3b
       0.17215669 -0.055206757 0.21996622 0.0029728536
000050 41 95 48 be be d6 e8 3c 20 c6 4c 3e cc 09 02 bd
       -0.19588186 0.02842271 0.19997454 -0.031747624
000060 4f 3c 08 3e 89 36 07 3f 76 21 b1 bd 99 31 8a bd
       0.13304256 0.5281759 -0.0864896 -0.06747741
000070 1d dd 14 bd b0 da c1 3d 93 10 29 3d 16 b5 11 3e
       -0.036343683 0.094655395 0.041275572 0.14229235
000080 d0 a9 bf 3e c5 6e 13 bf 9e 21 29 3e ca 7c 9c 3e
       0.37434244 -0.57590896 0.1651673 0.30563956
000090 4a 3a 32 3d 1d e1 96 bd 65 d1 50 3d c6 6f ba 3d
       0.04351262 -0.07367156 0.050980944 0.0910335
0000a0 01 6e a1 3e 35 c6 32 bf 21 b4 46 3e 2b 27 30 be
       0.3152924 -0.6983369 0.19404651 -0.17202441
0000b0 e2 30 69 3e f0 93 b8 3e 27 18 30 bf 14 de f4 bd
       0.22772554 0.36050367 -0.68786854 -0.119564205
0000c0 c4 ee 60 3d 3b 1d 37 bd d0 ff 00 bf 32 68 ed 3d
       0.054915205 -0.04470561 -0.5039034 0.11592139
0000d0 6f 2a 91 3e 5a 14 ef 3d 8d f5 38 be be 37 be bd
       0.28352687 0.11673804 -0.1806242 -0.09287976
0000e0 5c 20 a8 3d 48 d4 dd be 0a 41 78 be 83 ea ca be
       0.08209297 -0.4332602 -0.2424356 -0.39632043
0000f0 b0 83 e0 be c8 07 9c 3d 54 a6 ce be 9c 86 9b be
       -0.4385047 0.07618672 -0.40361273 -0.30376136
000100 6f 00 59 3c d6 17 cb 3e f9 46 82 3c c9 8d 20 be
       0.013244732 0.39666623 0.015902983 -0.15679087
000110 94 22 0e be 08 41 ec 3d 3a 5f 16 3e fb 50 c3 3d
       -0.13880378 0.11535841 0.14684764 0.0953693
000120 58 4f 38 be 71 91 c7 3e c9 69 a8 bc e0 7c 06 bd
       -0.17999017 0.3897815 -0.020558255 -0.032833934
000130 ae 3e d0 3c 09 4b da bc 27 68 26 3e 83 6e bf 3d
       0.025420513 -0.026647108 0.16250668 0.0934725
000140 18 b6 51 bd 38 3a 4e be 21 fc bd 3e 67 9f 04 be
       -0.05119905 -0.20139396 0.37106422 -0.12951432
000150 5a 03 08 be d0 e7 c1 3c d1 d7 e3 3d 58 83 db 3b
       -0.13282529 0.023670107 0.11125148 0.006699007
000160 dd ef f2 bb 11 c2 c7 bd ef bd 84 3e 5c 3e 33 bd
       -0.007413848 -0.09753812 0.25926158 -0.043760642
000170 e1 98 63 be a2 62 8b 3e d6 59 3b 3e 36 f5 68 3e
       -0.22226287 0.27223688 0.18295988 0.2274979
000180 ab 1e 8c be 5a 5b 83 3e 4c a7 21 be 3a 3c 06 bf
       -0.27367148 0.25655633 -0.15786475 -0.5243565
000190 f0 1a 8c 3e 17 a9 12 be ef 46 ba 3d ea 7a 8b bb
       0.27364302 -0.14322315 0.09095561 -0.004256596
0001a0 54 a8 67 be d7 d7 8b 3c bc 0a f3 bd 06 a9 9f 3e
       -0.22622806 0.017070694 -0.11867282 0.31183642
0001b0 f4 7c ea be 92 ea a4 be f0 af dd 3d c2 1c 03 bc
       -0.45798457 -0.32210213 0.10824573 -0.008002462
0001c0 56 78 84 3d f5 1d 87 be e7 76 43 3e 08 f9 f9 3d
       0.06468265 -0.26390043 0.19088326 0.12205702
0001d0 c0 22 11 bf 45 0c 2b 3e 66 f3 2f 3e 9a 6a 0e be
       -0.5669365 0.16703899 0.17182693 -0.13907853
0001e0 e4 e1 05 3e f5 8d e9 3e 5b 8e 02 be 0c 16 28 3d
       0.13074452 0.45616117 -0.12749617 0.04103665
0001f0 c7 f0 de 3d 3a fc 54 bd 0d 91 f9 3d c5 e6 19 3e
       0.108857684 -0.051998354 0.12185869 0.15029438
000200 6a b2 82 3e 3a 8b af be d3 1b 10 3e dc 21 0b 3f
       0.25526744 -0.3428591 0.14073114 0.5434854
000210 70 11 6f 3d 3a d1 54 be 9b de ac bc ea 24 75 3e
       0.05836624 -0.20782939 -0.02110224 0.23939863
000220 f0 6f af 3e 8e 17 48 be a5 af 30 bd 0e 1e 6f be
       0.3426509 -0.19540235 -0.043136258 -0.23351309
000230 04 1c d4 3e 0e 1e fc 3d d5 0e 48 be 6d 41 52 bc
       0.41427624 0.1231042 -0.19536908 -0.0128329815
000240 83 8e 9a 3c ca 07 4a 3e 0b 09 79 be a0 73 ec 3d
       0.018866783 0.19729534 -0.24319856 0.11545491
000250 04 f9 0b 3f bc 34 26 3e 4a b0 51 be ae 9c 1a 3e
       0.5467684 0.16231054 -0.20477405 0.15098831
000260 fc 77 65 bd 11 2c f1 be 21 66 03 be 7f 69 a9 bd
       -0.05602263 -0.47103932 -0.12831928 -0.08272075
000270 83 db 0f bf 27 d4 16 3e 3b d9 74 be 96 13 cb bd
       -0.56194323 0.14729367 -0.23910992 -0.09915845
000280 04 d5 a0 3d e2 d4 8f 3e 69 ea 91 3d 6c ab a5 bd
       0.078531295 0.28092104 0.07124788 -0.08089337
000290 44 e8 19 be 8e 43 56 3d 79 7c 06 3d d7 a6 84 3d
       -0.15030009 0.05231052 0.03283355 0.06477135
0002a0 12 a2 f2 bd 80 a4 f2 3d 67 95 fe 3d 32 13 a2 bd
       -0.11847319 0.11847782 0.1243084 -0.079138175
0002b0 d9 31 f0 3c 31 54 45 bd e1 38 c6 3e af df b8 3d
       0.029320644 -0.048175994 0.3871527 0.09027039
0002c0 0e 02 89 3e 0c 1e 76 bd 13 74 4a 3e 48 54 75 bd
       0.2675938 -0.06008725 0.19770841 -0.05989483
0002d0 aa d7 06 be d7 a6 30 bd b2 3f 0d 3e 83 b5 cf 39
       -0.13168207 -0.04312786 0.13793829 0.00039617353
0002e0 1c 75 e9 bd ea 8a 4c be e4 e9 18 3e fd 1e 9e bd
       -0.1139929 -0.19974867 0.14932972 -0.07720754
0002f0 62 b8 50 be 0e ab 75 3e 49 13 ec 3c 7e 90 87 3e
       -0.20382836 0.23991033 0.02881779 0.26477426
000300 0d 98 d4 be 27 f8 98 bd 75 6f b0 be 90 90 92 be
       -0.41522256 -0.07469206 -0.34460035 -0.28625917
000310 89 e6 6d 3d a8 9c 7d be 81 d2 ea bc c7 f2 65 ba
       0.058081184 -0.24766791 -0.02866483 -0.00087718334
000320 5c 2b db bd d0 2d 45 3e 7c af c3 be 52 4e 50 3e
       -0.107016295 0.19255757 -0.3821982 0.20342377
000330 60 b8 c6 be d3 c2 09 bf 1e e7 09 3e 75 99 0b 3e
       -0.38812542 -0.53812903 0.1346707 0.13632758
000340 a6 59 f4 ba 90 0d 84 be ff 03 a6 bd 9a 7d 7d 3e
       -0.001864244 -0.25791597 -0.08106231 0.24754944
000350 41 3b 10 bf a0 d4 1c 3e b9 83 ca bd c0 2b da be
       -0.56340414 0.15315485 -0.09888405 -0.42611504
000360 49 b8 22 3e ad b6 2d 3f 64 c5 f2 3b f1 33 2f 3e
       0.15890612 0.67856866 0.0074087847 0.17109658
000370 fe b0 6e 3e fa 48 92 be bb ef 98 3e 92 63 ed 3d
       0.23309705 -0.28571302 0.298704 0.11591257
000380 13 ed 8d be 07 8e 2e 3e cf d6 19 be d1 14 d3 be
       -0.27719936 0.17046367 -0.15023349 -0.4122682
000390 bc 35 b8 3d a5 ae 36 be e0 7c 36 3e b8 a5 f8 bd
       0.08994624 -0.17840059 0.17821074 -0.12140983
0003a0 aa 24 81 be 8e b9 34 3e dc 65 92 be c4 fd 95 3e
       -0.25223285 0.17648908 -0.28593338 0.2929517
0003b0 b6 74 9c be 7f cb 2c be a7 a9 b4 3e a9 86 66 3d
       -0.30557793 -0.16874503 0.35285684 0.056280766
0003c0 38 73 91 3e 23 87 fe bd 63 27 a1 3d 8c f4 23 3e
       0.28408217 -0.12428119 0.078688405 0.16011256
0003d0 fa e5 e3 be f5 8c 80 3e 8e 95 50 3d d2 dd 62 be
       -0.44511396 0.25107542 0.050923876 -0.2215493
0003e0 08 86 29 3e cd 14 31 3f 2a 8e 00 3e 63 7f f6 3b
       0.16555035 0.69172364 0.12554231 0.00752251
0003f0 9f ec 2f 3e 15 df 1c bd 1d e2 b1 3e 03 18 91 3e
       0.17180108 -0.038298685 0.34742823 0.28338632

layers.6.bias f4 [16]
000000 fc cc dd bd 6a 6b 3c 3e 45 45 20 be 4d d2 6f 3e
       -0.10830113 0.1840035 -0.15651424 0.23420067
000010 10 83 5f 3e 24 81 f7 bd b4 ad 92 3e 40 f3 9e 3d
       0.2182734 -0.120851785 0.2864815 0.0776124
000020 af ff 18 be c7 7f 26 bd c2 04 cf 3e 2d 02 bf 3d
       -0.14941286 -0.0406492 0.40433317 0.09326587
000030 61 86 83 3e ba 6b fe bd 48 92 b1 3e 9a c1 b2 3d
       0.2568846 -0.12422891 0.34681916 0.08728333

layers.9.weight f4 [1, 16]
000000 61 b7 a0 be ff af 29 3f 68 8f 53 be a7 91 f4 be
       -0.31389907 0.66284174 -0.20660174 -0.47767374
000010 ad c1 c6 3e bd f1 95 be 3f c8 4a bf e2 68 c0 be
       0.38819638 -0.29285994 -0.792118 -0.3758002
000020 30 eb d4 3d 4f 73 88 be 80 5a 27 3f 52 03 08 3f
       0.10396421 -0.26650473 0.6537247 0.53130066
000030 28 6f e1 be 88 d9 d4 be f0 cf 35 3f 3c 94 3d 3f
       -0.44030118 -0.41572213 0.7102041 0.7405431
