models/Delete/kaon.pt (torch, 18353 bytes, 7 tensors)

layers.0.weight f4 [64, 19]
0	0xbe099c9a	-0.13438645
1	0x3d1e4a9c	0.03864537
2	0x3e066b0b	0.13126771
3	0xbe0bccc1	-0.13652326
4	0xbe525b61	-0.20542671
5	0x3c361960	0.011114448
6	0xbd8646c8	-0.06556469
7	0xbe6a23cd	-0.2286522
8	0xbdf9e1e9	-0.12201292
9	0x3e503057	0.2033094
10	0xbdf2f1e7	-0.118625455
11	0xbe52cf92	-0.20586994
12	0xbc59df10	-0.013297811
13	0x3c33b430	0.010968253
14	0xbbd15a00	-0.0063889027
15	0xbe5e00c2	-0.21679977
16	0xbd600d9c	-0.05470048
17	0x3e282211	0.16419245
18	0x3e2aca67	0.16678773
19	0xbf25ddb7	-0.64791435
20	0x3d8d2b20	0.06892991
21	0x397c2744	0.0002404722
22	0x3e18d1b9	0.14923753
23	0x3ea2c1d8	0.31788516
24	0xbf86fa04	-1.0545049
25	0xbf5edf7a	-0.8705975
26	0xbe1d0720	-0.15334749
27	0x3e1f8ec6	0.15581807
28	0xbc9514c4	-0.018198378
29	0xbfa4e443	-1.288216
30	0xbd816193	-0.06317439
31	0x3dd7683a	0.105179265
32	0x3bc3264a	0.005955492
33	0xbc688ebb	-0.014194186
34	0x3c56e947	0.013117141
35	0x3c20fb92	0.009825604
36	0x3c81ea2f	0.015858738
37	0xbbb33be0	-0.005469784
38	0x3fd559a9	1.6667987
39	0x3e2ddeca	0.16979519
40	0x3b5d9102	0.0033808355
41	0xbeb5cd8a	-0.35508376
42	0x3f9eb4b5	1.2398897
43	0x3dcaf3c7	0.09909778
44	0xbd2f007d	-0.042725075
45	0xbccc0975	-0.024906853
46	0x3ce53f7e	0.027984377
47	0x3cdb8135	0.02679501
48	0xbeedcadf	-0.4644384
49	0xbdb468de	-0.08809064
50	0x3da1e94e	0.079058275
51	0xbcfd5fc1	-0.030929448
52	0x3d3a301b	0.045456033
53	0x3b0a9c75	0.0021150385
54	0xbe56d9bb	-0.20981495
55	0x3cd7cd48	0.026343003
56	0x3d9560bf	0.072938435
57	0x3e8271f8	0.25477576
58	0x3e31caf0	0.17362571
59	0x3bc80e8d	0.00610525
60	0x3e96511a	0.2935875
61	0x3e07bf68	0.1325661
62	0xbf92521a	-1.1431305
63	0xbf87d53b	-1.0611948
64	0xbde2dc85	-0.11077217
65	0xbe5c41c5	-0.21509464
66	0xbd22e285	-0.039766807
67	0xbf54cbb7	-0.83123344
68	0x3e0d3fde	0.13793895
69	0x3a51a104	0.00079967105
70	0x3b998531	0.004685067
71	0xbcb4aeac	-0.022055946
72	0x3c34749a	0.011014128
73	0x3cf2d2b5	0.029641489
74	0xbd402912	-0.046914168
75	0xbd3ab7fb	-0.045585614
76	0xbe42765e	-0.18990466
77	0xbe56a30e	-0.20960638
78	0x3e06c457	0.13160835
79	0x3ca24068	0.019806102
80	0x3e2d3333	0.16914062
81	0x3e2fcdf3	0.17168407
82	0xbd97db0e	-0.07414828
83	0x3d98019e	0.074221835
84	0x3e2792f9	0.1636466
85	0xbcb2af70	-0.02181217
86	0x3e3a672d	0.18203421
87	0xbda1d372	-0.07901658
88	0x3e05fc4b	0.13084523
89	0x3de8b136	0.11361925
90	0xbd642358	-0.05569777
91	0xbdc32fd6	-0.09530608
92	0x3dc5eafe	0.09663962
93	0xbe370ac4	-0.178752
94	0x3e038837	0.1284493
95	0x3e4d9b3d	0.2007875
96	0xbdb3c7ce	-0.08778344
97	0xbdf04db7	-0.11733573
98	0x3e05ee31	0.13079144
99	0xbcc98260	-0.0245983
100	0xbddaaba2	-0.106772676
101	0x3e1dd0d1	0.15411688
102	0x3e6a53f9	0.22883596
103	0xbdb68cd4	-0.089135796
104	0xbccc4970	-0.024937361
105	0xbe04d8b4	-0.1297329
106	0xbe1786ee	-0.14797565
107	0x3e5ed2f9	0.21760167
108	0x3e16126d	0.14655466
109	0xbe03e495	-0.12880166
110	0xbdd8a61d	-0.105785586
111	0x3dc3681a	0.0954134
112	0x3e0b5f21	0.13610508
113	0x3da42f26	0.08016805
114	0x3eda0d44	0.42588246
115	0x3d312bac	0.04325454
116	0x3a73a8fa	0.0009294894
117	0xbe0fa0c6	-0.14026174
118	0x3f947759	1.1598922
119	0xbe949802	-0.29022223
120	0xbec97764	-0.393489
121	0x3cef1c30	0.029188246
122	0x3d97db79	0.07414908
123	0xbc191d43	-0.009345355
124	0xbf96c33a	-1.1778328
125	0xbdceb920	-0.100939035
126	0xbcc8ac89	-0.024496334
127	0xbabd9f2d	-0.0014466994
128	0xbaa14399	-0.0012303471
129	0x3c03ca45	0.00804383
130	0x3c93d58e	0.018046167
131	0x3db1f64f	0.08689558
132	0x3c90d244	0.017678387
133	0xbe14f65e	-0.14547107
134	0x3d8fcdba	0.07021661
135	0x3cfdc3f8	0.030977234
136	0x3d9648b6	0.07338087
137	0x3e1b4a11	0.15164973
138	0xbded695c	-0.11592361
139	0x3e0d718b	0.13812844
140	0x3df800ea	0.12109549
141	0x3e233bad	0.15940733
142	0x3e3177b9	0.17330827
143	0xba0b8000	-0.00053215027
144	0xbe193ab6	-0.14963803
145	0x3e477f89	0.19482245
146	0xbe298686	-0.16555223
147	0x3de6470a	0.112440184
148	0xbe29cd36	-0.16582188
149	0x3cfca1a8	0.030838802
150	0x3e22975d	0.15878053
151	0xbd545a4c	-0.051843926
152	0xbe8be12b	-0.27320227
153	0xbd2d6123	-0.042328965
154	0xba32b7ee	-0.0006817569
155	0xbebc0f18	-0.36730266
156	0x3f150c6e	0.5822209
157	0xbf4f8a25	-0.81070167
158	0xbf47ed0a	-0.7809607
159	0x3e4132cb	0.18867032
160	0xbd469316	-0.048480116
161	0xbc8ef295	-0.017449657
162	0xbf7709ab	-0.9649913
163	0xbba624e7	-0.005070317
164	0xbe0bec67	-0.13664399
165	0xbb9a3840	-0.0047064126
166	0x3c138a13	0.009005087
167	0x3c4d6ce1	0.012538166
168	0x3bb22246	0.0054362146
169	0xbcbaef81	-0.022819282
170	0xbbce8b88	-0.0063032545
171	0x3dc88026	0.097900674
172	0x3e51827d	0.20459934
173	0xbe36402f	-0.17797922
174	0xbaeb6280	-0.0017958432
175	0xbcdd7370	-0.027032584
176	0x3d5e5a6c	0.05428545
177	0xbe4b4894	-0.19851905
178	0xbe221332	-0.15827635
179	0xbafdc080	-0.0019359738
180	0x3db589d6	0.08864181
181	0x3d8e8672	0.06959237
182	0x3d838a46	0.06422858
183	0xbda0b89c	-0.078477114
184	0x3e5667e3	0.20938067
185	0xbdffe879	-0.124955125
186	0xbe5ba795	-0.21450646
187	0x3df1f24e	0.11813794
188	0x3df05296	0.11734502
189	0x3b795000	0.0038042068
190	0xbdfd65ae	-0.123729095
191	0xbbb4952c	-0.0055109467
192	0xbb256946	-0.002523975
193	0x3d8247f0	0.06361377
194	0x3d036e3c	0.03208755
195	0xbfa68e5c	-1.3012195
196	0xbf9a4481	-1.2052156
197	0x3dd40784	0.10352996
198	0xbd53994e	-0.051659875
199	0x3cb31aad	0.021863306
200	0xbc6e7791	-0.014554874
201	0xbcc7753c	-0.024347894
202	0xbd878bd9	-0.06618471
203	0x3c09eeea	0.008418778
204	0x3cec9c3b	0.02888309
205	0x3c226667	0.00991211
206	0xbd4dd988	-0.050256282
207	0x3d495d91	0.049161498
208	0x3d54ac44	0.051922098
209	0x3da313a6	0.07962732
210	0x3b1c9480	0.0023892224
211	0x3d4fa634	0.050695613
212	0x3e4a57d9	0.19760074
213	0x3e304f97	0.17217861
214	0x3d8abcb6	0.06774275
215	0xbe60a5ba	-0.2193822
216	0xbe425480	-0.18977547
217	0x3de74e66	0.1129425
218	0x3e5abdff	0.2136154
219	0xbda86506	-0.08222394
220	0xbc849e28	-0.016188696
221	0xbdcb3686	-0.09922509
222	0xbde79d07	-0.113092475
223	0xbe10e000	-0.14147949
224	0xbe6990a3	-0.22809081
225	0xbd872da0	-0.06600499
226	0xbdeda379	-0.116034456
227	0x3e03c553	0.12868242
228	0x3dc68a0b	0.09694298
229	0x3eff994b	0.4992164
230	0xbe6e2f2e	-0.23260185
231	0x3d537bc4	0.051631704
232	0x3e850972	0.2598377
233	0xbd848336	-0.06470339
234	0xbdc6e95e	-0.0971248
235	0x3e777b53	0.24168138
236	0x3e0327fe	0.12808225
237	0xbe6e42df	-0.23267697
238	0xbecfe8b5	-0.4060723
239	0x3d9cc892	0.07655443
240	0xbe15ebea	-0.14640775
241	0x3db442fb	0.08801838
242	0xbe253d42	-0.16136649
243	0x3b3a7ec2	0.0028456901
244	0x3b91323b	0.0044310368
245	0xbdedc860	-0.11610484
246	0x3e5ba4bf	0.21449564
247	0x3e8ffebd	0.28124037
248	0x3e2a0fce	0.16607592
249	0x3d47fc15	0.04882439
250	0xbebde0ec	-0.37085664
251	0x3faaaed7	1.3334607
252	0xbe955ed0	-0.291739
253	0xbf19e89b	-0.6012055
254	0xbdb1bf3e	-0.08679055
255	0xbd244369	-0.04010335

layers.0.bias f4 [64]
0	0x3dda167a	0.10648818
1	0xbe403c30	-0.1877296
2	0xbe0d1139	-0.13776101
3	0xbe8997ff	-0.26873776
4	0x3dca0a06	0.09865193
5	0xbe62e85a	-0.22158948
6	0x3e257125	0.16156442
7	0x3dcdadb2	0.100428954
8	0xbe539071	-0.20660569
9	0x3d1970b4	0.037460998
10	0x3cce4d53	0.025183355
11	0x3e19c24d	0.15015526
12	0xbca54ab0	-0.020177215
13	0x3c8c513c	0.01712858
14	0x3d9cbbee	0.07653032
15	0xbcde4b2c	-0.027135454
16	0xbe4cb37c	-0.19990343
17	0x3e2d158d	0.16902752
18	0x3da46497	0.080269985
19	0x3de9c292	0.114140645
20	0xbe438890	-0.19095063
21	0xbe5f682a	-0.21817079
22	0xbe6fca75	-0.23417075
23	0xbe9905f5	-0.29887357
24	0x3bc313db	0.0059532947
25	0xbe8e2c82	-0.27768332
26	0x3d15f166	0.03660717
27	0x3d99c083	0.07507422
28	0xbcf17521	-0.029474797
29	0x3ba57ea0	0.0050504953
30	0xbdb42c87	-0.087975554
31	0xbc1a6ca7	-0.009425319
32	0xbdfa6755	-0.1222674
33	0xbeac4025	-0.33642688
34	0xbe605e2e	-0.21910927
35	0xbbc911e6	-0.006136167
36	0xbe2b06d1	-0.16701819
37	0xbe6d77cc	-0.2319023
38	0xbc6f51d0	-0.014606908
39	0xbe6b14d1	-0.2295716
40	0xbddf53c7	-0.10904651
41	0xbe5f67aa	-0.21816888
42	0xbd233070	-0.039841115
43	0x3df99aa8	0.121877015
44	0x3e0cbfc8	0.13745034
45	0x3e17f47b	0.14839356
46	0xbe524304	-0.20533377
47	0xbe180e9e	-0.14849326
48	0x3e204dc9	0.15654673
49	0xbd5af063	-0.053451907
50	0x3e3cfcf3	0.18455867
51	0x3e1ab92d	0.15109701
52	0xbe758055	-0.23974736
53	0xbe106328	-0.14100325
54	0xbe73a53b	-0.23793499
55	0xbe69a0d1	-0.22815253
56	0x3da1d3fa	0.079017594
57	0xbc70fa23	-0.014708075
58	0xbe1ce0c1	-0.15320112
59	0x3b6c5012	0.0036058468
60	0xbe8fc7b8	-0.2808206
61	0xbe090388	-0.13380253
62	0x3dad485a	0.084610656
63	0xbe1b7a31	-0.15183331

layers.3.weight f4 [32, 64]
0	0x3d9f7f66	0.07787971
1	0x3f460e92	0.7736598
2	0xbf28e0be	-0.6596793
3	0xbe741934	-0.23837739
4	0xbd892036	-0.06695597
5	0xbdfc3c14	-0.123161465
6	0x3e893bbd	0.2680339
7	0x3dea0f16	0.11428659
8	0x3e0bc55e	0.13649508
9	0xbd00ac8c	-0.031414554
10	0xbf207746	-0.62681997
11	0x3dba61ea	0.09100707
12	0x3c6fe63d	0.014642295
13	0xbe649f15	-0.2232631
14	0x3cc31a39	0.023816215
15	0xbf3947f2	-0.72375405
16	0xbccc70e0	-0.024956167
17	0xbcf92f98	-0.030418202
18	0xbca33138	-0.01992093
19	0x3dd6102a	0.10452302
20	0xbdd8e5c4	-0.10590699
21	0xbd9fb9a6	-0.077990815
22	0x3d0bdb74	0.034144834
23	0x3c85b53e	0.016321775
24	0x3cb2a0e1	0.021805229
25	0xbf0a6253	-0.5405628
26	0x3c667b88	0.014067538
27	0x3c95c34c	0.018281601
28	0x3d18a45c	0.03726612
29	0x3ded8876	0.115982935
30	0xbef6aa8f	-0.48177
31	0xbcac35f8	-0.021021828
32	0xbd6956e0	-0.056967616
33	0x3d941980	0.07231426
34	0x3c933d98	0.017973706
35	0xbd2850ee	-0.041092806
36	0xbd28ef58	-0.04124388
37	0x3d6aad88	0.0572944
38	0x3c923c60	0.017851055
39	0xbc96f1f4	-0.01842592
40	0x3df278ca	0.11839445
41	0xbe1990e8	-0.14996684
42	0x3d61e8b4	0.055153564
43	0xbd714632	-0.058904834
44	0xbf27d63f	-0.6556129
45	0x3d4490c4	0.04798962
46	0xbebbbb0f	-0.36666152
47	0x3d96d160	0.07364154
48	0xbdd23952	-0.10264839
49	0x3dd43e34	0.10363427
50	0xbd360ec8	-0.04444769
51	0xbc4fffc0	-0.012695253
52	0xbdc75b10	-0.09734166
53	0xbdf61fc1	-0.12017775
54	0xbd3e292c	-0.046425983
55	0xbf52e7b8	-0.82384825
56	0x3df8b5ba	0.121440366
57	0x3ce4e388	0.027940527
58	0xbf042443	-0.5161783
59	0xbd91ef9b	-0.07125779
60	0x3d092f5d	0.033492435
61	0xbd5c35cc	-0.053762242
62	0x3db800c8	0.08984524
63	0x3daf6046	0.085632846
64	0xbac46d80	-0.0014986247
65	0x3ed9fa32	0.42573696
66	0xbea8105f	-0.3282499
67	0xbd27b2eb	-0.040942114
68	0x3d9e58ee	0.07731806
69	0x3dea3c88	0.11437327
70	0x3eb35bf9	0.35031107
71	0xbd37b110	-0.044846594
72	0x3e921f59	0.2853954
73	0xbdb9aae8	-0.09065801
74	0xbe690ed0	-0.22759557
75	0x3da41b72	0.08013047
76	0x3d419b28	0.04726711
77	0xbddcdbed	-0.10784135
78	0x3d33db8a	0.04391054
79	0xbeb5fe48	-0.35545564
80	0x3c4fbf30	0.01267986
81	0x3cef01b8	0.029175624
82	0xbd543570	-0.051808774
83	0xbdfc2a36	-0.123127386
84	0xbdca369e	-0.09873699
85	0x3d736c58	0.059429497
86	0x3d6f6cd8	0.05845341
87	0xbdb01f1e	-0.08599685
88	0x3d99177a	0.07475181
89	0xbeb10035	-0.3457047
90	0x3d856a14	0.065143734
91	0x3d6343ea	0.05548469
92	0x3e5d5ff9	0.21618642
93	0x3df5d3ba	0.12003274
94	0xbe0e2596	-0.13881525
95	0xbd6081f2	-0.054811426
96	0xbd9e2e50	-0.07723677
97	0x3dcc73a4	0.09982994
98	0xbdd523be	-0.10407208
99	0x3dd2d04d	0.102936365
100	0x3d59b1d0	0.05314809
101	0x3d8fae5f	0.070156805
102	0x3ccb1b10	0.024793178
103	0x3d9a3711	0.07530034
104	0xbd80e082	-0.062928215
105	0xbb45dc51	-0.0030191133
106	0xbcb534b0	-0.02211985
107	0x3d0e5f3b	0.034758788
108	0xbe727ea9	-0.2368113
109	0x3bf96e20	0.007612005
110	0xbe4d46fb	-0.20046608
111	0x3ca18c7e	0.019720312
112	0x3db5bcf2	0.08873929
113	0x3c849f0c	0.01618912
114	0x3daf72b8	0.08566803
115	0xbcee5938	-0.029095277
116	0xbdbba21f	-0.091617815
117	0xbc9a4608	-0.018832222
118	0x3d3bd803	0.0458603
119	0xbed194fc	-0.4093398
120	0x3dd8b464	0.10581282
121	0x395aecf0	0.00020878366
122	0xbe8e16ef	-0.27751872
123	0x3daced71	0.08443726
124	0xbd8a2e14	-0.0674707
125	0xbd4e58dc	-0.05037771
126	0x3df916e0	0.12162566
127	0x3cfc809f	0.03082305
128	0xba525800	-0.0008023977
129	0xbed4b81f	-0.41546723
130	0x3dd4490b	0.10365494
131	0xbec13523	-0.37735853
132	0xbd1b4c90	-0.037914813
133	0x3dafd0be	0.08584736
134	0xbdd4f9f7	-0.103992395
135	0xbdc9577e	-0.09831141
136	0xbe2f87cf	-0.1714165
137	0xbd3dab88	-0.046306163
138	0xbe87cc48	-0.26523042
139	0xbd8ace46	-0.06777625
140	0x3c8a91a7	0.016915156
141	0xbd8d3ad2	-0.06895985
142	0x3e3ff87e	0.18747136
143	0xbec4d4ea	-0.3844369
144	0xbde0fda4	-0.10985878
145	0xbd8defde	-0.06930517
146	0x3a95f5be	0.0011441035
147	0xbbcb7ea0	-0.0062101632
148	0xbdc5e8b0	-0.09663522
149	0x3d4d3e8c	0.050108477
150	0xbbbbdb60	-0.0057329386
151	0xbc0a5c99	-0.008444929
152	0xbcf972cd	-0.03045025
153	0xbeaa681f	-0.33282563
154	0xbd2b68b8	-0.041847914
155	0x3d9d4b4a	0.07680376
156	0x3ea15858	0.31512713
157	0xba985b80	-0.0011623949
158	0x3d8ac536	0.06775896
159	0xbebb807d	-0.36621466
160	0x3d1dfcd2	0.038571186
161	0xbe814548	-0.2524817
162	0x3de5443e	0.11194657
163	0x3dc5144d	0.09623013
164	0xbd8c04ac	-0.068368286
165	0x3c8030ab	0.015648207
166	0x3dadf910	0.084947705
167	0x3df24b65	0.118307866
168	0x3da46650	0.08027327
169	0x3c041101	0.008060695
170	0xbdaaa3f2	-0.08332051
171	0xbd2d76fa	-0.042349793
172	0x3ebb718b	0.36610064
173	0x3d138fcc	0.036025807
174	0xbe34f329	-0.17670883
175	0xbd8100b5	-0.06298963
176	0xbde71352	-0.11282982
177	0xbdc5d4d3	-0.096597336
178	0xbd91b9b6	-0.071155
179	0xbd8e33f2	-0.069435015
180	0x3b6e7a52	0.0036388827
181	0xbb5d74bb	-0.00337915
182	0xbc54a46d	-0.012978655
183	0xbee10056	-0.4394557
184	0xbd200e04	-0.039075866
185	0x3e1c7c90	0.15281892
186	0x3c98ee0e	0.0186682
187	0x3de2b154	0.11068979
188	0xbd180905	-0.037117977
189	0x3d03980c	0.032127425
190	0x3d317ea8	0.04333368
191	0xbe4a5425	-0.19758661
192	0xbdd5e092	-0.10443224
193	0x3e7f5b98	0.24937284
194	0xbd79b21d	-0.060960878
195	0x3d958296	0.07300298
196	0xbdaa5a72	-0.08318032
197	0x3dc7211e	0.097231135
198	0x3ebadb55	0.36495462
199	0xbd6f1894	-0.05837305
200	0x3f35b330	0.70976543
201	0x3c22fb10	0.009947553
202	0x3e8bb6fc	0.27288043
203	0x3dedb2aa	0.11606343
204	0xbd93cf4d	-0.07217274
205	0x3e5b8341	0.21436788
206	0xbd2cd3c5	-0.042194147
207	0x3e41bfb5	0.18920787
208	0xbdcd1562	-0.10013844
209	0x3d8d46ca	0.068982676
210	0x3cb3ef76	0.02196477
211	0x3d6d3cec	0.057919428
212	0x3de52f54	0.11190668
213	0xbd19e107	-0.03756812
214	0xbdb71945	-0.08940367
215	0xbdbee758	-0.09321469
216	0x3c140ef8	0.009036772
217	0x3d5f11db	0.054460388
218	0xbe229dda	-0.15880528
219	0xbe2d0cc5	-0.16899402
220	0x3d428a19	0.04749498
221	0xbd0e89fc	-0.03479956
222	0x3e2f24ce	0.17103884
223	0x3b9bed1d	0.0047584907
224	0x3be6e0c5	0.0070458376
225	0xbd277881	-0.040886406
226	0xbcb3b7b8	-0.02193819
227	0xbd39abce	-0.04532986
228	0xbc192900	-0.009348154
229	0xbd8646ce	-0.06556474
230	0x3d857f0a	0.065183714
231	0xbe520881	-0.20511056
232	0xbd76acf4	-0.060223535
233	0xbcd95c81	-0.026533367
234	0xbdd6e358	-0.10492581
235	0x3b8b3168	0.004247833
236	0x3e001a2d	0.12509985
237	0x3df65efa	0.12029834
238	0x3dec7d5b	0.11547347
239	0xbca32f1a	-0.01991992
240	0x3dfa0bd0	0.12209284
241	0x3c60aad6	0.013712605
242	0xbd0c56ac	-0.034262344
243	0x3db34a78	0.08754438
244	0x3d2aa221	0.041658524
245	0x3d9987b7	0.07496589
246	0xbe09cf50	-0.1345799
247	0x3d4ca014	0.04995735
248	0xbdb8510a	-0.08999832
249	0x3e5ddf21	0.21667148
250	0xbcea57d7	-0.028606338
251	0xbe847a86	-0.25874728
252	0x3ceb8a0a	0.028752346
253	0xbd3989ec	-0.04529755
254	0x3da2aeb2	0.07943477
255	0x3d1a5dc0	0.037687063

layers.3.bias f4 [32]
0	0x3ede39fe	0.4340362
1	0xbd77a15d	-0.060456622
2	0xbe639d8f	-0.22228073
3	0x3c7b56c6	0.015340513
4	0x3dfc8efe	0.12331961
5	0xbd92c93f	-0.07167291
6	0x3c94b8c8	0.018154517
7	0x3cdbf241	0.026848914
8	0x3dc6a5fe	0.09699629
9	0xbd0a16e2	-0.03371323
10	0x3e0b1271	0.13581254
11	0xbe3749f5	-0.17899306
12	0x3d395323	0.0452453
13	0xbdb6b9e4	-0.089221746
14	0x3c8a00ad	0.016846025
15	0xbc5bcb5a	-0.013415182
16	0x3e2e7235	0.17035754
17	0x3d89b1e0	0.0672338
18	0x3dc45100	0.09585762
19	0x3d1f1810	0.038841307
20	0x3e106f7d	0.1410503
21	0x3de10338	0.10986942
22	0x3be4397a	0.0069648596
23	0xbe092345	-0.1339236
24	0x3e717830	0.23581004
25	0x3ddf5218	0.1090433
26	0xbe628da4	-0.22124344
27	0xbc67a380	-0.0141381025
28	0xbd9470bb	-0.07248064
29	0xba065579	-0.0005124431
30	0x3e570bb1	0.21000554
31	0xbd821c6c	-0.06353077

layers.6.weight f4 [16, 32]
0	0x3f42c9ff	0.7608947
1	0xbc56ee66	-0.013118362
2	0x3cad49ce	0.021153357
3	0x3e36fb17	0.1786922
4	0xbe0e849a	-0.13917771
5	0x3db112a4	0.086461335
6	0x3d4130d5	0.04716571
7	0x3e4d6912	0.20059612
8	0x3da89027	0.0823062
9	0x3e0358cd	0.12826844
10	0x3ee058d1	0.43817762
11	0x3e65caee	0.22440693
12	0x3de117d9	0.10990877
13	0x3d0415a3	0.032247197
14	0x3d4e98bf	0.05043864
15	0x3df1b77a	0.118025735
16	0x3d98d0f8	0.074617326
17	0x3d645510	0.055745184
18	0x3f3d6707	0.7398533
19	0x3e1fb73c	0.15597242
20	0x3d110ae0	0.03541076
21	0xbdc5aa01	-0.09651566
22	0x3e73f068	0.23822176
23	0xbc4f39e7	-0.012648082
24	0xbd3f803b	-0.04675315
25	0xbcdbbd01	-0.026823523
26	0xbd80c361	-0.062872656
27	0x3e4a2956	0.19742331
28	0xbd3da459	-0.046299312
29	0x3e8ca8a1	0.27472404
30	0x3e000088	0.12500203
31	0xbd86691d	-0.065630175
32	0x3f6020ab	0.8754985
33	0x3dcd46c8	0.10023266
34	0xbe9beb1b	-0.3045281
35	0x3de01d12	0.10943045
36	0xbe2118d2	-0.15732124
37	0x3e53950e	0.20662329
38	0x3dc23d4b	0.09484347
39	0x3e85baf1	0.26119187
40	0xbd680227	-0.056642678
41	0x3e1f1de6	0.15538749
42	0x3ebda48c	0.37039602
43	0x3e8bcaa4	0.2730304
44	0xbd0b044e	-0.033939652
45	0x3d997954	0.07493845
46	0x3cc02100	0.023453236
47	0x3ea09114	0.31360686
48	0x3de0e805	0.10981754
49	0x3d98cbc3	0.074607395
50	0x3f45a030	0.7719755
51	0x3e033575	0.12813361
52	0x3b87b3b3	0.004141295
53	0xbdf92f4f	-0.121672265
54	0x3e91ce4f	0.28477713
55	0x3c065420	0.008198768
56	0xbe1c273a	-0.15249339
57	0xbd94b218	-0.07260531
58	0xbee7bbc0	-0.4526043
59	0x3e496625	0.19667871
60	0x3dc70eea	0.097196415
61	0x3e465804	0.19369513
62	0x3c1596d4	0.0091301985
63	0x3e4257a9	0.18978752
64	0x3f2653cd	0.6497162
65	0x3de71ba6	0.112845704
66	0xbe2cc214	-0.1687091
67	0xbe06cddd	-0.13164468
68	0xbe476027	-0.19470273
69	0x3e9f3fa5	0.31103244
70	0x3d7f5123	0.062333237
71	0x3db6b7e4	0.08921793
72	0xbd7a7ccf	-0.061154183
73	0x3dadee95	0.084927715
74	0x3ed26ac4	0.4109708
75	0x3eb01a07	0.34394857
76	0x3d890cdb	0.06691905
77	0x3db23f17	0.0870344
78	0x3e472cc8	0.19450676
79	0x3e968be5	0.29403606
80	0xbd92e898	-0.0717327
81	0x3ddfc000	0.10925293
82	0x3f02d08c	0.5109947
83	0x3d9d17ec	0.07670578
84	0xbd9ddcac	-0.077081054
85	0xbe0b1004	-0.13580328
86	0x3e5ee790	0.21768022
87	0x3c676000	0.014122009
88	0xbe8112b4	-0.25209582
89	0x3e230219	0.15918769
90	0xbe81fb0b	-0.25386843
91	0x3e6c121f	0.23053788
92	0xbbbe19da	-0.0058014216
93	0x3dc449b0	0.09584367
94	0x3d06bcef	0.032895025
95	0x3de3a6d4	0.11115804
96	0x3ef8b418	0.485749
97	0x3bcd44e3	0.0062643155
98	0x3c5e257d	0.013558743
99	0x3dcbdf39	0.09954686
100	0xbe0b5e88	-0.1361028
101	0x3d1fd87e	0.039024822
102	0x3e8888a1	0.2666674
103	0x3e1b5a5b	0.15171187
104	0x3d8965bf	0.0670886
105	0x3df3e570	0.11908996
106	0x3ec1f519	0.37882307
107	0x3e62ca44	0.2214747
108	0xbda47f18	-0.08032054
109	0x3dcdf185	0.10055832
110	0xbd4254c5	-0.047444124
111	0x3e9d841d	0.30764857
112	0x3d849cdb	0.0647523
113	0x3e3f886c	0.18704385
114	0x3f2dbb82	0.6786424
115	0x3e25d967	0.16196214
116	0x3dcd2f24	0.10018757
117	0x3d9ce3fb	0.07660671
118	0xbcfb29d7	-0.0306596
119	0x3df70f97	0.120635204
120	0x3d7835f1	0.060598318
121	0xbd93e014	-0.07220474
122	0x3c7d4d29	0.015460291
123	0x3e78da01	0.24301912
124	0xbd6c3489	-0.05766729
125	0x3db4b1d7	0.08822983
126	0x3cabb925	0.020962307
127	0x3c69d64d	0.014272285
128	0xbd9b9e09	-0.07598502
129	0xbeccc67e	-0.39995188
130	0x3da012a5	0.07816056
131	0xbee4a29c	-0.4465531
132	0x3ee9846b	0.4560884
133	0xbec77001	-0.3895264
134	0xbefabe28	-0.48973203
135	0xbe78a4e1	-0.24281646
136	0x3dcbb7cd	0.099471666
137	0xbeb6077c	-0.35552585
138	0xbe9bd33b	-0.30434594
139	0xbf1ddfc4	-0.61669564
140	0xbe9f74a4	-0.31143677
141	0xbf0c2e14	-0.5475781
142	0xbe80ce79	-0.25157526
143	0xbe6f75fe	-0.23384854
144	0x3ea16de1	0.31529143
145	0xbf0bb2c6	-0.5456966
146	0xbe80c4eb	-0.25150236
147	0xbef5038b	-0.47854266
148	0x3ea40061	0.3203154
149	0x3ebcef98	0.36901546
150	0xbf21b110	-0.631608
151	0x3dabd834	0.08390847
152	0x3db6ff19	0.08935375
153	0x3e2eb0c3	0.17059617
154	0xbe5ac929	-0.21365799
155	0xbe79a629	-0.24379791
156	0xbf137023	-0.5759298
157	0xbf2aa00f	-0.6665048
158	0x3e66675c	0.22500366
159	0xbe702615	-0.23452027
160	0xbdd70c02	-0.10500337
161	0xbe8d4331	-0.27590325
162	0xbc83d368	-0.016092017
163	0xbea12427	-0.31472895
164	0x3ed0b310	0.40761614
165	0xbe2246ce	-0.15847322
166	0xbedc294d	-0.4300026
167	0xbed5dba2	-0.4176913
168	0x3e8d9a97	0.27657005
169	0xbeeddcf6	-0.46457642
170	0xbec3c22e	-0.38234085
171	0xbf16f317	-0.58964676
172	0xbe87f404	-0.26553357
173	0xbf222a36	-0.6334566
174	0xbe1fb10f	-0.15594886
175	0xbe61fae3	-0.22068362
176	0x3e59182a	0.21200624
177	0xbefa5c6a	-0.4889863
178	0xbef558f1	-0.4791942
179	0xbf059fbd	-0.52196866
180	0x3e72a7c4	0.2369681
181	0x3d9f8506	0.07789044
182	0xbef794e0	-0.4835577
183	0x3d959288	0.07303339
184	0x3e329cbc	0.17442602
185	0x3e22b49a	0.15889207
186	0x3d8df23c	0.06930968
187	0xbe8b2088	-0.27173257
188	0xbedeabca	-0.4349044
189	0xbecc6749	-0.3992255
190	0x3e4609b8	0.19339645
191	0xbea19ccf	-0.31564948
192	0x3f3f7f1a	0.74803317
193	0x3e3fbfaa	0.18725458
194	0xbe5717da	-0.21005192
195	0x3e187789	0.14889349
196	0xbe8155da	-0.25260812
197	0x3e740244	0.2382899
198	0x3e63568e	0.22200987
199	0x3d7cb51f	0.061696168
200	0xbdbfd923	-0.093675874
201	0x3e3ca5e9	0.18422665
202	0x3f137b0d	0.57609636
203	0x3db49220	0.08816934
204	0x3d8385e4	0.06422022
205	0x3e8a27d7	0.2698352
206	0xbd121516	-0.03566464
207	0x3eb6abdb	0.3567799
208	0xbd0ec943	-0.034859907
209	0x3e699127	0.22809277
210	0x3f31febd	0.69529325
211	0x3e6f2040	0.23352146
212	0x3d0dc7c2	0.034614332
213	0xbe162e84	-0.14666182
214	0x3e2cb975	0.16867621
215	0x3dabbe37	0.0838589
216	0xbd7550af	-0.0598914
217	0x3e2726a3	0.16323332
218	0xbe43ad58	-0.19109094
219	0x3eb336ad	0.35002652
220	0x3e60ba34	0.21946031
221	0x3eacc533	0.337442
222	0xbd08467e	-0.03327035
223	0x3e155e03	0.14586644
224	0xbe6e6334	-0.2328003
225	0xbe49d0a9	-0.19708504
226	0x3e35151d	0.17683835
227	0xbe3f39d0	-0.18674397
228	0x3eeb7243	0.45985612
229	0xbe41dc09	-0.18931593
230	0xbe903d29	-0.28171661
231	0xbd5ba103	-0.05362035
232	0x3e253b1b	0.16135828
233	0xbd0f41b3	-0.034974765
234	0xbeaef0e0	-0.34168148
235	0xbee5b453	-0.4486414
236	0xbd46c51e	-0.04852783
237	0xbedff084	-0.43738186
238	0xbea1a512	-0.3157125
239	0xbe7aa359	-0.24476375
240	0x3e90ae17	0.2825782
241	0xbefeb9ef	-0.4975123
242	0xbee3a7ec	-0.44464052
243	0xbe978f5b	-0.2960156
244	0x3dfaedd8	0.12252396
245	0x3eb17f08	0.3466723
246	0xbe5b74dc	-0.21431297
247	0xbe05568e	-0.13021299
248	0x3e31cb9b	0.17362826
249	0xbd0655b4	-0.032796577
250	0x3d3bddf1	0.045865957
251	0xbdc04f7e	-0.09390162
252	0xbebd30aa	-0.3695119
253	0xbecbc0fa	-0.39795667
254	0x3db8e108	0.09027296
255	0xbe12fd03	-0.14354329

layers.6.bias f4 [16]
0	0xbd8f5ac4	-0.06999734
1	0x3e128de3	0.14311938
2	0x3dfc5a5f	0.123219244
3	0xbdb1eb9f	-0.08687519
4	0x3f0cff11	0.550767
5	0x3f00627e	0.5015029
6	0x3db9ff42	0.0908189
7	0x3f2abea8	0.6669717
8	0x3e5985ef	0.21242498
9	0xbedf68d4	-0.43634665
10	0x3e84bf4d	0.259272
11	0xbd3c1e85	-0.045927543
12	0xbc64231c	-0.013924386
13	0x3d9ccd35	0.07656328
14	0xbda4f057	-0.08053654
15	0xbd24d5fd	-0.040243138

layers.9.weight f4 [1, 16]
0	0xbf050266	-0.51956785
1	0xbedc6c6b	-0.43051466
2	0xbf013860	-0.50476646
3	0xbee7ecd4	-0.45297873
4	0x3f7194ae	0.9436749
5	0x3f8661d2	1.0498602
6	0xbe86fe86	-0.2636606
7	0x3f64071c	0.8907335
8	0xbf3d5d23	-0.7397024
9	0x3e2ac1ab	0.16675441
10	0x3f2876af	0.65806097
11	0xbe9ec302	-0.31008154
12	0xbe9534b9	-0.29141787
13	0xbeb9cb69	-0.36288002
14	0xbed0a615	-0.4075171
15	0xbe806c5c	-0.25082672
