models/Delete/proton.pt (torch, 18437 bytes, 7 tensors)

layers.0.weight f4 [64, 19]
0.011505023 0.003758505 -0.012259811 0.20206033 -0.0154064745 -0.06594229 0.05363579 0.010976091
0.029849365 -0.1782193 -0.00334163 0.1363829 0.07350151 -0.020067275 -0.10053156 -0.05056478
-0.037876695 0.023021862 -0.0563512 -1.0000055 -0.37178716 -0.0033628386 -0.03420375 -0.960805
0.1866266 0.18653865 0.08216736 7.428246e-05 0.013948259 0.95165855 0.043242473 -0.15871035
-0.053794384 -0.09902603 -0.00758489 0.04807521 0.022788445 0.031719036 0.7933351 -0.3662902
0.012022825 -0.503759 0.47764713 -0.20415325 -0.42227414 -0.14131545 0.14079116 0.11107457
-0.18298292 -0.087804034 -0.055956803 0.18936436 0.07304417 0.011682581 0.23553023 0.008090839
0.16958764 0.05717291 -0.1798307 0.083700314 -0.16588914 0.028254226 -0.12196755 -0.14189377
-0.13907331 -0.18903354 -0.20600343 -0.010431483 -0.05826448 0.22275932 0.22848473 0.17497258
-0.2128944 0.057715103 -0.041749075 -0.054115072 0.5085094 -0.07350015 0.01582358 -0.1324677
-0.78098834 -0.17974062 -0.1533984 0.09523004 0.08767231 0.07289664 0.630332 -0.1263762
0.13238142 -0.020809395 0.05709121 -0.0022894184 0.03524917 -0.165783 -0.08400655 -0.19360964
0.030963195 -0.0006808281 -0.18662176 0.3830536 -1.0861524 -0.9674964 0.068681195 0.00079572527
0.016496556 -1.3997478 0.02089897 -0.050883394 0.006660676 -0.030998603 0.01806745 0.015178315
0.045155212 -0.0069692684 -0.054451928 0.118171915 -0.17922103 0.05447133 -0.03442794 0.02061306
-0.04355976 0.008537158 0.04506378 0.16428833 -0.15942885 0.047788695 -0.14612283 -0.16782251
-0.019944683 -0.2165851 0.13566048 -0.19453742 0.14563377 -0.09535536 0.08458944 -0.16467941
0.012514889 0.14919992 0.011334583 -0.17190987 0.057847574 -0.21964876 0.01956886 0.20070244
-0.061523452 0.026993975 0.06679456 0.03801568 -0.17438626 0.21483548 -0.1421341 0.10844387
0.5658057 0.05606931 -0.027020374 0.2400099 0.929501 0.49875057 0.4559238 -0.027021114
0.09297033 0.00056787214 -0.64675653 0.009535008 -0.06125751 -0.01030809 -0.01849404 0.017346026
0.035033647 -0.1364671 -0.043426223 -0.049350694 -0.035783663 -0.089488015 -0.21721236 -0.09446873
0.14758609 -0.09040138 0.2164941 0.08706786 0.016533032 -0.2287444 0.17696728 -0.13617662
-0.09372099 -0.10691568 -0.05705622 0.12759937 -0.04773952 -0.10831538 -0.048610926 0.04000105
0.031842038 0.04280959 -0.10432789 -0.2286232 0.2262661 0.22208686 -0.07515791 -0.042009935
-0.22487369 0.12526228 -0.16193162 0.029052809 0.039385274 -0.13007188 -0.145214 -0.19781849
-0.054062515 -0.05041057 0.08904515 0.052650407 -0.05247754 0.20849116 -0.11501176 -0.193321
-0.049636155 0.14933585 0.012670413 0.0020562708 0.058903053 0.1954114 0.22700392 -0.2007507
-0.05862783 -0.1862748 -0.060932815 0.17401864 -0.14587483 0.195387 -0.17679422 0.03108966
-0.19460458 0.08998183 -0.19740649 -0.100935526 -0.076704666 0.16147022 -0.09634925 0.19532825
-0.0759353 -0.2027619 0.20818628 -0.04092096 0.19346441 -0.0021426806 0.004029965 0.32476255
-0.5104105 -0.006111053 0.07290225 0.384565 -0.3809313 -0.2546684 0.25648206 0.25832498
00000000: 907f 3c3c 4051 763b 60dd 48bc e7e8 4e3e
00000010: 706b 7cbc c00c 87bd 34b1 5b3d 10d5 333c
00000020: a886 f43c 1f7f 36be 40ff 5abb f5a7 0b3e
00000030: f687 963d 2064 a4bc 7ee3 cdbd 041d 4fbd
00000040: 9824 1bbd 5898 bc3c 84d0 66bd 2e00 80bf
00000050: e35a bebe 1263 5cbb 3b19 0cbd 51f7 75bf
00000060: 0b1b 3f3e fd03 3f3e 5c47 a83d 18c8 9b38
00000070: 3d87 643c e59f 733f 051f 313d f784 22be
00000080: 8057 5cbd 29ce cabd ab8a f8bb 83ea 443d
00000090: d5ae ba3c d2eb 013d 0218 4b3f 648a bbbe
000000a0: 62fb 443c 5af6 00bf 2a8e f43e 8d0d 51be
000000b0: 5134 d8be ffb4 10be 8f2b 103e 107b e33d
000000c0: e05f 3bbe 9ad2 b3bd f632 65bd bbe8 413e
000000d0: 2f98 953d 4c68 3f3c d62e 713e 708f 043c
000000e0: 62a8 2d3e 242e 6a3d 8a25 38be 126b ab3d
000000f0: d8de 29be 6875 e73c 1fca f9bd 9a4c 11be
00000100: 3c69 0ebe 0292 41be 90f2 52be d0e8 2abc
00000110: bca6 6ebd 051b 643e e7f7 693e 032c 333e
00000120: fd00 5abe ac66 6c3d 1401 2bbd c4a7 5dbd
00000130: ac2d 023f 3f87 96bd 74a0 813c 9da5 07be
00000140: daee 47bf ed0d 38be 7814 1dbe f807 c33d
00000150: 8a8d b33d d54a 953d 705d 213f c368 01be
00000160: ff8e 073e 7778 aabc 79d8 693d 110a 16bb
00000170: 6f61 103d 05c3 29be a00b acbd 9b41 46be
00000180: 87a6 fd3c 9a79 32ba c619 3fbe 9a1f c43e
00000190: 0b07 8bbf d8ad 77bf baa8 8c3d 3898 503a
000001a0: c923 873c f02a b3bf 5134 ab3c 1b6b 50bd
000001b0: cd41 da3b c8f0 fdbc 3002 943c 78ae 783c
000001c0: acf4 383d 765e e4bb fc08 5fbd 1e04 f23d
000001d0: b885 37be 541d 5f3d 5004 0dbd b8dc a83c
000001e0: b86b 32bd 70df 0b3c cc94 383d 333b 283e
000001f0: 5141 23be 14be 433d 39a1 15be aad9 2bbe
00000200: 0863 a3bc 7cc8 5dbe 95ea 0a3e d134 47be
00000210: 0521 153e ac49 c3bd 3a3d ad3d b8a1 28be
00000220: 400b 4d3c ddc7 183e b0b4 393c 2409 30be
00000230: 94f1 6c3d 9beb 60be e04e a03c f184 4d3e
00000240: 0400 7cbd 7822 dd3c 96cb 883d 54b6 1b3d
00000250: 5092 32be d5fd 5b3e 9a8b 11be d217 de3d
00000260: a4d8 103f efa8 653d d559 ddbc 28c5 753e
00000270: c7f3 6d3f 3c5c ff3e d86e e93e 625b ddbc
00000280: 3a67 be3d 41dd 143a d691 25bf b938 1c3c
00000290: 28e9 7abd 43e3 28bc d080 97bc 4119 8e3c
000002a0: 717f 0f3d 08be 0bbe b2df 31bd f423 4abd
000002b0: e491 12bd 7e45 b7bd eb6c 5ebe d278 c1bd
000002c0: cf20 173e 5c24 b9bd a1b0 5d3e a250 b23d
000002d0: 4870 873c f93b 6abe e936 353e e271 0bbe
000002e0: caf0 bfbd 9cf6 dabd c8b3 69bd 69a9 023e
000002f0: 848a 43bd 74d4 ddbd 401c 47bd 24d8 233d
00000300: cc6c 023d 1c59 2f3d dca9 d5bd 331c 6abe
00000310: 4db2 673e bd6a 633e 64ec 99bd 9c12 2cbd
00000320: 4a45 66be c144 003e 67d1 25be 2800 ee3c
00000330: 7452 213d 9031 05be fbb2 14be ee90 4abe
00000340: a870 5dbd 507b 4ebd 4e5d b63d f4a7 573d
00000350: b0f2 56bd b57e 553e 498b ebbd f1f5 45be
00000360: 484f 4bbd 7feb 183e 9097 4f3c 80c2 063b
00000370: 5444 713d ed19 483e b773 683e 9791 4dbe
00000380: bc23 70bd d2be 3ebe b094 79bd f131 323e
00000390: 3660 15be 8813 483e 8b09 35be beaf fe3c
000003a0: 6c46 47be 6548 b83d ed24 4abe 49b7 cebd
000003b0: 5617 9dbd 7358 253e c152 c5bd 2104 483e
000003c0: f783 9bbd d1a0 4fbe c92e 553e bd9c 27bd
000003d0: 891b 463e 376c 0cbb cc0d 843b 4747 a63e
000003e0: 43aa 02bf 3a3f c8bb c64d 953d b4e5 c43e
000003f0: 6d09 c3be e663 82be 9e51 833e 2c43 843e

layers.0.bias f4 [64]
0.17801602 0.09022331 -0.10383532 0.09715013 -0.1344954 0.21422583 -0.12508813 0.14621021
0.02554043 -0.0501536 0.00872761 0.18393542 0.06527869 -0.029015867 0.1984946 -0.075758815
-0.1981467 -0.21474876 -0.1945702 -0.10353579 -0.14237346 -0.33942083 0.11955138 -0.04863963
0.12364491 0.024976995 -0.38240325 -0.10350272 -0.028048085 -0.07978663 0.15420048 -0.26897466
-0.08376534 -0.14705242 -0.12019336 -0.18832123 0.054362282 -0.16161971 -0.073200054 -0.11071244
-0.18162562 -0.12942034 0.046888858 0.22583447 -0.08370016 -0.033013873 -0.20370537 0.17452659
0.089725606 0.01496008 0.08745022 -0.008629403 0.19473644 0.0689214 -0.21812682 0.17345978
0.16560505 0.16165416 -0.15294884 -0.106059566 -0.07922135 -0.19158953 -0.00809893 -0.18989022
00000000: d549 363e 00c7 b83d 9da7 d4bd a6f6 c63d
00000010: 2ab9 09be 045e 5b3e 1a17 00be 21b8 153e
00000020: 2a3a d13c dc6d 4dbd 40fe 0e3c 9159 3c3e
00000030: d5b0 853d afb2 edbc 2b42 4b3e 7027 9bbd
00000040: f8e6 4abe 19e7 5bbe 693d 47be 930a d4bd
00000050: 59ca 11be 91c8 adbe 5bd7 f43d 593a 47bd
00000060: 8b39 fd3d 8e9c cc3c 5cca c3be 3cf9 d3bd
00000070: 19c5 e5bc 2c67 a3bd bbe6 1d3e 0cb7 89be
00000080: 2a8d abbd e994 16be f027 f6bd 48d7 40be
00000090: fcaa 5e3d a37f 25be e9e9 95bd 34bd e2bd
000000a0: 11fc 39be c486 04be 880e 403d 2741 673e
000000b0: fd6a abbd 8e39 07bd 2498 50be 19b7 323e
000000c0: 0fc2 b73d 201b 753c 1a19 b33d 5762 0dbc
000000d0: fd68 473e aa26 8d3d a35c 5fbe 719f 313e
000000e0: 5f94 293e ab88 253e 9f9e 1cbe c235 d9bd
000000f0: ce3e a2bd 0c30 44be 60b1 04bc 9572 42be

layers.3.weight f4 [32, 64]
-0.10557133 0.05303141 -0.014155841 -0.10999845 0.011255631 0.6568931 0.040229097 -0.06189485
-0.021179382 0.045164913 0.01267077 0.062305316 -0.018859431 0.012488751 0.096396066 0.84226143
0.009974704 0.258628 -0.015790762 0.613979 -0.058536008 -0.020438917 -0.0034277658 -0.03521985
0.12900577 0.020038763 0.107095085 -0.036972657 0.104290724 0.012619793 -0.02494134 -0.020049335
0.0039388346 0.11929791 0.0040089437 0.002842471 -0.09572101 -0.053326502 0.2639326 -0.03581518
0.12150225 0.0140695125 -0.041652504 0.054537296 0.04574471 -8.596203e-05 0.08813289 -0.09614879
-0.16236602 -0.07874927 -0.07576175 -0.12234751 0.038351938 0.19412467 -0.03295864 -0.024927616
0.07926035 0.015712038 0.0146751255 0.10991101 -0.00268736 0.6920361 -0.113023266 -0.11250794
-0.030149773 0.026610322 0.100025944 0.08658342 0.117531896 -0.90549755 -0.015102178 0.06757198
-0.021771936 -0.04003215 0.07596795 -0.051299676 -0.06587589 0.017070314 -0.41357327 -1.0902269
-0.00039932335 -0.16313499 -0.10113984 -0.50105613 -0.08210522 -0.001208102 -0.026768278 0.018399194
0.019689815 0.05108403 -0.04093486 -0.041001335 0.12108156 0.060215063 -0.06335303 0.042429514
0.051390175 -0.55036557 -0.030070543 -0.11863564 0.011318833 0.08084646 -0.55287015 -0.06220749
-0.030819029 0.03551966 -0.042079996 0.024098247 0.0768649 0.036378868 -0.051533967 0.008327842
-0.11550505 -0.04967341 0.013878137 -0.101918586 0.0065686703 -0.40790063 0.12148163 0.11353533
0.10174118 -0.051272914 -0.052091196 0.01786822 -0.03409481 -0.56432194 0.023691654 -0.09270831
-0.09969108 -0.03908077 0.060101084 0.036813185 0.0061862175 0.8305722 0.078173906 -0.082795575
-0.050141886 0.08307272 0.06961645 -0.09466325 -0.1232687 0.020005155 0.089631654 0.8373757
-0.042771697 0.28634515 0.03465589 0.71290845 0.068587214 -0.029214771 0.007727494 -0.070374295
0.1769324 0.1590831 -0.005953905 0.12343277 -0.06270088 0.029000213 0.0010260046 -0.056174766
-0.007679747 0.33215302 0.0761133 0.07460584 -0.0290007 -0.05843611 0.3501623 -0.07477391
0.08654606 -0.059113875 0.010924267 -0.009141147 0.029627629 0.0077172033 -0.05535972 0.059509367
-0.1715932 -0.017497867 -0.026188657 -0.14836547 0.07872248 0.35704878 0.100602716 -0.04549828
-0.069010824 -0.0592588 0.07746753 -0.07748267 -0.01904251 0.6490223 0.014634833 -0.119472906
0.05825752 -0.021066638 0.07981656 -0.0050787777 0.07395312 -0.82011956 0.10473189 0.033082306
-0.0063239164 -0.08741671 -0.027793735 0.07439135 -0.086602435 0.016631095 -0.4120979 -0.45555797
0.059931245 -0.024493223 -0.06038608 -0.5982954 0.10309796 -0.020072244 0.048803266 0.045308694
-0.055076778 0.01239091 -0.045745585 0.0128775835 -0.006919101 0.020258792 0.10833493 -0.055591077
0.0068175895 -0.37475762 0.0779856 0.06577857 0.02597101 -0.104545236 -0.26050994 -0.11969371
-0.08357786 -0.013930991 0.026293509 0.05602108 0.0974974 -0.007508476 -0.0635466 0.07254678
-0.073818594 -0.016024828 -0.063561186 -0.050752345 0.12051757 -0.3176272 0.018801168 0.09901896
-0.07727644 0.11535642 -0.0987567 -0.10052766 0.017302189 -0.40184456 -0.09484978 0.014466855
00000000: c835 d8bd 7737 593d e7ed 67bc de46 e1bd
00000010: 8a69 383c 252a 283f 44c7 243d 7485 7dbd
00000020: 6280 adbc d8fe 383d 1099 4f3c dc33 7f3d
00000030: 187f 9abc 9e9d 4c3c 4d6b c53d 729e 573f
00000040: f16c 233c e46a 843e a15b 81bc ba2d 1d3f
00000050: 74c3 6fbd 846f a7bc 5ea4 60bb b042 10bd
00000060: 171a 043e 5528 a43c ab54 db3d a470 17bd
00000070: 6096 d53d 40c3 4e3c c851 ccbc 813e a4bc
00000080: 5711 813b 7652 f43d 755d 833b c048 3a3b
00000090: 6009 c4bd e46c 5abd 2c22 873e f0b2 12bd
000000a0: 2cd6 f83d d083 663c d19b 2abd 8062 5f3d
000000b0: ce5e 3b3d 8346 b4b8 047f b43d a8e9 c4bd
000000c0: 4743 26be 4c47 a1bd fa28 9bbd 5591 fabd
000000d0: ec16 1d3d 9ec8 463e a4ff 06bd 0035 ccbc
000000e0: 4053 a23d 88b6 803c f06f 703c 0619 e13d
000000f0: 6b1e 30bb 4729 313f be78 e7bd 906a e6bd
00000100: a8fc f6bc e4fd d93c 67da cc3d a652 b13d
00000110: 90b4 f03d b0ce 67bf 206f 77bc 2e63 8a3d
00000120: 0f5b b2bc c0f8 23bd 1695 9b3d 9c1f 52bd
00000130: f0e9 86bd 0bd7 8b3c e0bf d3be 8e8c 8bbf
00000140: 465c d1b9 dc0c 27be 6822 cfbd 3745 00bf
00000150: c826 a8bd 2d59 9eba 2649 dbbc e8b9 963c
00000160: 894c a13c 7d3d 513d 50ab 27bd 04f1 27bd
00000170: 9cf9 f73d 12a4 763d 3cbf 81bd 92ca 2d3d
00000180: 817e 523d c2e4 0cbf 8056 f6bc 3ef7 f2bd
00000190: a072 393c d492 a53d e688 0dbf 48cd 7ebd
000001a0: 3078 fcbc 107d 113d 135c 2cbd b069 c53c
000001b0: 586b 9d3d 0202 153d 4815 53bd 8071 083c
000001c0: e98d ecbd 5876 4bbd 2061 633c b1ba d0bd
000001d0: 003e d73b 5ad8 d0be 5ccb f83d 3685 e83d
000001e0: ae5d d03d 8c03 52bd 945d 55bd 6060 923c
000001f0: 00a7 0bbd 6777 10bf 0015 c23c dbdd bdbd
00000200: d62a ccbd 2813 20bd 8e2c 763d 6cc9 163d
00000210: c1b5 ca3b 61a0 543f a419 a03d ba90 a9bd
00000220: 9461 4dbd 0822 aa3d 1293 8e3d cede c1bd
00000230: 4d74 fcbd dae1 a33c cd90 b73d 415e 563f
00000240: 6031 2fbd d59b 923e 56f3 0d3d 2b81 363f
00000250: 7477 8c3d d153 efbc eb36 fd3b 6620 90bd
00000260: c42d 353e aee6 223e fa18 c3bb 52ca fc3d
00000270: 5269 80bd db91 ed3c 007b 863a 8317 66bd
00000280: 63a6 fbbb f60f aa3e 4ae1 9b3d f2ca 983d
00000290: e092 edbc b45a 6fbd 7948 b33e 1023 99bd
000002a0: 103f b13d 6421 72bd b2fb 323c c0c4 15bc
000002b0: a4b5 f23c 98e0 fc3b e0c0 62bd 18c0 733d
000002c0: 21b6 2fbe b057 8fbc 9889 d6bc 1eed 17be
000002d0: 4039 a13d 19cf b63e cc08 ce3d 685c 3abd
000002e0: 8c55 8dbd 5bb9 72bd 4ca7 9e3d 3caf 9ebd
000002f0: 0aff 9bbc 5326 263f f0c6 6f3c 36ae f4bd
00000300: 709f 6e3d f193 acbc dd76 a33d e06b a6bb
00000310: bc74 973d 5bf3 51bf ac7d d63d 5081 073d
00000320: db38 cfbb 8807 b3bd b0af e3bc 7e5a 983d
00000330: 9e5c b1bd ef3d 883c 7ffe d2be e53e e9be
00000340: 777a 753d 03a6 c8bc 6557 77bd e329 19bf
00000350: 0625 d33d 8c6e a4bc efe5 473d 9c95 393d
00000360: 3098 61bd 3e03 4b3c b95f 3bbd 80fc 523c
00000370: a0b9 e2bb c4f5 a53c b4de dd3d 78b3 63bd
00000380: 1666 df3b 3be0 bfbe eab6 9f3d eab6 863d
00000390: 28c1 d43c d01b d6bd 8f61 85be fa21 f5bd
000003a0: de2a abbd d03e 64bc 7c65 d73c 5c76 653d
000003b0: b8ac c73d a909 f6bb b824 82bd 6893 943d
000003c0: 342e 97bd 8046 83bc 5e2c 82bd b1e1 4fbd
000003d0: ead1 f63d 08a0 a2be e804 9a3c 74ca ca3d
000003e0: 1c43 9ebd fd3f ec3d f440 cabd 72e1 cdbd
000003f0: 52bd 8d3c 92be cdbe 9a40 c2bd 6306 6d3c

layers.3.bias f4 [32]
0.01838016 0.2259744 -0.15353502 0.048004948 -0.17466307 -0.003248025 -0.11548413 -0.016745953
-0.0834497 0.011012387 0.19685602 -0.096743986 -0.11511808 0.03839842 -0.055438645 -0.18081145
0.09259074 0.13788082 0.16316329 0.015952049 0.021601643 0.08436761 -0.055973276 0.11660367
0.005822698 -0.15315984 0.092963055 -0.0260043 -0.117164284 0.07000888 -0.116680846 0.18002309
00000000: fd91 963c d565 673e 4938 1dbe d6a0 443d
00000010: e0da 32be d1dc 54bb f282 ecbd cf2e 89bc
00000020: ade7 aabd 4d6d 343c a094 493e b621 c6bd
00000030: 07c3 ebbd a947 1d3d a213 63bd a326 39be
00000040: 37a0 bd3d a130 0d3e 4714 273e dfad 823c
00000050: eef5 b03c edc8 ac3d 3c44 65bd e8cd ee3d
00000060: 55cc be3b efd5 1cbe 6a63 be3d f806 d5bc
00000070: d4f3 efbd d160 8f3d 5ef6 eebd f957 383e

layers.6.weight f4 [16, 32]
0.47605652 -0.12113306 0.26248553 -0.23298489 0.035369694 0.2343002 0.13319582 0.1963634
0.16696164 -0.12327786 0.058814723 0.013365986 0.1331877 -0.048445933 0.21371846 -0.15255924
0.052401036 0.16926183 0.07844829 0.066424936 -0.017949196 -0.09965059 0.48982757 -0.21343769
-0.12671433 0.1757959 0.06964317 0.24725728 0.081072606 0.0027226454 0.31658444 0.20622778
0.50481826 -0.03812333 0.22936758 -0.16965625 -0.05724236 0.3818892 0.1618541 0.33902654
0.05658796 0.13958627 0.2027253 -0.10472206 0.20125416 0.13132092 0.2896295 0.06542971
-0.102258034 0.09268709 0.11582585 0.06943583 0.034519624 -0.14577521 0.35153368 -0.19957337
0.012331266 0.23164017 0.24521844 0.2829671 -0.14238499 0.10444695 0.121414416 0.18096854
-0.7304922 0.4238425 -0.4954169 0.3707885 -0.051605817 -0.2230855 -0.25233966 -0.020677492
-0.16513668 -0.036124535 0.18555523 -0.00038625806 -0.27362335 0.20640571 -0.00060084555 0.14464167
0.025045248 0.028045166 0.036112696 -0.2426971 -0.13739689 -0.01290572 -0.29743177 0.09849369
0.027292345 -0.41997063 -0.07852904 -0.1436949 0.04162204 -0.08700258 -0.25455993 0.14833017
-0.82674366 0.27749217 -0.6937678 0.4291467 -0.06790681 -0.24751355 -0.3354127 -0.29100627
-0.18563135 -0.06487699 0.23253924 -0.0454584 -0.2616573 -0.043526616 -0.2339845 -0.017152192
0.20935588 0.007593715 0.21352662 -0.101188846 -0.15190747 0.17357896 -0.43168795 -0.21480052
0.14564852 -0.49085462 -0.15289141 -0.520623 -0.1649425 -0.30556336 -0.21324912 0.13995892
0.28541428 -0.15565802 0.20936938 -0.2537214 -0.10290576 0.03271886 0.088908985 -0.039909117
0.2450291 0.03982347 0.18854171 -0.15996338 0.16539906 0.08705507 0.35140136 -0.052336033
-0.14462523 0.05651398 0.12548442 0.1926392 0.313403 -0.17979196 0.47137165 0.0703607
0.057177596 0.25824803 0.090034254 -0.29971734 0.12638754 0.14762211 0.21346326 0.15945294
0.43370116 -0.06824035 0.046455488 -0.020713072 0.099722475 0.13455288 0.21604778 0.08720541
0.016216809 -0.02364758 0.023710594 0.051300503 0.24214084 0.020712571 0.14538603 -0.01595753
0.017169701 0.070457175 0.07028357 0.17061171 0.01598686 -0.103181385 0.3503177 -0.08228392
-0.041902803 0.20908159 0.29698393 -0.06493326 0.04383954 0.03681029 0.24543019 0.09306254
-0.70110667 0.28649613 -0.5887063 0.25381437 -0.0945281 -0.34712574 -0.2759501 -0.124852814
-0.19044162 0.13723879 0.18561007 0.09733415 0.014026635 0.16364527 -0.1440802 0.07528594
0.23005502 0.019420967 0.20631891 -0.22481677 -0.32199126 0.16525045 -0.37290725 -0.007396528
0.23833828 -0.30932376 -0.21155989 -0.3061176 -0.0056335833 -0.22254992 -0.13717449 -0.055278026
-0.6813284 0.35485616 -0.48194528 0.2951403 -0.12716593 -0.4027556 -0.032369934 0.049945734
-0.19476907 0.047092687 0.18037325 -0.07552867 0.077685945 -0.058825254 -0.0040306603 -0.051461644
-0.08342955 0.20464908 0.14268507 -0.16532734 -0.124094516 0.06331198 -0.36049196 -0.10215705
-0.08134098 -0.52542925 0.00622312 -0.28623646 0.00073002547 -0.28491622 -0.036881685 0.040600613
00000000: aebd f33e 9c14 f8bd 8164 863e 9793 6ebe
00000010: d0df 103d 64ec 6f3e 7c64 083e 7d13 493e
00000020: fef7 2a3e 1a79 fcbd b5e7 703d 02fd 5a3c
00000030: 5b62 083e 3e6f 46bd 03d9 5a3e 7d38 1cbe
00000040: 78a2 563d f952 2d3e 7fa9 a03d cc09 883d
00000050: 310a 93bc 9c15 ccbd aeca fa3e 698f 5abe
00000060: 67c1 01be d703 343e 14a1 8e3d 0331 7d3e
00000070: 6509 a63d 696e 323b 5b17 a23e 602d 533e
00000080: c53b 013f 3527 1cbd 56df 6a3e 5eba 2dbe
00000090: f776 6abd fb86 c33e 15bd 253e e394 ad3e
000000a0: c7c8 673d b4ef 0e3e 3997 4f3e 8578 d6bd
000000b0: 9215 4e3e fe78 063e 514a 943e 0300 863d
000000c0: a96c d1bd bbd2 bd3d 1a36 ed3d 5f34 8e3d
000000d0: 7364 0d3d 1946 15be 39fc b33e f65c 4cbe
000000e0: 1409 4a3c 1533 6d3e 8b1a 7b3e 10e1 903e
000000f0: 5fcd 11be 48e8 d53d 1fa8 f83d d14f 393e
00000100: 8901 3bbf e201 d93e 49a7 fdbe fed7 bd3e
00000110: 9f60 53bd 8670 64be aa32 81be d863 a9bc
00000120: 9719 29be 52f7 13bd 3102 3e3e ae82 cab9
00000130: 5c18 8cbe 055c 533e 1082 1dba f21c 143e
00000140: b12b cd3c fabe e53c e8ea 133d 9785 78be
00000150: c5b1 0cbe 8372 53bc fa48 98be 0fb7 c93d
00000160: 3294 df3c 6406 d7be d5d3 a0bd c224 13be
00000170: df7b 2a3d 692e b2bd ae55 82be dde3 173e
00000180: 79a5 53bf 7413 8e3e c49a 31bf 1eb9 db3e
00000190: ba12 8bbd 3174 7dbe 37bb abbe c6fe 94be
000001a0: 2516 3ebe 3ade 84bd c41e 6e3e 9632 3abd
000001b0: f2f7 85be f748 32bd a299 6fbe c182 8cbc
000001c0: 6361 563e b3d4 f83b b9a6 5a3e 193c cfbd
000001d0: a28d 1bbe afbe 313e 3406 ddbe abf4 5bbe
000001e0: e324 153e 4c51 fbbe 918f 1cbe 8d47 05bf
000001f0: b0e6 28be cd72 9cbe fa5d 5abe 6451 0f3e
00000200: d221 923e d164 1fbe ed64 563e c5e7 81be
00000210: 41c0 d2bd 3604 063d ea15 b63d be77 23bd
00000220: e9e8 7a3e ef1d 233d 1411 413e 71cd 23be
00000230: 5f5e 293e ee49 b23d e1ea b33e 4f5e 56bd
00000240: a318 14be 347b 673d fd7e 003e 3643 453e
00000250: 5c76 a03e 621b 38be a057 f13e 4519 903d
00000260: 0e33 6a3d 1639 843e e163 b83d 8d74 99be
00000270: bc6b 013e 402a 173e 1d96 5a3e a247 233e
00000280: 140e de3e 99c1 8bbd 1c48 3e3d 76ae a9bc
00000290: 4c3b cc3d 3bc8 093e a13b 5d3e c098 b23d
000002a0: 1dd9 843c 92b8 c1bc b83c c23c 7a20 523d
000002b0: c5f3 773e 69ad a93c 13e0 143e 5eb9 82bc
000002c0: 79a7 8c3c da4b 903d d5f0 8f3d d6b4 2e3e
000002d0: e0f6 823c c350 d3bd d75c b33e 7984 a8bd
000002e0: 46a2 2bbd 7c19 563e 470e 983e bbfb 84bd
000002f0: 1791 333d 63c6 163d 0d52 7b3e 9397 be3d
00000300: ba7b 33bf 9faf 923e 75b5 16bf f5f3 813e
00000310: f397 c1bd 77ba b1be 5549 8dbe d5b2 ffbd
00000320: 2103 43be 5388 0c3e 9110 3e3e 2057 c73d
00000330: f9cf 653c a092 273e c389 13be 842f 9a3d
00000340: 8b93 6b3e b818 9f3c 4445 533e 5e36 66be
00000350: 0adc a4be 6a37 293e b3ed bebe 935e f2bb
00000360: f30e 743e af5f 9ebe 28a3 58be 72bb 9cbe
00000370: ec99 b8bb 20e4 63be 7877 0cbe 366b 62bd
00000380: 8a6b 2ebf b5af b53e 88c1 f6be a11c 973e
00000390: c937 02be fb35 cebe 5696 04bd e693 4c3d
000003a0: 8b71 47be 43e4 403d c4b3 383e c6ae 9abd
000003b0: cf19 9f3d c0f2 70bd a113 84bb 72c9 52bd
000003c0: 1ddd aabd 878f 513e 091c 123e 924b 29be
000003d0: 4425 febd b6a9 813d 6792 b8be b737 d1bd
000003e0: 1a96 a6bd 8882 06bf 50eb cb3b 968d 92be
000003f0: 2e5f 3f3a 8ae0 91be 4011 17bd d44c 263d

layers.6.bias f4 [16]
-0.0679716 -0.2358758 0.54838413 0.4354931 -0.042201083 -0.050306473 0.5688156 0.34522563
-0.08724271 -0.12475752 -0.14898187 0.44275752 -0.030475657 0.40747467 0.30998895 0.054738045
00000000: b234 8bbd 6d89 71be e762 0c3f f4f8 de3e
00000010: 0bdb 2cbd 290e 4ebd e69d 113f 6ac1 b03e
00000020: 4eac b2bd df80 ffbd b48e 18be 1db1 e23e
00000030: 16a8 f9bc 85a0 d03e dfb6 9e3e 0035 603d

layers.9.weight f4 [1, 16]
-0.23964982 -0.20699872 0.71084 0.58828557 -0.2866431 -0.32542974 0.4706421 0.4929916
0.07704822 -0.010429495 -0.31067368 0.5901179 -0.3037436 0.64806587 0.8373928 -0.315199
00000000: c366 75be 79f7 53be 9cf9 353f e299 163f
00000010: e2c2 92be ba9e a6be 00f8 f03e 6569 fc3e
00000020: 75cb 9d3d 79e0 2abc 9f10 9fbe f711 173f
00000030: 4884 9bbe a5e7 253f 605f 563f c361 a1be
