models/Mean/antipion.pt (torch, 18905 bytes, 7 tensors)

layers.0.weight f4 [64, 19]
00000000: 062e 6abe fead 10be f8cc 0bbd 7b33 053e
00000010: ae7e d23d 0457 213d bbf6 083e b974 233e
00000020: ca6a 8ebd 7e6e 993d 8441 0ebd fa8d 823d
00000030: 48e4 ea3c e2a8 3ebe eeda 14be f294 90bd
00000040: c074 683c 166a e03d 009f 41ba c00d 3cc0
00000050: 7c1b cb3c 7ac5 f1b8 b207 e4be 09cc fabe
00000060: d5b8 483e e941 7d3d f421 b73a da27 603b
00000070: b2bb 29bc 0654 5bbe cf67 063b b46e 163b
00000080: 2f70 39bc cc3d 813b 6127 94bb 7a41 023c
00000090: 890c 7c3c 9516 7d3c c291 9bbe 5fb8 5dbf
000000a0: aea4 c13b 42cc a4be 723a 30c0 d977 98be
000000b0: db74 e8be 513f 12bd f939 143d 39fd 583c
000000c0: 0926 c33e 82eb 4e3d f9ab e33c d68c 183b
000000d0: 4662 f0bc 19e6 ae3b 422a 83b9 f777 8d3d
000000e0: bdde f23b 1327 623f 054b 5abc b579 d8ba
000000f0: f7a6 163f 3f8a 4b3e 0c18 243f 77ab 373f
00000100: 4802 e43d f7a7 943d a977 cbbc f3ea 11bf
00000110: e2d1 eebd eb1f a1bd 07a2 a63d 680f a93d
00000120: c70d 28bc 9c57 1cbc 477f e9be 8115 513c
00000130: 2f11 433e 64c6 89bd 358f 4b3e c60a ff3d
00000140: 0a49 9ebd de54 a93d 68e3 48bd ab11 203e
00000150: 74dd 50be 542b 6abd 9857 25be 58de 3abd
00000160: fea0 9ebd b0f1 e8bc 96fa 98bd 7c9e c5bd
00000170: 8536 5e3e 9770 2dbe 5041 5fbd d56f 373e
00000180: a273 33be beb0 84bd d344 f0bd 98d2 86bd
00000190: d1f9 3f3e 580b 36bd c88d 57be 8893 bfbc
000001a0: 42ee 9f3d 2d32 33be 1a60 e73d 10e4 4b3c
000001b0: 1c64 00be 993c 2ebe 4e15 56be 5a91 bc3d
000001c0: b3fc 2f3e ff33 fcbd 35a8 d1bf 5592 b83c
000001d0: d52a a6ba 4ea1 0bbe 9b1d 1540 4147 4ebe
000001e0: 2e47 783e 9d85 d4bd 244f 363d 57be 2dbc
000001f0: f7ff 5bbf 829b f8bc dc87 cb3d a4fa 693c
00000200: 2731 1c3c 8272 d0ba d8ea 0a3d f023 4bbc
00000210: 3fa8 343d 70c1 0740 c763 853c 291e 31bb
00000220: 64a9 ce3d 1dab d1bf 2395 d5be 16ee 0fbf
00000230: 52b9 ac3c 2112 8b3b 7376 503a 5c6f 8c3e
00000240: 8429 1abd f1f3 c2bc 5ee9 483c d7aa cebb
00000250: 9580 a33b d4f7 2a3d f8ca d13d c08e dd3c
00000260: 5b3f 10c0 8ef4 e6be 8f9f 6eb9 b75f 173e
00000270: 2b32 efbe 74ee 6a3e c268 c53e f246 fc3c
00000280: 75f2 d7bb e64c 4ebb e15e 57bf 76fc f53c
00000290: 0b8d 4fbd 2ea5 063c 5957 99bc 070a 10bc
000002a0: 8fba 013d 8fb0 893d 682d 5dbe 9fb5 95bf
000002b0: 694b 213c ae12 203a bcc6 21bb dd75 08be
000002c0: a039 8ebf 8676 1bbf b6de 93bd 5641 b53d
000002d0: d92f 163c 53f3 82bf 5f21 7ebc f059 fd3c
000002e0: d035 d8ba 9ad5 d83b 1747 6d3a 888a 073b
000002f0: 316c a33b fb1a 1fbb 057f 853d ebcc 4d3e
00000300: 32ec 183d abe3 8abc bfe3 163e 25c1 0cbe
00000310: 2805 f93d ba89 12be a3ae c53d 3c62 46bd
00000320: af4c a9bc 08f5 0d3e 3043 543e bc0b 08be
00000330: d0dc 1b3e bcb8 88bc f930 f9bd f6fe 8eb8
00000340: cc37 003e 36b7 903f c4db 913a af7a 8cba
00000350: c00b db3e 5397 97bf 303a 393f ed0c 183f
00000360: 946b 6dbd 9487 033c f92b a5bb 7496 383f
00000370: 4228 ee3b c802 213d 443f 12bc f1a4 25bc
00000380: 3697 aeb9 327e 433b f6d8 7bbc 2072 a5ba
00000390: d81b 91bc 3d13 30be 8870 e53c 92f5 a2bd
000003a0: 7d39 4c3e 0d53 4b3e c02a 133b 0797 48be
000003b0: fbe1 33be 978e 353e 6014 29be 0495 2ebe
000003c0: 6192 553e 30fa 8a3c 7ee4 a83d cc7f 01be
000003d0: ae54 893d 7db4 273e df07 5dbe d220 cabf
000003e0: 4ddd 82be 37a1 ae3a 48db 3fbf 9dbb 0abf
000003f0: 2834 6f3e 7190 a73a 3d43 153c 4713 86bb
-0.22869119 -0.14128873 -0.03413102 0.1300792 0.102780685 0.039389625 0.1337537 0.15962495
-0.06953962 0.07491778 -0.03473045 0.06374736 0.028673306 -0.18619111 -0.1453664 -0.07059659
0.014187992 0.10957734 -0.00073860586 -2.9383392 0.024793379 -0.000115285584 -0.4453712 -0.4898379
0.19601758 0.061830435 0.0013971911 0.003420344 -0.010359691 -0.21418771 0.0020508652 0.0022954168
-0.011318251 0.0039441343 -0.004521296 0.007950181 0.015383848 0.0154472785 -0.30384642 -0.8660945
0.005909524 -0.32187086 -2.7535672 -0.29778937 -0.45401654 -0.035704914 0.0361881 0.013243967
0.38114956 0.050517567 0.027791964 0.0023277304 -0.029343735 0.0053374884 -0.00025017752 0.06907647
0.0074118064 0.8834087 -0.01332355 -0.0016515764 0.5884852 0.19876955 0.6409919 0.7174601
0.111332476 0.07258599 -0.024837332 -0.5699913 -0.11661126 -0.07867416 0.08136373 0.08254892
-0.010257191 -0.009542372 -0.45604917 0.012761475 0.19049524 -0.06727293 0.19878848 0.12453227
-0.07728775 0.0826814 -0.049044997 0.1563174 -0.20396978 -0.057170227 -0.16146696 -0.0456222
-0.077455506 -0.028435558 -0.074696705 -0.09649369 0.21700485 -0.16937481 -0.054505646 0.17913754
-0.17524579 -0.064790234 -0.11731877 -0.06583136 0.18747641 -0.044444412 -0.21050179 -0.023385778
0.07809116 -0.1749961 0.11297627 0.012444511 -0.12538189 -0.17015304 -0.20906565 0.09207411
0.17186241 -0.12314605 -1.6379458 0.022530714 -0.001267756 -0.13635752 2.329932 -0.20144369
0.24245903 -0.10377047 0.044509068 -0.010604463 -0.85937446 -0.03034759 0.099380225 0.014280949
0.009533203 -0.0015903267 0.03391537 -0.012398705 0.044105764 2.1211815 0.01628293 -0.0027026033
0.100909024 -1.6380345 -0.41715345 -0.56222665 0.021084461 0.0042441045 0.00079522206 0.2742871
-0.03763725 -0.023797961 0.01226267 -0.006306987 0.0049896934 0.041740254 0.10243791 0.027045608
-2.253867 -0.45108455 -0.00022756889 0.14782606 -0.46717963 0.22942525 0.38556486 0.030795548
-0.0065901824 -0.003147894 -0.8412915 0.03002761 -0.05067162 0.008218093 -0.018718408 -0.008791453
0.031672057 0.06723129 -0.21599352 -1.1696051 0.009844639 0.0006106299 -0.0024685105 -0.13326211
-1.1111336 -0.6072773 -0.07220213 0.088503525 0.009166681 -1.0230507 -0.015510886 0.030926675
-0.001649553 0.00661726 0.0009051426 0.0020681936 0.0049872627 -0.0024277556 0.06518368 0.20097701
0.03733463 -0.016954264 0.14735316 -0.13745554 0.121591866 -0.14310351 0.0965245 -0.048433527
-0.020666448 0.13863003 0.20728755 -0.13285726 0.15220952 -0.01668965 -0.12167544 -6.818578e-05
0.12521285 1.1305912 0.0011128117 -0.0010717715 0.42782402 -1.1843055 0.7235441 0.59394723
-0.057963923 0.00802793 -0.0050406423 0.72104573 0.0072679827 0.039309293 -0.0089262165 -0.010110126
-0.00033300527 0.0029829857 -0.015371552 -0.0012622513 -0.017713472 -0.17194839 0.02800776 -0.07956995
0.19943805 0.198559 0.00224559 -0.19588862 -0.17566673 0.17730175 -0.16511679 -0.17049032
0.2085662 0.016965002 0.082467064 -0.12646407 0.067056045 0.16377445 -0.21585034 -1.5791266
-0.25559464 0.0013323192 -0.7494397 -0.54192525 0.2335974 0.0012784136 0.009110269 -0.0040916535

layers.0.bias f4 [64]
00000000: de3c 58be 7797 9b3d 272a 15be b2fd e5bd
00000010: 6342 513e b8fd 4fbe ab36 b3be 914e c83a
00000020: 8c51 303d aa76 35be 0caf 55bc 4c2c 923d
00000030: 3b05 233e 63ec f93d 245e b6be 2c30 6c3d
00000040: 161a 12be 62eb 9fbe b18e 69be 934c 133e
00000050: 294e 283e 5916 643e fa14 60be c3a7 203e
00000060: 3c73 1ebe 69d4 64be 14d3 3b3d a8d7 b13c
00000070: 718a eabc b924 febd 084e 35be f10a 7dbc
00000080: 955a 073e d46e 49be 1c57 2fbd 2f38 c83d
00000090: 047d 42be 2c95 23bd 0fec b9be e827 c73d
000000a0: 262f 1bbe c8b1 17be 8c0c 76be e23b 01be
000000b0: 90b7 433c 2ceb 4dbd 1dc5 c0bc 8349 5d3d
000000c0: b048 a7bc dcb7 243d ae19 0bbe 9720 6bbd
000000d0: ecd7 8ebd d476 15be 1c19 afbd 0d7f e73d
000000e0: 2281 013e 1cd3 14bd 59bb 28be 6add 8f3d
000000f0: 57ef e0bc bcce 30be 84aa 27be 3016 293c
-0.21116969 0.07597249 -0.14566861 -0.11230029 0.20435481 -0.2031163 -0.35002646 0.0015282204
0.04304652 -0.17721048 -0.013042223 0.07137355 0.15919964 0.1220329 -0.356187 0.057663128
-0.14267763 -0.3123427 -0.22808339 0.1438468 0.16436066 0.2227415 -0.21883002 0.15688996
-0.15473646 -0.22346653 0.045855597 0.021709278 -0.028630467 -0.12409348 -0.17705548 -0.015444503
0.13218148 -0.19671184 -0.042807683 0.09776341 -0.18993002 -0.039937183 -0.3631291 0.097244084
-0.15154704 -0.14813912 -0.24028224 -0.126205 0.01194562 -0.050273106 -0.023531491 0.054025184
-0.020420402 0.040214404 -0.13584015 -0.057404127 -0.069747776 -0.1459611 -0.08549711 0.1130353
0.12646917 -0.036334142 -0.16477717 0.07024653 -0.027457876 -0.17266363 -0.1637364 0.010320231

layers.3.weight f4 [32, 64]
00000000: 30df 48bd 5231 59bf c95c 93bd b6b1 96bb
00000010: 5af2 c23d 3833 db3d 70b8 20be 0066 873c
00000020: 6a96 1fbf 1cbd 05bf b275 3d3d e050 3bbd
00000030: 0008 ad39 8084 df3d 79db 5cbf ca55 a9bd
00000040: 1c7b d8bd d4a5 fdbc 90a5 00bc b742 abbc
00000050: 2031 adbc 0256 dfbd 01eb 213c 1c08 de3d
00000060: 956d 633c 2ce3 7f3d 2823 35bd 28fc 10bd
00000070: b40c 9abc f268 833d e983 e83b 27f5 a83e
00000080: a048 cfbd fc00 2abd be2a f4bd 290c 683e
00000090: 4c14 c73d de8f d63d 96bc 5f3d 2ded 753a
000000a0: a442 da3d b849 b8bd bc59 a4bf 3fa6 0fbe
000000b0: 68c9 9f3d 54dd e03d 6ea8 0fbf a717 8ebe
000000c0: 580f c33c 882c dd3c 1035 69bc a635 11bd
000000d0: 6e9a a73d b8d7 b7bd 28f5 e6bc 2179 443d
000000e0: 84b7 83bc f74e ddbc 9032 9b3c f050 e03c
000000f0: bebd 83be 08f1 0ebd ec23 9bbd f651 d73d
00000100: 3a08 9cbd f965 26be 8b68 0bba 0b6f 1bbd
00000110: 3edb e93d 083d 963c d7b1 8a3e 32bf de3c
00000120: 1a5e 8ebe 77e3 4a3f dd7a d0bd bfee 9cbb
00000130: 7873 efbd 8dd5 1dbf ff26 383f 7840 abbd
00000140: 0e15 debd 3086 e33d 1039 2fbc 9cbd 6dbb
00000150: 20a7 e8bb 0074 4bbc 6d8d 423d 5864 633d
00000160: 19af 6bbc cc6e 8b3d be1a f13d 1037 22bd
00000170: 4e97 073e b6dc a03d 5ca1 9f3c 113a 93be
00000180: b6de f8bd 605a 56bd b0b2 473c 07ca 8fbe
00000190: 02bb ef3d 9cbc 023d 9f08 96bc 4348 ae3b
000001a0: a08c a1bb 30f3 a1bd a173 473f 6169 cdbd
000001b0: 047b dfbd b0fb 9bbc 1c0a 4cbd 0b96 b2bb
000001c0: 9487 55bd 0092 4cbd 1485 213d 14fe d43d
000001d0: deb8 f93d a45e 9b3d f01a 493d 0018 42be
000001e0: 5b0b f6bb 624d 40bd 30ce d33c 1aff ce3d
000001f0: bc69 703d d0ef bc3d e002 0d3d 0ee2 efbd
00000200: 1e33 a13d 67e8 9b3d 6aa1 8a3d f00a fbbd
00000210: a45a 6ebd 44f5 7dbd 0d18 dd3d 16d7 c3bd
00000220: e2c5 a3be 759c d73e 9141 af3d 007f 53bd
00000230: 72d7 fbbd 7f34 c3be 1672 90bf 5457 f0bd
00000240: f054 28bd 1276 b53b 1cbd c7bd 02ca e8bc
00000250: c059 c9bd 301e 583d 8f98 33bf 6cf9 483d
00000260: e44a 753b c069 be3b b63e a5bd 54ff 473d
00000270: 1fdb b43d 00ca 393b e7d3 b6bd ab13 1fbf
00000280: 9863 cf3c 0e19 91bd a409 63bd 02e1 3fbf
00000290: 5c38 07bd 2a5c ef3d ec03 c13d 7e77 2abe
000002a0: f0d5 c9bd 2c35 0c3d c44f 8fbf 6742 9f3d
000002b0: 10b1 09bc 1c1b bf3d 1ef3 8dbe 2614 803d
000002c0: f68d 85bd f871 72bd c47a d43d 19cf 44bd
000002d0: 180f 903d d858 f3bd a09b 78bc 3a2f b13d
000002e0: 7084 ae3c 061d 323d ea76 d03d 909b 4a3d
000002f0: 81e2 5f3e 9655 823d 8a64 823d d60f 8ebd
00000300: 3461 67bd 8d47 463e 202a 78bb bf76 56be
00000310: acde 51bd 4c0a 69bd e77e 1d3e bbb5 713c
00000320: bf02 fbbd bcf6 a23e 8387 e83d 0600 a0bd
00000330: a0bf 02bd 41a6 cabe 3f5f 393f 0a57 923d
00000340: b8d8 053d 2278 6b3d f8c0 013d a65e 193d
00000350: 3854 43bd 6c86 543d 54d6 8a3d 6ca9 d2bd
00000360: 488b cd3d 4e4e b03d 3e7a 93bd 66d4 853d
00000370: 40a1 8c3d dcc4 37bd e49f 303d 4742 a1be
00000380: 26a4 d43d e245 87bd b047 25bd 3768 e8be
00000390: 8061 09bb 3097 adbc 19e7 9bbd 5e52 86bd
000003a0: e032 b93c 00d8 4f3a e4cb 6e3f 699d 4d3d
000003b0: 640a 083d a0f3 893d 3645 09be 5076 7b3c
000003c0: c027 d23d 1090 ef3c 743f f63d 7f0c 013e
000003d0: 5448 eabd 8023 fcba a280 ad3d 8f71 32be
000003e0: 23f3 39bc 7d9e d5bc 4a27 a4bd f61c be3d
000003f0: d2c4 943e 8085 af3b 50b1 eabc 7495 c93d
-0.049040973 -0.8484088 -0.07195432 -0.0045988215 0.09518881 0.107031286 -0.15695357 0.01652813
-0.6233889 -0.52241683 0.04625482 -0.045731425 0.00033003092 0.10913944 -0.8627239 -0.08268316
-0.10570356 -0.030962862 -0.007851973 -0.020905836 -0.021141589 -0.109050766 0.009882689 0.108413905
0.013881107 0.062472507 -0.04422298 -0.035396725 -0.018804885 0.06416501 0.007095803 0.32999536
-0.10121274 -0.041504845 -0.11922215 0.22660889 0.09720668 0.10476659 0.05462321 0.000938135
0.10657242 -0.08998436 -1.2839885 -0.14028262 0.07802087 0.10979715 -0.5611638 -0.2775242
0.023811027 0.026998773 -0.0142338425 -0.035451554 0.08183752 -0.08976692 -0.028193071 0.04796708
-0.016078718 -0.027015192 0.018945009 0.027382344 -0.257307 -0.034897834 -0.07575211 0.1051368
-0.076187566 -0.16249837 -0.00053180073 -0.037947696 0.1141877 0.018339649 0.27088806 0.027190778
-0.2780617 0.79253334 -0.10179684 -0.004789203 -0.11691946 -0.6165398 0.71934503 -0.08361906
-0.108438596 0.111095786 -0.010694757 -0.0036276346 -0.007100001 -0.012417793 0.047498155 0.055515617
-0.014385008 0.06808242 0.11772679 -0.039603293 0.13241312 0.07854597 0.019486122 -0.2875524
-0.12151854 -0.052332282 0.0121885985 -0.28083822 0.11705591 0.031918153 -0.018314658 0.005318673
-0.004930094 -0.079077125 0.7791081 -0.10029865 -0.10912135 -0.019040912 -0.04981433 -0.0054500154
-0.05213125 -0.049943924 0.039433554 0.10400024 0.12193464 0.07586411 0.049097955 -0.18954468
-0.007508678 -0.046948798 0.025855154 0.101072505 0.058694586 0.09225428 0.03442657 -0.117130384
0.07871078 0.076126866 0.067690685 -0.122579455 -0.05819191 -0.06200148 0.10795603 -0.09562509
-0.3198691 0.42111555 0.08557428 -0.05163479 -0.12296952 -0.3812599 -1.1284816 -0.117354065
-0.041096628 0.0055377567 -0.097528666 -0.028416637 -0.098315716 0.052763164 -0.7015466 0.049065992
0.0037428671 0.005810946 -0.08068602 0.048827484 0.088308565 0.002834916 -0.08927136 -0.62139386
0.025316045 -0.07084857 -0.055429116 -0.7495271 -0.033012733 0.11687501 0.09424576 -0.16647145
-0.098552585 0.034230396 -1.1196218 0.07776337 -0.008404031 0.093313426 -0.27724546 0.06253843
-0.065212175 -0.05919072 0.10374978 -0.048049066 0.07034129 -0.1188218 -0.015173823 0.08651586
0.021303385 0.04348471 0.10178931 0.049464762 0.21863748 0.063639805 0.063668326 -0.06936614
-0.056489184 0.19363232 -0.0037866905 -0.20943736 -0.051237747 -0.056894585 0.1538044 0.014752801
-0.12256383 0.31828868 0.11353972 -0.078125045 -0.03192103 -0.39579967 0.7241096 0.07145508
0.032677382 0.057487614 0.03167817 0.03744378 -0.04768774 0.051886007 0.06779161 -0.10286221
0.100363314 0.086086854 -0.0720105 0.065346524 0.068666935 -0.044865474 0.043121234 -0.31495878
0.10382871 -0.06605126 -0.04035157 -0.4539201 -0.0020962656 -0.021190256 -0.07612438 -0.06558679
0.022607267 0.000792861 0.9327986 0.050198946 0.033213034 0.06735921 -0.13405308 0.015348032
0.10261488 0.029243499 0.120238215 0.12602423 -0.11439577 -0.0019236654 0.084718004 -0.17426132
-0.011349472 -0.02607655 -0.08015306 0.092828676 0.29056412 0.0053564906 -0.028649002 0.09842959

layers.3.bias f4 [32]
00000000: ca3d 123e a5dc 8abd e101 493e e95c a9bd
00000010: ed29 6dba 6911 323e 0617 b63e ccfe ac3c
00000020: ba79 293e 8238 e03e 37e0 9a3e d328 34bc
00000030: 8643 78be 95b1 323d e91f 81bf da70 1ebe
00000040: a546 0dbe cf91 0d3e 98a4 78be 1970 f83c
00000050: 7d0f 443e 0da2 ef3d b630 053d 9266 9e3c
00000060: f61a 283e cdb7 483d 6249 423e 2520 593e
00000070: 8cbb 973e f9cf 3a3e bdc6 133e 1435 243e
0.14281383 -0.06780366 0.19629623 -0.08269674 -0.000904708 0.17389454 0.3556444 0.02111759
0.16550341 0.43793112 0.30249187 -0.010996061 -0.24244508 0.043626387 -1.0087863 -0.15472737
-0.1379648 0.13825153 -0.24281538 0.03032689 0.19146533 0.117008306 0.032517157 0.019336019
0.16416535 0.04900341 0.18973306 0.21203668 0.29635274 0.18243398 0.14431281 0.16035873

layers.6.weight f4 [16, 32]
00000000: 966c 37bf db3d cf3a 5fd9 d83d a3d6 eebd
00000010: 5987 803d 9b9e 1b3e 2943 2c3e 5459 ccbe
00000020: 7e9a 03bf 3bb7 903e c7e7 513b 9659 febc
00000030: 8a14 b2be 7f48 073e 59fc f43d 2ae5 12be
00000040: f26f 52be 1507 a3be 4c71 41bd 3235 b23e
00000050: 4395 0abf 045c a63d 3416 d63c 6dce 64be
00000060: 9387 3a3f 6597 923e 946f 903e 487f 5c3e
00000070: 51e5 ed3d 09dd 863e 3a8f 0ebf 9e37 533f
00000080: 41eb 5fbf 3590 5d3d 3122 f33c 2051 50bc
00000090: 931f eb3d 6745 6d3d 922b 033e 36fe 23bf
000000a0: 1048 27bf c60a 143e 5aa3 5a3e ce09 a5bc
000000b0: ce33 32bf a4a1 1b3e 803e 96be fe32 173e
000000c0: d3da 51bd a0c7 c7be 004b 02bf 1f5d e13e
000000d0: 2fc4 ddbe 4cfa 94bd 4966 6a3d 8e47 42be
000000e0: 9cc5 053f e777 323e b249 d63e 5ac6 973e
000000f0: 3e41 063e 5124 de3c 3f6d cdbe c0e7 3f3f
00000100: ac27 26bf 98b6 06be 3001 373e 5a65 55bd
00000110: ca3c 633e d227 013e e032 5a3e 2610 d6be
00000120: 39a2 0ebf bff6 863e e831 61bd 094c 48bd
00000130: 1799 efbe ad31 043d 4efd dd3d 72f9 15be
00000140: 3ddb efbc 25b1 c1be d45b efbd cf79 013f
00000150: 21fd 3bbf 7d2f 383e 5fb4 4a3d 05b6 b4be
00000160: f627 243f 4464 173e 0d07 cd3e c04f fc3e
00000170: 383c b7b8 6bbb c03e 21c9 e9be 7761 723f
00000180: a055 713f d77f 11bf 6106 b4be b9e4 8dbe
00000190: e5f0 3cbf c442 b2be 4584 aebe b7c8 a13e
000001a0: 7a8b f83e cdf6 ce3d eccc c1bd f960 5cbf
000001b0: bb9d 1a3f 3c00 d0be ede5 b0be ce0a 2ebd
000001c0: f6e0 1bbf 85a8 05be e83c 06bf e4df 92bf
000001d0: 1cd9 263e 83f8 cfbe 9080 93be dcec 323e
000001e0: da8f 30be 5783 eabc 13b0 b3be e63a 83bd
000001f0: 8318 bf3b 9241 87bf 0636 8f3e ce77 16bd
00000200: a5ed 613f 3f17 1cbf c216 24bf 246a d8be
00000210: 352c 0abf d5be 06bf 979e f2be 631b 853e
00000220: 5a04 153f 3a3a 623e eaa3 62be 5f11 dfbe
00000230: 71ad fa3e 08d8 96be bc83 ddbe 0def ddbd
00000240: f443 16bf 7721 f8bc 3228 1cbf d92c 73bf
00000250: 6713 053e 9d10 31bf 6eb3 a5be e826 843e
00000260: ab4e 13be 5bc1 a8bd 211f c3be 2ec6 60be
00000270: 2e1a 1e3d 0388 26bf e2ed 0b3f 123f bfbc
00000280: 8965 4e3f aadd f9be 8786 f8bd abbd e5bd
00000290: baff 96be e9b8 30be d393 52bd b4ce a13e
000002a0: a03f 323e 9e11 403e 8889 373d 7741 4cbe
000002b0: d10e f83e 72af d9be 0e5e e0be 910e 9cbd
000002c0: a551 aabe 2545 e63d 74dd dcbe f3a4 9ebe
000002d0: d743 473d 4cad 133c fd8b 09be ebb8 673d
000002e0: c9c8 afbe d959 cc3d 453a 93bd c915 f53c
000002f0: 2819 773e f141 8cbe d8b6 023f 344f 8b3c
00000300: 3cc1 13bf 71db 24be 31da 6b3e 34a5 cbbd
00000310: d984 e53d 6032 0e3d 9b1a 6e3e e272 dbbe
00000320: 02ea 1ebf 910f a43e 296e e63d 89c6 a73d
00000330: 2469 0abf 3c83 373e ea12 2a3e b223 ebbd
00000340: d73a 8c3c 05e8 4abe 3e49 f53d f6c6 9a3e
00000350: 4a75 9ebe ff85 983e 695b f63d 2887 eabd
00000360: 2afa 2c3f 4517 3f3e ef10 073f 76de ba3e
00000370: 7b8d 5f3e 3ea1 a73e 545f 05bf b458 773f
00000380: f5e7 52bf e4f6 11bd 4012 003e c8eb 193c
00000390: cb38 c1bc 2715 b4bd d32b 7f3e c88d c2be
000003a0: d287 45bf 4c69 5f3e d8c2 7d3e 62b5 913d
000003b0: 39a3 16bf 6921 d43d 1fbe 29be 9100 a1bd
000003c0: 01fc 9bbd a332 d0be 6932 92be 0e06 083f
000003d0: f95d 4abf 1094 803e dd54 abbd c16f 5dbe
000003e0: 5003 363f 7ca6 6d3e 19f5 883e f0a0 f13e
000003f0: 9512 203d b511 933e ee7b 00bf 765b 2a3f
-0.71650064 0.0015811281 0.10588335 -0.116620325 0.062758155 0.15197222 0.16822495 -0.39911902
-0.5140761 0.28264794 0.003202902 -0.031048577 -0.34781295 0.13211249 0.11962194 -0.14345232
-0.20550516 -0.3184134 -0.04722719 0.3480621 -0.54134005 0.08123019 0.026133634 -0.2234437
0.7286312 0.2863113 0.28210127 0.21532929 0.11616004 0.2634051 -0.55687296 0.8250674
-0.87468344 0.054092605 0.02967939 -0.012714654 0.11480632 0.057927515 0.1280959 -0.6405977
-0.65344334 0.14457235 0.21351376 -0.020146277 -0.696103 0.1519838 -0.2934456 0.14765546
-0.051234078 -0.3901949 -0.5089569 0.44016358 -0.4331374 -0.07274303 0.057226453 -0.18972608
0.5225465 0.17428552 0.418531 0.29643518 0.13110825 0.027116926 -0.4012241 0.74963
-0.64904284 -0.13155591 0.17871547 -0.05209861 0.22191158 0.12612846 0.2130847 -0.41809195
-0.5571628 0.26360127 -0.054979235 -0.048900638 -0.46796486 0.032273937 0.1083933 -0.14645937
-0.029279346 -0.37830463 -0.11687437 0.5057649 -0.7343312 0.17986865 0.04948842 -0.3529512
0.64123476 0.14784342 0.40044442 0.49279594 -8.7373366e-05 0.3764299 -0.45661262 0.9467997
0.9427128 -0.56835693 -0.35161117 -0.27713564 -0.73805076 -0.34816563 -0.3408529 0.31598446
0.48543912 0.10105667 -0.09462914 -0.8608547 0.6039693 -0.4062518 -0.3455042 -0.042490773
-0.6089014 -0.13052566 -0.52436686 -1.1474576 0.16293758 -0.40619287 -0.28809023 0.17473167
-0.17242375 -0.02862708 -0.3509527 -0.06407718 0.0058317794 -1.0566885 0.27970904 -0.03673535
0.8825324 -0.6097297 -0.64097226 -0.4226848 -0.53973705 -0.52634937 -0.4738662 0.25997457
0.58209765 0.22092524 -0.22132841 -0.4356794 0.4896045 -0.29461694 -0.43264568 -0.10836611
-0.5869744 -0.030289395 -0.60998833 -0.9499031 0.12995683 -0.69165975 -0.32363456 0.25810933
-0.14385478 -0.08240005 -0.38109687 -0.219506 0.038599186 -0.6505129 0.54659855 -0.023345504
0.8062368 -0.4880193 -0.12135034 -0.11217817 -0.2949198 -0.17258038 -0.051410507 0.31603014
0.17407084 0.1875672 0.044808894 -0.19946848 0.48448804 -0.42516667 -0.43821758 -0.07619966
-0.33265415 0.11243657 -0.43137705 -0.3098522 0.04864868 0.009013485 -0.13432308 0.056572836
-0.34332874 0.099780746 -0.071888484 0.029917615 0.2413069 -0.2739406 0.5106025 0.01700554
-0.5771673 -0.16099335 0.23032452 -0.09943619 0.11206979 0.03471601 0.23252337 -0.42861086
-0.6207582 0.32043126 0.1125148 0.081921645 -0.5406668 0.17921156 0.16608778 -0.11481418
0.0171179 -0.19815071 0.119768605 0.3022992 -0.3094886 0.2978973 0.12029154 -0.1145156
0.6756922 0.1866122 0.52760214 0.3649785 0.21831314 0.32740206 -0.52098584 0.96619725
-0.8238519 -0.035635844 0.12506962 0.009394594 -0.023586651 -0.08793097 0.24919061 -0.37998796
-0.7716037 0.21817511 0.24781358 0.07114674 -0.5884281 0.10357935 -0.16576432 -0.07861436
-0.07616425 -0.40663633 -0.28554085 0.5313424 -0.7904964 0.25112963 -0.08365796 -0.21624662
0.71098804 0.2320804 0.26749495 0.47193098 0.03908022 0.28724447 -0.501891 0.6654581

layers.6.bias f4 [16]
00000000: 461e 593e f4da 053e eeb2 b83e 5f14 c93e
00000010: 08b7 af3e da81 9f3e baae bd3d c622 a73e
00000020: 7214 c13e e367 123e f90b ab3e f0b7 ba3e
00000030: d825 ab3e dc4e 913e 964d e43d 55de cf3d
0.21202955 0.13071805 0.36074013 0.39273354 0.3431933 0.31153756 0.09261842 0.32643718
0.3771091 0.14297442 0.33407572 0.36468458 0.3342731 0.28380477 0.11147611 0.10149828

layers.9.weight f4 [1, 16]
00000000: d556 163f 4e67 4a3f fd32 e33e 1b31 d5bf
00000010: 9834 d5bf 2dcd 51bf 0e6f ee3e c995 f43e
00000020: 0299 21bf 3a9a d53e 0862 6cbf 67f3 58bf
00000030: 834f 2d3f ca2b 50bf 645b 153f cefa 083f
0.58726245 0.7906388 0.44374838 -1.6655611 -1.6656675 -0.819537 0.46569103 0.47770527
-0.63124096 0.41719228 -0.92337084 -0.847464 0.6769945 -0.81316817 0.58342576 0.535077
