models/Mean/antikaon.pt (torch, 18905 bytes, 7 tensors)

layers.0.weight f4 [64, 19]
0.6705187 -0.038332634 0.0026487336 0.5990848 -0.049756948 1.0351524 0.6384665 0.069587804
0.078541316 -0.04111541 0.7535604 -0.03821408 -0.0479545 -0.0066835475 -0.02365839 -0.0021353392
0.021857902 0.045101635 0.012920905 0.023982003 -0.22524473 -0.12691227 -0.0148126185 0.14347477
-0.13003007 0.065099046 -0.099663705 0.075501576 -0.047680333 0.07516371 0.1725006 -0.07481988
-0.10693042 0.11027901 -0.02636695 -0.004182562 -0.0803912 -0.08928603 0.3271276 0.08486052
0.00023214951 -0.5481394 -0.3448238 -1.6114856 -1.4073478 -0.005178754 -0.13436231 -0.08885365
-0.9143929 0.040972073 -0.024093768 0.0107966745 0.0018084412 0.0030345088 -0.18982196 -0.07333763
0.01897596 0.16946863 0.04323496 -0.18856521 0.056993708 0.115524456 0.072695956 -0.00013288856
-0.12079495 0.0036713183 -0.07315384 -0.13460448 -0.016571522 0.1466452 -0.16401191 -0.07770203
-0.032252267 0.07709007 0.031090036 -0.10323359 0.04686074 -0.022540107 0.095916614 0.13025503
0.1261081 -0.20661655 0.13546537 0.15463854 -0.15104622 -0.11750603 0.045233265 0.18211849
-0.11686027 0.22130312 -0.22204296 -0.088376716 -0.11459065 0.17076536 -0.1133636 -1.8139509
0.011512863 -0.00056834996 -1.3369012 1.7303345 -0.9089354 -0.5002366 -0.011417319 0.0033922722
-0.0012193297 1.0769272 -0.007869793 0.022706503 0.011648848 0.030386664 0.008301014 0.003192276
0.00013299064 -0.0013079538 0.1731719 0.005806626 -0.17613171 -0.19612469 -0.036025155 0.1875428
-0.08861377 0.003227379 0.09908954 -0.19629742 -0.15723604 -0.24577373 0.054195944 -0.089829236
0.10704007 -0.02349986 0.22785707 -0.18346138 -0.21453734 0.040726393 -0.087628305 0.0014465387
-0.12089305 -1.7014809 0.67861694 0.7495193 0.12338469 0.07860783 -0.013351295 -1.5213019
-0.07369254 -0.090833925 -0.0035610877 -0.007610144 -0.013113545 0.014543366 -0.04556741 -0.033934906
0.4501677 -0.12469009 -0.2532433 0.40035427 -0.09294169 0.31565046 0.27825618 0.06635661
0.021203466 -0.15857603 0.5972381 0.14348838 0.009256362 0.039425243 -0.1130817 0.004714031
0.04869633 -0.023076626 -0.04779793 -0.09553653 0.031336043 0.0003667097 0.9610535 3.6645827
-0.040904753 -0.16714361 -0.04128534 0.045694407 -0.008301399 0.678454 -0.045300484 0.05116111
-0.0012654272 0.016878877 0.0054930532 0.026188437 -0.030170178 0.01248093 -0.20542881 0.17679554
0.16146499 -0.13703473 -0.1254025 -0.18931876 -0.18843602 -0.17626429 0.03182814 0.12935813
-0.032121114 0.09000224 0.06000647 -0.04910142 -0.06327825 -0.08386764 -0.14121239 -0.117876776
-0.1586654 -0.2606576 -0.0049040043 -0.0013322867 0.068465 -0.031336706 -1.404175 -1.1757122
-0.1077279 0.015932178 -0.009741747 1.0703999 -0.030675445 0.03897086 -0.010838947 0.011784157
0.014829949 0.011823659 -0.0073370696 -0.009178253 -0.33866757 -0.5851438 -0.25654545 -0.113543004
0.7004289 -0.15715641 -0.3771966 0.1554855 0.16980225 -0.17241216 0.69010216 0.00421778
0.14686675 -0.003598021 -0.12296853 0.0010258994 0.28799936 0.16957729 0.024093078 -0.22105871
-0.058926553 0.15378486 0.06392531 -0.18256971 -0.1838964 0.18245982 0.010166824 0.062228993
00000000: 1da7 2b3f ae02 1dbd 6096 2d3b 9f5d 193f
00000010: f1cd 4bbd e07f 843f 8a72 233f 0d84 8e3d
00000020: 45da a03d a268 28bd 56e9 403f 5e86 1cbd
00000030: f06b 44bd a901 dbbb 3dcf c1bc 0cf1 0bbb
00000040: 580f b33c 7ebc 383d 34b2 533c e875 c43c
00000050: 8ea6 66be 4af5 01be a0b0 72bc 0deb 123e
00000060: 9a26 05be a652 853d 7c1c ccbd 92a0 9a3d
00000070: 744c 43bd 6eef 993d ffa3 303e 2a3b 99bd
00000080: 56fe dabd f6d9 e13d 80ff d7bc e00d 89bb
00000090: 24a4 a4bd 98db b6bd 457d a73e 5acb ad3d
000000a0: 296d 7339 dd52 0cbf bf8c b0be 2945 cebf
000000b0: f923 b4bf 8ab2 a9bb 4696 09be e7f8 b5bd
000000c0: a715 6abf 55d2 273d 4b60 c5bc 89e4 303c
000000d0: 3809 ed3a 9cde 463b b060 42be 0a32 96bd
000000e0: 7973 9b3c 2f89 2d3e 2417 313d 3d17 41be
000000f0: 3c72 693d 1698 ec3d 9ee1 943d 0058 0bb9
00000100: 5863 f7bd 809a 703b aed1 95bd c2d5 09be
00000110: 00c1 87bc 292a 163e bdf2 27be 3e22 9fbd
00000120: f41a 04bd 66e1 9d3d 88b0 fe3c 226c d3bd
00000130: 0cf1 3f3d 08a6 b8bc ee6f c43d 9361 053e
00000140: 7b22 013e 4a93 53be 6fb7 0a3e 9159 1e3e
00000150: dcab 1abe 00a7 f0bd 8446 393d 457d 3a3e
00000160: 7054 efbd 499d 623e 3b5f 63be dafe b4bd
00000170: 81ae eabd 1ddd 2e3e 2d2b e8bd 8b2f e8bf
00000180: 73a0 3c3c 52fd 14ba 941f abbf 9a7b dd3f
00000190: feaf 68bf 810f 00bf b50f 3bbc e250 5e3b
000001a0: ead1 9fba c0d8 893f 4ef0 00bc fd02 ba3c
000001b0: cfda 3e3c 74ed f83c fa00 083c 8135 513b
000001c0: 6773 0b39 a66f abba f953 313e 8245 be3b
000001d0: df5b 34be e9d4 48be 1d8f 13bd 380b 403e
000001e0: 237b b5bd 6f82 533b 75ef ca3d 3102 49be
000001f0: 7c02 21be 1cac 7bbe 91fc 5d3d 64f8 b7bd
00000200: d337 db3d c782 c0bc 5d53 693e 4ddd 3bbe
00000210: adaf 5bbe b8d0 263d 7876 b3bd c999 bd3a
00000220: c796 f7bd 20ca d9bf d7b9 2d3f 7fe0 3f3f
00000230: 1db1 fc3d 24fd a03d 64bf 5abc 05ba c2bf
00000240: 1dec 96bd 2307 babd 2361 69bb 845e f9bb
00000250: 32da 56bc 4c47 6e3c e4a4 3abd 54ff 0abd
00000260: 617c e63e 855d ffbd 1ba9 81be 3cfb cc3e
00000270: 3658 bebd f09c a13e 9877 8e3e f9e5 873d
00000280: e4b2 ad3c c161 22be 99e4 183f 9eee 123e
00000290: ffa7 173c 5d7c 213d 6197 e7bd 2878 9a3b
000002a0: ce75 473d 310b bdbc c3c7 43bd a8a8 c3bd
000002b0: 395a 003d f142 c039 9a07 763f 8688 6a40
000002c0: be8b 27bd b227 2bbe d11a 29bd 0f2a 3b3d
000002d0: 9702 08bc 29af 2d3f 008d 39bd 508e 513d
000002e0: b1dc a5ba 9245 8a3c 12ff b33b 2289 d63c
000002f0: 7327 f7bc d17c 4c3c ee5b 52be e409 353e
00000300: 1457 253e d552 0cbe 8369 00be c7dc 41be
00000310: 5ff5 40be a07e 34be 395e 023d 7576 043e
00000320: 6e91 03bd 1853 b83d 58c9 753d 921e 49bd
00000330: 0798 81bd ccc2 abbd fb99 10be 6169 f1bd
00000340: 2f79 22be ea74 85be c5b1 a0bb 20a0 aeba
00000350: 6137 8c3d eb5a 00bd 02bc b3bf bd7d 96bf
00000360: 72a0 dcbd 3384 823c d99b 1fbc dd02 893f
00000370: 124b fbbc e99f 1f3d d795 31bc 5612 413c
00000380: 50f9 723c 05b8 413c cd6b f0bb 6260 16bc
00000390: d665 adbe fccb 15bf ed59 83be 3c89 e8bd
000003a0: 4f4f 333f 9ced 20be ea1f c1be 9737 1f3e
000003b0: a4e0 2d3e d08c 30be 89aa 303f 4e35 8a3b
000003c0: 3d64 163e c7cc 6bbb edd6 fbbd 7977 863a
000003d0: a774 933e aba5 2d3e d95e c53c 375d 62be
000003e0: f85c 71bd c779 1d3e 46eb 823d 8ef3 3abe
000003f0: 564f 3cbe bfd6 3a3e c092 263c d4e3 7e3d

layers.0.bias f4 [64]
0.06654266 -0.056134492 -0.31720376 0.14721562 0.08977346 0.013900677 -0.11387533 -0.09764456
-0.036721945 -0.104638256 0.1319733 -0.31249264 -0.23131566 -0.10159607 0.18204303 0.19473322
0.0659218 0.071893476 -0.105886936 -0.109324515 -0.3526557 -0.12843637 -0.040074643 0.016716687
-0.29832742 -0.36230478 -0.11614752 -0.21392092 -0.099379554 -0.2527041 -0.20098847 0.2151352
-0.21002081 -0.2620046 0.12427138 -0.19639808 -0.14633818 0.095176786 -0.039863594 0.1951982
-0.023930898 -0.11939971 -0.14449775 0.039660458 0.056829438 0.0080740135 -0.08705958 -0.22273555
-0.1740275 0.0005861514 0.18993452 -0.22437198 -0.13702507 0.047775492 0.012401849 0.08770153
0.10739352 0.12522765 -0.052805502 -0.004273966 -0.15055399 -0.20623882 -0.14453341 0.027788514
00000000: 8547 883d 48ed 65bd 8868 a2be b1bf 163e
00000010: 26db b73d aabf 633c 7837 e9bd dff9 c7bd
00000020: c069 16bd 954c d6bd 0224 073e 09ff 9fbe
00000030: 03de 6cbe 9a11 d0bd 7d69 3a3e 2568 473e
00000040: 0202 873d e33c 933d 40db d8bd 88e5 dfbd
00000050: 4a8f b4be d384 03be 4f25 24bd 6ff1 883c
00000060: 5fbe 98be 0380 b9be c0de edbd 160e 5bbe
00000070: 8287 cbbd 6f62 81be eccf 4dbe 674c 5c3e
00000080: b20f 57be 7825 86be fe81 fe3d 941c 49be
00000090: add9 15be 0cec c23d 0248 23bd 09e2 473e
000000a0: bb0a c4bc d687 f4bd 38f7 13be 0173 223d
000000b0: fcc5 683d de48 043c 4b4c b2bd ca14 64be
000000c0: 4434 32be f4a7 193a 327e 423e c5c1 65be
000000d0: 4d50 0cbe 3cb0 433d 2031 4b3c dc9c b33d
000000e0: 22f1 db3d ad3b 003e 954a 58bd a00c 8cbb
000000f0: d32a 1abe 4530 53be 9100 14be bda4 e33c

layers.3.weight f4 [32, 64]
0.22872609 0.096442744 -0.016829453 -0.042395383 -0.11614737 0.4856323 -0.041925017 -0.4572473
0.0050890683 -0.00926925 0.025239898 0.081717856 -0.08222821 -0.11480212 -0.06118034 0.08513191
-0.02849719 0.5448431 -0.06405416 -0.14730924 0.0333337 0.08764447 0.02178384 0.25691876
0.08016337 0.010974015 -0.02529648 -0.08994967 -0.013649896 -0.07445814 0.3250035 0.7674385
0.05185771 0.13332666 -0.011113226 0.04399535 0.07586846 -0.6228196 -0.07709414 0.10383725
-0.10317622 -0.06677057 -0.11996357 0.58991164 -0.018398762 -0.036223847 -0.045619812 0.0075771213
-0.09763737 0.23379199 0.10715003 0.07594694 -0.053462066 0.012794659 0.036360145 0.0019037776
0.060989127 -0.34095955 -0.16559228 -0.019688368 -0.040475197 -0.0050779856 -0.11608365 0.121461794
0.044045553 0.05664222 -0.23252214 -0.07337226 -0.008429199 0.42554614 -0.18235582 0.07024507
0.029106509 0.5374751 0.030782308 -0.33331403 0.13693301 -0.06127225 -0.0007869005 -0.09454115
-0.07057147 0.57935387 0.0571345 0.024373928 -0.16407551 -0.0052864123 -0.38668093 0.5345725
0.094323836 0.0043805474 0.057939857 -0.09701824 0.086333215 0.05894776 -0.27123472 0.3655147
0.086813495 -0.027115708 0.021641582 -0.901237 -0.025391642 -0.086688645 -0.15089077 0.08728585
-0.021404041 -0.0887879 -0.047245756 -0.055299126 0.019472003 -0.15539475 0.055363346 0.10570942
0.091324374 0.1345304 0.5922172 0.03436044 -0.40072647 0.05332622 -0.045075357 -0.09064751
-0.045492798 -0.005558385 0.11830383 -0.05419004 0.032116342 -0.0036359944 0.08873418 -0.003026799
0.03615099 0.08702642 0.09887993 0.07664819 0.048763737 0.51727927 -0.0112684015 -0.7483503
-0.01847279 0.0023600347 -0.07304423 -0.2274439 -0.0461795 0.055065766 0.1163677 -0.049473807
-0.11858651 0.23134 -0.087498836 -0.411266 0.02982688 -0.0042641596 0.11198402 0.19771664
-0.010095752 0.023891514 0.09728104 -0.08095221 0.041888863 -0.06342947 0.5543408 0.78601027
-0.0918511 0.029979799 -0.058673427 0.41062292 0.2005197 -0.6391114 -0.021373201 0.07745655
0.09019297 0.05076254 0.08462219 0.49177757 0.047071025 0.14850686 -0.09882601 0.08448443
-0.06510635 0.09491106 0.34122485 -0.103855595 0.030779988 0.072324365 0.123379186 -0.003348046
-0.050347686 -0.4683314 -0.219252 0.03614348 -0.06280643 0.04491747 0.015288562 -0.07263382
-0.03720157 0.055487514 -0.0018034857 -0.0831223 -0.026551396 0.0014804136 -0.04968048 0.08489619
-0.0041389237 0.20018937 0.085708655 -0.8626227 0.08498169 -0.019660145 -0.0754116 -0.09469019
-0.022741914 0.29922903 -0.0024929843 -0.120584026 -0.06733185 0.003987731 -0.42120743 -0.10810182
-0.01723014 -0.011772756 -0.07856391 -0.045579612 -0.054507926 0.04059366 0.8393536 1.0648135
-0.08810753 -0.13526616 0.061692134 -1.2533383 -0.312312 -0.3758041 0.050310053 -0.022357672
-0.0612481 -0.1386893 0.112690255 0.23732239 -0.10149659 -0.5398872 0.019009968 -0.02875267
0.08913295 -0.2275831 0.019570356 0.1212797 -0.8845581 -0.033314824 0.06133002 -0.43660703
0.11697243 0.058276612 0.00034431915 0.04624392 -0.016126974 -0.035316046 -0.11612022 -0.015762221
00000000: 2c37 6a3e c683 c53d ecdd 89bc c8a6 2dbd
00000010: acde edbd cca4 f83e 91b9 2bbd 511c eabe
00000020: 33c2 a63b 0dde 17bc e7c3 ce3c b15b a73d
00000030: 4467 a8bd 601d ebbd 3c98 7abd a459 ae3d
00000040: f072 e9bc d67a 0b3f d42e 83bd 3cd8 16be
00000050: eb88 083d f27e b33d 0674 b23c db8a 833e
00000060: b12c a43d 5bcc 333c 903a cfbc 8837 b8bd
00000070: d0a3 5fbc 827d 98bd dc66 a63e d976 443f
00000080: c068 543d c986 083e 4014 36bc 7834 343d
00000090: ec60 9b3d 1b71 1fbf 88e3 9dbd a0a8 d43d
000000a0: 0e4e d3bd 02bf 88bd 76af f5bd 7304 173f
000000b0: 00b9 96bc 755f 14bd d7db 3abd 8049 f83b
000000c0: 1af6 c7bd 2b67 6f3e 7a71 db3d 128a 9b3d
000000d0: 0afb 5abd b0a0 513c 60ee 143d 2d88 f93a
000000e0: bccf 793d 4092 aebe 0691 29be 8049 a1bc
000000f0: 52c9 25bd 3b65 a6bb 44bd edbd f6c0 f83d
00000100: 1c69 343d ac01 683d 491a 6ebe 3244 96bd
00000110: a01a 0abc 2fe1 d93e 7cbb 3abe a6dc 8f3d
00000120: c670 ee3c f897 093f 2e2b fc3c 23a8 aabe
00000130: 2b38 0c3e 9cf8 7abd 0048 4eba ca9e c1bd
00000140: c687 90bd 8950 143f de05 6a3d d5ab c73c
00000150: 6903 28be a439 adbb 0bfb c5be bed9 083f
00000160: db2c c13d b28a 8f3b 5852 6d3d 80b1 c6bd
00000170: 78cf b03d 3573 713d 47df 8abe be24 bb3e
00000180: 46cb b13d c321 debc b049 b13c 78b7 66bf
00000190: 2202 d0bc d189 b1bd 1c83 1abe ecc2 b23d
000001a0: 8757 afbc 6ed6 b5bd c484 41bd 5681 62bd
000001b0: c083 9f3c cd1f 1fbe adc4 623d 2e7e d83d
000001c0: 4608 bb3d 56c2 093e 8c9b 173f 88bd 0c3d
000001d0: 052c cdbe 986c 5a3d f0a0 38bd 67a5 b9bd
000001e0: a856 3abd 1d23 b6bb 4749 f23d 60f6 5dbd
000001f0: 6d8c 033d dd49 6ebb 44ba b53d 435d 46bb
00000200: 0f13 143d e83a b23d 9081 ca3d baf9 9c3d
00000210: 7cbc 473d 6a6c 043f 1a9f 38bc e393 3fbf
00000220: 4054 97bc d0aa 1a3b 3798 95bd 0ee7 68be
00000230: b726 3dbd a48c 613d 3052 ee3d 0ca5 4abd
00000240: 7cdd f2bd 65e4 6c3e 9732 b3bd 7591 d2be
00000250: 8057 f43c 5dba 8bbb e157 e53d 3b76 4a3e
00000260: a768 25bc 23b8 c33c 483b c73d 46ca a5bd
00000270: a893 2b3d 4fe7 81bd 47e9 0d3f f837 493f
00000280: 6e1c bcbd 3298 f53c 8c53 70bd 2b3d d23e
00000290: 0955 4d3e ce9c 23bf da16 afbc 8aa1 9e3d
000002a0: 18b7 b83d 62ec 4f3d 664e ad3d 45ca fb3e
000002b0: 8ccd 403d 2f12 183e 4b65 cabd 2c06 ad3d
000002c0: 7a56 85bd bb60 c23d 06b5 ae3e 3eb2 d4bd
000002d0: 5026 fc3c cc1e 943d 3aae fc3d e46a 5bbb
000002e0: 6039 4ebd 22c9 efbe 9983 60be 300b 143d
000002f0: a8a0 80bd 62fb 373d e07c 7a3c 0ac1 94bd
00000300: ac60 18bd e046 633d f062 ecba 063c aabd
00000310: 5082 d9bc 700a c23a c27d 4bbd 0ede ad3d
00000320: cf9f 87bb 71fe 4c3e 0588 af3d d7d4 5cbf
00000330: e10a ae3d 500e a1bc 6671 9abd eeec c1bd
00000340: 404d babc 8c34 993e 5661 23bb c2f4 f6bd
00000350: 48e5 89bd 83ab 823b 80a8 d7be 7d64 ddbd
00000360: 3926 8dbc 85e2 40bc 1ee6 a0bd b0b1 3abd
00000370: b443 5fbd 8a45 263d e1df 563f cf4b 883f
00000380: b871 b4bd 3683 0abe e4b0 7c3d 646d a0bf
00000390: 5ce7 9fbe 6569 c0be ea11 4e3d 7027 b7bc
000003a0: 4adf 7abd 9104 0ebe 26ca e63d a404 733e
000003b0: 72dd cfbd 0c36 0abf cbba 9b3c b88a ebbc
000003c0: 568b b63d 8b0b 69be 0352 a03c 7e61 f83d
000003d0: 6672 62bf 2075 08bd 3035 7b3d f58a dfbe
000003e0: 3e8f ef3d 75b3 6e3d bc85 b439 446a 3d3d
000003f0: b71c 84bc 8fa7 10bd 70d0 edbd c61f 81bc

layers.3.bias f4 [32]
-0.024529196 -0.108386286 -0.07427931 0.15885907 0.03942648 0.56578946 -0.13269098 -0.071977034
0.050024305 0.14879474 -0.21819775 0.52520114 -0.26707795 -0.08587058 -0.1613213 -0.20289046
0.1968189 0.12715347 -0.16292326 -0.114024304 -0.03252596 0.23034027 0.06693189 0.4506687
-0.23966257 -0.052868508 0.013682808 -0.092276275 0.18732405 0.15942602 -0.2230308 0.12928203
00000000: 74f1 c8bc a1f9 ddbd c01f 98bd f4ab 223e
00000010: a97d 213d 94d7 103f 25e0 07be b268 93bd
00000020: 49e6 4c3d a65d 183e 3b6f 5fbe 9573 063f
00000030: 71be 88be eadc afbd 6931 25be 84c2 4fbe
00000040: e58a 493e 8534 023e 5bd5 26be 9385 e9bd
00000050: f139 05bd 52de 6b3e 9613 893d 0cbe e63e
00000060: 1b6a 75be a68c 58bd db2d 603c 58fb bcbd
00000070: e0d1 3f3e 9340 233e 3062 64be 8262 043e

layers.6.weight f4 [16, 32]
-0.056116346 -0.046537686 0.013498025 0.6093816 0.14726788 0.31698918 0.06198839 0.008342246
0.09985979 0.017165462 -0.3211943 0.387765 0.7405651 -0.048079614 0.22843972 0.19844967
0.15010871 0.3471629 0.21673155 0.3580667 0.12595227 0.21537839 0.08582228 0.41404742
0.23730229 0.31958547 -0.23095402 0.5184518 -0.5886338 0.3267337 -0.19886675 -0.6187001
-0.7194222 -0.91537434 -0.9427473 -0.38193396 -0.4247634 0.10263587 -0.68937206 -0.25513276
-0.74896425 -0.96943223 -0.12846862 0.077113554 -0.6368035 -0.9119034 -0.6909271 -0.11894619
-0.4275634 -0.18481529 -0.4913637 -0.07746672 -0.92913055 -0.32609642 -0.4502238 0.2151117
-0.47791633 -0.44059858 0.23596257 -0.22276029 0.19245037 -0.9388931 -1.0078164 0.21695569
0.023922296 -0.03731635 0.095490396 0.42886746 0.3101995 0.18623768 0.0059265983 0.25908467
0.06712453 0.035762403 -0.23188908 0.44208342 0.5565468 -0.059674527 0.27581045 0.2148266
0.23925063 0.14976719 0.44363675 0.0873272 0.12335491 0.10385377 -0.05966815 0.088426545
0.19868381 0.30113816 -0.15710394 0.2103531 -0.22938366 0.22977401 -0.08392969 -0.27979544
0.073972546 -0.061779626 0.05528069 0.536217 0.116767995 0.28847155 -0.24955572 -0.28731483
-0.02707834 -0.14331092 -0.2590347 0.29897103 -0.255422 -0.060489237 -0.40430173 0.3663002
0.16271329 0.5486451 0.11100883 0.22361636 0.09716586 0.20321117 0.114565074 0.39998606
0.12577422 0.21061018 -0.17700519 0.39868864 -0.8912647 0.43044627 0.006944328 -1.0239345
-0.035239518 -0.002756145 0.08796799 0.52394176 0.29341283 0.12347267 0.11947956 0.2247618
0.18495944 -0.119600475 -0.15467656 0.34784994 0.5248043 -0.051998854 0.33535787 0.037191667
0.40980965 0.47172165 0.2784068 0.33831954 -0.030352168 0.12366058 0.07051114 0.1520505
0.24091578 0.2879466 -0.123510584 0.2203315 -0.28559467 0.19819497 0.025959253 -0.2866541
0.030839043 0.0052926736 0.18020749 0.6347737 0.34438932 0.37755144 0.33460668 0.31768584
0.017189424 0.13595887 -0.31427145 0.42481482 0.61483324 0.0020064383 0.47065192 0.26708576
0.3615859 0.35667363 0.73404783 0.27806053 0.10162169 0.06785808 0.07056712 0.29922032
0.509378 0.0421456 -0.15593038 0.32600108 -0.3396636 0.33473587 -0.039167948 -0.1905032
0.13914622 0.0009391239 0.18639539 0.62427944 0.5207471 0.25908414 0.21301183 0.23633929
0.12822951 0.25015032 -0.39061904 0.27290565 0.4817636 -0.050091617 0.45222497 0.28703785
0.08535586 0.58713883 0.62244433 0.14903778 -0.016717646 0.01142735 0.107724085 0.111891694
0.19873357 0.34474528 -0.18660624 0.30699918 -0.3041905 0.26923928 -0.030388504 -0.24757823
0.06848794 -0.051896363 0.14866559 -0.12674256 0.29770884 -0.111103304 0.2658873 0.28539217
0.13773559 0.065197855 -0.077613264 -0.082184225 0.6464535 -0.07984088 0.3591165 0.20966484
-0.018822305 0.30450976 0.4600313 0.35713136 0.0054424866 0.05444152 0.25774238 -0.182973
0.3744984 0.29880625 0.12602162 0.36399898 0.15390275 0.21379726 -0.454023 0.14022946
00000000: 41da 65bd 4d9e 3ebd d226 5d3c 6f00 1c3f
00000010: 64cd 163e 684c a23e 8ae7 7d3d eaad 083c
00000020: 4a83 cc3d 959e 8c3c 9473 a4be 2289 c63e
00000030: ad95 3d3f 21ef 44bd 1aec 693e 6436 4b3e
00000040: 19b6 193e 56bf b13e e0ee 5d3e 8554 b73e
00000050: a2f9 003e 278c 5c3e 97c3 af3d 06fe d33e
00000060: 5fff 723e b5a0 a33e 367f 6cbe 42b9 043f
00000070: b4b0 16bf a449 a73e baa3 4bbe 2163 1ebf
00000080: 0e2c 38bf f955 6abf e357 71bf d98c c3be
00000090: 977a d9be c132 d23d b07a 30bf c3a0 82be
000000a0: 1fbc 3fbf b62c 78bf 478d 03be b6ed 9d3d
000000b0: 8e05 23bf 8072 69bf 99e0 30bf 0f9a f3bd
000000c0: 97e9 dabe 3840 3dbe 0694 fbbe dfa6 9ebd
000000d0: 80db 6dbf 1cf6 a6be bc83 e6be 3e46 5c3e
000000e0: 73b1 f4be 2396 e1be 2ca0 713e 461b 64be
000000f0: b611 453e 4c5b 70bf 2100 81bf a229 5e3e
00000100: b1f8 c33c 07d9 18bd 7890 c33d 8494 db3e
00000110: 78d2 9e3e 17b5 3e3e e933 c23b bfa6 843e
00000120: 9678 893d 997b 123d 5574 6dbe c258 e23e
00000130: da79 0e3f 476d 74bd 0737 8d3e 81fb 5b3e
00000140: 1efe 743e 925c 193e 5b24 e33e 9ad8 b23d
00000150: 80a1 fc3d 49b1 d43d 9766 74bd fa18 b53d
00000160: c573 4b3e c82e 9a3e dbdf 20be ce66 573e
00000170: 8de3 6abe e149 6b3e 54e3 abbd 5941 8fbe
00000180: eb7e 973d a20c 7dbd 016e 623d 8445 093f
00000190: 0f24 ef3d 8bb2 933e 898b 7fbe ee1a 93be
000001a0: 65d3 ddbc 19c0 12be 32a0 84be bb12 993e
000001b0: acc6 82be 90c3 77bd a300 cfbe b38b bb3e
000001c0: 509e 263e 0174 0c3f 9958 e33d b0fb 643e
000001d0: e5fe c63d 9716 503e 18a1 ea3d f9ca cc3e
000001e0: f5ca 003e 32aa 573e d940 35be eb20 cc3e
000001f0: ec29 64bf 7463 dc3e 3f8d e33b 4910 83bf
00000200: 5057 10bd 71a0 34bb 9028 b43d 0c21 063f
00000210: 353a 963e 3ddf fc3d b3b1 f43d f527 663e
00000220: 0266 3d3e 18f1 f4bd 8863 1ebe 6319 b23e
00000230: 9359 063f c0fc 54bd 07b4 ab3e 4a56 183d
00000240: 92d2 d13e 8085 f13e 568b 8e3e 3838 ad3e
00000250: 1ca5 f8bc c241 fd3d 2568 903d 20b3 1b3e
00000260: a0b2 763e bd6d 933e 1ef3 fcbd 959e 613e
00000270: 7739 92be 9ff3 4a3e 80a8 d43c 54c4 92be
00000280: 29a2 fc3c 2a6e ad3b 5088 383e 8780 223f
00000290: cc53 b03e 6c4e c13e 9151 ab3e b8a7 a23e
000002a0: d6d0 8c3c cd38 0b3e 30e8 a0be 5481 d93e
000002b0: b665 1d3f 737e 033b 4af9 f03e 77bf 883e
000002c0: c921 b93e ed9d b63e 8fea 3b3f f35d 8e3e
000002d0: 081f d03d 2df9 8a3d 7f85 903d 6833 993e
000002e0: 9966 023f dda0 2c3d 37ac 1fbe 9de9 a63e
000002f0: 63e8 adbe 8062 ab3e 926e 20bd 4513 43be
00000300: 597c 0e3e 8a2f 763a 6fde 3e3e c7d0 1f3f
00000310: af4f 053f ada6 843e c61f 5a3e ed02 723e
00000320: 994e 033e b413 803e 38ff c7be 4aba 8b3e
00000330: b8a9 f63e de2c 4dbd 088a e73e a0f6 923e
00000340: 0ecf ae3d bb4e 163f 8358 1f3f 5c9d 183e
00000350: 72f3 88bc c839 3b3c 729e dc3d 7927 e53d
00000360: d080 4b3e 7482 b03e b515 3fbe ff2e 9d3e
00000370: dbbe 9bbe bbd9 893e 50f1 f8bc 2685 7dbe
00000380: 6843 8c3d 4891 54bd cb3b 183e cdc8 01be
00000390: 4b6d 983e 218a e3bd 6122 883e ec1e 923e
000003a0: 8f0a 0d3e 7486 853d b4f3 9ebd 3450 a8bd
000003b0: fa7d 253f 9e83 a3bd 1ede b73e 61b2 563e
000003c0: 3c31 9abc b4e8 9b3e 3989 eb3e ecd9 b63e
000003d0: e356 b23b 12fe 5e3d cff6 833e 465d 3bbe
000003e0: 41be bf3e 22fd 983e d00b 013e 135e ba3e
000003f0: af98 1d3e abed 5a3e b475 e8be 5098 0f3e

layers.6.bias f4 [16]
0.158228 0.580459 0.12392342 0.212177 0.13889101 0.032049526 0.09998416 -0.061607815
-0.018791437 0.050446343 0.47855458 0.5739041 0.04831648 0.62574565 0.12812002 0.1572484
00000000: 8506 223e f698 143f 90cb fd3d ed44 593e
00000010: 7239 0e3e 5d46 033d 7fc4 cc3d 7a58 7cbd
00000020: 80f0 99bc d3a0 4e3d 1b05 f53e 61eb 123f
00000030: 80e7 453d de30 203f e531 033e b905 213e

layers.9.weight f4 [1, 16]
-0.51648015 1.9150292 -0.59544194 -0.593151 -0.5633763 -0.37913853 -0.39668256 -0.47828892
-0.50383747 -0.5924005 1.4914311 1.2980291 -0.56590325 1.2635251 -0.500839 -0.35577935
00000000: 0b38 04bf ad1f f53f e26e 18bf bed8 17bf
00000010: 6e39 10bf 721e c2be fa19 cbbe 49e2 f4be
00000020: 7efb 00bf 8fa7 17bf 37e7 be3f d125 a63f
00000030: 09df 10bf 31bb a13f fc36 00bf b628 b6be
