models/Mean/antiproton.pt (torch, 18925 bytes, 7 tensors)

layers.0.weight f4 [64, 19]
00000000: 670f 5c3d da7b 6e3d a089 c638 8159 35bc
00000010: c404 4a40 a07f bc3e e550 933e be03 1e3e
00000020: 8843 94bc ff4a 2b3c 9474 3f3f 813d 58bc
00000030: 204d 26be 9e37 173d f778 71bc 6470 82ba
00000040: e2c1 3e3d ac16 153d 73a7 fe3c c0a9 233e
00000050: 70fc bf3c 39fa 2f3e 8437 77bf 049a f93f
00000060: e168 3d3e ffc8 5fbc 4f02 ff3d 9e3f 3abc
00000070: 565c 1cbe b1ff 8f3f 3c9e e1bc 8502 3cbe
00000080: 2e15 bebc e27d e33d a4bb 3dbd ffed a93d
00000090: ec22 a53d 6d79 bbbd af61 203d 4244 99be
000000a0: 5765 2fbc 5d9f f73e a0d2 3fbe 0f87 183e
000000b0: e72a fc3d 8a66 d33d b45f 463e 037a 8c3d
000000c0: f160 953f fb74 913d 98f9 ce3c c798 a1bd
000000d0: 1d57 2f3e d446 833a c3e0 11be aa4d f6bc
000000e0: 4532 cabd 0e0b 5b3d 4199 0b3e 5677 303b
000000f0: 053d bcbd f2da 01bf 40f0 4abf 089f 42bf
00000100: a68a 8a3d b03c 82bd 7830 40ba 1aa4 4dbe
00000110: 5d6e ec3c 93bc ccbd 3311 2a3c 6af7 6a3d
00000120: 6d6a 483c cf3a a13d 88c3 7b3e 62a0 d83d
00000130: 1741 2ac0 fa30 443c 5d26 be3a a622 50bf
00000140: 7c20 653f 74a9 87bc cd5c 74be c944 ba3b
00000150: eb19 bd3d 9484 973b e83c b13f 88fd 18be
00000160: 63d6 143d 6bd6 dbbb 449c c63c 1cc7 f83b
00000170: cffb 1e3c 4b79 303d e833 323c abe8 60bd
00000180: 8021 b5be 12f6 ccbd 379e c93d 454c c2bd
00000190: b2e8 773e 2c87 e73d 991d 4dbe 01cb ea3d
000001a0: 2de2 2dbe 8b2f 5ebe 22e5 903d 276e 44be
000001b0: 8c0a 31bd 03c8 2f3e c9fc 63bd af6c 96bd
000001c0: b3ad 403e 4704 cfba f55b 38be 8652 23be
000001d0: a59d 293e d790 643e ae0e 8c3d ffc1 24be
000001e0: 7fa1 2c3e 0e69 f3bd 080c c33c d15a 6abe
000001f0: e39a 5c3e 20d4 e53b cf52 2dbe fc8c 13be
00000200: 674c 2d3e 7c2f 32be c825 fe3c a2b4 57be
00000210: d7bb 343e a2bb 073c 2cb8 20be 9b9a a8ba
00000220: 1e5b 073d 9237 4bbd f62f 59bf 58b5 50bf
00000230: b822 263a 3dff 86b9 01c8 babc 4f5e 9a3e
00000240: 0ac8 5ebc 34a3 c23c 0f06 373b 6216 833c
00000250: 004f 423c 5225 e93d 6281 003e cf3e 903d
00000260: 6c16 84bf b9b2 9e3c 2cd3 58ba 0870 333e
00000270: 826e 14bd 6d44 68bf ea58 81bf 7488 d63c
00000280: ddab cb3d caee f6b9 7ca3 733f c870 51bd
00000290: e299 c8bc d377 c53b 9257 0c3c 14ce 523c
000002a0: df0a 9bbb 300a 0fbe 9a87 a9bc 4207 233c
000002b0: 6cdd e43c e342 103c 4462 7fbd b9c4 f9bd
000002c0: f379 86bf 24bf 70bf 1ee9 50bc d2aa 9c3d
000002d0: cb3d 0ebd 240d 223f 4bf4 e9bc c1d4 abbc
000002e0: abb5 473d daf1 7bbc 94b8 483c 46c4 433d
000002f0: 48d7 7f3e 4a49 87bd 04cf f1bd 8ed5 f23d
00000300: 3cb6 e4bd 8a84 973d 9054 3abc a362 133e
00000310: 7894 cfbd 00de 12bb 2788 493e 9e1b cb3d
00000320: 7cc0 24be 5a51 39be ebcd 54be cb9f 353e
00000330: 20e7 2ebd a28b cfbd 6ac5 e23d 8453 603d
00000340: 4876 05be b591 5fbf c841 d2be 2714 ca39
00000350: 247e 2d3e 9ddb 8cbf 0c28 1f3f 699f 0a3f
00000360: f0d9 c73c 5402 a33d 03b3 a73b f33c a8bf
00000370: 4ff5 a4bd 5653 95bc 5ef4 0b3c 9347 14bc
00000380: e227 84bc 0c6f 0d3d 4e75 a73c 7599 e13c
00000390: 29bc 11c0 def6 8dbd f5cb 5d3a 703c cdbf
000003a0: 35e6 483e 8f13 23bf af2e 3ebf 35b7 f0bd
000003b0: 27cc acbd c775 acbb b5ca 9a3f db5e e03d
000003c0: a26c d73d 02c7 12bc 776d c63b d0d4 4c3c
000003d0: ab9e 333a 61cf 313d 6166 973c 165a 3bbf
000003e0: 94e2 e0be c947 5bbe deb9 d2be e94c 563f
000003f0: 459c 8ebe 6e14 e7bd 1620 86bd 7990 16be
0.053725626 0.058223583 9.4670104e-05 -0.011068703 3.1565409 0.3681612 0.28772655 0.15431115
-0.018098608 0.010454892 0.7478726 -0.013198257 -0.16240358 0.036918275 -0.014738313 -0.0009951708
0.04657162 0.036398575 0.031085705 0.15982723 0.023435801 0.17185296 -0.96569085 1.9500127
0.1849704 -0.013658761 0.12451612 -0.011367707 -0.15269598 1.1249906 -0.027541272 -0.18360336
-0.023203459 0.111079946 -0.046321526 0.08297347 0.080633014 -0.091540195 0.03915566 -0.2993489
-0.010705314 0.48363772 -0.18732691 0.14895271 0.123128705 0.10322292 0.19372445 0.068592094
1.1670209 0.071023904 0.0252655 -0.07890468 0.17123075 0.0010015615 -0.14245896 -0.03006633
-0.098728694 0.05347734 0.1363268 0.0026926599 -0.09191326 -0.5072471 -0.7927284 -0.7602391
0.06764726 -0.063592315 -0.0007331441 -0.20082131 0.028861219 -0.09996905 0.010380077 0.05736486
0.012232405 0.07872545 0.24586308 0.105774656 -2.6602228 0.011974568 0.0014507283 -0.8130287
0.8950269 -0.016560294 -0.23863526 0.0056844694 0.09233459 0.004623959 1.3846712 -0.14940464
0.036337268 -0.00670891 0.024244435 0.007592095 0.009703591 0.043084424 0.010876633 -0.05490939
-0.3537712 -0.10007872 0.0984463 -0.094872035 0.2420986 0.11305079 -0.20030822 0.11464501
-0.1698081 -0.21697824 0.070749536 -0.19182645 -0.04322295 0.17166142 -0.055660997 -0.073449485
0.18816261 -0.0015794121 -0.18003829 -0.15949449 0.16564043 0.22320877 0.068387374 -0.16089629
0.16858481 -0.11885272 0.023809448 -0.22886206 0.2154346 0.0070138127 -0.1692612 -0.1440925
0.16923676 -0.17400926 0.031023875 -0.21065 0.1764978 0.008284481 -0.15695256 -0.0012863459
0.03304588 -0.049613543 -0.8483881 -0.8152671 0.0006337571 -0.0002574864 -0.022800447 0.30150077
-0.013597498 0.023759462 0.0027927195 0.016001884 0.011859655 0.113840714 0.12549356 0.0704323
-1.0319343 0.019372331 -0.0008271213 0.17523205 -0.0362382 -0.9072941 -1.010526 0.026188113
0.0994489 -0.00047098688 0.9517133 -0.051132947 -0.02448744 0.006026247 0.0085658 0.012866516
-0.0047315205 -0.1396873 -0.020694543 0.009950461 0.027937613 0.00880501 -0.062349573 -0.12195725
-1.0505966 -0.9404166 -0.012750892 0.07649769 -0.0347269 0.633013 -0.02855887 -0.020975472
0.048757236 -0.015377486 0.012251038 0.047794603 0.24984467 -0.06605776 -0.11807063 0.118571386
-0.11167571 0.07398327 -0.0113727 0.14393096 -0.1013574 -0.0022410154 0.19680844 0.09917377
-0.16089052 -0.1809744 -0.20781676 0.17736737 -0.042700887 -0.10134055 0.1107281 0.054767147
-0.13033402 -0.87331706 -0.41065812 0.00038543457 0.1694265 -1.1004521 0.6217048 0.5414949
0.024395913 0.079594284 0.0051177754 -1.31436 -0.080546014 -0.018228214 0.008542148 -0.009050268
-0.016132299 0.03452973 0.020441677 0.027538994 -2.2771094 -0.06931852 0.0008460873 -1.6034069
0.19619067 -0.6370172 -0.74289984 -0.11753694 -0.084373765 -0.0052630636 1.2093111 0.10955592
0.10518767 -0.00895858 0.0060555297 0.01250191 0.00068519515 0.043410663 0.018481435 -0.73184335
-0.43922865 -0.21414103 -0.4115743 0.83711106 -0.278536 -0.112831935 -0.06549089 -0.1470355

layers.0.bias f4 [64]
00000000: 48d7 0a3e 5f9c 1dbe 8f84 75be 024a 81bc
00000010: eb4c 0a3e 7c4c 48bc bafe a43d bc18 77be
00000020: 13df f73c 8d7b 9dbe 9492 f6bd b2ca 9f3d
00000030: 3628 9e3d b377 003d 4092 21be 9a08 9ebd
00000040: caf6 e73d 8242 f83d 4e34 d03d 884d c93d
00000050: a243 fd3d 811e 983d 61bf ec3c 33cb 08be
00000060: fcb6 413d e4c2 58be d789 4bbe 7d45 9c3c
00000070: 85da 68be 2536 25be 0c0b 03bd b78d ac3d
00000080: a715 96be f04c a9bd 7071 793d 48ae 47be
00000090: ba3e f3bd 5a3a 9bbe 901e 57bd 0133 62be
000000a0: dede 4cbe cb05 30be d846 b6bd 57c1 93be
000000b0: a384 d8bd b4f4 2b3d 9983 363e fc82 c4bd
000000c0: 0b47 4e3e d01e 8fbd bb97 3b3e 4a2c 153d
000000d0: 4e11 a6bc 9c4c 313d 5800 52be b6ea afbc
000000e0: 04e7 06be cc5b aabe be0f 2fbe a819 a9bd
000000f0: f5dc dcbc 3245 dd3d 3601 f13d 847c 093d
0.13558686 -0.15391682 -0.23976348 -0.01578236 0.13505904 -0.012225267 0.08056398 -0.24130529
0.030257737 -0.30758324 -0.12039676 0.07802333 0.077225134 0.031364154 -0.15778446 -0.07716484
0.11326368 0.1212206 0.10166226 0.09829241 0.123664156 0.07427693 0.02889985 -0.13358764
0.047293648 -0.21168095 -0.198768 0.019076103 -0.22739609 -0.16133936 -0.031992957 0.084254675
-0.29313394 -0.08266628 0.060899198 -0.19500077 -0.118771985 -0.30317956 -0.05251938 -0.22089769
-0.20006892 -0.1718971 -0.08900231 -0.28858444 -0.105721734 0.041981414 0.17823638 -0.09595296
0.20144288 -0.06988299 0.183196 0.03641919 -0.020271923 0.04328595 -0.20507944 -0.021474224
-0.13174063 -0.3327316 -0.17095849 -0.08256847 -0.02696083 0.108042136 0.11767809 0.033566013

layers.3.weight f4 [32, 64]
00000000: dfdf 243e 6701 143f fca8 6e3e 84ea 1e3c
00000010: f7b1 c73d ad58 e5bd a8e8 1d3d 6a71 13bd
00000020: ca2c 013f e3c7 12bd a8d3 a4bd a16d 263d
00000030: 6dc8 a83e ef3a ce3b ac6b fa3c a8a9 1f3d
00000040: b029 62bc f4a6 a83d bfea b4bd 6f56 d83c
00000050: 30b8 6fbc 9719 993d 4a70 bb3e 7c5c 4a3d
00000060: 6e32 e03d 2fcc 403c 0c83 8d3d 09ad a63d
00000070: ed03 0d3d 36e4 c83d 73aa c73a 2398 0dbe
00000080: b79b 9b3d 4870 0fbd f534 05bd 96ae ac3d
00000090: e235 d7bc 7d4a 1dbd a0af cfbc 6a8a 433c
000000a0: e19a 8d3f f1dd 393d 89c5 e03e 98b4 193f
000000b0: 5496 2e3d 42be b8bd 206a 683c 408d 373b
000000c0: 24b6 debd 6226 cb3d 8858 9c3c 2f4c 6d3c
000000d0: 68f2 38bd 8a92 90bd 6e0e debd 5e6a 29be
000000e0: 1c0f 3d3f 2226 febd 5295 41bc 043d 8a3d
000000f0: 7131 983e 5d0a 1e3f 7424 95bd e242 dcbd
00000100: b769 e93c 9a95 983e 06bc 803e 57d3 6bbb
00000110: 4380 cb3d 98af 0e3e 703c 243d de3d 21bd
00000120: 0dbb d83d d6f5 c5bd c030 a23b 634b cdbe
00000130: 1dd6 bc3e 5e73 c23c 2586 8ebe 1e71 cb3d
00000140: bad2 b8bd 047b e4bd 566d a33d 291d 57bd
00000150: d0fa 95bd bb3a cbbd c389 d73e 45d3 a63d
00000160: 40c8 1d3b c111 acbb b86d 7dbd 48ef 60bd
00000170: 4924 88bd 248a d4bd 37e7 0abc a271 17bf
00000180: 0611 c73c 0f37 363d a8cf 0a3e fc87 603d
00000190: 54b5 423d 45cc e03b 90f7 27bc 80bf 07bd
000001a0: 4f2c 563f 45a4 7bbd 4a54 bd3c 6c35 f33e
000001b0: 2104 07bc 8841 9b3d 8c4d 21bd 3016 3e3d
000001c0: b022 473c 5c27 16bd 0073 b03a 16fc a73d
000001d0: 6b33 68bc f6ac 823d d0f7 c53c f53f 85be
000001e0: 85dc 0d3f 4e0d a9bd 1adc c23d 7c84 5fbd
000001f0: b37d 883e e06f 063f c4c6 51bd a06d 193d
00000200: d52b 2a3d 5e51 873e dde8 28ba e991 9e3a
00000210: 8b57 6f3e 86c3 be3c b815 b9bd bbfa acbd
00000220: d132 453e 6ab7 6fbe 5a08 eb3d 3db4 03bf
00000230: 71c8 d33e 3987 00bd f67d 79be d815 50bd
00000240: 7cbe eebd 2841 9d3d 3f35 2ebd 9df6 113d
00000250: 809e a4bd 7f63 7bbe 6fab 0c3e fe3a 743e
00000260: c04e adbd d1e8 4abd 6402 efbd 6d5e 57bd
00000270: 46b8 3b3d e043 b8bd aef1 30bd 42be 51bf
00000280: 97d9 65bd 48fe bd3c 3fd8 693c d9f8 5c3c
00000290: ab37 68bd 75af ff3c 3a4e 9dbd 2d58 81be
000002a0: 65f4 a03e 5d36 ddbb 16cb 993e b644 413e
000002b0: 614f 15bd 64d9 293d 72de b4bd 6021 f7bb
000002c0: 20c8 df3c 0c8f 953d e078 5f3d 3c80 8a3d
000002d0: 2a1f dcbd fc16 953d 72a6 a7bd 8085 82be
000002e0: ec28 b33e 0e5e ff3c 645e 043d 9c10 54bd
000002f0: 02ef 933d 08d0 2d3f e0ae f93c 2871 073d
00000300: 94b3 85bd 86f5 35be a611 70bd 62cf 0d3e
00000310: d14f 23bf ef86 a53c d07e 2bbd 53f0 73bd
00000320: 56d7 73be 18a5 99bb 0075 34bb c0a8 fcbc
00000330: f349 fcbe 0541 9d39 1820 1f3d 4831 f33c
00000340: 50aa a43c 90bb e83c 98e4 cd3c 03d1 213c
00000350: bec8 9a3d e88d 2cbd 9845 9abe d6d2 eebe
00000360: 10a8 923d bdbf efbc fa8f a33d 2696 e53d
00000370: 2adc 80bd 0e7d bebd e3f5 d6bb 76ae 07be
00000380: 3f1f a73d 6925 63bd 64ed f1bb b138 a2bc
00000390: e2fd 123d d71d 77bd 48e5 65bd 5072 653c
000003a0: f3ec 17bf f200 383c 6805 17bf 4c94 2bbf
000003b0: e079 a0bd 041d e73d f0fd d63c 007c bbb9
000003c0: 4043 9ebd de30 f13d 383a dd3d acb4 273e
000003d0: b00f ebbd 0014 85bb 94f5 27bd 72b2 8bbd
000003e0: 68b8 693e 5773 ff3c 1437 8fbd d242 a83d
000003f0: b83e 43bf b740 88be b0cb d43c 346f c43d
0.16101025 0.5781464 0.2330665 0.009699468 0.09750741 -0.11198554 0.038551956 -0.035996832
0.5045897 -0.035835158 -0.08048183 0.040631894 0.32965413 0.0062936465 0.03056892 0.038980156
-0.013803884 0.08234969 -0.08833837 0.026408402 -0.014631316 0.07475584 0.36609107 0.049404606
0.10947119 0.011767431 0.06909761 0.081384726 0.034427572 0.09809153 0.0015233293 -0.13827567
0.075980596 -0.03501919 -0.032521207 0.08431737 -0.02627081 -0.038401116 -0.0253523 0.011934856
1.106289 0.045377675 0.43900707 0.6004119 0.042623833 -0.09020664 0.014185458 0.0028007776
-0.10874584 0.0991943 0.019085184 0.014483496 -0.04515305 -0.070592 -0.10842596 -0.16544482
0.7385118 -0.12409617 -0.011815386 0.06749919 0.2972522 0.61734563 -0.072823435 -0.107549444
0.028492792 0.29801637 0.2514345 -0.0035984123 0.09936573 0.13934171 0.0400967 -0.03936564
0.10582552 -0.0966603 0.004949659 -0.40096578 0.36882105 0.023736652 -0.2783672 0.09933685
-0.09024568 -0.11156276 0.079798386 -0.052518044 -0.07323229 -0.09923311 0.4209729 0.08145765
0.0024075657 -0.00525114 -0.061872214 -0.054915696 -0.06647546 -0.10377911 -0.0084779775 -0.59157765
0.02430011 0.0444861 0.13555777 0.054817185 0.04753621 0.0068602883 -0.010251895 -0.033141613
0.8366136 -0.061435957 0.023111481 0.47501695 -0.0082407305 0.075808585 -0.039380595 0.04640788
0.012154266 -0.03665863 0.0013462007 0.082023785 -0.014172415 0.06380646 0.024166018 -0.26025358
0.5541461 -0.08254491 0.09514637 -0.054569706 0.266584 0.5251446 -0.05121495 0.037458062
0.041545708 0.26429266 -0.0006443391 0.0012097928 0.23373239 0.023286592 -0.09037346 -0.084462605
0.19257666 -0.2340981 0.11476202 -0.51446897 0.41363862 -0.03137896 -0.24364457 -0.05080208
-0.11657426 0.07678443 -0.04253125 0.03563558 -0.08038044 -0.24549673 0.13737272 0.23850629
-0.08462286 -0.049538437 -0.11670378 -0.052580286 0.045830034 -0.08997321 -0.043199234 -0.81930935
-0.056115713 0.02319254 0.0142727485 0.013487064 -0.056693714 0.031211594 -0.07680936 -0.25262585
0.31436458 -0.0067508654 0.30037755 0.18873867 -0.036452655 0.041467085 -0.088314906 -0.0075418204
0.027317107 0.07302675 0.054558635 0.0676274 -0.107481316 0.072797745 -0.08186044 -0.25492477
0.34992158 0.031172778 0.03231658 -0.051773652 0.072233215 0.67895555 0.030478895 0.0330669
-0.065283924 -0.17769441 -0.05861058 0.13848642 -0.63793665 0.020205943 -0.041868985 -0.059555363
-0.23812613 -0.00468887 -0.0027535558 -0.030842185 -0.4927517 0.00029993817 0.038848966 0.029686585
0.020100743 0.02840975 0.025133416 0.009876492 0.0755782 -0.04212752 -0.3013122 -0.4664523
0.07160962 -0.029266233 0.07986446 0.11210279 -0.06291993 -0.09301196 -0.0065600737 -0.13250145
0.081602566 -0.0554556 -0.0073830355 -0.019802423 0.035886653 -0.060331192 -0.056126863 0.014004305
-0.5934593 0.011230694 -0.58992624 -0.6702316 -0.07835746 0.11284831 0.026244134 -0.00035759807
-0.07727671 0.11776899 0.1080212 0.16377515 -0.114776015 -0.004061222 -0.041005686 -0.06821145
0.22824252 0.031182928 -0.06992927 0.0821587 -0.76267576 -0.26611874 0.025976032 0.09591523

layers.3.bias f4 [32]
00000000: 1457 4cbe f3c9 4fbd bf16 fd3d f6b3 d13d
00000010: 4aad d23d dd4d 1a3e 7bae 0e3d fce8 fbbd
00000020: f590 3bbd 59e7 32be 759e 3d3e c219 273e
00000030: 1278 2abc 729a 81be 86e8 823c a962 8a3e
00000040: c027 1ebe d135 453e 691b 823e fd17 043d
00000050: 4593 3bbe 48e8 16be e471 85bd bdf5 2b3e
00000060: 4f85 483e c730 80be b378 8d3e 4afc 76bc
00000070: 46f8 b03e 77a4 7bbd 99b1 993d 5215 f13a
-0.19955093 -0.050729703 0.12357854 0.10239403 0.102869585 0.15068765 0.034834366 -0.123002976
-0.04579254 -0.17471065 0.18517478 0.1631842 -0.010404604 -0.25313145 0.015980016 0.27028397
-0.15444851 0.1925881 0.25411537 0.03224944 -0.18317898 -0.14737046 -0.065158635 0.1679296
0.19582103 -0.25037214 0.2763115 -0.015074799 0.34564418 -0.061436143 0.07504577 0.0018393195

layers.6.weight f4 [16, 32]
00000000: b8c3 06be defe da3d 4048 2a3e 4d31 2abe
00000010: 7101 5a3e 632e 8a3e 0675 f03e c061 813e
00000020: fca5 313d 580f 2e3f e308 f23e d7b1 473e
00000030: e51b 1ebd 0720 b93d 0c6f 3c3d 1209 a5be
00000040: 0b6b 16be a48f d13e e8e1 6f3e 7f7d 5abc
00000050: 7509 523f b40a b4be bedc 743e e893 2dbe
00000060: 4f42 073e 2c35 f93e c6b5 15be a7e9 2dbe
00000070: ff5d a03e 222c 303e 1160 933e d30c 533e
00000080: d5b4 7bbc 6ae2 813e 6fd6 0f3e 959b 13be
00000090: 616a 1bbb 568c 0a3e cbf5 bd3e 6d0f bb3e
000000a0: 4a5f b9ba f7f3 833f 8201 ac3e 786c a53d
000000b0: 6b7d b83e b19a 663d 4edd 253e 4816 6abe
000000c0: ca6c 41bd 58a6 1b3f 14d8 7f3d ecd7 f2bc
000000d0: 4a8f 8b3f 5fdf 10be 8280 e03e 7800 5cbc
000000e0: 88b1 2c3e 5899 dc3e 9711 fbbd 9956 203c
000000f0: ad69 b33e 079a a83e c336 6d3e 85ea 013e
00000100: b3a0 fabe d9d5 86be a3ac 0dbf 775f 623e
00000110: f1ad 01be 6c18 86be e7d4 b6bd 6e96 c5be
00000120: d8f3 e3be f78d d0be 3019 83be 3f74 b1be
00000130: abab c9be a54f dcbe fd97 dabe e8da 143e
00000140: 214a 0fbe ebf9 d83d 628f 853c beb2 2e3e
00000150: be68 3ebf 95f6 4dbd 28a9 51be 4910 813b
00000160: a423 6c3e 2ce5 47bf 25ac a93e 6573 17be
00000170: 9182 2fba 86e8 21bf 0f39 c3be b054 4bbe
00000180: 0fe4 01bf 4894 9cbe a3f5 bcbe cbeb 903e
00000190: ba0f 46be b53f c4be b4f5 b9bd 32d4 dcbe
000001a0: 865c 02bf 5a26 e6be 198f 4dbe 9c08 adbe
000001b0: 0aa5 95be 722e 01bf 4beb dcbe bcc1 543e
000001c0: 7b66 8e3d 3361 b53d a4e0 2c3e 664f 663e
000001d0: f711 4dbf 3945 423c 5fc0 e0be ee52 dbbb
000001e0: c4cd 6b3e 9bf9 3bbf a121 2c3e 4d65 693d
000001f0: 0fb2 783c b8e6 03bf 86c5 f7bd de4b 0abe
00000200: b113 d33d fd03 1f3e 3b83 9ebc 55de 43be
00000210: 694d 943d 86c2 bc3b 0927 ee3e f18f d03e
00000220: be0d 82bd b2c6 5d3f af5f df3e 1bcd 273e
00000230: 8851 f43d 6f9b 5cbe 129b 0e3e 84e4 5fbe
00000240: 718c 0a3d 8961 dd3e 48b6 2e3e f1af 993b
00000250: 13e7 853f 5d11 9bbe a2a4 aa3e 0b3f 45be
00000260: 9955 07bc c530 7a3e 2ddd 9ebe 2aad c0bd
00000270: f767 933e 57d7 153e e816 843d 27bf c13d
00000280: 73ed 9f3d bb01 d33d cfa3 723e 2ed9 42be
00000290: 26ed 303e 9877 ef3d 31ec fb3e 437d 3d3e
000002a0: 47f1 39bd 2a68 4c3f 321e ac3e f69f 873d
000002b0: 7b2b 2e3e 5992 ca3c 86fc 023e cacb 28be
000002c0: 61a3 7fbd 4866 0b3f 0b07 6e3d ce3b aabc
000002d0: 7795 9c3f f4e8 d8be 5c7e a93e 9500 1bbe
000002e0: bc30 e2bb 04d9 033f f827 00be 5df1 8cbd
000002f0: 4e81 2c3e 200c 843e 5aef d03d 5694 423d
00000300: 9406 d2be 4f62 28be de08 86be 1c89 e93e
00000310: edc9 71be d43d a7be 3324 a4bd 40fd 79be
00000320: a46e ddbe 8c01 d4be 2d72 2abe 4064 123e
00000330: f326 593d 2616 f6be 1724 76be 6852 e93d
00000340: fd60 09be e231 4ebd cb9a 573e 0705 823e
00000350: 9e83 10bf 56c8 dbbd 672d f63b 7c52 b23c
00000360: 362f c93d 3fca 0cbf 5a2e 9f3e 4d38 353e
00000370: 2cb4 463e 819d 70be 74d9 1cbd b014 fd3d
00000380: 5314 05bf 511f 8cbe c70d ebbe 0971 ca3d
00000390: a56f 94be 1cc1 e2be 3338 8ebd 444a d4be
000003a0: 8c81 e0be 7ecd bdbe 61ca c7bd 1ac9 98be
000003b0: 26cf 17be 6109 bebe 66d1 babe 4d47 913e
000003c0: f0ec 163e 96eb a1bd 5e7c 763e 5d90 253e
000003d0: d655 5dbf 0104 02be 448c 6bbe f59a 0b3d
000003e0: 0894 043d 812f 1dbf b5dc 483e 50fc 33be
000003f0: 8c25 373d 231f ebbe 47ff 28bd 568d 2cbe
-0.13160598 0.10693143 0.16629124 -0.1662037 0.21289612 0.26988515 0.46964282 0.2526989
0.043371186 0.6799216 0.47272405 0.19501434 -0.03860082 0.09039312 0.04600434 -0.32233483
-0.14689271 0.40929902 0.2342602 -0.013335585 0.8204568 -0.35164416 0.23912331 -0.16950953
0.13208888 0.4867338 -0.14620122 -0.16983663 0.31321713 0.17204335 0.2878423 0.20610361
-0.015362938 0.25368053 0.14046644 -0.14414819 -0.002371453 0.13530096 0.37101588 0.36535206
-0.0014142778 1.0308827 0.335949 0.080773294 0.36033186 0.05629987 0.16197702 -0.22860062
-0.04722289 0.60800695 0.062461928 -0.029643975 1.0903103 -0.1414771 0.43848044 -0.013427846
0.16864598 0.43085742 -0.12259214 0.0097862715 0.35041562 0.32930014 0.23165421 0.12687118
-0.4895073 -0.26335028 -0.5534155 0.2210673 -0.1266401 -0.26190507 -0.08927327 -0.3859133
-0.44521976 -0.4073331 -0.25605154 -0.34659 -0.39388785 -0.43029514 -0.42694083 0.14536631
-0.13993122 0.10594543 0.016303722 0.17060372 -0.74378574 -0.050283987 -0.20474684 0.003938709
0.23060471 -0.78084064 0.33139148 -0.14790113 -0.0006695176 -0.6324543 -0.3812947 -0.19856524
-0.50738615 -0.3058188 -0.36906156 0.28304896 -0.19341937 -0.38329855 -0.09080067 -0.43130642
-0.5092243 -0.44951135 -0.20074119 -0.3379563 -0.29227477 -0.50461495 -0.43148264 0.20777029
0.0695314 0.0885643 0.16882569 0.22491226 -0.8010554 0.011857324 -0.43896767 -0.0066932356
0.23027712 -0.7342774 0.16809703 0.056981374 0.015179171 -0.51523924 -0.120982215 -0.13505504
0.1030649 0.15528865 -0.019349685 -0.19127782 0.07241327 0.0057604937 0.46514156 0.4073482
-0.06350277 0.8663131 0.43627688 0.16386835 0.11929613 -0.21543668 0.13926342 -0.21864516
0.03382534 0.43238476 0.17061722 0.0046901633 1.0461143 -0.30286685 0.3332873 -0.1926233
-0.008260154 0.24432667 -0.3102812 -0.094080284 0.28790256 0.14632927 0.064496815 0.094602875
0.07808962 0.103030644 0.236953 -0.1902816 0.17277965 0.116927326 0.49203637 0.18504815
-0.045396116 0.7984644 0.33616787 0.06622307 0.17008774 0.024727987 0.12791643 -0.1648399
-0.06241167 0.54452944 0.058112185 -0.02078047 1.2233113 -0.4236523 0.33104217 -0.15136941
-0.0069027822 0.51503015 -0.12515247 -0.06881974 0.16846201 0.257905 0.10201903 0.047504745
-0.41020644 -0.16443752 -0.2617864 0.4561242 -0.23612185 -0.3266436 -0.08014717 -0.24413013
-0.43248475 -0.4140743 -0.16645117 0.14296055 0.05301566 -0.48063773 -0.24037205 0.11392671
-0.13415904 -0.05034054 0.21055143 0.2539446 -0.5645083 -0.107315704 0.0075127366 0.021767847
0.09823458 -0.54996103 0.3109005 0.17697258 0.19404668 -0.23497583 -0.038293317 0.123574615
-0.5198414 -0.27367643 -0.4590895 0.09884841 -0.28991428 -0.44287956 -0.06944313 -0.4146291
-0.43848836 -0.3707084 -0.097553976 -0.29840928 -0.14825115 -0.3711653 -0.36487883 0.2837471
0.14738822 -0.079062626 0.2407088 0.16168351 -0.864591 -0.1269684 -0.23002726 0.034083325
0.032367736 -0.6140061 0.19615443 -0.17576718 0.044713542 -0.45922193 -0.041259076 -0.1685079

layers.6.bias f4 [16]
00000000: f720 8a3d e13c 84bd 4df3 fe3e 07b4 f63e
00000010: ac5c 0b3e fbce 1c3e efdc 9a3e 64f4 163f
00000020: 5302 82bc 86eb 0a3f 0fb6 f83e 9ee0 b83e
00000030: b943 d63e 0d42 2c3e 94af c43d b4d7 ad3e
0.06744569 -0.06456924 0.49795 0.48184225 0.1360957 0.15313332 0.30246684 0.5896666
-0.015870249 0.5426563 0.485764 0.3610887 0.41848543 0.16822071 0.09603801 0.3395363

layers.9.weight f4 [1, 16]
00000000: aaa5 bcbe 7ef5 9bbe 8051 713f 2d2d 823f
00000010: d1cf eebe e83f c7be a7e7 2a3f 50a4 703f
00000020: 36bd 0bbf 6850 613f 501c 303f 5232 6b3f
00000030: 7ef2 383f c572 22bf e40a 0cbf 1801 483f
-0.36845142 -0.30460733 0.94264984 1.0170037 -0.46642926 -0.38915944 0.66759723 0.9400072
-0.5458559 0.88013315 0.687932 0.9187366 0.72245014 -0.63456374 -0.5470412 0.7812667
