models/Mean/pion.pt (torch, 18353 bytes, 7 tensors)

layers.0.weight f4 [64, 19]
000000 49 58 de bc af 20 92 3d 3d de 2f be 2a c4 73 3c
       -0.027141707 0.0713514 -0.17174621 0.014878312
000010 88 93 69 be 7a 44 38 3e f8 58 c3 3d bd 9d 54 be
       -0.22810185 0.17994872 0.09538454 -0.20763297
000020 7f 37 1c 3e 58 6e ce bc 53 0a e9 bd de 4a 71 3e
       0.15255545 -0.0251991 -0.11378922 0.23563716
000030 7e 39 0c 3d bd 3f 9e bd 8c 8c e3 bb e0 c6 5c bd
       0.034234516 -0.07727001 -0.0069442447 -0.0539006
000040 88 6a 4b be 2b a5 77 3e 06 92 53 3e ab cb 1f 3f
       -0.19864857 0.241841 0.20661172 0.6242015
000050 59 6c 86 3c cd 8e 8c 3b ea 59 47 3d 21 3b 08 bd
       0.016409086 0.004289484 0.048669733 -0.033259515
000060 a8 a6 80 bc 4d 26 65 3d 39 6e bc 3c 4d 15 be bd
       -0.015704468 0.05594473 0.023001777 -0.092814066
000070 e8 fd 1c 3d 20 f1 b0 bf 8b 80 60 3d fd 1b 91 3a
       0.03832808 -1.3823586 0.054810088 0.0011070963
000080 2f fd 1a 3c d4 5a af 3c cb 98 80 ba a3 9a e7 bc
       0.009459778 0.021405615 -0.0009811161 -0.028271979
000090 2c 78 e7 bb 65 d6 bd 3b 0b 52 12 3e 03 c8 2f bf
       -0.007063886 0.00579338 0.1428911 -0.6866457
0000a0 14 81 ef 3d c2 71 81 bf ed 5e c3 3f 39 bc fc 3e
       0.116945416 -1.0112841 1.5263344 0.49362352
0000b0 a7 29 14 3f 9a 50 c5 3d 7f 0d 55 bd 62 96 63 3d
       0.57876056 0.09634514 -0.052014824 0.055563338
0000c0 74 15 08 3f bc 09 26 3e 13 38 64 bc 13 52 4b bd
       0.53157735 0.16214651 -0.013929385 -0.04963882
0000d0 2d 89 9f bd a1 9a 10 bd de c1 9f bc f4 b9 59 be
       -0.07789836 -0.035303716 -0.019501623 -0.21262342
0000e0 69 81 88 bd bd 95 4e be 17 7e 6a 3e 73 e9 3d 3e
       -0.06665308 -0.20174308 0.22899662 0.18546085
0000f0 68 0b f0 3c 40 75 62 bc 5b 2b 1d 3e 01 49 07 3e
       0.029302314 -0.0138219 0.1534857 0.13211443
000100 3e e8 5f be 76 f2 66 be ac 9b 76 3d e3 de 49 3e
       -0.21865937 -0.22553429 0.060207054 0.19713931
000110 62 d6 63 be 9f 6b 2e 3e af 83 1a 3e 4c b4 fe bd
       -0.2224975 0.17033242 0.15089296 -0.12436733
000120 37 fe 28 be d0 96 d5 bd f2 0a 23 be 7f bf 49 3e
       -0.16503225 -0.10429156 -0.15922144 0.19701956
000130 59 bb ed 3f 71 4f cc 3d ef 95 24 bc 17 6d 1b 3e
       1.8572799 0.0997609 -0.010045513 0.15178333
000140 f2 d5 1f 3f 14 58 9e 3e 18 1c 5a 3e 4f da 6d bd
       0.6243583 0.30926573 0.2129978 -0.058069523
000150 1a 07 c1 3c dc 0f 6f bc b9 79 5e be 7e 8f dd bb
       0.023562957 -0.0145911835 -0.21726121 -0.0067614904
000160 23 cf 53 3d e2 ff 98 bc 4a 84 52 bb dd e6 ec b8
       0.051711213 -0.018676702 -0.0032122307 -0.000112963586
000170 b7 dc 0f be 0c d0 06 3d b2 c9 18 bd e5 49 9b 3f
       -0.1404904 0.032913253 -0.037301727 1.2131926
000180 65 fa cb 3c dc 46 98 b9 89 14 02 3e 33 1f f2 bd
       0.02489967 -0.00029044494 0.12703146 -0.11822357
000190 03 71 80 be 35 9a 35 3c 8e 7a 51 3c db a5 03 3c
       -0.2508622 0.011084129 0.012785567 0.0080351485
0001a0 81 45 e6 bb f7 63 84 bf 94 be db bb f6 90 8c bb
       -0.0070273285 -1.0343007 -0.0067060683 -0.0042897416
0001b0 49 85 1b bb 35 a7 17 bc 8b af b9 3b 03 28 10 bb
       -0.0023730567 -0.009256174 0.0056666783 -0.0021996505
0001c0 86 83 31 bd 2e 09 bd ba 6f 2e 51 3e 78 69 5a be
       -0.04333832 -0.0014422291 0.2042787 -0.21329296
0001d0 05 d4 c3 bd f0 fd d4 3c d5 59 d4 bc 9f cf 0d 3e
       -0.09561924 0.025999993 -0.025921742 0.13848732
0001e0 e6 97 3a 3e 6c 63 39 3e 8e f5 c3 3d f9 cb 36 3d
       0.18222007 0.18104333 0.0956832 0.044628117
0001f0 d4 5f c5 3d 16 e7 f3 3d 5f 28 c6 bd 1f d2 85 3d
       0.096374184 0.119093105 -0.09675669 0.06534218
000200 ab 32 42 3e ae 55 82 bd c6 9b ed 3c e5 bc 4c be
       0.18964641 -0.06363998 0.029004943 -0.19993933
000210 8c db 9b 3d 62 de 88 3d ac e0 4d be 3c a3 2b 3d
       0.076102346 0.06683041 -0.20105237 0.04190372
000220 63 63 2c 3e 58 38 07 bd 9c 3c 9c bd ba cf e6 bd
       0.16834788 -0.033012718 -0.07628748 -0.112700894
000230 8e 39 17 be 83 79 01 3e c9 b2 f2 bd 66 69 8a 3d
       -0.14768049 0.1264401 -0.11850507 0.067583844
000240 24 e7 97 bd 69 b2 50 3e 16 25 32 be 40 50 f3 bb
       -0.074171335 0.20380558 -0.1739696 -0.007425338
000250 24 94 76 bd a3 1b 5d 3e 37 11 17 3e a0 73 28 bd
       -0.06019987 0.21592574 0.1475266 -0.041125894
000260 e2 fa ab be 76 83 37 3c 4e bc 84 bb 5a ab 23 bf
       -0.33589846 0.011200776 -0.004050768 -0.63933337
000270 a7 91 b1 bb 0b b6 5e 3d dd 92 82 3c 31 70 a7 bb
       -0.0054189744 0.05437283 0.01593917 -0.00510981
000280 7a 0f 60 3c 5f 05 a4 3c 25 ea 9f bf 9c db ca 3c
       0.013675565 0.020022092 -1.249333 0.024762921
000290 a2 0d 8c 3c a1 a3 5b 3c ac ed 34 3d d1 a3 ce b9
       0.017096344 0.013405711 0.044171974 -0.00039413435
0002a0 7b 33 9e 3c ed b6 73 bd 07 c4 9f 3c 07 f3 a1 bf
       0.019311657 -0.059500623 0.019502653 -1.2652291
0002b0 04 ea e0 bd 55 d9 2a bc 1a 85 ea 3e d9 d1 72 bf
       -0.10982135 -0.010427793 0.45804673 -0.9485145
0002c0 3d 14 79 be 07 0a c7 bc a0 7b 5b be 68 7a 01 bd
       -0.24324127 -0.024296774 -0.21433878 -0.031610876
0002d0 41 4b a2 3d 2c 78 02 3f 65 2d 95 3c bd 4f a6 3d
       0.0792451 0.5096462 0.018210122 0.081206776
0002e0 7d 87 17 3d 5e b0 46 3d b4 20 85 bb 38 89 d2 3d
       0.036994446 0.04850804 -0.0040627364 0.10280079
0002f0 2d b1 fa 3d 36 d2 1d bf 9d a2 52 3e 9a f5 a7 bd
       0.12240825 -0.6164888 0.20569845 -0.08201142
000300 14 e2 be bd 80 0f 35 3c 40 15 3a bb d2 85 d3 3d
       -0.09320465 0.011051059 -0.0028394014 0.103282586
000310 fc a0 98 bd 80 b2 35 bb ba b5 00 be 6e 56 ba bd
       -0.0745258 -0.0027724802 -0.12569323 -0.090985164
000320 0a 12 cb 3d 39 36 62 3e 4e e3 db 3d 04 99 1e bd
       0.0991555 0.22090997 0.10736714 -0.038720146
000330 4a 31 b4 3d b8 29 d1 bd cb 08 3b 3e 3e f4 63 be
       0.08798464 -0.10213035 0.18265073 -0.2226114
000340 3e ec c8 3d f6 17 40 bd 5b d9 3b 3e 1a 88 0c 3e
       0.098106846 -0.04689785 0.18344633 0.13723794
000350 5b 83 e8 3c 6e 46 d9 bc 3f 7f 6e be 78 e8 2e 3e
       0.028382948 -0.026522841 -0.23290728 0.17080867
000360 d6 2e 1d be aa aa 1a be e2 12 0b 3e 6c e4 c2 bb
       -0.15349898 -0.15104166 0.13581422 -0.00594764
000370 09 67 df bd dc f4 12 3e 77 90 0c 3d c0 2d 30 be
       -0.10908324 0.14351219 0.03431746 -0.17204952
000380 dc 3b da bd 88 13 ab bd 27 0b de 3d 70 6c 02 be
       -0.106559485 -0.08353335 0.10841971 -0.12736678
000390 79 c4 dc 3d 44 af c6 bd 96 c1 29 3e 62 81 0b 3e
       0.10779662 -0.09701398 0.16577753 0.13623574
0003a0 16 6d d7 bd e0 5e bd 3c 25 c0 20 be 08 f5 43 bd
       -0.10518853 0.023116529 -0.15698297 -0.047841102
0003b0 5b a3 30 3e 08 9e 44 3e 80 c5 12 be d4 49 2b 3c
       0.17249815 0.19200909 -0.14333153 0.010454614
0003c0 37 97 95 3d 8c 8a b2 bd 3e cf 59 3e f0 c3 af bd
       0.073042326 -0.08717832 0.21270463 -0.08582294
0003d0 25 34 22 be c7 82 03 3e 2b 0a c3 3c f5 37 b7 bf
       -0.15840204 0.12842856 0.02380856 -1.4313952
0003e0 79 30 c3 3d 14 04 6f bb a1 92 d3 3d ac dc 66 be
       0.0953073 -0.0036470937 0.103307016 -0.22545117
0003f0 d7 50 a8 3e 53 7a 1a 3f e9 84 2b 3d 27 3f c9 bc
       0.32874176 0.603429 0.0418748 -0.024566246

layers.0.bias f4 [64]
000000 ed f1 91 bd f0 94 0a 3c 0a bc 23 3e 44 10 67 3d
       -0.07126222 0.008458361 0.159897 0.056411996
000010 8a d0 28 3d bb 43 22 be 50 63 e8 bd 54 3c 78 3d
       0.041214503 -0.1584615 -0.11347067 0.06060441
000020 b0 7f 3e 3e f9 c0 dd be 78 11 96 bd 78 33 e5 bd
       0.18603396 -0.4331129 -0.07327551 -0.111914575
000030 f8 ec c8 bd 25 b3 95 bd 43 94 9e bd ea e2 7a be
       -0.09810823 -0.0730956 -0.077431224 -0.24500623
000040 83 48 20 3e 65 13 53 3e c8 db 04 bc b6 01 ca 3d
       0.15652661 0.20612867 -0.008109041 0.098636076
000050 d7 ce 0a be 4c 47 08 3d ee 67 40 be 01 f7 37 be
       -0.13555466 0.03327112 -0.18789646 -0.17965318
000060 4a 6e b8 bd 46 a9 00 be 92 2e 5e be bf 8b e4 bd
       -0.09005411 -0.12564573 -0.21697453 -0.11159467
000070 66 d5 f6 3d 8c 7d 49 bd 18 95 82 3d 52 3d 74 be
       0.12052421 -0.049191996 0.063760936 -0.23851517
000080 fa d5 08 3e 4f ee 88 be e2 99 9f 3d 0b cf b9 be
       0.13362876 -0.26744315 0.07793023 -0.36290774
000090 ac b9 a6 bd be 33 88 3d db 81 3c be c6 f8 85 be
       -0.08140883 0.06650494 -0.18408911 -0.26166362
0000a0 75 b0 3d bd 93 fd 57 be aa e5 bf 3d e4 6f 2b bd
       -0.04631086 -0.21092825 0.09369977 -0.041854754
0000b0 4b e1 93 bd c9 e9 5d 3e d7 c8 60 be a7 5d 06 be
       -0.072207056 0.21671213 -0.21951614 -0.13121663
0000c0 b3 4a 47 3e 4e 7e 5c be 1f c9 84 bd b1 54 3c be
       0.19462089 -0.21532556 -0.06483673 -0.18391682
0000d0 4f 81 96 be b6 f6 e5 bc 0c eb dd bd 93 16 66 3b
       -0.2939553 -0.028071743 -0.10835847 0.003510867
0000e0 94 28 a7 3d f7 7f 44 bd d2 b0 c3 3d ae c6 9f 3c
       0.081620365 -0.0479736 0.0955521 0.019503918
0000f0 fa 46 9b 3d a7 90 17 be 1a 41 89 bd 4e f3 09 be
       0.07581897 -0.14801274 -0.0670187 -0.1347172

layers.3.weight f4 [32, 64]
000000 49 9b 40 bd f4 a2 99 3e 23 72 85 bc 60 f2 da 3c
       -0.04702309 0.30007136 -0.016289776 0.026726902
000010 0a 3c d6 bc 40 c0 f5 3e cc 9b 21 3c a8 72 e0 bc
       -0.026151676 0.47998238 0.009863805 -0.027398422
000020 ab 69 be 3e c0 e3 c3 be b4 e5 a5 3d dd 31 81 3d
       0.37189993 -0.38259697 0.08100453 0.06308339
000030 99 d4 83 bd 86 a6 e5 3c a4 da 24 3e 8c 73 a1 be
       -0.06437034 0.028033506 0.1609903 -0.31533468
000040 42 13 e8 bd 28 1e 36 bd 06 09 e4 be c8 8a f4 bd
       -0.11331798 -0.044462353 -0.44538134 -0.11940533
000050 10 62 02 bc 50 8c 2e 3d 42 62 8f bd 0f 0b 01 bf
       -0.00795795 0.04261428 -0.07001163 -0.504075
000060 8a c7 e3 3d b6 e7 a1 bd ec a8 17 3d 97 a3 c7 3c
       0.111220434 -0.079055235 0.03702633 0.024369998
000070 30 a2 46 3d 90 2f d1 3c 99 64 7b 3d 32 dc c4 be
       0.048494518 0.025535375 0.061375234 -0.38449246
000080 56 67 3b 3d 7f 38 3a 3e d0 c3 2c bd 2c 1f e9 be
       0.045752846 0.18185614 -0.04217893 -0.45531595
000090 2d e6 e3 3c e0 11 4e bd 8e 83 51 3b 53 26 97 bf
       0.027819717 -0.050310016 0.0031969282 -1.1808571
0000a0 87 10 6a bc 68 0a 8f 3d f4 92 d8 bc 38 89 93 3c
       -0.014286167 0.06984407 -0.02643726 0.018009767
0000b0 4b 2e e6 3c de 2b 90 be d7 e5 42 be 73 5d ad 3c
       0.028098246 -0.28158468 -0.1903299 0.021162724
0000c0 52 8a bf bd c0 a5 ee 3b 13 4f 25 3d a4 75 e6 3d
       -0.093525544 0.0072829425 0.040358614 0.11252907
0000d0 ce e8 07 bf fc 7e 89 bc b2 7d c0 bd 54 ec 93 bf
       -0.53089607 -0.016784184 -0.093989745 -1.1556497
0000e0 65 a4 82 bd 02 df 14 3d 72 31 c7 bd 04 50 e9 3e
       -0.06379012 0.03634549 -0.09726228 0.4556886
0000f0 6c 6f 50 bd 00 2e d8 bb 8d 03 99 3d 0a d8 f1 3d
       -0.05088751 -0.0065972805 0.074713804 0.11808784
000100 9c d9 6a 3d 15 4c 9d bd 2a 41 3d 3d ba 0b e3 3d
       0.057336435 -0.07680527 0.046204723 0.11086221
000110 46 83 7b be 3f 31 4b 3d b0 53 03 3c bc 2c c1 3d
       -0.24561796 0.04960751 0.008015558 0.094323605
000120 4a 88 45 be b2 21 b2 be 34 a4 81 bd 4e d4 92 3d
       -0.19290271 -0.34791332 -0.063301474 0.071694
000130 60 86 6c 3c 58 15 f8 bc 99 06 d0 3d a7 b3 8a 3d
       0.014436334 -0.030283615 0.101575084 0.06772547
000140 e0 55 32 3d 78 48 36 bd 46 2a f2 3d 34 9f 66 bd
       0.043538928 -0.044502705 0.11824469 -0.05630417
000150 74 e2 c2 3d 98 df 1e 3d b8 61 9c bd 1d 84 2e bf
       0.09515849 0.038787454 -0.07635826 -0.6817034
000160 28 d4 49 3d e6 63 c3 bd 1e 85 ef bd 48 76 1a bd
       0.049274594 -0.095405385 -0.11695312 -0.037710458
000170 fa b8 ae bd 30 95 d7 bc c8 8c d1 bc cf 97 b6 bb
       -0.08531375 -0.026316255 -0.025579825 -0.005572296
000180 56 85 b8 be 3d 12 5b 3e 54 48 aa bd f1 70 9f be
       -0.36039227 0.21393676 -0.08314577 -0.31140855
000190 41 fa d5 3d 40 9c 70 3d 63 c4 e4 3e 38 a8 41 bf
       0.10448123 0.05874276 0.4468108 -0.75647306
0001a0 bb 10 5a bd 5e c8 c3 3d d6 30 fc bd 98 32 37 bd
       -0.05323861 0.095597014 -0.12314002 -0.044725984
0001b0 19 53 26 3d 38 4c 31 bf 4c da c3 bc 74 bf 7b be
       0.04060659 -0.69256926 -0.023907803 -0.24584752
0001c0 0a e3 60 3d aa 44 92 3d a0 4e 17 bc fa ca 9b bd
       0.05490402 0.07142003 -0.009235054 -0.07607074
0001d0 b6 48 89 bd 04 17 06 3d 22 a0 c2 bd eb 2d 0a bd
       -0.06703322 0.032736793 -0.09503199 -0.033735197
0001e0 1a e1 db bd c9 c4 e7 be a2 37 81 3d 83 21 9b be
       -0.10736294 -0.45267323 0.06309439 -0.30299005
0001f0 49 e3 eb 3d ea 1a be bd 06 2e f1 3d 18 b7 94 3c
       0.115179606 -0.09282477 0.117763564 0.018153712
000200 6f 9b aa 3d d3 37 fc be 0b 03 20 3d 20 64 43 3c
       0.08330428 -0.4926134 0.039065402 0.011925727
000210 e2 43 9a bd 7f d7 27 3e 26 13 bf 3d d2 67 b2 3d
       -0.07532479 0.16390799 0.09329824 0.087112084
000220 6d 96 08 bf 4f 62 21 bd 32 cc af 3d ef 05 1a bd
       -0.5335453 -0.039400395 0.08583869 -0.037603315
000230 54 6f 8e 3d eb e4 d3 3d 1b a7 e6 3d b9 c1 71 3d
       0.06954828 0.10346397 0.112623416 0.05902264
000240 ae 1f ec 3d da c8 8e 3d 68 23 93 3e 70 25 4a 3d
       0.1152948 0.06971903 0.2873795 0.04935211
000250 4e f3 f5 3d 16 26 de 3d cc b4 60 bd a3 e7 7d 3e
       0.12009297 0.10847108 -0.05485992 0.24795394
000260 54 eb e2 3d 52 ef ed 3d 80 af bf 3c e5 11 3c be
       0.110800415 0.11617912 0.023399115 -0.18366201
000270 14 78 1e 3d 88 b0 c1 3d 00 1a 97 3b 82 19 5d 3e
       0.038688734 0.09457499 0.0046112537 0.21591762
000280 f9 e9 69 be 7a a5 4c 3e 60 60 a3 3d c2 ec dc 3e
       -0.2284316 0.19985 0.079773664 0.43149382
000290 cd 48 5d 3b b0 b7 5a 3c b8 07 60 3e 1d e4 60 3f
       0.0033765316 0.013349459 0.21877944 0.87848073
0002a0 a7 9a 6b bd 10 68 27 bd af d4 62 bc 40 20 c5 bc
       -0.057520535 -0.040870726 -0.013844653 -0.02406323
0002b0 be bb d0 bd fb 6c 04 bf 64 77 76 3b ed 85 6a bd
       -0.10192059 -0.5172879 0.0037607783 -0.057256628
0002c0 d0 94 db 3d 58 3f 9f bd 78 13 4e 3d 50 e7 bc 3d
       0.10721743 -0.07775754 0.050311536 0.09223807
0002d0 43 f2 55 3e 97 2b f1 bd b0 c2 35 bc b9 f2 de 3e
       0.20893197 -0.11775892 -0.01109378 0.43544558
0002e0 f0 f6 58 bd 46 3c 8f be 48 fc a7 3d a2 7d f4 be
       -0.052969873 -0.27975672 0.08202416 -0.477521
0002f0 8c 96 e7 3d 10 be d2 3d 60 c1 91 be 78 3e 60 bd
       0.113080114 0.10290158 -0.28467846 -0.054747075
000300 ee 6d d7 3d a3 0d 55 be 6a 0f a3 be 8c 44 31 bd
       0.10519014 -0.20805983 -0.31847697 -0.043278262
000310 5a a1 73 3c 75 8c cf ba 74 04 2d bd 3c d3 e2 3d
       0.014870012 -0.0015834706 -0.042240575 0.11075446
000320 25 11 64 be 33 a9 d1 3b 60 90 84 3d fc 0e 52 bd
       -0.22272165 0.006398344 0.0647285 -0.05128382
000330 b8 95 3e bd f2 f7 82 be 36 e6 bd bd 04 c3 f7 bc
       -0.0465295 -0.25579792 -0.09272425 -0.030244358
000340 74 3d a9 3d 1c 16 de bd 98 56 b3 3d 28 76 c0 bc
       0.082636744 -0.10844061 0.08756751 -0.023493841
000350 3a fb dd bd a8 86 49 bd d0 4f ab 3d 75 94 56 bd
       -0.10838933 -0.049200684 0.083648324 -0.052387673
000360 e8 9b 60 3d 60 c1 4d 3c 3c 96 ac bd b4 c2 50 be
       0.054836184 0.012558311 -0.084270924 -0.20386773
000370 78 d4 82 bc 66 46 b5 3d 01 65 62 3c c7 c2 fc 3d
       -0.015970454 0.08851318 0.0138180265 0.12341838
000380 44 8f 29 bf 38 5c a2 be 46 d0 da bd c9 d1 f7 3e
       -0.6623423 -0.31710982 -0.10684256 0.4840224
000390 8c 03 ca 3d b8 2e fd bc d8 9e d8 be c6 ea 86 3f
       0.09863958 -0.030906066 -0.42308688 1.0540397
0003a0 13 cd 4d be ac 0b 62 3b 80 27 df 3b 88 aa 8c bc
       -0.20097761 0.003449182 0.0068101287 -0.01717116
0003b0 6e dc 94 bd ff 75 6e 3d 57 56 38 be 6a a8 59 bd
       -0.07268606 0.058218 -0.18001686 -0.053139128
0003c0 3e 43 42 3d 2c d4 c2 3d 6e 5d a5 bd 70 35 7c 3d
       0.04742741 0.09513125 -0.08074461 0.0615744
0003d0 ee 0c 2d 3e 58 c3 1a be ca b6 e6 3d c5 d3 52 3e
       0.16899464 -0.1511358 0.11265333 0.20588596
0003e0 0c 42 de 3d 89 bf b6 be 3e 29 d2 bd e2 6f 5d be
       0.10852441 -0.35693005 -0.102617726 -0.21624711
0003f0 d9 84 88 bc e4 7d 01 3d e2 63 19 be c0 39 ae 3c
       -0.01666491 0.0316142 -0.14979509 0.021267772

layers.3.bias f4 [32]
000000 40 ec 4d bd ee 31 b8 3d 2e 5c 5c be 9b e8 2e be
       -0.050274134 0.08993898 -0.21519539 -0.1708092
000010 c8 e4 42 3d 8c 09 89 be af f3 1d be e7 1f f0 3d
       0.047581464 -0.26765096 -0.15424989 0.11724835
000020 99 60 d4 3d 99 53 07 3e 13 da 38 be c1 1b ea 3e
       0.10369987 0.13215484 -0.18051939 0.457243
000030 71 c9 32 3e b7 3d 83 3d a4 ef fb 3d 05 b0 f4 3d
       0.17459656 0.064082555 0.12301567 0.119476356
000040 e6 b6 4b 3a d4 7d cd 3e f1 fa bb 3c 63 12 1d 3e
       0.00077710894 0.40135062 0.022946807 0.15339045
000050 7a 84 e0 3d 21 15 5d 3e be 0b 3f 3e 6e c8 3f 3e
       0.10962768 0.21590091 0.18656823 0.18728802
000060 c4 35 54 3e 4e f0 2c 3e ea 60 8a 3c 76 f2 f5 bd
       0.20723635 0.16888544 0.016891915 -0.120091364
000070 f9 c5 dd 3e a5 6a 0a 3d e1 0c 4d bd 3d c7 75 3e
       0.43315104 0.03379311 -0.05006111 0.24001785

layers.6.weight f4 [16, 32]
000000 5b 9b 19 bf 76 28 92 3e 04 6c b2 bd 1f 69 10 bf
       -0.6000268 0.28546494 -0.087120086 -0.564104
000010 e9 dc c5 be 55 22 ac be 7d af ee 3c 8f ac fc 3d
       -0.38645104 -0.33619943 0.029136414 0.123376004
000020 b2 f7 a3 3d df 25 28 bf 39 2b a7 bd c4 cd 8e 3e
       0.080062285 -0.65682787 -0.08162541 0.27891362
000030 d2 d1 91 3e 54 5c 4b bf e7 38 c7 be 69 fd 06 bf
       0.28480393 -0.79437757 -0.389106 -0.52730423
000040 c9 8d bf 3e 83 f6 7c 3e 63 4b 0a bf 33 fa 75 3d
       0.3741286 0.24703412 -0.5402128 0.06005306
000050 30 3d 12 bf 14 a1 6d 3d c9 49 3d 3e 92 c2 76 bd
       -0.57124615 0.058014944 0.18485178 -0.06024415
000060 76 e0 59 be f6 60 fb 3d 70 88 a5 3e 7a 2b 5b bd
       -0.21277031 0.12274353 0.32330656 -0.05350826
000070 c1 59 90 3e 1a 5e 07 bf 79 24 b9 3e 62 d1 c8 3d
       0.28193477 -0.5287796 0.3616064 0.098055616
000080 d4 9c db 3e ae 13 a9 bd 8b 5c 5e bf c2 ae 75 be
       0.42893088 -0.08255707 -0.8685996 -0.23992446
000090 bd d4 3d 3f fd 5f f5 bd 19 45 4d bf 68 7e 6c 3e
       0.7415274 -0.11981199 -0.8018356 0.23095095
0000a0 a1 fc 9c be 40 7f e1 bd e9 99 ba 3d 5b ed a5 3d
       -0.3066149 -0.11010599 0.09111387 0.081019126
0000b0 11 6e 04 bf 73 a5 0e 3f 74 15 1f bd 4b 05 02 3f
       -0.5173045 0.55721205 -0.03883882 0.50789326
0000c0 42 1d 26 bf 44 19 4f 3e b7 fa b5 3e 4e 61 3f bf
       -0.64888394 0.20224482 0.35542843 -0.7475785
0000d0 d0 b2 a2 3d d7 11 30 bf 5c 56 1b bd 06 ce 9a be
       0.07944262 -0.6877722 -0.037924156 -0.30235308
0000e0 8f 10 83 bd 86 18 fe be 3b 01 41 bf 32 c0 f4 be
       -0.06399643 -0.49628085 -0.753925 -0.47802883
0000f0 04 45 d6 3d 02 22 05 3f 59 32 9d 3d d8 18 91 be
       0.104623824 0.52005017 0.07675619 -0.28339267
000100 d9 b2 a5 be cb 37 cb 3e 69 70 90 3c 2b 89 08 bf
       -0.32363012 0.39691004 0.017631726 -0.533343
000110 73 7c 0b bf 05 f9 41 be 77 be ac bd b5 b9 e0 3d
       -0.5448677 -0.1894265 -0.08434766 0.10972921
000120 c9 64 9a bd c6 62 96 be 87 a0 19 3e d9 e1 32 3e
       -0.075387545 -0.29372233 0.15002643 0.17468967
000130 1d 9c 7c 3e b8 9b 46 bf c0 ac e5 be a6 4f 48 bf
       0.24668927 -0.7758136 -0.4485836 -0.78246534
000140 63 6d bb 3e 83 b4 c7 3e a8 1f f0 be ca 93 17 3e
       0.36606893 0.39004907 -0.46899152 0.14802471
000150 a9 cb bb be 9b 5f 96 3d 8b f7 4f 3e 09 d4 0f 3d
       -0.36678818 0.07342454 0.20309274 0.03511432
000160 b2 bc b2 be a4 c8 f2 3d 4c cc 91 bc 61 d5 55 3c
       -0.34909588 0.118546754 -0.017797612 0.013051362
000170 b9 01 3f 3e 8e 0d ef be 75 41 b5 3e 1d 92 30 3e
       0.18653001 -0.4669003 0.35401502 0.17243238
000180 90 f4 ed 3e f8 5b cb bd 97 a2 1d bf 2b f8 78 be
       0.4647565 -0.09929651 -0.6157622 -0.24313419
000190 33 ee c3 3e 5e 24 da bd 49 90 0b bf d7 90 85 3e
       0.3826767 -0.10651468 -0.54517037 0.26087067
0001a0 04 ce 1c be d7 9a 01 bd 98 46 99 bd 99 39 92 3e
       -0.15312964 -0.031641807 -0.07484168 0.2855957
0001b0 66 a0 f4 bd 60 a9 06 3f 31 79 34 be bc a4 06 3f
       -0.11944656 0.52602196 -0.17624356 0.52595115
0001c0 1e 9b cc be f4 2d 82 3e 5f 3c 8c 3e e2 9e 8c be
       -0.39962095 0.25425684 0.2738981 -0.27464968
0001d0 c5 4f 38 3e 1e 35 dd bd 22 0c 9c be c7 cc 6c bd
       0.1799918 -0.10801147 -0.30478007 -0.05781248
0001e0 f7 b1 09 3e 68 b7 59 be 0c fc 9e be ff 26 07 bf
       0.13446794 -0.2126137 -0.31051672 -0.5279388
0001f0 47 85 46 3e 60 96 06 3f c8 91 10 bf e3 66 01 be
       0.19386779 0.52573204 -0.56472445 -0.12636904
000200 fe d9 a8 be ca 46 f4 3e 06 65 23 bd c9 bb 25 bf
       -0.32978815 0.47710258 -0.039891265 -0.6473966
000210 ea 70 bc be 79 e1 db 3d 49 39 7e bc 27 a0 c5 3e
       -0.36804897 0.10736365 -0.0155165875 0.3859875
000220 0b 80 74 3b 93 2d d1 be bd 64 b1 bd 9f 52 7d 3e
       0.0037307765 -0.40855083 -0.086617924 0.24738549
000230 b9 6e 94 3e f1 b9 37 bf c8 49 bb be 1a 3d 32 bf
       0.28990725 -0.717681 -0.36579728 -0.69624484
000240 b1 79 8a 3e 61 92 d4 3e 34 fc 11 bf 37 3b 20 3e
       0.27045968 0.41517928 -0.57025456 0.15647589
000250 bb 44 03 bf 10 d3 c4 3e a3 be de 3e 97 41 ec 3d
       -0.5127675 0.38442278 0.4350482 0.11535948
000260 34 df a5 be 1a 85 66 3e 1e 5c 81 3e 20 23 bb 3d
       -0.32396853 0.22511712 0.25265592 0.09137559
000270 7b 63 af 3e 3d 26 f5 be 81 bb 1d 3f 69 97 55 3e
       0.34255585 -0.47880736 0.61614233 0.2085854
000280 8f a8 18 bf 42 2e e3 3e 38 97 98 bd d1 16 fb be
       -0.596322 0.4437123 -0.07450718 -0.49040845
000290 af b9 f7 be 6e 06 ee 3d 91 63 82 3d 6d cd af 3d
       -0.48383853 0.1162232 0.06366647 0.08584104
0002a0 4d e1 41 3d 43 94 09 bf 1a 5c 88 3d 52 ce 59 3e
       0.047334004 -0.53741854 0.06658192 0.21270111
0002b0 da 38 d4 3e 5c 54 65 bf 5b 8c f6 be 22 16 38 bf
       0.41449624 -0.8958185 -0.48153958 -0.7190877
0002c0 2e 2e 0d 3e 20 67 30 3e 15 ae 0a bf df d0 d1 3d
       0.13787147 0.17226839 -0.5417188 0.10244917
0002d0 8c 7b d7 be 65 97 e1 3d 39 71 74 3d 05 8c 89 3d
       -0.42086446 0.11015204 0.05967829 0.0671616
0002e0 2a 3c ce be dc 0f 2c bd c9 33 9b 3d 2f dc 51 be
       -0.40280277 -0.042007312 0.075782366 -0.2049415
0002f0 56 c3 84 3e d0 cf e2 be 7a cf 4f 3e 15 7e b5 3c
       0.2593028 -0.44299173 0.2029399 0.022154847
000300 30 dd 8a 3e 7c 6a 84 bb 79 f7 0e bf 78 6c c4 3d
       0.27121878 -0.0040410142 -0.55846363 0.09591001
000310 24 4f 78 3e 52 2f 18 be 6b a8 14 bf af 6c 81 3e
       0.2424894 -0.14861801 -0.58069485 0.25278232
000320 10 7b 6f be 09 99 83 bc ea e5 88 3d 5a 29 34 3e
       -0.23386788 -0.016064184 0.066844776 0.175939
000330 80 ff 9a bd 2a 23 e0 3e 9d 99 8d be fe 76 dc 3e
       -0.07568264 0.43776828 -0.2765626 0.43059534
000340 4b a5 a8 be 87 67 89 3e f1 c4 37 3e a1 ad ef be
       -0.3293861 0.26836798 0.17946221 -0.46812156
000350 31 92 06 3e cb d9 22 be 38 1a da be 46 a9 74 be
       0.13141705 -0.15903394 -0.42598128 -0.23892698
000360 eb 06 f5 3d a6 7a 3a be c3 0f 00 bf 76 45 f2 be
       0.1196421 -0.18210849 -0.5002405 -0.4731862
000370 6a dd d3 3d ca 6c fb 3e 5d 7e 20 bf c6 a6 a7 bd
       0.10344966 0.49106437 -0.62692815 -0.081861064
000380 7e 8f cd 3e d8 b5 c7 3d 3b 92 49 bf 8e b5 b9 be
       0.40148538 0.09751481 -0.78738755 -0.36271328
000390 19 74 90 3e 11 f9 ad bb d9 64 40 bf 67 ed 9d 3e
       0.28213575 -0.005309232 -0.7515388 0.30845186
0003a0 04 20 39 be 03 47 c4 3d 18 b2 28 bd fc 06 c1 3d
       -0.18078619 0.09583857 -0.04118547 0.0942516
0003b0 af a0 1b 3d 2b c8 e3 3e 0d e8 7e be 33 4a 00 3f
       0.037995037 0.44488654 -0.24893208 0.5011322
0003c0 87 c4 4d be 64 4e 81 3e bb d7 97 3e 70 1e c4 be
       -0.200945 0.2525512 0.29656777 -0.38304472
0003d0 14 05 5f 3e d2 5a ad bd bc 6a ae be c6 2d 94 bb
       0.21779281 -0.08464588 -0.34065807 -0.004522058
0003e0 6a 5d 03 3e 69 3e 23 be 83 7e 07 bf c4 83 2f bf
       0.12828603 -0.15941776 -0.52927417 -0.68560433
0003f0 30 c9 97 3e 6f aa 05 3f c1 b2 23 bf 5b 20 87 bd
       0.2964568 0.52213186 -0.6394463 -0.06597968

layers.6.bias f4 [16]
000000 77 a8 c8 3e 90 b3 1e 3e 74 72 d6 3e 65 a2 1b 3e
       0.39191028 0.15498185 0.41884196 0.15198667
000010 f4 8e c1 3e e6 e6 ea 3e 43 77 90 3e 82 29 0f 3e
       0.37804377 0.45879287 0.2821599 0.13980678
000020 49 a9 90 3e b2 30 e8 3e 9a 3b 00 3f 28 4d 61 3e
       0.28254154 0.45349652 0.50090945 0.22002089
000030 4a af a0 3e 69 c0 c5 3e 48 0d e7 3e bc 23 21 3e
       0.31383735 0.3862336 0.4512732 0.15736288

layers.9.weight f4 [1, 16]
000000 c8 0e 0a 3f 03 73 a6 bf 7b 12 17 3f 22 fb 45 bf
       0.53928804 -1.3003849 0.59012574 -0.77336323
000010 10 3f b8 3e d7 5d 22 3f 84 39 6d bf 79 c0 60 bf
       0.35985613 0.6342444 -0.92665887 -0.8779369
000020 b6 28 70 bf 2a dc 2c 3f 50 35 28 3f e0 0d 01 bf
       -0.9381212 0.67523444 0.6570635 -0.50411797
000030 b9 94 63 3f d4 db f4 3e 83 bf 4a 3f 5d 34 66 bf
       0.8889881 0.47823966 0.79198474 -0.8992365
