models/Mean/proton.pt (torch, 18373 bytes, 7 tensors)

layers.0.weight f4 [64, 19]
0	0xbc940ee8	-0.018073514
1	0xbe523581	-0.20528223
2	0xbe2b219f	-0.16712044
3	0xbc05c770	-0.008165225
4	0xbd7da990	-0.061929286
5	0x3d66d624	0.056356564
6	0xbe27bc4c	-0.16380423
7	0xbdc64a2c	-0.09682116
8	0xbe55360a	-0.20821396
9	0xbd143c3c	-0.036190256
10	0xbdc0abcc	-0.09407768
11	0x3cfd9868	0.030956462
12	0x3d219c84	0.039455906
13	0xbdc8ab12	-0.09798254
14	0xbe4806e4	-0.19533879
15	0xbdfc0cd6	-0.12307136
16	0x3d789c14	0.060695723
17	0x3daf9cb6	0.08574812
18	0xbd95cb18	-0.07314128
19	0xbddb964b	-0.107220255
20	0x3d31e1f7	0.043428387
21	0xbc13c0c5	-0.009018128
22	0xbf2d35cd	-0.6766022
23	0xbebffcf6	-0.3749768
24	0xbfb42589	-1.4073955
25	0xbfa7d071	-1.3110486
26	0xbcc5ae9a	-0.024131108
27	0x3dc3b8f8	0.09556764
28	0x3c5453fa	0.012959475
29	0x3f24b2f2	0.6433555
30	0xbd8cd47f	-0.06876468
31	0x3c9bbffd	0.019012446
32	0x3b2aa27a	0.0026036785
33	0x3ce10e07	0.02747251
34	0x3c1091ca	0.008823821
35	0x3d8ca9de	0.06868337
36	0xbcbe0f47	-0.023200644
37	0x3c958fc2	0.018257026
38	0x3d6f2871	0.058388177
39	0x3e5c4bad	0.21513243
40	0xba2f31f2	-0.00066831626
41	0x3eb9709d	0.3621873
42	0x401e2995	2.471288
43	0x3ee12cb2	0.43979412
44	0x3f01e918	0.507463
45	0xbd25a8c2	-0.040444143
46	0x3dafb555	0.08579508
47	0xbca94988	-0.020664945
48	0xbf81fd00	-1.0155334
49	0xbdfd0996	-0.12355344
50	0x3d6eb6a2	0.05827964
51	0x3bad8f3c	0.005296616
52	0x3d6deb55	0.05808576
53	0x3b1eaad4	0.0024210708
54	0x3e4b8911	0.19876505
55	0xbca2cf31	-0.019874187
56	0x3c285612	0.010274427
57	0x3e2fd2f6	0.17170319
58	0xbe474af9	-0.19462194
59	0x3c00acdf	0.007853716
60	0xbea8032f	-0.3281493
61	0xbed79b63	-0.42110738
62	0xbf73dad6	-0.9525579
63	0xbf1921aa	-0.5981699
64	0x3d7f00e4	0.06225671
65	0x3e63cfae	0.22247192
66	0x3c80ccd9	0.015722679
67	0x3fa3b0b0	1.2788296
68	0xbe17505e	-0.14776751
69	0x3c44ddfb	0.012015815
70	0xbc05d4c2	-0.008168401
71	0x3d8b6a53	0.06807389
72	0xbb9b9901	-0.004748464
73	0x3c9d1071	0.019172879
74	0x3cbb0220	0.022828162
75	0xbaa0ee16	-0.0012277986
76	0xbbf6a680	-0.0075271726
77	0x3daf330e	0.0855466
78	0x3c4b9c10	0.012427345
79	0xbb8fb720	-0.004385844
80	0xbdbc1a60	-0.09184718
81	0xbdb73974	-0.08946505
82	0x3defbe2a	0.11706193
83	0xbe28b8b0	-0.16476703
84	0xbd548340	-0.051882982
85	0xbcc04f00	-0.02347517
86	0x3c7ec8f0	0.015550837
87	0xbdd248dc	-0.10267803
88	0x3e186dbf	0.14885615
89	0x3e565b9d	0.20933385
90	0xbe18566a	-0.14876714
91	0xbd3f342c	-0.046680614
92	0x3e4c6411	0.19960047
93	0xbe437ad0	-0.19089818
94	0x3cdf1518	0.027231738
95	0xbe27bb9f	-0.16380166
96	0x3dc5f19e	0.096652254
97	0xbd862178	-0.065493524
98	0xbe23a954	-0.15982562
99	0xbe2275ae	-0.15865204
100	0x3e0e598f	0.13901351
101	0xbe3d4c25	-0.18486078
102	0x3d86650a	0.065622404
103	0xbe2c2418	-0.16810644
104	0xbd20e4a4	-0.03928055
105	0xbdec588e	-0.11540328
106	0xba0eb400	-0.0005443692
107	0x3c28fb90	0.010313883
108	0x3cc0ff38	0.023559198
109	0x3d4ee754	0.05051358
110	0xbdd3a9c6	-0.10335116
111	0x3dfe2176	0.12408726
112	0xbdefea0c	-0.11714563
113	0xbe19bbbd	-0.15013023
114	0xbe3c39b8	-0.18381393
115	0xbcc94068	-0.024566844
116	0x3d9a6a02	0.07539751
117	0xbe5af2df	-0.2138171
118	0xbe689096	-0.22711405
119	0xbe36ceac	-0.17852277
120	0xbda87c5e	-0.08226846
121	0xbd2ec658	-0.042669624
122	0x3c999c40	0.018751264
123	0x3e1cba2d	0.15305395
124	0xbe049772	-0.12948397
125	0x3d5e9e5c	0.054350242
126	0x3ce5ae68	0.028037265
127	0xbdf9d2d3	-0.12198415
128	0xbde72b98	-0.11287612
129	0xbdd92e84	-0.10604575
130	0xbe199450	-0.14997983
131	0x3cec50a8	0.028847054
132	0xbe436a77	-0.19083582
133	0xbeb6d2ff	-0.35707852
134	0xbe631401	-0.221756
135	0x3ab83274	0.0014053122
136	0xbed5ff42	-0.4179631
137	0x3c51773b	0.012784774
138	0xbf8d1bae	-1.1024072
139	0xbf83067b	-1.0236353
140	0xbd26cd12	-0.040722914
141	0xbd6658cb	-0.056237023
142	0xbc8ed15f	-0.01743382
143	0xbf8c46e3	-1.0959133
144	0x3d2b26ab	0.041784924
145	0x3ce9afe9	0.028526263
146	0xbb7db786	-0.0038714125
147	0xbca26046	-0.019821297
148	0x3c8783cc	0.016542338
149	0xbe197ae5	-0.14988287
150	0x3e4b5730	0.19857478
151	0xbda2d504	-0.07950786
152	0xbcfe3087	-0.031028999
153	0xbc8a37ee	-0.016872372
154	0xba822409	-0.0009928952
155	0xbe239cc2	-0.15977767
156	0xbdd75eeb	-0.10516151
157	0xbfd6002c	-1.6718802
158	0xbfd53fb6	-1.6660068
159	0xbe181afd	-0.14854045
160	0x3a98bb10	0.0011652429
161	0xbafa1939	-0.0019081003
162	0xbfa7457c	-1.306808
163	0x3be77d6d	0.0070645125
164	0x3d2925dc	0.04129587
165	0x3b42b6c4	0.0029710988
166	0xbb9ca96b	-0.0047809384
167	0x3c3777bf	0.011197983
168	0x3a64ab58	0.0008723042
169	0xbc0e6027	-0.008689917
170	0xb999efef	-0.00029361199
171	0x3e444efc	0.19170755
172	0x3e3045c6	0.17214116
173	0x3de1fd01	0.11034585
174	0xbe78ceb7	-0.24297605
175	0xbf028efe	-0.5099944
176	0xbde0f2d4	-0.10983816
177	0xbd61e12d	-0.055146385
178	0xbd55d8ab	-0.052208584
179	0x3c1a8396	0.009430787
180	0xbc7d7619	-0.015470051
181	0x3fad7e0a	1.3554089
182	0x3e10e685	0.14150436
183	0x3de3e62a	0.11127885
184	0xbc8633de	-0.016382154
185	0xbcc5b5fa	-0.024134625
186	0xbd1fb35f	-0.03898942
187	0x3e10bb26	0.14133891
188	0x3d757009	0.0599213
189	0xbd837575	-0.064188875
190	0x3d928db0	0.07155931
191	0x3df57e3c	0.11986968
192	0xb9b5b7b4	-0.0003465988
193	0x3f52ac2c	0.82293963
194	0x403c95ea	2.94665
195	0x3f0389e9	0.5138231
196	0x3ea5fa37	0.3241746
197	0xbbcb377f	-0.006201684
198	0x3d1125ac	0.035436317
199	0xbc4f2534	-0.012643147
200	0xbf35173a	-0.70738566
201	0xbd94138e	-0.07230292
202	0x3ccb6ce7	0.024832202
203	0x3b8b075b	0.00424282
204	0x3d3bc6e2	0.045843966
205	0x3a584989	0.00082507037
206	0x3dfedccd	0.12444458
207	0xbd388132	-0.045045085
208	0x3c31885a	0.010835731
209	0xc0101641	-2.2513583
210	0x3c518407	0.012787825
211	0x3a53dd3b	0.0008081977
212	0xbf715b67	-0.94280094
213	0x3f1e4021	0.618166
214	0xbf244cd3	-0.64179724
215	0xbea67d8f	-0.3251767
216	0x3c23430d	0.009964717
217	0x3d61ca11	0.055124346
218	0xbd0fdadf	-0.03512084
219	0xbf6665cf	-0.899991
220	0xbd7e547b	-0.062092286
221	0xbbb5cf95	-0.0055484273
222	0x3b6ceaa1	0.0036150592
223	0x3d49e92b	0.049294632
224	0x3c2f3127	0.010692871
225	0x3c0f39de	0.008741824
226	0xbd5f6a9a	-0.054545023
227	0x3aa00bd3	0.0012210555
228	0x3e06a641	0.13149358
229	0xbe44f009	-0.19232191
230	0x3c32c800	0.0109119415
231	0x3dcc210a	0.09967239
232	0x3e3885f3	0.18019848
233	0xbca1f4c0	-0.019770026
234	0xbe01ab91	-0.12663104
235	0x3ca6dcb0	0.020368904
236	0xbe578598	-0.21047056
237	0x3d0d684c	0.034523293
238	0x3e5272e3	0.20551638
239	0xbe2d61df	-0.16931866
240	0x3cf88958	0.030338928
241	0xbdae5d6e	-0.08513914
242	0x3df7482a	0.12074311
243	0xbe67578b	-0.22591989
244	0xbc3db610	-0.011579052
245	0x3e556565	0.2083946
246	0xbe19c6e6	-0.1501728
247	0xbe4cfbb9	-0.200179
248	0xbe3f363c	-0.18673033
249	0xbdb0691a	-0.086137965
250	0x3e656aff	0.22404097
251	0xbe445b7d	-0.19175525
252	0x3dc3f6b6	0.09568541
253	0xbdee14e8	-0.11625081
254	0xbdeb8af1	-0.1150111
255	0x3dfd9c02	0.12383272

layers.0.bias f4 [64]
0	0xbdcdc982	-0.100482
1	0xbe4bb92c	-0.19894856
2	0xbe65e882	-0.22451976
3	0xbdc6aa51	-0.09700454
4	0xbe134ca8	-0.14384711
5	0x3e626bf9	0.22111501
6	0x3d6d8334	0.057986453
7	0xbd89693b	-0.06709524
8	0x3de1958c	0.11014852
9	0x3e2e9ce7	0.17052041
10	0xbe442914	-0.19156295
11	0xbde938fa	-0.113878205
12	0x3dc552fe	0.0963497
13	0x3e154afd	0.14579387
14	0x3e3563c9	0.17713846
15	0xbde482c3	-0.11157753
16	0xbdcdab6e	-0.10042463
17	0xbc60a5bc	-0.013711389
18	0x3e35dc4b	0.17759816
19	0xbe385b9e	-0.18003699
20	0x3e1a6e9d	0.15081258
21	0x3dd16556	0.102244064
22	0x3e57ca01	0.21073152
23	0x3de9c6e2	0.11414887
24	0x3da9e11a	0.08294888
25	0xbe1e6662	-0.15468743
26	0xbe1ce1c7	-0.15320502
27	0xbc3a9462	-0.011387916
28	0xbe8ae383	-0.27126703
29	0x3e227181	0.15863611
30	0xbe77b39a	-0.24189606
31	0x3db0e79d	0.08637927
32	0xbdd8a5cc	-0.10578498
33	0x3c87ef3e	0.016593572
34	0xbeb215ba	-0.347822
35	0x3e48c795	0.19607385
36	0x3de24c1c	0.11049673
37	0xbe5355dd	-0.20638223
38	0xbba79dc0	-0.005115241
39	0xbc320383	-0.010865095
40	0xbe23b053	-0.15985231
41	0x3d850d52	0.06496681
42	0xbded92b4	-0.11600247
43	0xbe35e370	-0.17762542
44	0xbe41f3b9	-0.18940629
45	0x3e546331	0.20740964
46	0xbdf02894	-0.1172649
47	0x3d8f2d0f	0.06991016
48	0xbea0f787	-0.31438848
49	0x3de979ba	0.114001706
50	0x3d93fb46	0.07225661
51	0xbd72ecf2	-0.059308
52	0xbecae1b1	-0.39625314
53	0x3da2cb47	0.07948928
54	0xbe354d93	-0.17705373
55	0xbdd73879	-0.10508818
56	0x3e45bcb5	0.19310267
57	0xbebfded3	-0.3747469
58	0x3dd3ee3e	0.103481755
59	0xbdc1648c	-0.09443006
60	0xbd19a59a	-0.037511446
61	0x3d9feb46	0.07808547
62	0xbdca8ff5	-0.09890739
63	0x3e4d41af	0.20044588

layers.3.weight f4 [32, 64]
0	0xbd473498	-0.04863414
1	0xbddc0ac2	-0.107442394
2	0xbe0888a6	-0.13333377
3	0x3d8caa65	0.06868438
4	0x3bc242a0	0.0059283525
5	0x3c9a9000	0.018867493
6	0xbda0116a	-0.078158215
7	0xbe3903ac	-0.18067807
8	0xbf026ed5	-0.50950366
9	0x3e446f9b	0.19183199
10	0xbde5a46d	-0.11213002
11	0x3e03be3c	0.12865537
12	0x3c7b31c0	0.015331686
13	0x3caefc40	0.021360517
14	0xbe45df1c	-0.1932339
15	0xbd5cfc44	-0.053951517
16	0x3c535cc6	0.012900537
17	0x3c2a9b2c	0.010412972
18	0x3d135302	0.035967834
19	0x3de1edc8	0.11031681
20	0xbd3c3928	-0.045952946
21	0x3d9d0f5a	0.07668944
22	0xbd8e8d16	-0.06960504
23	0xbd23765c	-0.0399078
24	0x3d62ebde	0.05540072
25	0x3c4a3670	0.0123420805
26	0xbc8b5aba	-0.017011035
27	0xbc0bded7	-0.008537016
28	0xbdb0529f	-0.08609509
29	0xbcec4140	-0.028839707
30	0x3ca06fb1	0.019584509
31	0x3d3e6f75	0.046493012
32	0xbe14772e	-0.14498588
33	0x3ddbfec3	0.10741951
34	0x3e391cc3	0.18077378
35	0xbe5594f8	-0.20857608
36	0x3c33f44c	0.010983538
37	0x3de31150	0.110872865
38	0xbd8bac32	-0.06819953
39	0x3b6fa209	0.0036565086
40	0x3dbe9438	0.09305614
41	0xbdbb0676	-0.09132092
42	0xbd7ff0b8	-0.062485427
43	0xbc88b500	-0.01668787
44	0xbdcf3d46	-0.10119109
45	0x3dbeb576	0.09311955
46	0xbd6fa148	-0.05850342
47	0x3d7b5325	0.06135859
48	0xbe3244e7	-0.17409097
49	0xbdc06894	-0.09394947
50	0x3de7668e	0.11298858
51	0xbdc032fe	-0.09384726
52	0xbd49b27f	-0.049242493
53	0x3d3dc288	0.046328098
54	0xbe38099d	-0.17972417
55	0xbe8c83d1	-0.27444318
56	0x3c3784c6	0.011201089
57	0x3e1735cd	0.14766617
58	0x3d98034a	0.07422502
59	0x3dd3a4f6	0.10334198
60	0xbe09a326	-0.13441142
61	0x3c4f43d0	0.012650445
62	0xbc4e444e	-0.012589527
63	0xbdfe03de	-0.12403081
64	0xbdf59ae0	-0.11992431
65	0xbe1d4ee4	-0.15362126
66	0x3d40ba41	0.047052626
67	0xbe2c0e53	-0.1680234
68	0xbbec9fc0	-0.007221192
69	0xbc9e2a68	-0.01930733
70	0x3d6d571c	0.057944402
71	0xbe8ac669	-0.271045
72	0x3f0a9f3b	0.54149216
73	0xbd6b13b7	-0.05739185
74	0xbe579881	-0.2105427
75	0xbeef91be	-0.4679088
76	0xbda70434	-0.081550986
77	0x3c6d34b0	0.014477894
78	0xbe2ad052	-0.1668103
79	0xbdc100b8	-0.09423965
80	0xbd54495f	-0.051827785
81	0xbe1f680e	-0.15567037
82	0x3d01888c	0.031624362
83	0x3d541e50	0.05178672
84	0xbdaf863c	-0.08570525
85	0x3ccc57b0	0.024944156
86	0x3d7cb3c0	0.06169486
87	0x3dc09af8	0.09404558
88	0x3b9119a0	0.0044281036
89	0x3c1b57d0	0.009481385
90	0xbded339f	-0.115821116
91	0xbd8a1546	-0.06742339
92	0xbe960ebf	-0.29308125
93	0x3c967b28	0.018369272
94	0x3f2b2006	0.6684574
95	0x3dba47ef	0.090957515
96	0x3d7724fc	0.060338005
97	0xbe1873c8	-0.14887917
98	0xbd7177f4	-0.058952287
99	0xbe5e57c1	-0.21713163
100	0xbc8bb0ef	-0.017052142
101	0xbd35bbd4	-0.04436858
102	0xbdf717f8	-0.120651186
103	0xbe82490f	-0.25446364
104	0xbedb8288	-0.42873025
105	0x3d8db3bc	0.06919047
106	0x3a996b62	0.0011704976
107	0xbd9a971a	-0.075483516
108	0x3dbd9f12	0.09258856
109	0xbdfb8872	-0.12281884
110	0xbd8082c2	-0.0627494
111	0xbda4ccc6	-0.0804687
112	0x3da6a523	0.08136966
113	0x3d9dc338	0.07703251
114	0x3d9e1506	0.07718854
115	0x3c8955aa	0.01676448
116	0xbd95dd17	-0.0731756
117	0x3d93a1c0	0.07208586
118	0x3e0d2f8a	0.13787666
119	0x3decc027	0.11560088
120	0x3e4dfe6d	0.20116587
121	0xbdaf23fb	-0.085517846
122	0x3c37dfe0	0.01122281
123	0x3ce45d58	0.027876541
124	0xbd4ba6ff	-0.049719807
125	0x3de92586	0.1138411
126	0x3e064c57	0.13115059
127	0xbb9ea960	-0.0048419684
128	0xbdecc9ec	-0.11561951
129	0x3997426d	0.00028850455
130	0xbc83cdee	-0.016089406
131	0xbdd48ff2	-0.10379018
132	0x3d9d2380	0.07672787
133	0xbd155d14	-0.03646572
134	0xbce865a0	-0.028368771
135	0x3d40124d	0.046892453
136	0xbf465345	-0.7747081
137	0x3da03322	0.07822253
138	0x3d3ee3df	0.046604034
139	0xbe098423	-0.13429312
140	0x3d05d04c	0.03266935
141	0x3ca86f38	0.020560846
142	0xbe45a00a	-0.19299331
143	0xbd01c254	-0.031679466
144	0x3d96c2f3	0.07361402
145	0xbee51958	-0.44745898
146	0x3daa740c	0.083229154
147	0xbc6bdb20	-0.014395505
148	0x3de2eb7c	0.11080071
149	0x3d9fa80c	0.07795724
150	0xbde7b43c	-0.11313674
151	0xbdd8f828	-0.10594207
152	0x3c0ce201	0.008598805
153	0x3d23d670	0.039999425
154	0x3db456fa	0.08805652
155	0x3d123a0a	0.03569988
156	0x3d621a6e	0.055200987
157	0x3daf4c20	0.085594416
158	0xbe8afbfc	-0.27145374
159	0xbd60e44b	-0.054905217
160	0x3d891ab1	0.06694544
161	0x3e44ae47	0.19207107
162	0x3db9f124	0.09079197
163	0xbe542c6f	-0.20720075
164	0xbe38b46d	-0.18037577
165	0x3db0de2e	0.086361274
166	0xbd6e1f34	-0.058135226
167	0xbc8b43de	-0.017000135
168	0xbeabc43d	-0.33548155
169	0x3cf21c20	0.029554427
170	0xbde2b011	-0.11068738
171	0xbd836d56	-0.064173386
172	0x3c5d88e0	0.013521403
173	0xbd9b23c0	-0.07575178
174	0x3d8ea1e2	0.069644704
175	0x3d60db53	0.054896664
176	0xbe75c57c	-0.24001116
177	0x3d95eada	0.07320185
178	0x3d37f244	0.044908777
179	0x3e815269	0.25258186
180	0xbcddbf7a	-0.027068842
181	0xbd7ab9e1	-0.061212424
182	0xba0d3596	-0.0005386708
183	0xbdf7bf51	-0.120970376
184	0xbdc49ba4	-0.095999986
185	0x3cf5e8bc	0.030018203
186	0x3d83f91c	0.06443998
187	0xbd9eb320	-0.07749009
188	0x3d9d91b6	0.07693808
189	0xbdeb2b5a	-0.11482878
190	0x3d73dfb4	0.05953951
191	0xbcc670c8	-0.0242237
192	0xbc84b828	-0.016201094
193	0xbe97dd19	-0.29660872
194	0x3ddfa103	0.109193824
195	0xbe3ea5ff	-0.1861801
196	0x3df41110	0.11917317
197	0x3d345a74	0.044031575
198	0x3d6df2b0	0.058092773
199	0xbe199817	-0.14999424
200	0x3e0616d0	0.1309464
201	0xbe443e15	-0.19164307
202	0x3e146bed	0.14494295
203	0x3e0afd81	0.13573267
204	0xbd1d2cf8	-0.038372964
205	0x3dcb40cc	0.099244684
206	0x3eaafd93	0.33396587
207	0xbd73c858	-0.059517235
208	0xbd583be3	-0.052791487
209	0x3d8cec38	0.06880993
210	0xbecfb403	-0.40567026
211	0x3c36ef80	0.0111655
212	0xbda1c640	-0.07899141
213	0x3d8e8648	0.06959206
214	0xbce716d0	-0.02820912
215	0x3d32f1b4	0.043687537
216	0xbeaaa1bf	-0.33326527
217	0xbd4ed72c	-0.050498173
218	0xbdc798a8	-0.09745914
219	0xbd90f813	-0.070785664
220	0xbdd19d36	-0.10235064
221	0xbdf0fa8a	-0.117665365
222	0x3ddce943	0.10786679
223	0xbe85155c	-0.25992858
224	0xbd122c42	-0.03568674
225	0x3e2fc242	0.17163947
226	0x3d7eaad7	0.062174644
227	0x3f3b9084	0.7326739
228	0x3da8eca1	0.082482584
229	0xbd312c84	-0.043255344
230	0xbdc7c928	-0.097551644
231	0xbe48423c	-0.19556516
232	0xbdac2980	-0.08406353
233	0xbca7c058	-0.020477459
234	0x3d214161	0.03936899
235	0x3bb6ba60	0.005576417
236	0xbde503b4	-0.11182347
237	0x3c485990	0.012228385
238	0xbbbba9e0	-0.005727038
239	0xbd92b014	-0.071624905
240	0xbc5150a9	-0.012775579
241	0xbc5c42b0	-0.013443634
242	0xbd990005	-0.07470707
243	0xbe7367a6	-0.23770007
244	0x3d9c76ef	0.07639872
245	0xbdea90bc	-0.11453387
246	0xbcc86a8b	-0.024464866
247	0x3e591ea1	0.2120309
248	0x3e48a483	0.19594006
249	0xbbbe3b15	-0.005805383
250	0xbc39aeb0	-0.011333153
251	0x3d483c18	0.048885435
252	0x3bcc3c31	0.0062327613
253	0x3af88c80	0.0018962771
254	0x3e1c8468	0.15284884
255	0x3c97a710	0.018512279

layers.3.bias f4 [32]
0	0x3e33240a	0.17494217
1	0x3c215907	0.009847886
2	0x3df0756a	0.11741145
3	0x3e43c2f4	0.19117337
4	0xbdbf4b46	-0.09340529
5	0x3ed93deb	0.42430052
6	0x3dd99e96	0.10625951
7	0x3d88577b	0.066573106
8	0x3dc83305	0.09775356
9	0xbed08da6	-0.4073307
10	0x3e0afddb	0.135734
11	0xbe313c2a	-0.17308107
12	0x3e03c088	0.12866414
13	0x3df5be81	0.11999226
14	0x3d8e5771	0.06950272
15	0x3e5f8154	0.21826679
16	0x3d8b8ca3	0.06813934
17	0xbe92fa48	-0.28706574
18	0x3e643f7a	0.2228984
19	0x3e531bbe	0.20616052
20	0xbea29a03	-0.31758127
21	0xbdda45c5	-0.10657839
22	0x3e97bb2a	0.29634982
23	0xbe3b278b	-0.18276803
24	0x3e13b84c	0.14425772
25	0xbe1049cc	-0.14090651
26	0x3dc45d9a	0.095881656
27	0x3e8d8221	0.27638343
28	0xbc8591c2	-0.016304854
29	0x3e4b7c05	0.19871528
30	0xbd3b7c5f	-0.045772906
31	0x3e8c34d7	0.27384064

layers.6.weight f4 [16, 32]
0	0x3e53d819	0.20687903
1	0xbf1236f7	-0.5711512
2	0x3ce7b942	0.02828658
3	0xbf0779bc	-0.52920127
4	0xbf01beb7	-0.5068163
5	0x3cbd317f	0.02309489
6	0xbecba8ea	-0.3977731
7	0xbf47be04	-0.78024316
8	0xbe91d084	-0.28479397
9	0xbf0a26ea	-0.5396563
10	0xbe838fa5	-0.2569553
11	0xbef5df5c	-0.48021972
12	0xbed93e49	-0.42430332
13	0x3e332bca	0.17497173
14	0xbec5743e	-0.38565248
15	0x3e51738f	0.20454238
16	0xbe9e007c	-0.30859745
17	0xbe95294c	-0.2913307
18	0x3e960f8b	0.29308733
19	0xbf2ef7ef	-0.68347067
20	0xbf18bd42	-0.59663785
21	0xbef83449	-0.4847739
22	0x3b8a1125	0.0042134696
23	0xbdcf6c5d	-0.101280905
24	0xbeeb9b6c	-0.46017015
25	0xbec54274	-0.38527262
26	0xbf19cda9	-0.6007944
27	0x3e78933d	0.24274917
28	0xbd885c0d	-0.06658182
29	0xbf4ce5df	-0.80038255
30	0xbf1f59ff	-0.622467
31	0x3e47e6e2	0.19521669
32	0x3e610a27	0.21976529
33	0xbe178630	-0.14797282
34	0x3d671116	0.05641278
35	0xbe3b1979	-0.18271436
36	0xbe4528cf	-0.19253848
37	0x3e4fe482	0.20302013
38	0xbe488b62	-0.1958442
39	0xbef7ac61	-0.48373702
40	0xbf077767	-0.5291657
41	0xbf2946e0	-0.6612377
42	0xbe199e4f	-0.15001796
43	0xbebba0b3	-0.3664604
44	0xbed73f76	-0.42040604
45	0x3f10f35a	0.56621325
46	0xbdbe8909	-0.09303481
47	0xbca352ae	-0.019936886
48	0xbe2614de	-0.16218898
49	0x3e4d8100	0.20068741
50	0x3e826d48	0.25474
51	0xbf32a858	-0.6978812
52	0xbf2b3ced	-0.6688984
53	0xbebc6083	-0.36792383
54	0x3e0ee65f	0.13955067
55	0x3d10c743	0.03534628
56	0xbef0863e	-0.4697742
57	0xbdfb4f56	-0.122709915
58	0xbeaffbc3	-0.34371766
59	0x3e921d61	0.2853804
60	0xbe8d08bc	-0.27545726
61	0xbf0f604b	-0.56006306
62	0xbf010290	-0.50394535
63	0x3ec6befe	0.3881759
64	0xbdc45581	-0.09586621
65	0x3e3a7b2a	0.18211046
66	0xbd8bd6ca	-0.06828077
67	0x3da082ca	0.07837446
68	0xbe1aa850	-0.15103269
69	0x3df54d6a	0.11977656
70	0x3e17141b	0.14753763
71	0x3e7306be	0.2373304
72	0x3f170a23	0.5899984
73	0x3f22cd26	0.6359428
74	0x3e778011	0.24169947
75	0x3ec7da93	0.39033946
76	0x3ebb3c0e	0.36569256
77	0xbe33c502	-0.17555621
78	0xbd16f031	-0.036850158
79	0xbe7fcbf8	-0.24980152
80	0x3dcc9c7a	0.09990783
81	0xbe9f37fb	-0.31097397
82	0xbdb3d089	-0.08780009
83	0x3e6f4518	0.23366201
84	0x3f2e6044	0.6811564
85	0x3f1e1c31	0.61761767
86	0x3e65f4f2	0.2245672
87	0xbd9efc89	-0.07763011
88	0x3dd865b4	0.10566273
89	0x3deb28a1	0.11482359
90	0x3c3de071	0.0115891555
91	0xba4244f1	-0.0007410786
92	0x3ce8cec4	0.028418906
93	0x3e4000e0	0.18750334
94	0x3e4fc9b2	0.20291784
95	0x3cbce41d	0.023057992
96	0xbd337265	-0.043810267
97	0x3e865979	0.26240137
98	0xbe52d669	-0.20589603
99	0x3d816cfa	0.06319614
100	0xbc28953a	-0.010289485
101	0x3e30ca93	0.17264776
102	0x3de4bdca	0.11169012
103	0x3e9c2117	0.30493996
104	0x3f12ef04	0.5739596
105	0x3f1e9fc8	0.61962557
106	0x3e792905	0.24332054
107	0x3ec66223	0.38746747
108	0x3eeb8e22	0.46006876
109	0xbe9d1536	-0.30680245
110	0xbe51da22	-0.20493367
111	0xbe69b47f	-0.2282276
112	0x3dce4d10	0.10073292
113	0xbe8dbff4	-0.2768551
114	0xbe029bcd	-0.12754746
115	0x3e1576d1	0.14596106
116	0x3f4c9030	0.7990751
117	0x3f1954e9	0.5989519
118	0x3ddd7a92	0.10814394
119	0x3d056b9c	0.032573327
120	0x3dc1638b	0.094428144
121	0x3e9078d2	0.2821718
122	0xbc2f19cc	-0.010687303
123	0x3ce9ed9e	0.028555688
124	0x3e8504d1	0.25980237
125	0x3e7ef901	0.24899675
126	0x3e6fb681	0.23409463
127	0xbcbec027	-0.023284985
128	0xbdc2943f	-0.09500932
129	0x3e1760ae	0.14782974
130	0xbdea3e83	-0.114377044
131	0x3cd8e366	0.02647562
132	0xbdc5c3a3	-0.09656455
133	0x3e1329f8	0.14371479
134	0x3e871cea	0.26389247
135	0x3e9f0ae8	0.31063008
136	0x3f00c9b2	0.5030776
137	0x3f820041	1.0156327
138	0x3ed0004f	0.40625235
139	0x3e8fffe4	0.28124917
140	0x3e334fda	0.1751093
141	0xbe77dd91	-0.24205615
142	0xbd6089b3	-0.05481882
143	0xbe1ffc23	-0.15623526
144	0xbdbb88bc	-0.091569394
145	0xbe5b369e	-0.21407554
146	0xbe7b0c84	-0.24516493
147	0x3ebe14bf	0.37125203
148	0x3f525195	0.82155734
149	0x3ebc45b3	0.36771926
150	0x3e0ac612	0.1355212
151	0x3e2d26b4	0.16909295
152	0xbcf98312	-0.030458007
153	0x3e886e06	0.2664644
154	0x3e33cca7	0.17558537
155	0xbda57416	-0.08078782
156	0x3e66eafa	0.22550574
157	0x3dc7f633	0.09763756
158	0x3eedb4b2	0.46426922
159	0xbd9ecaef	-0.0775355
160	0x3e4ec7a8	0.2019335
161	0xbe4e30ec	-0.2013585
162	0x3d095991	0.033532683
163	0xbecf7ede	-0.4052648
164	0xbed5b8d2	-0.4174257
165	0x3ddf9cca	0.10918577
166	0xbdf1a00f	-0.11798107
167	0xbf2c5f12	-0.67332566
168	0xbe967ddf	-0.29392907
169	0xbf0ffca8	-0.562449
170	0xbdeb9c63	-0.11504438
171	0xbf07bbeb	-0.53021115
172	0xbea6205b	-0.3244656
173	0x3e7aa7d7	0.24478088
174	0xbe8cc930	-0.27497244
175	0x3d4e5f76	0.050384007
176	0xbe9c3a7a	-0.30513364
177	0xbe551d15	-0.20811875
178	0x3ed95679	0.42448786
179	0xbf198300	-0.59965515
180	0xbee35064	-0.4439727
181	0xbf35aba8	-0.7096505
182	0x3e522b49	0.20524324
183	0x3df67502	0.12034036
184	0xbe6c8d7d	-0.23100848
185	0xbeaa996c	-0.33320177
186	0xbef67269	-0.48134163
187	0x3e9ddc32	0.30832058
188	0xbe30e37c	-0.17274278
189	0xbf2a44a8	-0.6651101
190	0xbf0774e8	-0.5291276
191	0x3ed44021	0.41455176
192	0x3d8bf28f	0.06833374
193	0x3cb817de	0.022472318
194	0xbe91e0b5	-0.2849175
195	0xbd13de52	-0.036100693
196	0x3aa35f7a	0.0012464367
197	0x3e5b1da9	0.21398033
198	0x3e3aca67	0.18241273
199	0x3e49ce1e	0.19707534
200	0x3f322a2f	0.6959562
201	0x3f261f77	0.6489176
202	0x3eab0830	0.33404684
203	0x3eafe619	0.34355238
204	0x3eb31ab3	0.34981307
205	0xbe4b6cec	-0.19865769
206	0x3d18bf77	0.03729197
207	0xbdd4582b	-0.10368379
208	0xbd8765e1	-0.06611229
209	0xbe2b14f0	-0.16707206
210	0xbe09cff2	-0.13458231
211	0x3e9901d8	0.2988422
212	0x3f24aa14	0.6432202
213	0x3f0b5686	0.544289
214	0x3e180bc5	0.1484824
215	0x3df7a6d5	0.120923676
216	0x3d342ae6	0.043986224
217	0x3e7d35ae	0.24727508
218	0x3e955b33	0.29171142
219	0xbde3e60d	-0.11127863
220	0x3eb71995	0.35761705
221	0x3e8d2f95	0.27575365
222	0x3e4779fb	0.19480126
223	0xbdafac6b	-0.08577808
224	0xbc166867	-0.009180165
225	0x3d67802c	0.05651872
226	0xbe8dae15	-0.27671877
227	0xbdda0cfd	-0.106470086
228	0xbd7d4325	-0.061831612
229	0x3e7d7f64	0.24755627
230	0x3e18c411	0.14918543
231	0x3e4a78aa	0.19772592
232	0x3f03e509	0.51521355
233	0x3f238241	0.63870627
234	0x3e970baf	0.295011
235	0x3ed31939	0.4123018
236	0x3e9e2a25	0.3089153
237	0xbe9ba34b	-0.3039802
238	0xbd4b81ce	-0.04968434
239	0xbe9f26d9	-0.31084326
240	0x3db4f25d	0.088352896
241	0x3c356073	0.011070359
242	0xbcb43485	-0.0219977
243	0x3ea2605c	0.3171414
244	0x3f34aa86	0.705727
245	0x3f170141	0.5898629
246	0x3e944a95	0.28963152
247	0xbd9551b3	-0.072909735
248	0x3e350ef3	0.17681484
249	0x3e838615	0.25688234
250	0x3e55d0ce	0.20880434
251	0xbe1335a9	-0.14375938
252	0xbc392e7c	-0.011302587
253	0x3ea844ea	0.32865077
254	0x3e6f27bf	0.23355006
255	0xbe057f30	-0.130368

layers.6.bias f4 [16]
0	0x3f0c5d80	0.5483017
1	0x3eec9b72	0.46212345
2	0x3baf3f0f	0.0053480933
3	0x3d4affa4	0.049560204
4	0x3dd551c9	0.1041599
5	0x3eb647b9	0.35601595
6	0x3d10b650	0.035330117
7	0x3d7bd92c	0.061486408
8	0x3ceb7900	0.02874422
9	0x3edf1ff8	0.43579078
10	0x3ea51d03	0.32248697
11	0xbd061de1	-0.03274334
12	0x3d8ed353	0.06973901
13	0x3efc341e	0.49258512
14	0x3eb0e766	0.34551543
15	0x3ee08af2	0.43856007

layers.9.weight f4 [1, 16]
0	0x3f8437ba	1.0329506
1	0x3f216d92	0.63057816
2	0xbf2c99ad	-0.6742199
3	0xbf1d6a08	-0.61489916
4	0xbf17d4cf	-0.59309095
5	0x3f62d700	0.88609314
6	0xbf132e05	-0.57492095
7	0xbf021685	-0.5081561
8	0xbef70630	-0.48246908
9	0x3f629b95	0.8851865
10	0x3f69bdb8	0.9130511
11	0xbe91c25b	-0.28468594
12	0xbee2d347	-0.44301817
13	0x3fa199bd	1.2625042
14	0x3f54fd6d	0.831992
15	0x3f43580c	0.76306224
