models/Proposed/antipion.pt (torch, 167647 bytes, 35 tensors)

emb.layers.0.weight f4 [128, 20]
000000 b8 b3 d3 bc dc 91 ee be b0 6f 6d bd 62 b4 5d bd
       -0.025842533 -0.46595657 -0.05796784 -0.054127105
000010 c3 64 a0 3d 29 5c 51 bd f4 39 75 3b f0 96 51 3e
       0.07831719 -0.05111328 0.0037418576 0.20467734
000020 27 7e 21 3d 1f 92 a6 bd 45 8b 53 be 02 18 21 bd
       0.03942695 -0.08133339 -0.20658596 -0.039329536
000030 6f e5 d9 3d a2 13 81 be 49 e0 9f 3d 32 b4 4b 3d
       0.10639464 -0.2521029 0.07806451 0.049732395
000040 1f 81 c1 be 51 c9 10 be 44 3f 08 3e d7 d6 a3 3d
       -0.37793824 -0.14139296 0.13305384 0.07999962
000050 66 a2 4f be 08 e2 11 3e b0 7e 9c bd 02 7d 5c 3e
       -0.20276794 0.1424638 -0.07641351 0.21532062
000060 8c 83 cc 3d e3 89 9a bd a2 b2 2f be e3 0c 01 ba
       0.09986028 -0.07545831 -0.17157987 -0.000492288
000070 da 13 5a be 42 84 a3 3b 3c 75 64 3e 88 78 a0 bd
       -0.21296635 0.0049901316 0.22310346 -0.078354895
000080 9b 96 69 bd 6d 68 0f bd f1 24 d8 bd 44 19 9a bd
       -0.057028394 -0.035011698 -0.10553921 -0.0752435
000090 7f 32 21 be af 0f a2 3c e3 6e 44 be 86 ff 60 bd
       -0.15741919 0.01978287 -0.19182925 -0.054931186
0000a0 57 df 09 be 73 92 d2 bd fa 22 57 3e 4d ec 19 3e
       -0.13464104 -0.10281839 0.21009436 0.15031548
0000b0 b2 46 0e 3e 02 7c c0 bd 39 26 d5 bd 66 d3 51 3c
       0.13894156 -0.093986526 -0.10407681 0.012806749
0000c0 e2 76 09 3e 07 d6 45 bb 26 91 ee bc f5 14 14 be
       0.13424256 -0.0030187385 -0.029121947 -0.1446112
0000d0 07 eb 14 bb 75 05 12 3e eb 0f 21 3e 1c 06 21 3e
       -0.0022723095 0.14259894 0.15728728 0.15724987
0000e0 f4 20 49 be 98 82 2e be fd fc c7 be 37 17 9e be
       -0.19641477 -0.17042005 -0.39060202 -0.30877087
0000f0 01 b7 a9 be e3 f8 99 3e 5a e7 bd 3d 09 41 ea 3d
       -0.33147433 0.30072698 0.092726424 0.11438186
000100 83 47 86 3d ae 7c 72 be bc c2 3a be 07 ec 57 be
       0.065566085 -0.23680374 -0.18238348 -0.21086131
000110 5e 8b 33 3e 42 b3 2c 3e 75 48 24 3d 5c 38 dd bc
       0.17533633 0.16865256 0.040108163 -0.027004413
000120 81 88 61 3e 0d 16 39 bd a8 08 37 be a6 79 0a 3f
       0.22024728 -0.045187045 -0.17874396 0.5409187
000130 7a 8c 31 3b 79 06 38 bc bc 7a 3c 3c 71 11 f5 3c
       0.0027091787 -0.011232012 0.0115038715 0.029915543
000140 de 6f 30 be 67 cc 61 be a9 65 48 be 63 fb 15 3d
       -0.17230174 -0.2205063 -0.1957003 0.036616694
000150 9a 83 3f 3e 84 7a 5a 3e a0 9f 0e 3c 65 1f 4c 3c
       0.18702546 0.21335799 0.00870505 0.012458657
000160 5e a2 ce 3d 0a 77 dd be d6 98 15 3e 57 2c 5e bd
       0.10089563 -0.43254882 0.14609084 -0.054241505
000170 0d a1 15 be 8b 44 83 bc 72 be 42 bd d0 7c b9 3c
       -0.14612217 -0.016023895 -0.047544904 0.022642523
000180 67 c9 5b be b1 a3 81 3d c1 9a 35 3e e8 bf 26 be
       -0.21463548 0.0633005 0.17734815 -0.16284144
000190 ca 72 07 bf 75 5d 63 bd 7f a8 9d 3e a1 36 73 3e
       -0.5290953 -0.05550905 0.30792615 0.23751308
0001a0 d5 5f 0d 3e d6 0a 56 bd 03 bb 57 3d 0f f0 3d 3e
       0.13806088 -0.052256428 0.052668583 0.18548606
0001b0 53 e5 51 3e 73 22 9f bd a2 58 1a be e7 34 b4 3c
       0.20497636 -0.077702425 -0.15072873 0.021997882
0001c0 12 68 02 be 26 f2 90 bd e0 0a 7a bd 41 cd 7f 3e
       -0.12735012 -0.07077436 -0.061045527 0.24980642
0001d0 62 5b b6 3c ad 2a 5d 3d a6 95 5d 3e 0e 4d 4e 3e
       0.022260372 0.053995777 0.21639118 0.20146582
0001e0 e8 5d da bd d9 f8 c6 bd 17 a2 41 ba 3f c0 5a be
       -0.106624424 -0.09715433 -0.0007386519 -0.21362399
0001f0 1b a9 64 be d9 a8 19 3e 90 c6 f8 bb 23 94 d5 3d
       -0.22330134 0.15005817 -0.00759203 0.104286455
000200 3e b4 02 3e 84 bf 46 3e cf 73 6a 3e 0e e8 7b bd
       0.1276407 0.19408995 0.2289574 -0.0615006
000210 a7 89 2e be 06 54 04 be 7c e9 02 3d cf 25 a2 be
       -0.17044698 -0.12922677 0.03196095 -0.3166947
000220 3f 82 a6 be 24 7f ae be de 1a 87 be 00 d6 dd 3d
       -0.32521245 -0.34081376 -0.26387686 0.10831833
000230 0f 56 0f 3d 38 11 1b 3d b5 1d 2c 3e 98 2d 14 3e
       0.03499418 0.037858218 0.16808207 0.14470518
000240 2f 5d 5e 3d 82 6f 2f be e6 9a fb 3d 5b 73 5d 3e
       0.054288086 -0.1713238 0.12285404 0.21626036
000250 84 81 e1 bc 47 35 bb be bf fc ee 3c 28 7b 63 be
       -0.027527578 -0.36564085 0.029173253 -0.22214949
000260 cf 72 81 be 6c 6f 54 be 81 a1 ac bd ac d0 20 3e
       -0.25282905 -0.20745629 -0.08429242 0.15704602
000270 e0 91 02 be a6 bf 45 3e d0 85 6d be 2f 0a 74 be
       -0.1275096 0.1931139 -0.23195577 -0.2383201
000280 a6 4d 8a bc b5 1e a2 be 8a 97 d9 be b2 ce 76 3e
       -0.016882729 -0.31664053 -0.42498428 0.24102286
000290 34 61 41 3d 9b f9 c1 3d 9a 36 bb 3d bf 76 be 3d
       0.04721184 0.094714366 0.09141274 0.09299993
0002a0 25 19 25 3e 76 8d 89 bc 70 f8 f9 bd f4 72 1a 3d
       0.16122873 -0.016791087 -0.12205589 0.037707284
0002b0 ba 96 93 bd c9 33 a1 3d 38 d9 4f be c1 cf d7 3d
       -0.07206483 0.07871205 -0.20297706 0.10537673
0002c0 15 50 23 bd e0 75 50 bc cb c6 44 be 4e 2e 23 3d
       -0.039871294 -0.012723416 -0.19216458 0.03983908
0002d0 52 d9 85 bd 85 eb 26 3e 56 2b 5d be 0a bc 28 3e
       -0.06535591 0.16300781 -0.21598563 0.16477981
0002e0 68 8f dd 3d c9 b6 6e 3e ab 9b 00 be f2 45 2d 3e
       0.10818368 0.23311915 -0.12559383 0.16921213
0002f0 e0 6b a8 be bd 25 05 3e ce 2b 33 be 02 43 dc bd
       -0.32894802 0.13002677 -0.17497179 -0.10754968
000300 91 ca c2 3d 18 d8 1e be 5d 88 86 bd e5 bf 51 be
       0.09511293 -0.1551212 -0.06568978 -0.20483358
000310 a1 b3 fe bd 98 56 c2 3d c4 89 09 b9 4f b6 c1 bd
       -0.12436605 0.09489173 -0.0001311666 -0.09458601
000320 d9 20 90 3c 9a fc 85 be bf 4e 2d 3d 50 39 50 be
       0.017593788 -0.26169282 0.042311426 -0.20334363
000330 db 6b 8a 3d 01 3e c1 3d 6b 0e 50 be 38 85 08 be
       0.06758853 0.094356544 -0.20318 -0.13332069
000340 0a fb c2 bd a3 27 90 bd 5e 12 28 3e 45 1f 92 bd
       -0.09520538 -0.0703881 0.16413257 -0.071348704
000350 8e 55 f9 bd 18 73 bf 3d 89 07 32 3e 85 07 ff be
       -0.121745214 0.09348124 0.17385687 -0.49810424
000360 cf 27 d1 be 8a 13 8b be 8b 70 c6 bd 40 32 e7 3d
       -0.40850684 -0.27163345 -0.096894346 0.11288881
000370 5c e2 85 3e f3 e7 a8 bd e8 24 07 3e 9a 5a 31 3d
       0.2614926 -0.08247366 0.13197672 0.043299295
000380 99 62 c1 be 75 cd 46 3e c2 43 1a be 42 48 9c be
       -0.37770537 0.19414313 -0.1506491 -0.30523878
000390 5b ea 3c 3e 89 d6 cc 3d 10 a6 cf 3d 8f af f8 bc
       0.18448775 0.10001857 0.10139096 -0.03035715
0003a0 c5 75 bb bd f2 81 fd bd f2 8c a3 bd df ce 28 be
       -0.09153322 -0.12378301 -0.079858676 -0.16485165
0003b0 b2 05 ab bd 88 b0 27 be 59 8e fb 3d 05 12 81 be
       -0.08350696 -0.16375935 0.1228301 -0.2520906
0003c0 37 5a b9 bd 7a dc 93 3d 68 d6 87 bc bb b3 13 3e
       -0.0905041 0.07219787 -0.016581729 0.1442403
0003d0 31 9b a5 3d 43 39 3b 3e f9 9e 3c be 50 59 fc 3b
       0.08086241 0.18283562 -0.18420018 0.0077010766
0003e0 6b 5b bd bd 04 1f 60 3d 7c 48 ce 3c 59 bc 2f be
       -0.09245952 0.05471708 0.025181048 -0.17161693
0003f0 64 88 38 bd 38 ce a8 3d 51 db cf 3d 0e 30 22 3e
       -0.045051947 0.08242458 0.10149253 0.15838644

emb.layers.0.bias f4 [128]
000000 73 a8 ec 3d c4 f5 fc 3d cd d4 ee bc 39 f0 c4 bd
       0.11555567 0.123515636 -0.029154206 -0.09616131
000010 fd ac 9d bd 80 f3 82 bd 86 91 d6 bd 97 17 92 3c
       -0.076990105 -0.063941 -0.10476975 0.017833514
000020 4d b1 74 3d 95 d8 8d 3c 44 08 e0 bd a1 2e 32 3d
       0.0597394 0.017315188 -0.109390765 0.0435015
000030 30 de 7e 3c a5 b7 ac bc d2 ec 2b 3e 5a 41 d4 3d
       0.015555903 -0.021083662 0.16789559 0.10364027
000040 48 bf 26 be 62 39 d9 3d a5 11 24 3d 4f 1d bb 3c
       -0.16283906 0.10606648 0.04005589 0.022841124
000050 0e ad 0b be 21 f4 2d be 08 f8 10 3d 75 1a 21 bd
       -0.13640234 -0.16987659 0.03539279 -0.039331872
000060 21 0d 50 3e 79 ec 80 bc a3 62 a8 bd fa a4 92 3d
       0.20317508 -0.015737759 -0.082219385 0.07160373
000070 9e ed f3 3c 93 68 79 bc a6 fa 8e be 5f cc de 3d
       0.02977639 -0.015222686 -0.27925605 0.108788244
000080 0d 96 23 bd d8 80 81 3d 5b 2d b4 bd cc 88 06 be
       -0.03993802 0.06323403 -0.08797713 -0.13138121
000090 71 3f 25 bc c3 c8 d6 3d 49 6e 60 3e e8 a8 72 3d
       -0.010085926 0.10487511 0.2191707 0.059243113
0000a0 c8 b6 fd bd 95 bf e1 3d f7 5f 74 3d d7 16 e5 bd
       -0.123883784 0.110228695 0.05966183 -0.11185997
0000b0 98 52 83 bc 65 d9 7a 3d f8 cc d6 bd 4e 80 eb ba
       -0.016030595 0.06124248 -0.104883134 -0.0017967315
0000c0 72 eb 55 3e bf 8f 01 3e ef 9d 3d bb bd 30 10 3e
       0.20890597 0.12652491 -0.0028933247 0.14081092
0000d0 6f 1a 1e 3e f5 ff ea ba c4 50 31 3e c1 62 71 bd
       0.15439771 -0.0017929064 0.17315966 -0.05893207
0000e0 eb c4 ce bd 69 4f 23 3e 57 51 ac b9 13 70 17 bd
       -0.10096153 0.15948261 -0.00032867 -0.036972117
0000f0 f3 7a 70 3d 88 13 5d be 21 31 99 bc f1 7c 47 3e
       0.058711004 -0.21589482 -0.018700184 0.19481255
000100 42 d8 29 be 90 29 30 be 83 17 89 38 32 dd 97 3d
       -0.16586402 -0.17203355 6.5370485e-05 0.074152365
000110 c9 3b ea bc 24 19 49 be e8 ed f7 3d 0d f9 14 3e
       -0.02859296 -0.19638497 0.12105924 0.1454813
000120 78 73 db bd ae eb 28 be 80 c0 f4 bd ac 07 38 3d
       -0.10715383 -0.16496155 -0.11950779 0.04492919
000130 40 dc 0c be fe d5 51 3e 20 79 d2 bd f0 f3 25 bb
       -0.13755894 0.20491788 -0.10277009 -0.00253224
000140 91 27 24 be aa 70 12 3d f3 46 1e be bf f7 2c 3e
       -0.16030718 0.035751976 -0.15456752 0.16891383
000150 dc 00 44 3e 65 89 75 bd e9 3b 1d 3e d1 30 dd 3c
       0.19140953 -0.059945483 0.15354885 0.027000817
000160 bc 64 43 bd d9 1f b4 3d b1 5f ba bd 21 97 39 be
       -0.04770349 0.08795137 -0.09100283 -0.18124057
000170 0b 6b 47 be 2f 85 e6 3d ea 81 a1 bd ba 6a d2 bd
       -0.19474427 0.112558715 -0.07886107 -0.10274263
000180 3f 72 ab 3d 69 be 37 3e 18 8d 49 bc 2f ee 10 bd
       0.083714 0.1794373 -0.012301706 -0.0353834
000190 4d bb 61 3d 99 3f 20 3e 0c 36 48 bd 26 f5 43 3e
       0.055110265 0.1564926 -0.048879668 0.19136485
0001a0 2a d1 fb 3c 2b 04 21 3e 55 bc 34 be 90 eb 9c be
       0.030739386 0.15724246 -0.17649968 -0.3064847
0001b0 c0 c3 09 3c ef b8 56 be 89 04 39 bd 19 97 20 bc
       0.008408487 -0.20968984 -0.04517034 -0.0098016495
0001c0 55 a6 85 3d 1f fc 3d 3e 7f 55 1b 3e 98 4d 2f be
       0.06525866 0.18553208 0.15169333 -0.17119443
0001d0 b6 48 51 bd 23 f0 d4 3d a5 2a 19 be ca bc a7 3d
       -0.051094733 0.10397365 -0.14957674 0.081903055
0001e0 a9 63 9a 3d 9e 72 56 be 7e 7c 34 3e af ce dc 3d
       0.0753854 -0.2094216 0.17625615 0.10781609
0001f0 50 bb 14 bd d2 38 25 be 43 e5 27 3e a8 24 73 3d
       -0.036311448 -0.16134956 0.1639605 0.05936113

emb.layers.2.weight f4 [32, 128]
000000 6f 7a 8b 3d 3e 27 3d 3c 0c 0e a1 3d 85 21 9d 3d
       0.06810462 0.011545001 0.07864007 0.07672409
000010 a2 73 d6 3d b8 be 81 bd 32 6a 66 bc 56 02 df 3b
       0.10471274 -0.06335205 -0.014063405 0.0068056984
000020 35 f7 47 bd fd 0c 94 3d 82 a5 c6 3d 26 35 dd bd
       -0.04881974 0.0722904 0.09699537 -0.10801153
000030 aa 04 c3 39 90 6f 6e bd 48 8f 9a bd a7 fc b4 3d
       0.00037196773 -0.058211863 -0.0754686 0.08837252
000040 e0 08 0b bd bc f5 8b 3d f7 f1 88 3c d0 e6 80 bc
       -0.03394401 0.068339795 0.01671694 -0.01573506
000050 23 3a 1a 3d 63 c5 2e bd 7c 8b 21 3d cb d3 59 bd
       0.0376531 -0.04266871 0.039439663 -0.053180497
000060 c8 87 93 3d 17 4f 62 3c dc 58 32 3d f1 d9 24 3a
       0.072036326 0.013812802 0.043541774 0.00062885793
000070 09 2d 3c bc 83 73 ba bd 5c 6e 6b bd 93 17 75 3d
       -0.011485347 -0.09104063 -0.057478294 0.059836935
000080 82 a8 a2 bb 76 24 1b 3d f4 ec 1b bd 16 b0 52 bd
       -0.0049639354 0.03787657 -0.038067773 -0.05143746
000090 5f 50 6e bd d4 2d 3e 3d 9e 63 8c 3d be 2e 28 bc
       -0.058182117 0.046430424 0.06854938 -0.01026505
0000a0 df a5 86 bd e6 d6 9b bc 5c 83 73 3d a1 13 1c bd
       -0.06574606 -0.01902337 0.059451446 -0.038104657
0000b0 d8 5a 69 bd 14 1f 90 bd 1f 1a 3b 3d 23 f2 84 3d
       -0.0569714 -0.07037178 0.045679208 0.064914964
0000c0 8a 89 a7 bd a3 7b cd 3c 93 6c 93 3d f8 d7 1c bd
       -0.0818053 0.025083369 0.07198443 -0.0382919
0000d0 6a 06 9f bd bd 3c b9 bd 1b 89 90 3d 08 15 5e bc
       -0.07764895 -0.09044788 0.07057401 -0.013554819
0000e0 c6 b5 16 bd d3 73 82 bc 1c 07 27 3d 68 8e 22 bd
       -0.036794446 -0.01592437 0.040778264 -0.03968659
0000f0 39 0a 57 bd 9e e9 14 bd cf 60 65 3b a5 98 ca bc
       -0.052499983 -0.036355607 0.003500033 -0.02473099
000100 09 70 98 bb f3 e3 44 bd f6 58 a6 bd 5f 3a 34 3d
       -0.0046520275 -0.04806895 -0.08122437 0.04400098
000110 f4 d9 d4 3d ec 77 ed bc 5a 5e 10 bd 5a 92 63 3c
       0.10393134 -0.028987847 -0.03524623 0.013889873
000120 e5 dc b9 bd c5 90 56 3d b1 60 d4 3b ab b4 23 ba
       -0.090753354 0.052384157 0.006481253 -0.0006244878
000130 3b 5d 38 bd ae 6d b4 3d 44 bb a4 bc 51 73 09 bd
       -0.045010787 0.08809982 -0.020108826 -0.03355724
000140 95 3d f7 3d 44 d8 6e bd 53 ce 8f 3d bc ea c5 bc
       0.12072293 -0.058311716 0.07021775 -0.024159782
000150 ab 67 93 bd 40 9a a1 bd 39 96 58 3c ad a9 72 bd
       -0.071975075 -0.07890749 0.01321941 -0.059243847
000160 4b 19 f9 bb 21 27 dd bb 1c 44 11 3d 86 b7 71 3d
       -0.007601892 -0.0067490493 0.035465345 0.059012912
000170 b7 fc 43 bd 47 65 26 3c f7 cb fb bd 6f b2 13 bc
       -0.04784843 0.010155982 -0.122947626 -0.00901471
000180 5d a9 52 bd c9 e6 a4 3d b4 ff 22 bc 2e 7e e4 bd
       -0.05143105 0.08051831 -0.00994866 -0.11156879
000190 9d 4f 05 bc d7 b2 80 3d 5f fe 13 3d cc 6b 08 bd
       -0.008136657 0.06284111 0.03613126 -0.033305928
0001a0 cf 57 7c bc e6 d2 77 3d 52 08 93 3d 40 37 6f 3d
       -0.015401795 0.060503863 0.07179321 0.0584023
0001b0 f8 af c6 3d 7a 51 52 bd 5c d2 4f 3d 9c 6b 73 bd
       0.09701532 -0.051347233 0.050737724 -0.059428796
0001c0 90 0a 84 bd 59 16 53 3d 66 bb d3 3c 14 f6 c0 3d
       -0.06447327 0.051534984 0.025846194 0.09421936
0001d0 e4 9c 6d 3d e0 67 e4 bc ac 48 00 3e b6 23 2f 3d
       0.05801095 -0.027881563 0.12527722 0.042758666
0001e0 b5 53 a1 3d a1 4b fd 3d d0 0e 9a 3d f8 f6 2b bd
       0.07877294 0.12367941 0.075223565 -0.041983575
0001f0 ad f9 3a 3d b7 ed 1d 3e e5 ea 48 bd e4 17 1c 3d
       0.045648266 0.15422712 -0.049052138 0.03810872
000200 dc b4 41 bd fe 69 84 bc a9 b0 d7 3b 8d 80 53 3e
       -0.04729162 -0.016163822 0.006582339 0.20654507
000210 13 8b 10 3b d5 b5 da 3d 16 ce 3a 3d 8d 98 78 3d
       0.002205555 0.10679213 0.045606695 0.06069236
000220 97 9f 56 3d 57 c3 3b bc 42 1f 9c 3b 82 ce 59 bd
       0.05239829 -0.011460147 0.0047644684 -0.053175457
000230 29 66 a8 3b 50 10 88 3d 91 50 f9 bc 68 0c 9c 3d
       0.0051391316 0.06643736 -0.030433925 0.07619554
000240 2a af 5f 3d dd 95 5d bd 3d 37 87 ba 62 c6 24 3d
       0.05461041 -0.054098 -0.0010316145 0.040228255
000250 32 03 11 3d d2 b9 6a bd 2c 2d 36 3d a5 a3 16 3c
       0.035403438 -0.05730612 0.044476673 0.009194289
000260 ae bc 1f bc dc c3 b7 3d a6 63 fc bb dd e7 3a bd
       -0.009749575 0.08972904 -0.0077023087 -0.04563128
000270 9c dd 1d 3d 56 c3 9e 3c 92 c6 af 3c 01 38 76 3d
       0.03854142 0.019380253 0.02145699 0.060112003
000280 33 2c 14 bd bd c8 51 bc da f1 15 be d8 7b 4a be
       -0.036174964 -0.012804207 -0.1464304 -0.19773805
000290 cb 92 6c bd a8 ec 46 bd 2b 25 29 bd cd 78 59 3d
       -0.05775718 -0.048565537 -0.04129521 0.05309372
0002a0 25 b5 fa bc ca 51 95 bc e4 c2 b3 bd 12 82 07 3d
       -0.030603955 -0.018227477 -0.08777407 0.03308303
0002b0 07 da 4f bc ce fd 4c 3c 90 9a 04 3e 10 e3 62 bd
       -0.012686259 0.012511684 0.12949586 -0.055392325
0002c0 9c e8 bf 3d 8c a8 65 bd 68 a0 6a bd 3d d2 c0 3d
       0.093705386 -0.056068942 -0.05728188 0.094151
0002d0 96 25 82 3c 9e 84 d7 3c 70 50 ae 3c 13 e6 c0 bd
       0.015887063 0.026308354 0.02127859 -0.09418883
0002e0 ac 61 1d bd 17 32 30 3c 30 e3 a7 bd ec 69 15 3e
       -0.038423225 0.01075413 -0.081976295 0.14591187
0002f0 ae c1 3f 3d 1e 4b 45 3d a4 b8 56 3d 69 30 d1 bc
       0.046815567 0.04816734 0.05242218 -0.02553578
000300 75 22 1d bd ac 10 1e bd dc d0 66 3c 44 a5 7a 3d
       -0.03836294 -0.03859012 0.014087882 0.061192766
000310 43 75 b6 3c d0 58 92 bd 1c 1b 82 bd 06 a9 95 3c
       0.022272712 -0.07145846 -0.06352827 0.018269073
000320 48 e2 be 3d bc b6 2a 3d 4e 39 b5 3d c2 80 e6 3c
       0.093205035 0.041678175 0.088488206 0.028137568
000330 92 32 a7 bc 13 4c 4b bc 9e 47 0e be a7 9d be bd
       -0.020409856 -0.012408274 -0.13894507 -0.093074135
000340 c5 61 bc 3d 39 b6 c7 3c 10 77 41 3d d6 56 80 3d
       0.091983356 0.024378883 0.047232687 0.06266563
000350 54 26 f1 3b 0a eb c8 3d ce a0 e6 3c 0e 68 e1 3c
       0.0073593054 0.09810455 0.02815285 0.027515437
000360 04 12 e5 bd 87 b5 4f bd cf 44 21 bc 01 af be 3d
       -0.11185077 -0.050710227 -0.009843065 0.09310723
000370 83 24 95 bd 66 ab d3 3d cc 79 1d 3d bc 70 25 bd
       -0.07282355 0.10335426 0.038446233 -0.040390715
000380 fd b8 7b bd 77 e9 e8 3c 18 84 c1 3b e7 16 14 be
       -0.061455715 0.028431637 0.0059056394 -0.14461862
000390 b9 65 6b bd d1 6f 9d 3d 81 15 1d 3d 54 76 c0 bb
       -0.057470057 0.07687343 0.038350586 -0.005873481
0003a0 2c f8 a8 3d 2d bb 2c bd 7b b3 95 bd 7b d0 0c 3e
       0.0825046 -0.042170692 -0.07309624 0.13751404
0003b0 57 2b d7 bd 00 b7 a7 bd bc cd e7 3c 6e f5 e5 bd
       -0.10506313 -0.08189201 0.028296344 -0.112284526
0003c0 ef 17 83 3c 81 91 4d bd 61 a1 bd 3d 03 5a 67 bc
       0.016002623 -0.05018759 0.09259296 -0.014120582
0003d0 16 41 a4 bb 5d 78 ac bb db 78 16 3d 26 c3 91 3c
       -0.0050126417 -0.005263372 0.03673635 0.01779325
0003e0 81 56 f9 ba 6c 14 46 3d c7 c0 78 bd 24 29 54 3d
       -0.0019022973 0.04835932 -0.06073072 0.051797047
0003f0 7e 4b da bc 8c 3a 23 3e e8 5c 68 bc ba 22 08 bc
       -0.026647326 0.15940303 -0.014182307 -0.008309061

emb.layers.2.bias f4 [32]
000000 b6 4b 4f bd f2 13 a0 3c 82 e5 93 bd 5d ac f3 3b
       -0.050609313 0.01954076 -0.072215095 0.007436319
000010 a8 4b 14 3d 90 bc 5e bc 8c 37 e8 bc 94 43 91 3c
       0.036204964 -0.0135947615 -0.0283468 0.01773242
000020 2b 0d 9a bd 7a f3 8b bc c2 e4 e3 3c 38 ac 7e 3d
       -0.07522043 -0.017083872 0.027819041 0.06217596
000030 6f cc 90 bd 7c 09 0d bd ab 33 a1 3d 15 f3 07 3c
       -0.070702426 -0.034432873 0.07871183 0.008297701
000040 b0 d3 69 bd 3f c1 15 bd cd 17 87 3d 3a 66 fe 3c
       -0.057086647 -0.036561247 0.065963365 0.031054605
000050 c6 62 80 3d 1e 98 3f bd 01 ab 3e 3d 67 8d 6f bd
       0.062688395 -0.04677593 0.0465498 -0.05848446
000060 21 ca 98 bd 67 39 44 3d 24 a2 52 3d 57 a6 7e 3d
       -0.07460428 0.047906306 0.05142416 0.062170353
000070 44 9b 99 bd b7 34 a5 bc 8d 9f d7 bc f6 00 44 bd
       -0.07500318 -0.020166738 -0.026321197 -0.04785248

encoder.layers.0.self_attn.in_proj_weight f4 [96, 32]
000000 76 36 8d 3e 3c 1a e5 3d b3 73 57 3e 69 a2 8c 3b
       0.27580613 0.111866444 0.2104023 0.0042918217
000010 89 3f 8f 3c 53 f6 25 3d 68 22 2f 3e 34 99 5c 3d
       0.01748635 0.040518116 0.17102969 0.053857043
000020 bb 2c 18 3e ff 28 0c be 23 86 40 3e 88 1b 87 3c
       0.14860813 -0.13687514 0.18801169 0.01649262
000030 3c 8a 36 3e 5b 79 ad 3d 00 cf 31 3e a8 7c 47 bc
       0.1782617 0.08470412 0.1736412 -0.012175716
000040 61 08 d2 3d b0 da 3a 3e 8f 1f 19 3e a9 82 c1 bc
       0.102555044 0.18247485 0.14953445 -0.023621874
000050 f8 0a 29 3e 88 b2 49 3d 9a d0 11 3e 3d 9c 31 3e
       0.1650809 0.049242526 0.14239731 0.17344756
000060 94 90 c8 3d 40 68 34 3e 45 08 76 be d9 49 01 3c
       0.09793201 0.17617893 -0.24026592 0.007891142
000070 c5 7f 2a be 03 af e1 3d 04 86 22 bd 92 de 59 3b
       -0.16650303 0.11019709 -0.03967859 0.0033244235
000080 1f b0 2b 3d 85 14 90 3c e3 ae 3c 3e 4d 67 54 bc
       0.04191601 0.01758791 0.18426089 -0.012964082
000090 83 8a 37 be 33 2b 42 3d 71 cb 44 bd 71 ba be 3c
       -0.17923932 0.04740448 -0.04804558 0.023282262
0000a0 7e c7 4f bd ec c6 ef bd 3e 59 e8 bd fc da 1e bd
       -0.05072736 -0.11707863 -0.113451466 -0.03878306
0000b0 e3 1a cf bc f9 4b 29 bb bc f7 87 bc 93 45 2d be
       -0.025281375 -0.0025832637 -0.016597621 -0.16921072
0000c0 47 79 f7 bd de ae 89 bd b4 a7 1d be 34 62 90 3e
       -0.12083679 -0.067228064 -0.15396005 0.28199923
0000d0 bd bd 92 bd a6 87 3f 3e 0c 5b ab 3d 9f 95 9c 3d
       -0.07165096 0.1870409 0.08366975 0.076457255
0000e0 6a d7 81 bd a2 9b 4b bc ca 41 72 bd ed 08 9a 3b
       -0.06339915 -0.0124272425 -0.059144773 0.004700771
0000f0 ec 26 d9 bd 70 d3 26 3e fa 67 63 bd 36 44 05 be
       -0.10603127 0.16291595 -0.05551908 -0.13014302
000100 81 2b 23 bd 1d 5d 46 be f1 e7 80 3e c6 42 b3 3d
       -0.03983641 -0.19371457 0.25176957 0.087529704
000110 be 8e ef 3d 55 6c 36 3e ae cd 19 3e a7 42 ee 3d
       0.11697148 0.17814763 0.15019867 0.11633807
000120 1b 29 f9 3d 13 a3 6e bd 40 b9 f0 bd c2 f6 4b be
       0.12166043 -0.05826099 -0.11754084 -0.1991835
000130 61 60 15 3e b9 1e 8e 3d c9 49 dc 3d c8 64 55 3d
       0.14587547 0.06939454 0.10756261 0.052098066
000140 b8 29 ac bd 70 99 20 3e b7 bb 11 be 3b 84 62 3e
       -0.08406395 0.15683532 -0.14231764 0.22120754
000150 18 c8 2e 3d 75 09 dd 3d 73 41 3e 3e 83 07 24 3b
       0.042671293 0.107928194 0.18579654 0.0025028891
000160 5c 77 4b be 0c f1 54 be e1 19 08 be 90 79 79 3c
       -0.1986975 -0.20795077 -0.13291122 0.015226737
000170 03 ee d6 bc 9e cd 00 3e fe 67 de 3d 1d a0 03 3e
       -0.02623654 0.12578437 0.10859679 0.12854047
000180 b3 7c 1d 3e 55 da 20 3d e7 ea 85 3e 06 29 6b 3e
       0.153796 0.039270718 0.2615578 0.22964868
000190 1b 64 56 be 8f 21 22 be a9 43 9f bc bf a3 7c bd
       -0.20936625 -0.15833114 -0.019441443 -0.061679598
0001a0 c3 7f 81 3e d4 9c 23 be bd 20 39 be e6 fd 9e bd
       0.25292787 -0.15977794 -0.18078895 -0.07763271
0001b0 95 d0 0e 3e 5c c7 04 3e 4e 59 04 3e 1e 8c ae 3d
       0.13946755 0.12966675 0.12924692 0.08522819
0001c0 75 51 9a bd b1 3a 10 3e 96 13 46 be 19 49 8e 3e
       -0.07535068 0.14084889 -0.19343409 0.27790144
0001d0 49 96 fa bd 67 0e 6d bd 2a 8f 27 3d 91 ea ac bd
       -0.12235696 -0.057875063 0.040908016 -0.084431775
0001e0 a7 b9 35 be a1 ed e1 bd 75 f3 81 bd b3 8b 7d bd
       -0.17746602 -0.11031652 -0.06345264 -0.061900806
0001f0 ac 57 e8 bd 7c 88 45 be 9f 39 d1 3d 81 04 ed 3d
       -0.11344847 -0.19290346 0.102160685 0.11573125
000200 a2 db 48 3e 91 08 5e bd d9 ae 14 3c cd 0d c7 bc
       0.19615033 -0.05420739 0.00907489 -0.024298573
000210 59 0a 02 3d b6 33 f8 bd 62 bc a7 bd 88 98 17 bd
       0.03174815 -0.12119238 -0.08190228 -0.0370107
000220 c9 b2 b7 bd 2b c5 08 3d 7f 62 5e bd d0 e1 2f be
       -0.089696474 0.03339116 -0.054293152 -0.17175984
000230 54 37 29 3e ad a9 70 3c 4a aa 5f 3d 63 4a 97 bd
       0.16525012 0.014688891 0.05460576 -0.07387235
000240 57 c1 2f bc 75 48 72 bd 90 ea 2a be 3d e0 f7 3d
       -0.010727248 -0.05915113 -0.16691041 0.12103317
000250 de ce b6 bd 9c 46 04 3d 06 8f 50 3e 9d 61 1c 3e
       -0.089261755 0.0322939 0.20367059 0.15271612
000260 45 4e e2 bc 3c 73 35 bd 39 24 ea bc d3 38 11 bc
       -0.027625212 -0.04429935 -0.028581725 -0.008863646
000270 10 18 6d be 8e e7 aa bd cf dd 05 be 8d 29 db bd
       -0.2315371 -0.08344947 -0.13072895 -0.107012846
000280 12 1d 3e bd 50 cd c2 3d c5 df 90 3d 5a e6 04 be
       -0.046414442 0.095118165 0.07073931 -0.12978497
000290 9d e3 42 bd 89 ad 4f 3e 49 11 a1 3d 2b 58 12 3e
       -0.04758035 0.20281042 0.07864625 0.14291446
0002a0 b9 2a 7f be 07 d0 0f be 1f f4 df 3d 0e ad 3f bc
       -0.24918641 -0.140442 0.10935234 -0.011698974
0002b0 af 48 b6 bd e8 50 6c bd d6 68 39 3e 98 f2 3d 3e
       -0.08900582 -0.057694346 0.18106398 0.18549573
0002c0 99 17 be bd ee ed 3f 3d fb e3 bf 3d 82 fa 81 be
       -0.09281845 0.046857767 0.09369656 -0.25386435
0002d0 9c 87 2e be cd 32 3a be 8f d2 e9 3d 72 84 5a be
       -0.17043918 -0.18183441 0.11417114 -0.21339586
0002e0 e6 15 a2 3d 63 6b c0 3d 2d 95 45 3e 6e 57 cc 3d
       0.07914333 0.093954824 0.19295187 0.099776134
0002f0 34 ab 86 3d ef 27 07 be 30 d1 d9 bd 61 62 d7 3d
       0.06575623 -0.13198827 -0.106356025 0.10516811
000300 1e 5b 84 be bd b8 02 bd 7f 86 84 be dc b5 6f be
       -0.25850767 -0.03191446 -0.25883862 -0.23409218
000310 25 53 8d bd ba 3a 40 bd 84 a4 90 3c 2a 8f a4 3d
       -0.06900624 -0.046931006 0.017656572 0.08035119
000320 b5 9c c0 bd f6 e8 62 be a0 c2 29 3c d4 76 4a 3e
       -0.094048895 -0.2215918 0.010361344 0.19771892
000330 6e ac cd bd 2b ce 45 3b 6e 40 47 3d a1 ea 7f 3e
       -0.10042654 0.00301827 0.04864543 0.24991848
000340 3a af 33 3e 83 47 47 be 4d 20 26 3e 90 e7 39 be
       0.17547312 -0.19460873 0.1622326 -0.1815474
000350 b4 c0 ad 3d ff 82 7b bd 7f 62 51 bc 2d 17 bd bd
       0.08484021 -0.061404224 -0.012779831 -0.09232936
000360 e6 d3 87 3d 37 c5 36 3e 79 02 81 3d 43 d2 2f bd
       0.06632213 0.17848669 0.062993 -0.04292513
000370 28 e6 33 3e 5f ba 63 be 4a 17 09 be 99 96 52 be
       0.17568266 -0.22239064 -0.1338779 -0.20565261
000380 54 da 73 3d ac 43 50 bb 8c a1 ab 3d c3 e4 2e 3e
       0.059534386 -0.0031778617 0.08380422 0.17079453
000390 f6 f2 03 3e 8a a7 1d be 97 24 3d be 61 2d 07 3e
       0.12885651 -0.15395942 -0.18470989 0.13200904
0003a0 1b 64 0e be 5e dc 78 be e2 67 bf bd e6 c7 28 bd
       -0.13905375 -0.24302813 -0.09345986 -0.041206263
0003b0 67 80 c4 bd b9 00 69 be cf ec 42 3c fa 4c 5b 3e
       -0.09594803 -0.22754182 0.01189728 0.21416083
0003c0 85 e4 4c bd 6f 1a 2c 3e 32 2f 05 be 6d 6b 5e be
       -0.05002262 0.16806959 -0.13006285 -0.21720667
0003d0 fc 84 25 bd ed b8 d6 bd 24 45 ad 3d fd cc a3 bd
       -0.040410027 -0.104844905 0.08460453 -0.07998083
0003e0 5e 31 f6 bd cf 72 13 3e c7 1e 98 3d dd c5 3f 3d
       -0.12021135 0.14399265 0.07427745 0.046819557
0003f0 a4 2d d2 bd 41 c8 03 be 10 ee 1d be 93 94 8b bd
       -0.102626115 -0.1286936 -0.15422845 -0.06815448

encoder.layers.0.self_attn.in_proj_bias f4 [96]
000000 7c 39 39 be f5 4c 2c be 86 98 30 be 22 15 3f be
       -0.18088335 -0.16826232 -0.17245683 -0.18660405
000010 79 34 36 be 74 95 32 3e 00 fa 3f 3e 31 15 18 3e
       -0.17793454 0.17439824 0.18747711 0.14851834
000020 e4 c5 3b be 90 70 29 3e 76 06 0f 3d 1b 7d d8 3d
       -0.18337208 0.16546845 0.03491827 0.10570737
000030 27 4e 2b be 2d c2 28 be 06 11 30 3e da cd 26 3e
       -0.16729032 -0.16480322 0.17193994 0.16289464
000040 21 78 b8 3d 2b 5b 86 3d 48 19 c4 bd ed 66 fe bd
       0.09007288 0.06560358 -0.095751345 -0.12421975
000050 ec b1 b9 3d 70 6c bc bd 36 aa b0 3d a2 32 d3 3d
       0.09067139 -0.0920037 0.08626215 0.10312392
000060 47 d2 e0 3d b3 69 c3 3d d8 81 b2 bd c0 56 06 3e
       0.10977607 0.09541645 -0.08716172 0.1311903
000070 94 14 9d 3d 82 ef e8 3d 63 90 bd 3d 92 93 c8 3d
       0.076699406 0.113738075 0.09256055 0.09793772
000080 fc 48 21 37 22 1a 15 38 f3 3e 66 37 ad 57 a5 37
       9.613341e-06 3.5548706e-05 1.3723725e-05 1.971036e-05
000090 d4 04 1e 38 06 23 47 b7 28 7d 8e 37 6a 5e c1 b7
       3.7674632e-05 -1.1869479e-05 1.6986e-05 -2.3051358e-05
0000a0 06 0f 02 38 f3 3c 8f b7 87 a9 d5 b7 05 12 39 b7
       3.1008407e-05 -1.707531e-05 -2.5470521e-05 -1.1031055e-05
0000b0 84 23 04 38 ea ae 95 37 84 dd b8 33 07 57 9f 37
       3.150433e-05 1.7843635e-05 8.608461e-08 1.8994802e-05
0000c0 8d 38 a9 b7 65 8b 05 38 3b cf 44 37 29 a5 ff b7
       -2.0172703e-05 3.1839492e-05 1.173076e-05 -3.0475278e-05
0000d0 5f 20 dd 37 b4 92 c1 37 92 4b 7f 38 0e 06 49 b8
       2.6360327e-05 2.3075707e-05 6.0867118e-05 -4.7927773e-05
0000e0 26 bf f5 37 82 5e 68 37 fe 43 16 35 21 5f 3f b6
       2.9295286e-05 1.3850282e-05 5.5978296e-07 -2.851659e-06
0000f0 96 30 b5 37 47 cf 1f 38 e7 33 0b 38 49 1d 6f 37
       2.1599506e-05 3.8101596e-05 3.318852e-05 1.4252329e-05
000100 60 bb 2f 3b 63 5e b6 3c f2 2d 3b bc 75 70 51 3b
       0.0026814565 0.022261804 -0.011424528 0.0031957899
000110 05 ca 62 bb 29 ca 9f bc ae 7c 93 bb a4 c1 b4 3a
       -0.0034605276 -0.019505577 -0.004500947 0.001379062
000120 5e 8b 89 b9 30 16 02 bc 41 45 99 3c a5 be c4 b9
       -0.00026234513 -0.00793986 0.01870978 -0.00037526074
000130 d3 1f 62 3b 17 92 2e bc 6d 9e 6b bc e5 cb 80 3b
       0.0034503832 -0.010654948 -0.014381033 0.003930556
000140 8c 9c ea 3c 35 97 ff bb 34 02 12 3c 9d c0 b9 bb
       0.0286391 -0.0078000077 0.008911658 -0.0056687132
000150 f5 d3 5b bb 7b 94 dc bb d3 a6 47 bc 26 c8 90 39
       -0.0033543084 -0.0067315674 -0.01218577 0.00027614943
000160 63 50 30 bb d6 73 a1 bc a8 4b 22 bc e8 1c d3 ba
       -0.0026903383 -0.019708555 -0.009905733 -0.0016106637
000170 e4 91 14 3c 60 af 86 bc 69 7c e8 3a a9 7b 7f bc
       0.009067986 -0.016441047 0.0017737272 -0.015593448

encoder.layers.0.self_attn.out_proj.weight f4 [32, 32]
000000 8b e9 85 bd 76 ce cb 3d 1e db 8f bd a8 31 f2 3c
       -0.065386854 0.09951489 -0.07024215 0.029564694
000010 0a 57 86 3d 0b 8e e2 3d 31 8e f1 bd 26 8c e6 bd
       0.0655957 0.11062249 -0.11794699 -0.112572
000020 be 58 68 bc e3 30 02 be 76 98 09 be 81 de f5 bd
       -0.014181314 -0.12713961 -0.13437065 -0.1200533
000030 3b c3 d4 3d 40 63 2c bd 7e dc ed bc 23 2b dd bd
       0.103888 -0.04208684 -0.029035803 -0.10799243
000040 7a 3d 4d 3d 85 33 bf 3d 21 b1 bc bd 99 34 16 be
       0.050107457 0.093359984 -0.09213472 -0.14668502
000050 61 30 e9 bd 45 6a a0 bd 19 16 14 be 3a 62 fb 3d
       -0.11386181 -0.07832769 -0.14461555 0.122745946
000060 a8 f2 02 3d e8 f7 56 bd f0 8b d8 3d 89 5f 93 bb
       0.031969696 -0.052482516 0.10573566 -0.0044974727
000070 e6 e4 05 3d 30 01 80 bd 51 77 11 3c 1c a6 ab 3d
       0.032688998 -0.062502265 0.008878545 0.08381292
000080 72 77 65 bc 4b c8 1b be 41 e8 08 be 8e 5d 05 3c
       -0.014005529 -0.15213124 -0.13369848 0.008139981
000090 81 24 06 be 21 3a bb bb 8b 9c 52 3d f3 af 02 be
       -0.13099863 -0.0057137166 0.051418822 -0.12762432
0000a0 f7 ee a5 bc c2 22 f4 bb cf 9f 5e bd 5a 19 ef 3c
       -0.020255549 -0.0074504325 -0.054351624 0.029186893
0000b0 84 72 1d 3d 93 d6 e4 3d e0 34 1a 3e 42 7f b5 bd
       0.03843929 0.11173739 0.15059233 -0.08862163
0000c0 1e dc bf 3c ea d1 0e be 06 17 d3 bd 1e 56 1e 3e
       0.02342039 -0.13947263 -0.10307126 0.15462539
0000d0 ee c4 09 3e aa 97 d5 bc c1 00 0f 3d b1 7f c3 bd
       0.13454029 -0.026073296 0.03491283 -0.095458396
0000e0 89 c4 1e be b4 88 ab 3d 75 04 cb 3d 35 e3 09 be
       -0.1550466 0.083756834 0.099129595 -0.13465579
0000f0 75 e1 bb bc a4 82 0f bd fd ed 0b be a5 d6 bd 3d
       -0.022934655 -0.035036698 -0.13665004 0.09269456
000100 c9 c6 bc 3c 81 47 8f 3d 7a fd 93 3d 2a d2 02 3b
       0.023044007 0.0699606 0.07226081 0.0019961693
000110 45 5b 32 3e 4d 75 08 3e 1a 7a 5a 3e 7f 48 99 3d
       0.17417629 0.13325997 0.2133564 0.07484531
000120 49 7c 14 bd 37 a1 07 bd 6f d1 a3 bc cf 54 70 bd
       -0.03625134 -0.03311273 -0.019997327 -0.05867463
000130 d3 9a 3b 3d 3a b0 92 bd c4 ef 20 be 0e 01 ce bd
       0.04580195 -0.07162519 -0.15716463 -0.10058795
000140 87 9f ee bd 74 18 2e be ea ff 05 3c b3 8d 01 bd
       -0.11651521 -0.17001516 0.00817869 -0.031629276
000150 cf 5f d5 3c aa 72 f4 3d 92 48 5d bd 31 a0 47 be
       0.026046662 0.11935933 -0.054024287 -0.19494702
000160 1b 4c 1f 3e ba d8 2d 3e 2b ce a9 3d db a7 40 3e
       0.15556376 0.16977206 0.082912765 0.18814032
000170 bb 83 3c 3c d8 48 a8 bd 62 eb b2 3c 2d 52 f7 3d
       0.011506016 -0.08217019 0.021840755 0.12076221
000180 ee fe 03 be 83 29 06 be e4 07 93 bd 6d 2a bb bd
       -0.12890217 -0.13101773 -0.071792394 -0.091389515
000190 09 59 c5 bd 8e 51 d8 3b 42 61 b6 bd e6 ea f9 3c
       -0.09636123 0.006601519 -0.08905269 0.030507516
0001a0 00 a6 88 3b 6c fd b9 3d 3a 8c 51 3e 05 be d1 3c
       0.0041701794 0.090815395 0.20463648 0.025603304
0001b0 a4 05 88 3d 0b f8 ea bd 10 ef e8 bb dd 5d d2 3d
       0.06641701 -0.11473092 -0.0071085766 0.10271809
0001c0 db 94 53 bc 77 d3 28 3c b1 b1 80 bd 7e fe e9 3d
       -0.012913908 0.010304323 -0.06283892 0.11425494
0001d0 73 bb f8 bd 23 cb 9c bd d0 b0 ad 3d 63 7a ab bd
       -0.12145128 -0.07655933 0.0848099 -0.08372953
0001e0 41 43 b0 3d 68 31 df 3c 5e ea b9 bd 3a 86 91 3b
       0.08606578 0.027245238 -0.09077905 0.00444105
0001f0 52 e5 c3 3c 20 dd 73 3d 15 0f dd bb 2f 57 7f bc
       0.02391306 0.059537053 -0.0067461827 -0.015584751
000200 05 de 4c bd ae 00 cb 3d b3 76 90 bd 10 6d 18 be
       -0.05001642 0.09912239 -0.0705389 -0.14885354
000210 78 72 6a 3d b8 78 0c be e9 e8 0e be a0 77 91 3d
       0.057238072 -0.13717926 -0.13956036 0.07102895
000220 ac 7d 48 3d e3 85 1f bd 90 37 12 bd c3 1d 1a bd
       0.048947975 -0.038946044 -0.03569752 -0.03762604
000230 22 3f 2c be c8 42 cd 3d 30 99 9c 3d 7c 70 e3 bd
       -0.16820958 0.10022503 0.07646406 -0.11105439
000240 6a 51 4d bd 23 fd 72 bb 52 3d a4 3d cd 9e b3 3c
       -0.05012647 -0.003707715 0.080195084 0.021926308
000250 b2 12 e1 3c 6c 93 89 3c 33 64 f2 bd d0 0b 77 3d
       0.027474735 0.016793929 -0.11835518 0.060314
000260 2f fb d6 3d dc 17 04 3e 29 a4 22 3d 2e fe ad 3d
       0.10497128 0.12899727 0.039707337 0.084957466
000270 bb e2 0e 3d ed 18 85 bd 24 e3 ca bd c7 45 f2 bd
       0.034884196 -0.06498895 -0.09906605 -0.11829715
000280 d5 f2 b2 3d 79 6e 15 be c9 df f2 bc d0 28 06 be
       0.08737723 -0.14592923 -0.029647725 -0.13101506
000290 4e 9c 0a bd 98 e0 32 bd 02 c2 07 3e b2 d5 f8 bd
       -0.03384047 -0.04367122 0.13257602 -0.12150134
0002a0 cb b3 e7 3d ae 00 b9 3d 1b d6 21 3e 48 75 82 ba
       0.1131359 0.09033333 0.15804331 -0.0009953165
0002b0 97 86 38 bd 9b b4 b4 bd 98 4c d4 bd 9a 15 fe bb
       -0.04505023 -0.0882351 -0.103661716 -0.00775404
0002c0 ae 45 13 3e e5 57 46 bd c7 6c 76 3c b3 64 79 bd
       0.1438205 -0.048423667 0.015040583 -0.06088705
0002d0 1a ad 6f bd 7a da 6f bd ae 3f d8 bd ba 75 ef bd
       -0.058514692 -0.058557965 -0.10559021 -0.116923764
0002e0 9f 92 84 3d 96 f1 04 3e 01 fe d4 3d 91 7f 22 be
       0.06473278 0.12982783 0.1040001 -0.15868975
0002f0 07 ca aa bd a5 24 86 3d bd 00 82 3d 9d bd f3 3c
       -0.08339315 0.06549958 0.06347797 0.0297535
000300 58 60 99 bd 8b d8 b8 bd 1a 0e 2e 3d 8f 0c 6c bd
       -0.07489079 -0.09025677 0.042493917 -0.057629164
000310 68 e5 09 be 7d 51 fe bc 6c 8e 97 3d 74 43 f1 3d
       -0.13466418 -0.031044716 0.07400212 0.11780444
000320 b4 f4 16 be c6 e6 51 bd a4 2b d5 bd 2d a8 5a bd
       -0.14741784 -0.051245473 -0.104087144 -0.05338304
000330 84 d3 08 3d 38 76 ee bd e1 5a 8b 3d 01 e2 e5 bd
       0.033404842 -0.11643642 0.06804443 -0.112247474
000340 0f b6 05 3e aa 7e 06 be 07 a2 f8 3d bc d2 7a bd
       0.13057731 -0.13134256 0.12140279 -0.06123613
000350 bc cd 5f bd 4d 6b ae 3d 6d ef a1 3d 14 58 b3 3d
       -0.054639563 0.0851656 0.07906995 0.08757034
000360 f4 95 02 3e a6 73 dc bd 8d 7e e8 bd db e5 e5 3d
       0.12752515 -0.10764246 -0.11352263 0.11225482
000370 94 eb da 3d 94 21 84 bd 24 76 ba 3d 69 f5 61 3d
       0.10689464 -0.06451717 0.09104565 0.055165682
000380 ea bc 5b bd 87 d1 0a 3b d7 25 0a 3d 1b 76 08 3c
       -0.05364696 0.0021182017 0.033727493 0.00832894
000390 1c 00 05 3d 53 e7 5b 3d 28 9d 16 3e 8a 98 96 ba
       0.032470807 0.053687405 0.14708388 -0.0011489552
0003a0 8e 8a 96 bd c0 41 a5 bd b6 2f 0a 3e f6 32 a2 bd
       -0.07350646 -0.080691814 0.13494763 -0.07919876
0003b0 38 b7 ee 3c 96 18 04 3d d5 f1 d9 bd 2c f9 1f bd
       0.0291401 0.03225001 -0.10641829 -0.03905599
0003c0 91 f4 b6 3c 2f 58 1e be 4a 01 05 3e 97 db 9f 3c
       0.022333415 -0.15463327 0.12988773 0.019513888
0003d0 85 d9 b0 3d 31 09 59 3d 03 60 d8 bd 37 ae f8 3d
       0.086352386 0.05298728 -0.10565188 0.12142604
0003e0 51 9f fa 3d 03 a2 96 3c 6e 3b b1 3d 5d 96 95 3d
       0.122374184 0.0183878 0.086539134 0.0730407
0003f0 9e 2f bc 3d d8 bb 19 be 06 15 0d bd 23 d5 99 bc
       0.0918877 -0.15013063 -0.034443878 -0.01877839

encoder.layers.0.self_attn.out_proj.bias f4 [32]
000000 96 07 97 bb e8 cd e3 bb 06 f3 bb bb eb f9 5d bb
       -0.0046090586 -0.006952036 -0.0057357578 -0.0033870887
000010 ba d5 e8 3b 83 6b 24 3b 57 93 3d 3a 3c 7c 05 3c
       0.0071055563 0.0025088496 0.0007231733 0.008147296
000020 22 d6 b6 b9 26 55 47 3a 79 89 05 3c cb bc 2e bc
       -0.00034873286 0.00076039357 0.008150452 -0.010665129
000030 ba 69 8d ba 5d b7 4b ba c7 8b f8 3a 89 71 ab 3b
       -0.0010788955 -0.00077711587 0.0018962555 0.0052320403
000040 08 2e f7 bb df 9b 8b bb e3 6f 03 3c 57 9e b9 bb
       -0.007543329 -0.0042605246 0.008022281 -0.0056646275
000050 b5 f5 a2 ba 9c dd a0 bb 43 51 b8 3b 93 79 1f 3c
       -0.0012432846 -0.0049092304 0.0056249215 0.009733575
000060 f8 a5 e2 bb 46 a0 5c 3c e3 16 c6 3a 1f ec 14 3a
       -0.0069167577 0.013465947 0.0015113022 0.0005680937
000070 92 b8 2a 3c ff c8 29 3a 43 d1 84 3b f9 b2 0b 3a
       0.010419982 0.0006476789 0.0040532663 0.0005329098

encoder.layers.0.linear1.weight f4 [128, 32]
000000 a8 e2 e9 bd 31 94 d6 bd 55 59 92 bd ae d4 f9 3d
       -0.114201844 -0.10477484 -0.07145945 0.121987686
000010 d7 ea b7 bb f7 71 49 be 3a 63 42 bc 57 cb 84 3d
       -0.005612712 -0.1967238 -0.011864478 0.064840965
000020 92 ca e1 bc 49 94 f6 3d 99 03 d9 bd e8 0d 47 3e
       -0.027562413 0.12040002 -0.10596389 0.19438899
000030 76 17 79 3e 8e 8b 11 3e 82 75 f4 3d 4c b3 8b be
       0.24325356 0.14213392 0.11936475 -0.2728523
000040 6b 48 df 3c c6 84 7c 3c e0 ce 9a bd 80 e8 0f bb
       0.027256211 0.015412515 -0.075589895 -0.002195865
000050 f5 1a 17 3d b2 6e d5 3c ba 7d 4f 3e eb 24 0c be
       0.036890943 0.02605376 0.20262805 -0.13685958
000060 aa 61 e3 3c 5d 6b 6d 3d f3 b0 d2 3d 81 48 7f be
       0.02775653 0.057963718 0.10287657 -0.24930002
000070 24 95 fb bb e3 02 ec 3d 22 2e 19 be ec de 1a bd
       -0.007677691 0.11523988 -0.14959005 -0.03781025
000080 61 8e 51 bc ed 87 18 3e af e7 9b bb 13 13 00 3e
       -0.012790293 0.14895602 -0.0047578434 0.12507276
000090 10 1f 58 bd 21 e0 48 3d ce 47 e9 3d df d6 03 be
       -0.052764 0.04904187 0.11390649 -0.12874936
0000a0 83 82 b9 3d 88 61 02 3e ed 65 20 be e6 62 5b 3d
       0.09058096 0.12732518 -0.15663882 0.053561114
0000b0 fc 37 26 bd 36 e7 95 3d 6a 45 0d be 8b 7d e1 3d
       -0.040580735 0.073194906 -0.1379601 0.110102735
0000c0 07 2a 0d be bd d0 09 3d 92 89 0d be 16 22 95 3d
       -0.13785563 0.033646334 -0.1382201 0.07281892
0000d0 56 ee 56 bd 6d eb a5 3d 55 86 bc bd 7e f1 13 3b
       -0.05247339 0.081015445 -0.09205309 0.002257436
0000e0 de 8d 53 be 47 58 35 3e 9c 94 60 3d 6f 84 fa ba
       -0.20659587 0.17709456 0.054829225 -0.0019112955
0000f0 37 80 ef bd 47 17 19 be 13 38 e4 3d 68 87 0f 3a
       -0.11694377 -0.14950286 0.11143508 0.0005475194
000100 68 cc 28 be 31 eb c1 3d e0 af e5 bd 38 5e 0d be
       -0.16484225 0.09468687 -0.11215186 -0.13805473
000110 c0 4f 24 be 96 67 9a bd 15 c3 06 be df f0 ac 3d
       -0.16046047 -0.07539289 -0.13160355 0.0844438
000120 da 61 bb 3c 65 f3 7b 3d 9f 85 05 3e 7b ea e5 bc
       0.022873808 0.061511416 0.13039254 -0.02806591
000130 40 d8 11 3d 8a 88 16 3e 4e c8 8e bd 1a e9 85 bd
       0.035606623 0.14700523 -0.06971799 -0.06538601
000140 ae 1e e0 bd 08 e7 32 3e 47 38 e9 bd af 47 c4 3d
       -0.10943352 0.17470944 -0.11387687 0.09583985
000150 af c6 58 bc ea 89 2c be 6d 85 e2 3d 6a d3 9a 3d
       -0.013230964 -0.16849485 0.11060605 0.07559855
000160 9e c1 df 3d 53 37 f9 bc d4 66 33 3e d7 32 e1 bc
       0.109256014 -0.030421888 0.17519695 -0.027490063
000170 70 3a 1f 3e 86 03 82 bd 0d cd 77 3d 53 4b 39 3d
       0.15549636 -0.06348328 0.060498286 0.04523785
000180 17 4f a7 bd d2 f3 db 3d 15 3b 61 3d a5 a5 0a be
       -0.08169382 0.107398644 0.054987986 -0.13539751
000190 27 2f 92 bd 05 e1 10 be 5c 2b 7e bc 00 ee bb bc
       -0.071379 -0.14148338 -0.015513267 -0.022940636
0001a0 64 81 cd bc 0a 1c 25 3e c9 f8 9d 3c 7b 32 a8 3d
       -0.025086112 0.16123977 0.01928367 0.082127534
0001b0 23 55 9c 3d 7f 93 bc bd d3 76 7d bd 64 60 40 3d
       0.07633426 -0.0920782 -0.061880898 0.046966925
0001c0 4e 3a c5 bd 51 c4 2c bd 6b 88 be bd 9d b3 28 be
       -0.09630261 -0.04217941 -0.093033634 -0.16474767
0001d0 e8 22 f0 bb 0d df 16 3e 38 68 14 3e e6 2f 06 3e
       -0.00732838 0.14733525 0.14492881 0.1310421
0001e0 1c c1 87 3d fa c5 ac 3d f3 6b bf 3d 09 0c 68 3d
       0.066286296 0.084361985 0.093467616 0.056652103
0001f0 5c 91 0b 3e d3 6f 35 3e c0 7a c3 3d 62 f9 39 3e
       0.13629669 0.17718439 0.09544897 0.18161538
000200 13 5c 05 3e 5e 03 a8 bd 96 92 11 be a5 82 6e 3e
       0.13023405 -0.08203767 -0.14216074 0.23292024
000210 da cf f2 bc 0b 9d 80 bd 01 44 55 3d 3b b3 e5 bd
       -0.029640127 -0.062799536 0.052066807 -0.11215826
000220 fc 4f b7 bc fc 60 9b bc 4b a8 67 be 9f 43 a7 bd
       -0.022377007 -0.018967144 -0.22622792 -0.081671946
000230 a6 1e 0d 3e 42 66 93 bb 00 2c 29 3b b5 8b 8b 3d
       0.13781223 -0.004498274 0.002581358 0.068137564
000240 97 a9 f8 3c 6f 3d 15 be 41 9b 3b be 17 4c ed 3d
       0.030354304 -0.14574216 -0.18320943 0.115867786
000250 c5 a6 83 3d 91 91 62 3e 1e 02 af 3b e8 76 69 bd
       0.06428293 0.22125842 0.0053408286 -0.056998163
000260 eb bb 57 3d 4b c5 9a 3d 28 15 fa bd e5 d3 26 3e
       0.052669447 0.07557162 -0.122110665 0.16291769
000270 4c 1a 14 3e 24 08 3d be 4f 02 25 bd c0 e1 10 3d
       0.14463156 -0.18460137 -0.040285405 0.035371542
000280 61 25 2b be 6a 22 01 3e f5 f0 51 3e 73 05 32 3e
       -0.16713478 0.12610784 0.20502074 0.17384891
000290 c0 7c d3 bd 44 8a 34 3e c3 14 a9 bc 99 50 a7 bc
       -0.103265285 0.17630869 -0.020639783 -0.020424174
0002a0 11 7e bb bd 3b 09 51 bd bf 8d ae 3d e9 69 e8 b9
       -0.09154905 -0.051034193 0.0852313 -0.00044329397
0002b0 06 a6 1b bd 45 9f 4b bd 85 e2 39 3d c4 04 ba bd
       -0.03800013 -0.049712438 0.04538204 -0.0908294
0002c0 43 4b fb 3a a8 ef 91 3e dc 2c cf 3c 3a 34 74 3c
       0.001917221 0.28503156 0.025289945 0.01490503
0002d0 ad c4 4a bd 53 0a 00 3d e9 83 29 be e1 2f 28 be
       -0.04950397 0.031259846 -0.16554226 -0.16424514
0002e0 e0 8d f4 3d c0 8e 56 be 27 23 c5 bd 93 a1 ff bd
       0.11941123 -0.20952892 -0.096258454 -0.1248199
0002f0 18 9e ce 3a 7a 05 88 bd 52 10 01 be 45 8b 0d bd
       0.0015763668 -0.066416696 -0.12603882 -0.034556646
000300 a5 21 2e 3e 1d ef 16 3e 5c 24 80 bd 03 87 72 bc
       0.17005022 0.14739652 -0.06256935 -0.014802697
000310 d7 9e bf 3d be 6a 76 3d 30 85 1f bc 4c 17 29 3d
       0.09356468 0.06016039 -0.009736344 0.041281983
000320 9a d9 93 bd 2e 4e 03 3d b0 fa 98 3d e9 72 05 be
       -0.072192386 0.03205698 0.0746969 -0.13032116
000330 0c 13 cc bd d1 69 88 3d 00 96 25 be fe da 57 ba
       -0.099645704 0.06660808 -0.16170502 -0.00082342315
000340 c1 1e 84 bd 59 d5 f9 3d 15 35 f5 bd b2 13 1a bd
       -0.06451178 0.12198896 -0.11973015 -0.03761644
000350 77 3c 00 3e 5c cf b9 bd 0d 7f 1b be e7 e7 9b 3d
       0.12523066 -0.09072754 -0.15185185 0.07612591
000360 bc 2b 3c 3e ac a2 99 3c cb 3d 16 be 9b 18 af bc
       0.18376058 0.018754326 -0.1467201 -0.021374037
000370 10 08 a1 3d 71 b8 f1 3d bf 02 b2 3d 06 73 e1 bd
       0.07862866 0.118027575 0.0869193 -0.11008267
000380 cf fc 04 be a8 0d 8b bc 41 2f d2 3d e8 4f bf 3d
       -0.12987064 -0.016974285 0.10262919 0.09341413
000390 5f 19 4a 3e a6 60 81 bd 56 3a da 3d cd f5 9a 3d
       0.19736241 -0.06317262 0.10655658 0.07566414
0003a0 80 08 df 3d 6a 95 70 bd 0e fb da 3c 92 70 02 3e
       0.10890293 -0.058736242 0.02673104 0.12738255
0003b0 0d c2 b4 bd 4f 5f 5b bd 00 92 1e be 9d 29 1c be
       -0.08826075 -0.05355769 -0.15485382 -0.15250249
0003c0 e8 78 b0 3d 4c 43 1f 3e 85 8f 3b be 7b 66 28 be
       0.08616811 0.15553015 -0.18316467 -0.16445343
0003d0 70 45 8b 3d bc be 3b bd 4a aa 61 3d 9c b8 e0 3d
       0.068003535 -0.045836195 0.05509404 0.109727114
0003e0 ed 3f 04 be c6 d1 5a 3d b6 f0 79 bd 5f a6 5b 3d
       -0.12915011 0.05342271 -0.061020575 0.05362546
0003f0 52 5c 83 3d f0 74 01 bd a3 4a 23 be ca 85 52 be
       0.06414093 -0.03160566 -0.1594644 -0.20558849

encoder.layers.0.linear1.bias f4 [128]
000000 ab 5a 81 3d b9 06 d8 bc 7d 40 f8 bd 5d f7 44 be
       0.06316122 -0.026370393 -0.12121675 -0.19234987
000010 7e b2 90 bd 35 d5 f0 bd ea eb 31 be 4d c9 58 bc
       -0.07065295 -0.11759416 -0.1737515 -0.013231588
000020 5f 4e b6 bd 3d 43 f7 bc 82 5a b2 bd f3 93 36 be
       -0.08901667 -0.030183429 -0.08708669 -0.17829876
000030 68 23 6d be 03 a6 1a bd 71 c1 7d be 8e dd 0b be
       -0.23158038 -0.037755977 -0.24780823 -0.13658735
000040 42 0a 06 be fc a1 95 3d fb d4 4d be ee 3f 44 bc
       -0.1308985 0.07306287 -0.20100777 -0.011978133
000050 9e 40 ce 3d df 26 2e be 78 d0 96 3d 45 7a 37 bd
       0.100709185 -0.17007016 0.07363981 -0.04479434
000060 3d 26 8e bd b6 9c d8 3d 73 41 42 bd e2 35 05 be
       -0.06940887 0.10576765 -0.0474257 -0.13008836
000070 99 b0 f1 bc 7f c1 f9 3a 87 cd a6 bd 09 82 aa 3a
       -0.029503154 0.0019054859 -0.0814467 0.0013008724
000080 0a 04 03 3e dd 9d 79 bd 63 93 fd bd 01 50 f5 bc
       0.1279451 -0.060941566 -0.123816274 -0.029945375
000090 e8 14 e7 3d 28 3e 80 bd 3e 6b 94 3a 6d da f5 3d
       0.112832844 -0.06261855 0.0011323465 0.12004552
0000a0 6a 8e 9f bd 3d 12 c9 3d 56 77 ca 3c 0e dd 42 be
       -0.07790835 0.09817932 0.024715107 -0.19029638
0000b0 9a 56 af bd a6 f6 22 bd da 33 bd 3d 81 74 24 3e
       -0.0856144 -0.039786004 0.092384055 0.16060068
0000c0 40 a5 0a 3e 39 47 32 bc cf 3a c3 bb c8 35 7e bd
       0.135396 -0.010881239 -0.0059579383 -0.06206301
0000d0 0b c7 00 be 1d bc 06 bd fd b7 2a bd 1a 3a 41 3d
       -0.12575929 -0.032894243 -0.04167937 0.04717455
0000e0 d5 15 a8 3c 26 35 22 be 28 1a f4 3d 8a 5a 30 bd
       0.020518223 -0.15840587 0.119190514 -0.043055095
0000f0 8b 36 f9 3d 6d 5c f4 bd 9d d6 33 be 12 ae 09 be
       0.12168606 -0.11931691 -0.17562337 -0.13445309
000100 b1 dc 68 3c 61 e5 4e 3d a7 15 00 be be de ea bd
       0.014212773 0.05051172 -0.1250826 -0.11468266
000110 94 2b c3 3d 2c 43 81 3d 64 f0 a3 bd 23 39 bc bb
       0.09529796 0.0631164 -0.08004835 -0.005744116
000120 8f 0c 95 bd 26 40 11 3e 47 d2 ec 3d be 89 52 be
       -0.07277786 0.14184627 0.11563545 -0.20560357
000130 22 8c 0c be 11 d1 43 bd db 56 53 be 8a d2 6c bd
       -0.13725331 -0.047806803 -0.20638601 -0.057817973
000140 08 79 d3 bb 28 83 ac 3d ba 3a 7f bd f5 8d a1 39
       -0.006453637 0.084234536 -0.062311865 0.0003081408
000150 59 b2 3a be f9 0e 44 3c fd c8 df bd c7 20 79 3d
       -0.18232097 0.01196646 -0.10927007 0.060822275
000160 6a 84 d2 bd de 48 b0 bb f6 6f cf bd 11 c7 57 3d
       -0.10279162 -0.00537978 -0.10128777 0.05268008
000170 14 b1 07 be e8 a8 99 bc c8 ff 24 be fa e1 81 bd
       -0.13251144 -0.018757299 -0.16113198 -0.0634193
000180 c2 96 e4 bd 43 3b 47 3d 0d 9f db bd 11 7e a2 3d
       -0.11161567 0.0486405 -0.10723696 0.079342015
000190 30 d1 43 be 05 84 fe 3c ce f1 48 bd 7d ce 32 3e
       -0.19122767 0.031068811 -0.049058728 0.17461582
0001a0 b3 3d d3 bd 72 38 a1 3d 74 17 ce 3d 4a 52 20 be
       -0.103145026 0.07872094 0.10063067 -0.15656391
0001b0 a8 20 04 3e 5f 5c 0a be 7b e4 19 3d e1 84 9c bd
       0.12903082 -0.135118 0.03757141 -0.07642532
0001c0 60 09 32 be a1 ac 05 3e 6a 11 09 bd c5 bd 98 3d
       -0.17386389 0.13054134 -0.033463873 0.07458071
0001d0 ed 2d b9 bd 13 71 dc bb ad 72 a9 3d f7 f4 03 be
       -0.09041963 -0.0067273467 0.08273826 -0.12886415
0001e0 a4 bd 01 be 91 8d ed bd 13 fa 0a be ee 67 28 3d
       -0.12669998 -0.11599267 -0.13571958 0.04111474
0001f0 09 c2 6e bd 1f d0 00 3c 67 40 a7 bc fd 65 07 3d
       -0.058290515 0.00786212 -0.020416452 0.033056248
