models/Proposed/antiproton.pt (torch, 167723 bytes, 35 tensors)

emb.layers.0.weight f4 [128, 20]
00000000: 5474 2ebd 384f 25be b0da 28be 114a 55be
00000010: 901d efbc de38 4f3d f802 61be 298f 773d
00000020: a1f9 413e 7173 1c3e 7bd3 d83d 4d70 f0bd
00000030: 708b aa3c d1f0 e4bb 5f0e 3bbe 7860 1c3e
00000040: 1833 91bc 765f 4c3e 316a adbd db73 56be
00000050: b83b 81bd e427 e73d 133f e9bd 84fe 0ebe
00000060: 090a 24be 566c 02be 08ed 203d 49ce d83d
00000070: ee02 e1bd 9857 9f3d 728a 19be 4417 453e
00000080: aa10 39bd bcd8 aabc 4a6a 273e 21ea 0bbe
00000090: 1071 a1be 7f1a 68bd 4a39 adbe 2d10 da3c
000000a0: 6fbc 64be 968b 893b 2174 a6bd 4c2a 093d
000000b0: a1ce babd 9580 c03d a598 4bbc a5fa dd3d
000000c0: 9c33 d9bc d3ac 8bbe 10c9 923d 40d3 9f3d
000000d0: 364b df3d 249e edbd fdc5 f7bd 12aa 89bd
000000e0: 3177 863c 254a bfbd 45a2 063d 9581 8abd
000000f0: b2a8 2b3c 7f0d 623e d79c cf3e 8343 693e
00000100: 6a4f 93bd f3f5 1f3e ef58 0dbe 3ed0 98be
00000110: 8c09 4abd 4ce6 0dbe 8fdd 40be dc9a 093e
00000120: 2c1e 0bbc 0246 233e aabf 473e 2ec0 a43d
00000130: d800 143d 39ff cabd 3205 49be ebeb cf3c
00000140: e431 5d3e d446 acbd 5b5d 3abe d34f e7be
00000150: 0b6e 323e eb73 3c3c 7568 143e e512 ef3d
00000160: d556 44bd 75e0 613d db58 e83d 312e fa3d
00000170: 67d4 0bbe 9972 d7bd ec5c ac3d 37e0 29be
00000180: 74f8 f53d abf3 8ebe f288 303e 7cd5 5d3d
00000190: 6621 a83d 9ec5 abbd 80c3 be3a a182 16bd
000001a0: 9781 443e 55d6 d63c 41d9 1cbe 5d1b 54bc
000001b0: d117 ccbd 2e7d e8bb afbd 7d3e 0e91 84be
000001c0: b19d 6ebe fdb4 46bc 96c7 4abe b0ef c83d
000001d0: f782 a9bb 42dd 39bd 6f2f 10be 6a1b f7bd
000001e0: cbe6 2fbe 4e0d dc3d 4bd7 c53e 1472 c0bd
000001f0: fdfa 4fbc 053e 79bd 294c 49be 4037 acbd
00000200: f912 aa3d 774f bb3d d749 5c3e 0163 3c3e
00000210: be9a 5c3d 8b7c 643c 24e0 4139 89c7 f6bd
00000220: 5521 823d b091 653e 5976 413e 915b 3c3e
00000230: a525 823e 5150 d13d c707 363e a4e7 c53d
00000240: fce5 26be b0f9 4f3e 0730 483e d865 95be
00000250: d870 a4be e7a0 333e d270 2dbe 57e1 503d
00000260: 6052 06be 7334 5abd da93 133d ac49 8cbd
00000270: e08c 56bc 44a9 5cbc 21d6 edbd 1d0c 27be
00000280: 8575 3a3e 0540 d23c 9f6f a3be 2acf c1be
00000290: 1b1a 53be 93ab d23d 4a02 a5b9 c6c1 e4bd
000002a0: 642f 813d 5ca3 ebbd 7107 123e 89b4 ffbd
000002b0: 9dec 27be b0f3 a3be 5427 99bc 95e7 45be
000002c0: 2776 31be fe83 bbbc ecae 373d b5c8 353e
000002d0: bc2d 16be cb89 b7be 751e dfbe 43e7 8bbd
000002e0: 22e6 1f3e f291 febc 6d5f d23d 1b5f 0f3e
000002f0: e39a 443e 3f80 d3ba fbf7 483d 91b9 c0bd
00000300: 8180 b7bd bce9 fcbd de83 03bd 58ce 65be
00000310: 96ed 1f3e 5b9b 91be 65b5 09bd bffc 053e
00000320: fcf5 1a3e aaea 023e 6361 533e 4052 fb3d
00000330: 7b97 8a3d 6899 e1bc 8af5 fdbd 617d 04be
00000340: 4da5 50b9 e14d a3bd 4695 7c3e 3cb8 0dbe
00000350: 4fc4 44be 0aa7 783e da33 153e 91e3 733d
00000360: 47d5 133e b36c 2e3e 33d1 0c3e 4e41 ef3d
00000370: 1873 cc3d deb0 4d3e bb69 2fbe 8bbd 97bc
00000380: 49a6 41be 4a26 07be 2993 323e d347 27be
00000390: 0a3c 4d3e 50bf bfbd 7215 babe 7ba1 dc3b
000003a0: 8bbb d03d 4423 963d 1788 25be ce74 043e
000003b0: 0573 5c3d 88e9 b4bd 711a 703d 5e50 15be
000003c0: 5eac 2e3e 079d 013e 119d 6dbe 7a64 853e
000003d0: c087 62bd cdee de3d 0144 673d a0c8 e03d
000003e0: 570b 283c 7509 043e b6bd 4ebe ef82 5fbd
000003f0: faec 84bd d9b9 acbd 090c 77bc f99a fabd
-0.042591408 -0.16143501 -0.16489673 -0.20829035 -0.029188901 0.050591342 -0.21973789 0.060439263
0.18942882 0.15278412 0.10587212 -0.1174017 0.020818442 -0.0069867154 -0.18267201 0.15271175
-0.017724559 0.1995829 -0.0846752 -0.20942633 -0.063102186 0.112869054 -0.113889836 -0.13964278
-0.16019453 -0.1273664 0.03928855 0.10586221 -0.10986887 0.07780379 -0.14994219 0.19247156
-0.045181908 -0.0208553 0.1634914 -0.13663532 -0.31531572 -0.056665894 -0.3383277 0.026619041
-0.22337507 0.004197548 -0.081276186 0.033487603 -0.091214426 0.09399525 -0.01242653 0.10838822
-0.026513867 -0.27280292 0.07167256 0.078039646 0.10903017 -0.116024286 -0.1209831 -0.067218915
0.016414257 -0.09340314 0.032869596 -0.06762997 0.010477232 0.22075461 0.40549347 0.2277966
-0.071928814 0.15621166 -0.13803457 -0.29846376 -0.04932551 -0.13857383 -0.18834518 0.1343798
-0.00849108 0.15944675 0.19506708 0.08044468 0.036133617 -0.09911961 -0.19630888 0.02538105
0.21601063 -0.08411947 -0.18199675 -0.4517809 0.1742479 0.011502246 0.14492972 0.11673526
-0.047934372 0.0551457 0.11345073 0.122158416 -0.13655244 -0.10519905 0.08416161 -0.16589437
0.12010279 -0.2792028 0.1723974 0.054158673 0.08209495 -0.08387302 0.0014554113 -0.03674567
0.1919006 0.026225248 -0.15317251 -0.012945977 -0.0996548 -0.0070950007 0.2477939 -0.25891918
-0.23302342 -0.012128112 -0.19802698 0.09811342 -0.005173083 -0.045377024 -0.14080594 -0.12065776
-0.17177884 0.10744725 0.38640818 -0.09396759 -0.012694118 -0.060850162 -0.19657959 -0.084089756
0.083044 0.09146016 0.21512543 0.18397142 0.05385851 0.013945709 0.00018489413 -0.12049777
0.06354014 0.22418857 0.18892802 0.18394305 0.25419345 0.10220397 0.17776404 0.096633226
-0.1629867 0.20310092 0.19549571 -0.29179263 -0.32117343 0.17541848 -0.16937569 0.05099615
-0.13117361 -0.053272676 0.036029674 -0.06849989 -0.013095111 -0.01346809 -0.116131075 -0.16313215
0.18208893 0.025665293 -0.31921098 -0.37853366 -0.20615427 0.102866314 -0.00031472958 -0.11169772
0.06307867 -0.11505768 0.14260651 -0.12485606 -0.16398855 -0.32021856 -0.01869551 -0.19326623
-0.17330228 -0.022890087 0.044844553 0.17752345 -0.14665884 -0.35847315 -0.43577924 -0.06831219
0.15615132 -0.031075452 0.10272107 0.14001124 0.1919971 -0.0016136243 0.049064618 -0.09410394
-0.08960057 -0.12349269 -0.03210818 -0.22441995 0.15617976 -0.2843884 -0.033620257 0.13084696
0.15132898 0.1278483 0.20642619 0.12271547 0.06767174 -0.02753897 -0.124003485 -0.12938453
-0.00019898005 -0.079738386 0.24666318 -0.13839811 -0.19215511 0.2428247 0.14570561 0.059543196
0.14436828 0.17033653 0.13751678 0.11682378 0.0998289 0.20087 -0.17130177 -0.018522998
-0.18911089 -0.131982 0.1743895 -0.16335993 0.20042434 -0.09362662 -0.36344486 0.006733117
0.10192021 0.07330945 -0.16165195 0.12935182 0.05382063 -0.08833605 0.058618966 -0.14581439
0.1705794 0.12657557 -0.23204447 0.2605322 -0.055305243 0.108853914 0.056461338 0.10975766
0.01025661 0.12894233 -0.20189556 -0.054568227 -0.06490512 -0.08433885 -0.015078553 -0.1223659

emb.layers.0.bias f4 [128]
00000000: 7f60 9dbd 8b9c 163e 66a9 e63d 7a99 113e
00000010: 68bf 65bd 0e49 b13d ae46 2cbc 0c80 36bd
00000020: 3a14 0ebe a8b9 be3d 7a9a cfbd 501c 553e
00000030: 3a7d c4bd 9fa4 2fbe e818 c7bd d977 b8bc
00000040: 975e a6bc 528d 30be 0416 af3d adbd 1d3e
00000050: 4cfd 8bbd 2666 c1bd 7b25 d23d 35fe f53c
00000060: 76b3 4f3e 39b1 4cbe b835 e83b 214c 3bbc
00000070: a0ad c9be 9295 f53c fff5 2d3b 4289 babc
00000080: 72a5 35bd 8804 c33d d9c4 dd3c 2a23 45be
00000090: 9c06 2e3e 9131 493d 373e 0d3e ed9a 6d3d
000000a0: 7ebb 4b3e 614e 9cbc 63b4 e3bd de3b f2bd
000000b0: e58b 27bd f345 3ebd 9b1d e83d b742 cbbc
000000c0: c866 07be 431f b83d 20c0 adbd a732 50be
000000d0: 6d27 b7bd e46a a33c f552 123e 214d 73be
000000e0: 81d1 1fbe 42ab 1d3e f596 833c 612f 09be
000000f0: 0ba1 f6bd dbbc 3d3e c5cb 27bd 466a bd3d
00000100: c19c ad3d c2f3 2dbe 7925 85bc ce66 05bd
00000110: 057a e13c 5634 283e a2c3 813d 557f f5bd
00000120: b202 56bd a04c 1a3d cdc3 13bd 8925 bcbd
00000130: 1f85 83bd 9481 053c 574a 943b d34e adbd
00000140: 0869 f03d 2617 fcbb da26 cb3d 9022 a7bd
00000150: 9fef 2d3c baa2 1d3e ff17 60be 7b46 44be
00000160: 730d e3bd 1c7d 82be efe8 38bd 9c10 db3b
00000170: fc85 543e 8d4c d8bc ae81 a73c 946b 9d3d
00000180: 7e24 fabd 93dd 0abe 932b 24bd 2da1 05be
00000190: 35a0 b5bc 4df7 a8bc fd63 963c 06dd 033e
000001a0: ec61 413e 39b4 b0bc 3c7e e8bd eb59 fa3d
000001b0: 4302 293e dde7 3cbe 61e1 e53d e094 3abe
000001c0: 197f e8bd 4342 01be 5ce6 f6bc 0811 923c
000001d0: f515 3bbe 2d23 243e a1f9 0dbe 6485 1d3d
000001e0: d43c 513e 908f 0cbc 8ea0 4e3e 787a 11be
000001f0: 3e17 0b3e ccef 5e3e 7dd1 99be a8d7 9cbd
-0.07684421 0.14708154 0.11262779 0.14218703 -0.056090742 0.08656512 -0.010514898 -0.04455571
-0.13874903 0.09312755 -0.10136886 0.20811582 -0.095941976 -0.17152642 -0.09721547 -0.022518085
-0.020308776 -0.1724141 0.08549121 0.15404387 -0.06835422 -0.094433114 0.10261055 0.030028442
0.20283303 -0.1998948 0.007086482 -0.011431725 -0.39390278 0.029978547 0.002654433 -0.022770528
-0.044347234 0.09522349 0.027071403 -0.19251695 0.16994709 0.049119536 0.13793264 0.058009077
0.19895741 -0.019080343 -0.111183904 -0.11827825 -0.0409049 -0.046453428 0.11333772 -0.024812086
-0.13222802 0.08990338 -0.084839106 -0.20331822 -0.08943067 0.01994843 0.14289458 -0.23759891
-0.15607263 0.15397361 0.016063193 -0.1339698 -0.12042435 0.18529074 -0.040965814 0.09248786
0.08477164 -0.16987517 -0.01625322 -0.032568745 0.027524004 0.16426215 0.06336142 -0.11987177
-0.052248664 0.03767073 -0.036075402 -0.09186847 -0.06421875 0.00814857 0.0045254636 -0.084623
0.11738783 -0.007693189 0.0991952 -0.08160889 0.010616212 0.15394107 -0.21884154 -0.19167511
-0.110865496 -0.25486076 -0.045144018 0.0066853296 0.20754236 -0.02640369 0.020447578 0.076865345
-0.122139916 -0.13561086 -0.040080618 -0.13049765 -0.02217112 -0.020625735 0.018358225 0.12877283
0.1888501 -0.021570312 -0.11352202 0.12224182 0.16504769 -0.18447824 0.11224628 -0.18220854
-0.11352367 -0.12622933 -0.03013914 0.017830387 -0.18270095 0.16029043 -0.13864757 0.03845729
0.2043336 -0.00857915 0.20178434 -0.14206874 0.13583085 0.21771163 -0.3004264 -0.07658321

emb.layers.2.weight f4 [32, 128]
00000000: bcf3 b83d fee2 3b3d cedb 463c bde9 7ebd
00000010: 9fb0 a33d cbdb a33c 3be9 13bd ddb0 33bd
00000020: 04ab 243d bdc4 1cbd bcd0 a13c 8319 0bbd
00000030: 4491 95bc 8f65 543d 39ed a43d d775 98bc
00000040: c452 2c3c 6e76 123b a726 61bd 8714 943d
00000050: 5ae0 063c 4ac1 cf3d a68c 38bd 8358 813d
00000060: e7d7 613d 845f 443d e32c ac3d 7ee3 babc
00000070: 5764 d6bd 6b9f a23d 1178 463d 4c62 793d
00000080: 54f4 1c3c 4b5c db3c 6e66 213d cc4e 8ebd
00000090: 5ed0 9dbc 8db1 d6bd 7f40 a5bc 1a56 a23d
000000a0: 6068 05bd 6675 453d 1257 be3d 3148 9b3d
000000b0: 2837 c7bd be37 cc3c 3229 d6bc 8cdf 7bbd
000000c0: cabc c63b c24b 4dbd bd6b e33c 437b e93c
000000d0: 9c08 0fbd 1a67 f0bb 4e7f c3bd 3772 97bd
000000e0: 0abc babd 414f a6bd 2ce1 a13d 6575 063c
000000f0: 6937 40bc db9c 8a3d b0df 4a3a dd4b 00bd
00000100: 2449 00bc 6883 08be 102e 12bc 5405 8ebd
00000110: 990a 0a3d beb1 953c c666 31bd 03bf 1dbd
00000120: 4859 f73c d7df 963d 3be6 89bc c5e2 693d
00000130: f549 803d de69 1abb e8ca 923c 2861 b13b
00000140: 0dd8 ec3c 5e54 753d bc21 933d 4c29 013d
00000150: a0ce e6bc 5953 8bbd 894c 24bd 7b89 8d3d
00000160: e7a4 c5bc dab3 1dbe 5b12 f7bb 3491 0b3d
00000170: eef1 b33c 33c4 dd3b 6b95 71bd 2953 80bd
00000180: d03a 903c c7b1 c4bb 6e5e 8bbc 1c68 c13d
00000190: eba5 10bb a584 67bc 7b95 2a3e 5bf4 b9bc
000001a0: 51b6 a73a 280f 783c 2a28 443c d683 8abb
000001b0: 8987 823d f4ca 34be 6684 a03c 3106 86bd
000001c0: 8581 b5bd 26c4 d4bd 1261 a23d 1cfa 4bbd
000001d0: a232 a63d 3071 48bd aa91 9a3c aff6 823d
000001e0: c81b bf3b a57f 283c ac00 78bd 917b b73d
000001f0: 0e00 473c e5cf a53c d836 d2bc 1495 353c
00000200: fe9b 013e ab52 4fbd abcd b93d b3cc 363c
00000210: ddaa ab3d 04af ef3c 6deb a7bc 4a99 a0bc
00000220: 461c c1bc 929d 4bbd e39d ca3d 24ce 99bc
00000230: 27d5 863b 5914 893d 7c95 1cbc 810d 8e3d
00000240: eda9 8d3d 5b51 f83d 1975 443d caf1 90bd
00000250: 49b6 2ebe f727 793d 30db 953b 6d1f 88bd
00000260: 6d9f 11bd 32d0 943c 76e1 8c3d 8b54 c13c
00000270: 3142 dfbc 3d9a 9ebd cbad fd3c bd52 883d
00000280: e815 e73d ff54 9c3d 2912 f13b ab04 be3d
00000290: d8f4 10bc acbc 3ebc 0ad4 a03d 9446 323d
000002a0: 180d 8d3d 41cd e53d fa71 8a3d 49e5 b83c
000002b0: 072e 043e da45 a23d ea36 6b3d 4fb5 503d
000002c0: 983b 823d 8008 fa3d c2f1 053d 4b1c efbc
000002d0: 4dd8 6dbd 322d 463d 7e7f 14bd d0de f4bb
000002e0: d28f a4bd 1420 c53c 8c39 22bd 0424 c23c
000002f0: a3a3 b13d d4ce 033b c1ee 993d 309d f4bc
00000300: 93f1 dcbd a208 a33c eb97 5e3c a63b edbd
00000310: da39 ea3d e483 ff3c 3b6d 973d 825b 28be
00000320: ea58 4abd 7dc2 5fbd f383 ea3c b83d 8fbd
00000330: a517 4a3c 7625 80bd a58c fbbc 3ae6 72bd
00000340: e3fe 9f3d 030d 793d 26b4 17bb 8b5e ba3d
00000350: b777 5e3d 8da8 e9bb 56f2 d93d cff2 d33d
00000360: 72c4 97bd 5dc0 edbc c332 cebd 4310 843c
00000370: 5db3 283d 18e1 b23d 19ba a63d 8bc2 38bd
00000380: 56b3 0dbd a22f 4c3c 8d53 4ebd 4bc0 3d3c
00000390: 1bc3 2fbd 948c 13bd 4dcb aa3d 53ed dcbb
000003a0: bde9 efbc e4be 8d3d 02d9 433d 25b6 adbd
000003b0: 2820 bfbd f97f c33c 5324 c9bc d8ee 7139
000003c0: 3508 e93d 22b5 ad3d 7d75 64bb de86 98bd
000003d0: cded 8fbd b132 fabc 8480 223d de9a f23d
000003e0: 1558 34bd 01c6 98bd 8ca8 3c3d 51bf c8bb
000003f0: d601 173d bdc7 973d d001 533d 8fc7 b83d
0.09030864 0.045870773 0.012137366 -0.06223463 0.07992672 0.020002266 -0.036111098 -0.04386984
0.040202156 -0.03827356 0.019752853 -0.033959877 -0.018257745 0.051854666 0.08053059 -0.018610878
0.01051778 0.0022348422 -0.054968502 0.07230478 0.0082322005 0.10144289 -0.045056008 0.063157104
0.05513754 0.047942653 0.08406999 -0.022813555 -0.10468357 0.07940563 0.048454348 0.06088476
0.009579737 0.026777407 0.039404325 -0.06948623 -0.019264396 -0.10483084 -0.020172356 0.07926579
-0.032570243 0.048207663 0.09293951 0.07582129 -0.09727317 0.024928924 -0.02614269 -0.061492488
0.006064986 -0.050121076 0.027761335 0.028501159 -0.03492032 -0.0073365094 -0.09545766 -0.07394832
-0.09117897 -0.08120585 0.07904276 0.0082067 -0.011731961 0.06768199 0.00077390205 -0.03132235
-0.007829938 -0.13331378 -0.008922115 -0.0693461 0.033701513 0.01827323 -0.043310903 -0.03851224
0.03019394 0.07366913 -0.016833415 0.05710103 0.06264106 -0.0023561637 0.017919019 0.0054131933
0.028911615 0.059894912 0.07184169 0.031533524 -0.028174698 -0.06803007 -0.040112052 0.06910988
-0.024126483 -0.15400639 -0.00754003 0.034074023 0.021965947 0.0067677735 -0.058980387 -0.062658615
0.017606169 -0.006002638 -0.017012801 0.094436854 -0.002207155 -0.014130746 0.16658585 -0.022699526
0.0012795423 0.015140332 0.0119724665 -0.004227142 0.063735075 -0.17655545 0.019594382 -0.0654415
-0.088625945 -0.10388975 0.07928671 -0.04979907 0.08115126 -0.04893607 0.018868286 0.063947074
0.005832169 0.010284339 -0.060547516 0.08959115 0.012146009 0.020240733 -0.025660917 0.011082906
0.12657163 -0.050615948 0.09072431 0.011157203 0.08382199 0.029258259 -0.020498002 -0.019604344
-0.023573052 -0.049710818 0.09893396 -0.018775053 0.004114765 0.06693334 -0.009557124 0.069361694
0.069171764 0.12124892 0.047963236 -0.070773676 -0.17061724 0.06082913 0.0045732483 -0.06646619
-0.03555243 0.018165682 0.06878941 0.023599884 -0.027253242 -0.07744262 0.03096666 0.06656406
0.11283475 0.07633399 0.007356901 0.09278234 -0.008847438 -0.011641663 0.07852943 0.04352434
0.06887263 0.1122079 0.067600206 0.02257027 0.12908183 0.079234794 0.057425417 0.05095416
0.06359023 0.122086525 0.03270126 -0.029188296 -0.05806761 0.048382945 -0.0362544 -0.0074728504
-0.08035244 0.024063148 -0.039605662 0.023698814 0.08673789 0.0020112293 0.07516242 -0.02986011
-0.10788264 0.019901577 0.013586025 -0.11583643 0.114368156 0.03119082 0.07393881 -0.16441157
-0.0494012 -0.054628838 0.028627371 -0.06994194 0.012334739 -0.06257145 -0.030706713 -0.059301592
0.07812288 0.060803425 -0.0023148148 0.09100064 0.054313388 -0.0071306885 0.10641925 0.103490464
-0.07410516 -0.02902239 -0.10068276 0.016121035 0.04118668 0.087343395 0.08140964 -0.045107406
-0.034594856 0.012462528 -0.05037265 0.011581491 -0.042910676 -0.036022738 0.08339558 -0.0067421584
-0.02928626 0.06921175 0.047814377 -0.08482007 -0.09332305 0.023864733 -0.024553454 0.00023072527
0.113785185 0.08481814 -0.0034860068 -0.07447599 -0.07027779 -0.03054175 0.039673343 0.11845945
-0.044029314 -0.07459641 0.046059176 -0.0061263223 0.036866985 0.07411144 0.0515154 0.09022438

emb.layers.2.bias f4 [32]
00000000: 6e8e 86bd 5ab5 9fbd 21ca d13c 8ac9 7a3d
00000010: 3b6b 753d 7077 edbc a520 1abd e48b a5bd
00000020: 823a 1f3c 4ffd c83c a1be 49bd d1e5 2c3d
00000030: 4fab 33bd e4b2 a0bd 066e cb3c e807 96bd
00000040: a176 3a3d 776b b93d 1666 bdbc d17a 933d
00000050: 1f40 3e3d 86ad 4bbd 65fe 533d 27e5 3c3d
00000060: a47d 953d dc10 3ebc 5572 093d 4015 533c
00000070: 52dd 51bd 952f 00bd 4785 343d 22d5 6cbd
-0.06570135 -0.07798262 0.025609078 0.06122736 0.059916716 -0.028987616 -0.03762879 -0.08083323
0.009718539 0.02453485 -0.049254064 0.042211358 -0.043864544 -0.07846621 0.024832737 -0.07325727
0.04552329 0.090537004 -0.023119967 0.0720116 0.04644787 -0.04972603 0.05175628 0.046116974
0.07299355 -0.011600699 0.0335563 0.012883484 -0.051236458 -0.031295378 0.044072416 -0.057820447

encoder.layers.0.self_attn.in_proj_weight f4 [96, 32]
00000000: fd1b 0a3d 8a88 3b3d bb3d eaba 983f 0e3e
00000010: d8ef 30be d885 033e 8fff 59bd 3590 11bd
00000020: 7db1 f8bd 2fe7 96bc 37e6 c5bd bdd8 d03c
00000030: 18c2 97bc b90e 09bd 6c8b 69be 7f60 e53d
00000040: 86d5 173d 15e0 093d cefb 703e 4232 e3bd
00000050: e34b 1ebc dad9 5e3e c440 44be 6bc8 103e
00000060: dd7c cbbd 50d7 50bc 6b52 523e 17a7 a5bc
00000070: b913 373d 9358 a53d 0c6b 14be cf42 9cbd
00000080: 7fb9 a0bc ec58 9b3c 113f 83bc 3698 543d
00000090: 21d5 0ebe 29c4 38bd d44a e83d 9d2c 9a3d
000000a0: 15e6 fc3d 37ee 783d 6039 f3bd 8cc3 82bd
000000b0: b1ba 883e f2c9 7a3c d0b9 88be 1f6f 783d
000000c0: de80 92be de3f 2ebe 6955 57bd 7983 03be
000000d0: d814 33be 2120 23be 4f86 413e c51e b5bd
000000e0: aff8 253d 3737 ec3d 1115 3c3d facf 423d
000000f0: b74d 873e 5cd4 373d 8f59 5dbd 0780 d83b
00000100: 9774 493e 9330 b13d a49a 93be c10d ddbc
00000110: e387 343e 17d4 ba39 eb2e 1e3e 3e8d 56bd
00000120: 8a6f 163e d907 073e db26 4f3e 0603 143e
00000130: 1c5c 033e b7d6 63be a608 213e b6ee 84bd
00000140: 98e8 2a3e 2c76 e63d f734 2ebb 3852 b23d
00000150: 247a 89bd e908 f7bd a8d8 1abe d003 b33d
00000160: 6906 9abd fa8b 8f3d aa76 07be a571 05bd
00000170: 672a 47bd 93cf dfbc 6095 fd3d 7b11 ac3d
00000180: 9901 493e d165 19be 78a2 07bd 83d0 43be
00000190: 0773 1fbe a001 39be 9928 163e c3be 8d3d
000001a0: 4899 5abe b529 613d 0064 9f3d f023 cc3d
000001b0: b51a 853e 662a 1dbe f839 7fbe d730 253d
000001c0: 1c9f 37be 040e 013e 4510 253e 5bae 623c
000001d0: 0275 9a3c 2046 a23d de69 963d adab a63d
000001e0: b3ff 55be 0d99 a9bd 8894 0a3e c408 0f3b
000001f0: 67f8 50bd 5856 b43d fa2e f23c c55e 17bd
00000200: fae8 97bd 4090 e8bd d87d f33d bc39 f43b
00000210: ee86 383e 1576 3b3e ec15 c43d 4b8b 033e
00000220: 180c f5bc 37ce 733a cd0b b9bd 9192 823b
00000230: c248 c03d 4b27 543e abf6 46bd 4da5 5a3e
00000240: 0e41 46be d4fd 97bd 832f 583c 52d0 4cbc
00000250: 6bd7 063d f010 1ebe cd2c a2bd 2d4b b53d
00000260: 7efc 4abd 692a 513d 4d71 3fbd 35f5 183e
00000270: 95f5 7abc e42a 183e 4882 8c3d 03c5 adbd
00000280: 1793 663e 492c fbbd 35f7 97bc 69db 46be
00000290: fa84 563e c89e 803d 7b2e a639 b599 25be
000002a0: 5a74 c5bd 2bc1 0dbe 7c7f 41be de81 81bd
000002b0: fbbb 09be 0edd d4bc 78f7 33be b5f7 203e
000002c0: ebd4 64bd 4e8e 2e3e b106 6cbe 90a3 0e3e
000002d0: 5910 e3bd 7898 13be b8fd a8bd bf16 aebd
000002e0: ea40 28bc fe54 59be 2fef 0ebe cd63 f0bd
000002f0: 9bcd afbd ab08 0e3e a78c e0bd 985f c73d
00000300: d6a7 05be 6b01 4ebd 6f1a 4c3e 2402 03be
00000310: 1b4d 583e 2260 2dbb 8e32 ba3d d73b 9bbb
00000320: 2154 20bd d177 843d 1cbf 0dbb 3361 71bc
00000330: b6a5 cb3d 5585 14bd 6543 303d 6a5a 02be
00000340: 2fad 8ebc 4304 1f3e f591 44be ecda e43c
00000350: 4b5c 473e ed71 d2bd 7f5e 20be 008e 503e
00000360: 9515 c43d 1dec dbbd 4c06 e63c 1ade c23d
00000370: 5523 b4bd 7651 8a3d c238 6f3e 3a33 67be
00000380: dbf8 2ebe e8b6 17be 1587 ccbd 6dd5 5fbc
00000390: fad1 323d a586 94bd f812 2dbe b3d0 8e3d
000003a0: 6b80 363e c927 0f3e a878 c43c 5e94 48be
000003b0: 85ff 03be e685 963d fe30 c3bc bb05 ecbd
000003c0: 1a6c cc3d ba7c 54bd 183c 1c3d 2872 6f3d
000003d0: cee4 c8bd e086 403e adaa 553e e072 05be
000003e0: d036 2c3e c242 a8bd c755 61bd 88fb acbd
000003f0: 2683 8c3c 1c71 263e a5d4 e73d 3e41 77be
0.033718098 0.04578451 -0.001787118 0.13891447 -0.17278993 0.12844026 -0.053222235 -0.035537917
-0.12143228 -0.018420784 -0.096630506 0.025493974 -0.018525168 -0.033461306 -0.22807091 0.11200046
0.037068866 0.033660967 0.23533556 -0.1109357 -0.0096616475 0.21762791 -0.19165331 0.14138953
-0.09935925 -0.012746647 0.20539252 -0.020221276 0.044696543 0.08073535 -0.1449396 -0.0762993
-0.019619701 0.0189633 -0.016021283 0.051902972 -0.1394849 -0.045108948 0.11342397 0.075280406
0.12348572 0.060774054 -0.11876178 -0.06384954 0.26704934 0.015306937 -0.26704264 0.06065285
-0.28613943 -0.17016551 -0.052571688 -0.12843122 -0.1748842 -0.15930225 0.18898891 -0.088437594
0.040520366 0.11533969 0.045918528 0.047561623 0.2642648 0.044880256 -0.054040488 0.006607059
0.19673382 0.08651843 -0.2882892 -0.026984097 0.17629962 0.00035634704 0.15447585 -0.052380793
0.14690986 0.13186587 0.20229666 0.14454278 0.12828106 -0.22249876 0.15725955 -0.06490843
0.1669029 0.11253008 -0.0026581862 0.08707088 -0.067127496 -0.12062246 -0.1512171 0.087409616
-0.07520754 0.0700912 -0.1322886 -0.032579083 -0.048624422 -0.027320659 0.12382007 0.08401772
0.19629516 -0.14980246 -0.033113927 -0.1912251 -0.15571223 -0.18067026 0.14663924 0.069211505
-0.21347535 0.054971416 0.07782745 0.09967792 0.25996938 -0.15348205 -0.24924457 0.04032978
-0.17931789 0.12603003 0.16119488 0.013835515 0.018854622 0.079235315 0.07344411 0.08138213
-0.20898323 -0.08281145 0.13533223 0.0021825293 -0.051018145 0.08805531 0.029563416 -0.036955614
-0.07417484 -0.113556385 0.11889237 0.0074531715 0.18020222 0.18306763 0.09574494 0.12846105
-0.029912993 0.0009300443 -0.09035454 0.0039847572 0.093888775 0.20718114 -0.048575085 0.2135212
-0.19360754 -0.07421461 0.013194921 -0.012500839 0.032920282 -0.15436149 -0.07918701 0.08852229
-0.0495572 0.051065836 -0.04673891 0.14937289 -0.01531734 0.14860111 0.06860787 -0.08484843
0.22517048 -0.12264306 -0.018550495 -0.19419636 0.20949164 0.06280285 0.00031696618 -0.16171916
-0.09641333 -0.13843219 -0.18896288 -0.06323598 -0.13450615 -0.025984313 -0.1757487 0.15719493
-0.055867117 0.17046472 -0.23049428 0.13929582 -0.110871024 -0.14413631 -0.08251518 -0.08500432
-0.010269383 -0.21223828 -0.13958429 -0.117377855 -0.08584138 0.13870494 -0.10964327 0.0973503
-0.13052306 -0.05029432 0.19931959 -0.12793785 0.21123163 -0.0026455005 0.09091674 -0.004737358
-0.03914273 0.06468166 -0.0021628803 -0.014732647 0.09943716 -0.036259968 0.043033022 -0.12729803
-0.017416565 0.1552897 -0.19196303 0.027936421 0.194688 -0.10275636 -0.15661047 0.20366669
0.09574429 -0.107383944 0.028079174 0.09515019 -0.087958016 0.06753819 0.23361495 -0.22578135
-0.17087118 -0.14815867 -0.09986702 -0.0136617245 0.04365728 -0.07252244 -0.16901767 0.069734
0.17822425 0.1398002 0.023983315 -0.19587848 -0.12890442 0.07349758 -0.023827072 -0.115245305
0.09981556 -0.05187676 0.038143247 0.058458477 -0.09809266 0.1880145 0.20865889 -0.13032103
0.16817784 -0.08215858 -0.055013444 -0.08446413 0.01715238 0.16254085 0.113198556 -0.24145982

encoder.layers.0.self_attn.in_proj_bias f4 [96]
00000000: 60c9 42bc de31 a3bd e3e2 c83d be68 b4bd
00000010: 0e58 b5bd 168f 7c3d 7940 aa3c 616d cb3d
00000020: 8c4d c7bd c8d6 c2bd 4d05 bc3d fb9a b6bd
00000030: 32a9 b83d c91e e3bd 67e1 9cbd 87b5 b1bd
00000040: b571 30bc 588b 81be 7cd5 703e be77 e6bd
00000050: 8a53 723e 465f 773e 0bb5 53be bb04 4e3e
00000060: 7c41 17be 23c3 73be 052b 20be 6bf7 1b3e
00000070: f604 e9bd 2098 58be add1 633e 6dab 083d
00000080: d746 ce37 d462 0936 716d fd37 5ec8 4038
00000090: 1c5f bb36 4a90 2fb7 5554 2437 4ca4 62b8
000000a0: fd1f 59b7 e55b d337 c4e0 d934 b907 0036
000000b0: 084f 02b7 ea80 4336 90e2 ec36 8936 0338
000000c0: 2b8d c837 adba 4d38 c0de 3538 82f7 6f36
000000d0: f9d7 89b8 83a1 cfb6 bb34 04b8 1100 2db8
000000e0: 4660 2038 1f21 e938 056d 6438 d64b e4b6
000000f0: d0f4 91b8 2326 1437 436c acb8 c437 0b38
00000100: 679b 94bc 2bd8 633b 9933 f6bb 0162 47ba
00000110: 5b27 efbc 7150 f83b 2627 5c3c de5f cbb8
00000120: 3971 21bd 3e72 263c 9163 10bc a060 30bc
00000130: ef22 fc3c 0c3f 99bc 572f 123d 7347 43bc
00000140: e1f1 cb3c c43b a13b f304 0fbc 5cbd 35bc
00000150: 2f48 1d3d afc8 793c accb eabb ee41 0ebc
00000160: 4032 393c 9590 3bbc 3bd2 68bb 58c7 f93a
00000170: 351a 22bc b953 c03c 39d4 2b3c 27f6 743a
-0.011888832 -0.07968496 0.098089 -0.088090405 -0.08854686 0.061659895 0.020782696 0.09932972
-0.09731588 -0.095136225 0.091806985 -0.08916279 0.090166464 -0.11089856 -0.076601796 -0.08677202
-0.010769297 -0.25301623 0.23518938 -0.11253308 0.2366468 0.24157438 -0.20674531 0.20118992
-0.14771074 -0.23804908 -0.1564141 0.15231101 -0.11377899 -0.21151781 0.22247954 0.03336661
2.4590101e-05 2.0472116e-06 3.0210913e-05 4.5962974e-05 5.5841065e-06 -1.0464408e-05 9.794797e-06 -5.4035612e-05
-1.2941656e-05 2.5195952e-05 4.0582938e-07 1.9077982e-06 -7.767005e-06 2.9132302e-06 7.0597234e-06 3.1283624e-05
2.3907594e-05 4.9049664e-05 4.3361215e-05 3.5757844e-06 -6.572897e-05 -6.187883e-06 -3.152036e-05 -4.1246476e-05
3.8236634e-05 0.00011116475 5.446097e-05 -6.803758e-06 -6.959739e-05 8.830367e-06 -8.2217644e-05 3.319212e-05
-0.018140508 0.0034766297 -0.007513475 -0.0007605851 -0.02919357 0.0075779487 0.013437068 -9.697651e-05
-0.03941462 0.010159073 -0.008812801 -0.010765225 0.030778376 -0.01870682 0.035689678 -0.01191889
0.02489561 0.0049204547 -0.008729207 -0.01109251 0.038398918 0.015245601 -0.007165393 -0.008682711
0.011303484 -0.011448045 -0.0035525698 0.0019056601 -0.009893944 0.023477422 0.01048761 0.0009344541

encoder.layers.0.self_attn.out_proj.weight f4 [32, 32]
00000000: 0ed7 0a3e 64d4 5f3d c6ae 2ebd cef2 703d
00000010: 8200 5c3d 353e 663d 87c0 303d a680 dc3b
00000020: 6891 a03d 98e9 bfbd 1018 49be 90c2 d43c
00000030: 6eea 17be b6f0 1dbe 23b9 df3b 1603 01bd
00000040: 1e83 033d 86e1 343d 857d 5d3c b68e e23d
00000050: 2ba7 9cbd b135 ed3d 8a2c c93b 2de5 f9bd
00000060: 436f dbbd 9081 31ba da10 bb3c 0a0c c2bd
00000070: fc73 203e 7d2c 083e 13d6 893d 4b18 bebd
00000080: d502 02be ed31 ccbc c046 243d ac81 0ebe
00000090: daf5 2d3d 8cfe 69bb 52f8 ce3d 68d7 10be
000000a0: 0833 1fbd aeb5 b3bd a31b 383d 061d 0b3e
000000b0: 79dd 163c be14 2bbd fbdc 8e3d ff8c c73d
000000c0: a1a3 ebbc f19e 273d 5dab 1a3e a9f8 bebc
000000d0: c4c7 2c3e f5ec 143e 71e3 3d3d 1e94 1dbd
000000e0: 53ac 2a3e 1a87 a53d d216 0dbe 87be a3bc
000000f0: 46e3 77bd 7c2f 86bd 2e2a dfbb ee1f eb3d
00000100: e7e6 5dbd 734d af3d 5517 12be 01a3 f2bd
00000110: 5001 b5bc 0187 bf3d 9a4e df3d 0877 3ebd
00000120: 67ec 973d ea01 e5bd 089a da3d 11b0 00be
00000130: 9428 9abd 4bfb a03c 26a1 963d 7d89 9fbd
00000140: fe52 d23d d739 1bbe 9649 203e 4626 2a3d
00000150: a82b 113e 11b0 09bd c57b fcba e47e 993d
00000160: 5c9f 623d b5db 8cbd a5f0 c63d d16f b63d
00000170: 4338 1bbe 6f47 13be e648 2d3d 84fa 0abd
00000180: 23d6 88bc 1302 fbbc a516 9fbc 37c5 7fbd
00000190: 04aa 113e fc94 443d ab8f 433d 2b0f bdbc
000001a0: 062a bbbb d954 9fbd 9668 033d 39a7 3f3e
000001b0: 4d6a 92bd 1a41 9f3d 9d17 1cbe fb0f 0fbc
000001c0: 1230 663b 1951 14be 9853 f7bd e2e8 393d
000001d0: 094a fb3d f52b 94bd 8f42 d4bd eab7 05be
000001e0: e107 21be 9937 a63c 0dd7 d63d 34f5 cebd
000001f0: 81e9 bdbd 6d87 f23d 170a 47bd ed01 98bd
00000200: 4645 3c3c dadc 253d 9338 cdbd d233 253e
00000210: e1a9 543d 08c1 b93d e0c7 6cbb 60af 543d
00000220: a389 eabb 7624 c23d 7bf7 35bd b1ed dc3d
00000230: 54c4 f0bd 520c c7bb 284d ea3b 1afc 043e
00000240: f642 dbbd 4a22 f33b b867 973b 3f50 143e
00000250: e37d a0bd caf9 953d 220d 8dbb f312 83bd
00000260: 1786 213e 7737 ec3d 78d5 c83d baf6 c73d
00000270: 2a7a 433c 31ab ee3c 53e8 b13d a381 72bd
00000280: 6c00 ffbc 1f7a fdbd 59ab 343d 530e a53c
00000290: 479e 203c 7490 a63b 621c 31be 8f0d 8bbd
000002a0: f49d e33c d612 553d 8ca0 d53d d932 753d
000002b0: 788b 1bbe e476 27bd 0dd2 343a 0ec1 203d
000002c0: e94a e33d 7419 a23d ea20 01be 4c8c 47bd
000002d0: fbb6 a83d 8092 c0bd d5e9 38bd 810e 063d
000002e0: cf83 833d e258 033e ce6b 713c dd42 38bd
000002f0: b420 e43c 7931 f33d 0eb6 6a3d a122 2e3d
00000300: a1f0 463b 1dbb 113e 87e8 3c3d bb75 7bbd
00000310: 5242 2dbe 61ce 223e c6bb 803d f771 083e
00000320: 78bc 283d 2d9f 863d bca4 f63d 432f 133d
00000330: 94a7 443c 7b5e bb3d 0c77 28bd 840a 2c3e
00000340: 9dec 6fbc 0364 f2bd f177 80bd 2540 8cbc
00000350: 2ccc 663d e290 853d a89f a93d 987d 89bd
00000360: b50e 2b3e a5c7 973d 62ca 94bd 8598 473e
00000370: ceab 73bd bb1b 693d 8641 e93d 5e33 dabd
00000380: 1401 5fbc f5f3 8a3d ad20 50bd b3c2 f93d
00000390: d3fe bf3d 11c5 d0bd 7759 97bd 7f3b fabd
000003a0: f14a b5bd 8251 6bbd db58 9d3d 0bf6 1d3e
000003b0: 2a90 d93d f176 b13d d045 a63c 8b30 b83d
000003c0: 96ed 27be 2264 3e3e f265 5abd 1dc5 983d
000003d0: a4e8 9c3d 3ea4 bb3d d05d 4c3d a0bb 013e
000003e0: 4dfc 88bb ca09 07bd 9404 f8bd 8be0 d1bd
000003f0: 71dc 853d 7660 413d b900 e23d af0c 133e
0.135586 0.05464591 -0.042647146 0.058825307 0.05371142 0.05621167 0.04315236 0.0067292033
0.07840234 -0.09370726 -0.19638085 0.02597168 -0.14835522 -0.15423855 0.00682749 -0.031497084
0.032107465 0.04416039 0.013518696 0.11062376 -0.07649072 0.115825064 0.0061393427 -0.12201915
-0.10714581 -0.00067713205 0.022835184 -0.094749525 0.15669245 0.13298221 0.067302845 -0.09281977
-0.12696393 -0.02492615 0.040106535 -0.13916653 0.04247079 -0.00357047 0.10105957 -0.14144671
-0.038867027 -0.08774887 0.04494823 0.1358529 0.009208077 -0.04176783 0.069757424 0.0974369
-0.028764548 0.040923063 0.15104432 -0.02331193 0.1687308 0.14543517 0.046359483 -0.038471334
0.16667299 0.08082409 -0.13778237 -0.019988311 -0.06051948 -0.06552026 -0.006810448 0.114806995
-0.054175284 0.08559694 -0.14266713 -0.11847497 -0.022095352 0.09351922 0.10903664 -0.046500236
0.07418137 -0.11182006 0.106739104 -0.12567164 -0.07527271 0.019651076 0.073549554 -0.07789896
0.10269736 -0.15158783 0.15653071 0.041540407 0.1417681 -0.033615176 -0.001926296 0.074949056
0.05532776 -0.06877843 0.09713868 0.08908046 -0.15158181 -0.14382719 0.04230585 -0.033930317
-0.01670367 -0.030640638 -0.019419977 -0.062443938 0.14225012 0.047993645 0.047744434 -0.023078522
-0.0057117967 -0.07779855 0.032082163 0.18716134 -0.071491815 0.07776089 -0.15243383 -0.008731837
0.0035123867 -0.14484061 -0.12076491 0.04538811 0.122699805 -0.07234947 -0.103642575 -0.13058439
-0.15725662 0.020290183 0.104902364 -0.101053625 -0.09273053 0.11842237 -0.048593607 -0.07422242
0.011491125 0.040493824 -0.10020556 0.16133049 0.05191982 0.09070021 -0.0036129877 0.051925063
-0.007157521 0.094796106 -0.04442547 0.107875235 -0.117561966 -0.0060744667 0.007150311 0.12986794
-0.10706131 0.007419859 0.0046205185 0.14483736 -0.07836511 0.07323034 -0.004304544 -0.06400099
0.15773807 0.115340166 0.09806341 0.09763856 0.011930982 0.029134365 0.086868905 -0.059205662
-0.03112813 -0.123768084 0.044108722 0.020148432 0.009803361 0.005083138 -0.17295983 -0.067896955
0.027785279 0.052019916 0.104310125 0.059862945 -0.15189922 -0.040884867 0.0006897755 0.03924661
0.11098272 0.07915011 -0.12610212 -0.048717782 0.08238026 -0.09402943 -0.045144875 0.032728676
0.06421625 0.12826875 0.014735175 -0.04498564 0.027847625 0.118746705 0.057302527 0.042513493
0.0030355828 0.14231534 0.046120193 -0.061391573 -0.1691983 0.1589904 0.06285815 0.13324724
0.041195363 0.06573329 0.12043139 0.035933744 0.012002844 0.0914888 -0.041129157 0.16800886
-0.014643815 -0.11835482 -0.06272877 -0.01712043 0.056347057 0.06521775 0.08282405 -0.06713408
0.16704829 0.07411126 -0.07265164 0.19491775 -0.059490018 0.05691121 0.11389451 -0.10654329
-0.013611097 0.06784812 -0.050812412 0.12195339 0.09374776 -0.101938374 -0.07390111 -0.12218379
-0.088521846 -0.05745078 0.076829635 0.15425889 0.106232 0.086652644 0.020296961 0.08993634
-0.16399226 0.18592885 -0.05331988 0.074594714 0.0766156 0.09162186 0.049894154 0.1266923
-0.004180467 -0.03296832 -0.12110248 -0.10247906 0.065361865 0.047211133 0.11035294 0.14360307

encoder.layers.0.self_attn.out_proj.bias f4 [32]
00000000: 2f44 b7bb 52e3 c83b a522 c93b 0f38 26bc
00000010: 9b77 1a3c e244 7fbc e368 02bb 0811 8d3b
00000020: 13d9 9b3c 32f0 843b edcc b23b 186d 903a
00000030: f95c 69bb 37b1 17bc b99e 3f3c 5208 0dbb
00000040: a454 9039 8642 8c3c 67ca 9f3b 8f12 eb3b
00000050: 1179 4c3c 558e 7f3c 8cd2 213d 1ef4 05bc
00000060: 3369 a2bc a333 fbbb c87b 8e3b 161c 643c
00000070: 0711 98bc c06a b4bc 4242 5d3c 7db3 e2bc
-0.005592845 0.0061306143 0.006138163 -0.010145201 0.00942793 -0.015580388 -0.0019898943 0.004305009
0.019024407 0.004056954 0.005456558 0.0011018841 -0.0035608395 -0.00925856 0.011695557 -0.0021519852
0.00027528882 0.017121565 0.004876423 0.007173843 0.012480036 0.015597899 0.039507434 -0.008175878
-0.019825554 -0.0076660677 0.004348252 0.013922712 -0.018562807 -0.022023559 0.013504567 -0.027673477

encoder.layers.0.linear1.weight f4 [128, 32]
00000000: ee14 353d 9fc9 ff3d 666d 283b f1dc 91bd
00000010: 6414 023e ebbf bb3d 7816 ca3d 2b78 24be
00000020: fef3 15be 9408 173d 174a 0abd 5bcb 1a3e
00000030: 851e 49bc d9e8 dcbd f2e8 04be 6c73 0a3e
00000040: a254 b73c 9e7a c7bc 8f94 3b3e c943 88bc
00000050: 81f7 ec3d 81bc e6bd c393 c1bd 962c dd3d
00000060: d1b6 433e 1c33 013e 53d9 503d 7bea 2d3e
00000070: 8c48 07be 347e 8a3c 84c8 c2bd 7d17 a63d
00000080: 10ca 563d 3a76 e0bd 7193 b63d c973 0bbe
00000090: 4c10 f9bd feba eabd a2c7 f43d 579e 85bd
000000a0: dfaf d93d feee e93d 114a f23a 413f c0bc
000000b0: 2c5e 1abe 9a66 553d c19e b9bd 01e1 f8bd
000000c0: afe8 963d 76b2 f73d 9b8a dbbd bed9 ca3d
000000d0: 08fe 0d3e 3bae 40bc 817c 16be ec0f 953c
000000e0: 5288 90bd 8ccb d73d 9831 10be d7e0 903d
000000f0: 42c2 6bbc 6a8e 7cbd a6a1 f33d 933e 333e
00000100: b1f3 c23d b3a6 e0bd 4341 bb3d 97b6 7f3c
00000110: ac56 c1bc 5043 a43d 3d75 d4bd 99b1 4c3e
00000120: 697a 983d b87d 91bd 694c b0bd 4a9e 10bd
00000130: 1442 98bd 665e 1a3d c11b 573d 3b6e 9cbd
00000140: 0685 943d 1604 323e 3be1 d73c 258c 67be
00000150: fee4 08be a197 cebb 3bfa 08be 3872 0cbe
00000160: 4bbe 823d 2923 893d 1489 313e d134 eb3d
00000170: 1cfa 343e b953 c83d 1324 debd f742 e23d
00000180: 0a57 25bd 2174 a0bd 383a bc3d 44dc 7e3c
00000190: 327d 91bc 249c 01bd 34c6 223e 2b72 8b3b
000001a0: 6e63 a7bd 75dc a5bd 0be7 4a3e 9e57 32bd
000001b0: 0f3f 23be b194 283d 6331 9a3d 437f 4c3e
000001c0: 97ca fbbc d692 a23d d1df 83bc a974 08bc
000001d0: 373b 973d 37ee 973d 8b7a b7bd fb41 b03d
000001e0: 49a1 42bb ded9 d83c 5de2 cf3c 52b0 303e
000001f0: 47e4 e2bd ee08 7c3d 4f85 a33d 9237 6f3b
00000200: 20ad 11bd 22aa 91bd 8e31 2e3d 8da0 b63c
00000210: 33a6 783d 55cb 653d a7c1 023e abb3 5d3c
00000220: d4e5 033d 1620 75bd 6cfa 92bd e7a3 893d
00000230: 257a 0e3e a8fa 21be 2ca4 82bd 1e6a cdbc
00000240: ea49 2abe 434b 1a3e 4ecf d5bd b675 babc
00000250: 21b5 c7bd c3f7 55be 83d9 7ebd 7638 9e3c
00000260: d8ee 133d 3e0f 53bd 75eb 14bd a626 853d
00000270: 7e07 0c3e 3438 c03d 2ab3 f03c d3fe b83c
00000280: b51d fbbd f894 21be 62a2 9fbd a8bc d83c
00000290: 22ca 113e c400 e13d d7be edbd 9f14 ef3d
000002a0: 8949 d0bc 9dd1 34be 915f 0dbe cdc1 ce3b
000002b0: 3e6e 023e 32f4 11be b5da 3cbd 22b4 023e
000002c0: fff1 efbc 1db0 25be 1e4e b23c 0742 333d
000002d0: ac29 f73d 7419 6b3c c238 15be ae72 91bd
000002e0: 97f4 0f3e 800e fe3d 6b37 69bd 1771 273e
000002f0: 9b36 e43d a61f 683d 7a4e 7a3c 58c9 05be
00000300: a7df b3bd 0487 3c3d 949f ba3d 07ff eebd
00000310: 61cd 91bc 480e 273e 5684 41bd 4901 a4bd
00000320: e795 bb3c 4475 bbbd 9f35 0f3d c21c 81bc
00000330: 34fb 103e fd22 c63d 510d d73d 7af4 123e
00000340: 3752 2d3e 31a9 0dbe ef6e 373d 1050 2cbe
00000350: 02cb fd3d 33b9 a83d fbbf 893d 53e6 2c3d
00000360: 5a24 2ebe 69ca 213e 0b81 08be f1e1 5b3e
00000370: b5a5 a1bd 901b 283e a616 9f3b 786b c3bd
00000380: 1f61 fc3c fa18 a1bd 19df 273e 8320 a33d
00000390: cea5 ce3c 7b11 663d dfa8 87bd 1fed 4a3c
000003a0: a5fc 9b3b 35f3 5bbe bf11 2ebd 9d7c 56be
000003b0: 82b9 723e 77ad 003c 0576 e43d 683f 173e
000003c0: a892 a53d 0b46 48be a6ec 89bd b9e6 323e
000003d0: 4e4b 103e 2f96 60bc fbbe 353d be69 113e
000003e0: 67bf f9bd 9ba5 de3d 7227 c4bd fd72 03be
000003f0: a535 943d fb38 cbbd 5d5b 81bc 50f5 1f3e
0.044209413 0.12489628 0.0025699972 -0.07122219 0.12703091 0.09167465 0.09867567 -0.16061465
-0.14643857 0.036873415 -0.033762064 0.15116636 -0.012275343 -0.107866 -0.12979487 0.13520592
0.022379223 -0.02435046 0.1831839 -0.016633885 0.11570645 -0.11266423 -0.094520114 0.1079952
0.19112708 0.12617153 0.050988507 0.16983978 -0.13211268 0.016905881 -0.095109016 0.08109949
0.052438796 -0.1096005 0.08914841 -0.13618387 -0.121613115 -0.11461447 0.119521394 -0.065243416
0.10629248 0.11422537 0.0018485208 -0.023467662 -0.15074986 0.0520998 -0.09063483 -0.12152291
0.073685996 0.120945856 -0.10719796 0.09904812 0.13866436 -0.01176029 -0.14695932 0.018196069
-0.07057251 0.1053687 -0.14081419 0.07074135 -0.014389576 -0.061659254 0.11896066 0.17504339
0.09519137 -0.10969295 0.09143307 0.015607498 -0.023600899 0.08020651 -0.10373924 0.19989623
0.07445223 -0.07104057 -0.08608324 -0.035307206 -0.074344784 0.03768768 0.052516703 -0.07638212
0.07251935 0.17384371 0.026352515 -0.22612055 -0.13368604 -0.0063046967 -0.13376705 -0.13715446
0.06383952 0.066961594 0.17337447 0.11484683 0.17673534 0.09781594 -0.10846724 0.11047929
-0.04036621 -0.0783465 0.09190792 0.015555445 -0.017759893 -0.031643048 0.15895921 0.0042555532
-0.081732616 -0.080986895 0.19814698 -0.04354059 -0.15942024 0.04115743 0.07528951 0.19970421
-0.03073625 0.07938163 -0.016097935 -0.008328595 0.07384341 0.07418483 -0.0895892 0.08606335
-0.0029698184 0.026471075 0.025376493 0.17254761 -0.11078697 0.061531954 0.07984411 0.0036501628
-0.035565495 -0.071125284 0.042527728 0.022293353 0.060705375 0.056102116 0.12769185 0.013531606
0.032201603 -0.059845053 -0.071766704 0.06720715 0.13913782 -0.15818274 -0.063789696 -0.025075015
-0.16629758 0.15067773 -0.10439931 -0.022761207 -0.097513445 -0.20895295 -0.062219154 0.019314032
0.03611645 -0.051528208 -0.03635736 0.06501512 0.13674733 0.0938572 0.029382307 0.022582447
-0.122615255 -0.15779483 -0.07794644 0.026457146 0.14237264 0.10986474 -0.116086654 0.11673855
-0.02542569 -0.17658086 -0.13805987 0.006309724 0.12737367 -0.1425331 -0.046107013 0.12764028
-0.029290197 -0.16180463 0.021765765 0.04376414 0.12068495 0.01434933 -0.14572433 -0.071019515
0.14058147 0.124051094 -0.056937616 0.16351734 0.11143228 0.056670807 0.015277499 -0.13065088
-0.08782893 0.0460272 0.09112468 -0.11669736 -0.017798128 0.16314042 -0.047245346 -0.080080576
0.022898627 -0.09153226 0.034963246 -0.015760783 0.14158326 0.09674642 0.10500587 0.14351073
0.16925894 -0.13834073 0.04478353 -0.16827416 0.12392236 0.08238449 0.067260705 0.04221184
-0.17006055 0.1579987 -0.13330476 0.21472909 -0.07892934 0.16416764 0.004854995 -0.095419824
0.03080803 -0.07866092 0.16393699 0.079651855 0.025225546 0.056169014 -0.066240065 0.012385636
0.004760342 -0.21479495 -0.042497393 -0.20945974 0.23703578 0.007853857 0.11155323 0.14770281
0.08084613 -0.1955797 -0.0673459 0.17470826 0.14091226 -0.013707682 0.044371586 0.14200494
-0.1219471 0.108714305 -0.09577836 -0.12836833 0.072367944 -0.099229775 -0.015790636 0.15620923

encoder.layers.0.linear1.bias f4 [128]
00000000: 5588 ec3c 61da 55bd 4a98 7abd 7752 a83d
00000010: 72bb de3d 0f72 6c3d 7548 16be 693a 36be
00000020: 594b ffbd 407e 24be ca6b dc3d cac3 293d
00000030: d747 8b3a ea4c cc3d 6ead cdbd 3c5b 0abe
00000040: 9d27 913d ccec cdbd 44f4 ab3d 2ea5 01be
00000050: f910 13be 73cd 4abe 937f 05be e5c6 d03c
00000060: f9a9 293d 36e2 b1bd 9ea4 1e3d c244 bdbd
00000070: a458 943d 050a 0a3d c2f9 d3bd ce35 b53d
00000080: 5fa4 823d c9a1 823d 6b63 fd3d 1d48 bc3d
00000090: 25aa 07be ba6e 27be 6d21 c0bd e167 df3c
000000a0: a03d c4bd 5014 1c3b 2e26 98bc e655 a13b
000000b0: 0092 c9bc d8e1 df3c 8e63 6ebd 499c 0dbe
000000c0: f7c6 af3d 003a d43d 5dd0 f2bc 1e27 fabd
000000d0: ab25 ec3c e211 273b cff7 9e3d 8474 67bc
000000e0: a6ea d93d 4f5b da3d 554b 9fbd d1a1 33bd
000000f0: 2eb3 63bc ab4f c7bd 28cf 1c3d 22a6 e43d
00000100: 266b 053e 4029 c5bc efa5 813c faa5 7bbc
00000110: 62b4 ed3c 2a1d 63bd bf09 45bd 4091 02bc
00000120: 440a 853d 0c3a 78be e6d3 173d a828 863b
00000130: addb 9e3d 930e 493d d926 abbd dac6 cebc
00000140: af13 66bc b3ab 833d b645 57be 0394 8ebd
00000150: 0a61 a03d 0d80 8e3d 22ca 073d 1bad d2bd
00000160: e3d1 e9bd 333b 3bbe 6c42 3abe 2c20 923d
00000170: fa71 4f3d e9a3 74bd 8a90 62be fd7a 38be
00000180: 62b1 13be e58b 83bd 8435 45be d2a5 f1bd
00000190: 21fa 0abe a261 5c3b 46bd 6f3c 2541 113e
000001a0: 162a db3d d429 d13d caae 96bd 4104 073d
000001b0: b557 35be b214 cbbc 9c33 16be 794d f23d
000001c0: 35bf d9bd 3b19 96bd 72b5 813d 3f19 243c
000001d0: 86be 70bd 4477 553b e2a3 15be 6e86 6f3c
000001e0: 2c73 80bd 533b 11bc 113f d6bd e062 01be
000001f0: 05e2 86bd 0600 41bd 7aa6 a6bd 8959 2abe
0.028873602 -0.052210215 -0.06118039 0.08218854 0.10875596 0.057725962 -0.14676078 -0.17795719
-0.12465543 -0.16063786 0.10762747 0.041446485 0.0010626268 0.09975608 -0.10042845 -0.13511366
0.07087634 -0.10054931 0.08396199 -0.12660667 -0.14361943 -0.19804935 -0.13036947 0.025485465
0.041421864 -0.086857244 0.03873121 -0.0924163 0.07243469 0.03370096 -0.10350372 0.08848153
0.063790075 0.06378514 0.12372478 0.09193442 -0.13248499 -0.16350833 -0.093813755 0.027271213
-0.095820665 0.0023815818 -0.018572893 0.00492357 -0.024605751 0.02732937 -0.05820041 -0.1382915
0.085828714 0.10362625 -0.029640371 -0.12214492 0.028826555 0.0025492837 0.077621095 -0.014126901
0.10640459 0.10661947 -0.0777804 -0.043855492 -0.0138977 -0.09731992 0.038283497 0.111645
0.13029155 -0.024067521 0.015826194 -0.015359396 0.029016677 -0.055447735 -0.048104998 -0.007969201
0.06496099 -0.24240893 0.037067316 0.004094202 0.077567436 0.049086165 -0.08357019 -0.025241304
-0.014042779 0.064292334 -0.21022686 -0.06961825 0.07831009 0.069580175 0.033151753 -0.102869235
-0.11416986 -0.18284301 -0.181894 0.071350425 0.050645806 -0.05972663 -0.2212545 -0.18015666
-0.14423135 -0.06423167 -0.19258696 -0.11799206 -0.13571979 0.003362753 0.014632529 0.14185007
0.10701387 0.10213056 -0.07357557 0.03296304 -0.17709239 -0.024790142 -0.14668125 0.11831183
-0.10632173 -0.07329031 0.06333436 0.010015785 -0.058775447 0.0032572309 -0.14613298 0.014619453
-0.06271967 -0.008864242 -0.10461248 -0.12635374 -0.065860786 -0.047119163 -0.08137222 -0.16635717

encoder.layers.0.linear2.weight f4 [32, 128]
00000000: e18c 2f3d 327e 893d cbf9 ff3b a20b e83c
00000010: 0275 e73c 2f01 b8bd 9165 c0bc 2765 853d
00000020: a462 e7bc 027b 043d 8ee2 90bc 09db a1bd
00000030: bd7e b9bd 678f afbc 3ee3 e6ba 91de 153d
00000040: 4060 9bbb 9ad8 3bbd b2dd 693d bc15 e63c
00000050: 2c55 c4bd 99a0 54bd cab0 75bd cdca 023d
00000060: 814f 3abc 4e5d 4a3d e969 9cbc 1e48 01bd
00000070: 3afb 963c f35e 063d 1279 043c 4f24 323d
00000080: e8ce 083d 7d40 853c 1e1d 733d beac d73c
00000090: bfaa 183d 867d 2e3d 2eae 76bd 8fa5 723c
000000a0: d5a0 3ebd ceec 713d a91d 58bc b85f 7fbd
000000b0: 9cf0 b43d 3452 89bc fd51 1abc 23a4 3a3d
000000c0: cce7 8c3b f14a 6cbd 29ff 03be 670a 6bbd
000000d0: 8e67 f93c f92c d1bd c205 87bc f47b 213d
000000e0: 3679 4ebd 114a c0bc cbb5 153d 42f2 9f3d
000000f0: 93af ad3b f1e5 27bd 9624 dabd e0ff db3b
00000100: 716a c63d 2c4f a73d 92ed 08bd 2e27 7d3c
00000110: 84ef aabd 03de 48bd b9b3 21bd 3142 02bb
00000120: 9e96 293d 54b8 4fbc 1797 753d 7475 193c
00000130: af1d 56bd f70f 063e b1ec 9c3d 5faa 393d
00000140: 9238 1fbd 8e43 e5bc d734 f6bc 55ab 8a3c
00000150: 4dfb b8bd ede4 ad3d ac59 083d 89d6 95bd
00000160: e171 2abb de58 b23c d367 e13c 234e 273d
00000170: 6235 11bd 06bb bd3d ebb4 5dba 7440 9d3c
00000180: c5c9 bebb 36c7 c03b 16f7 293c 10f8 953d
00000190: bcda ac3c 2dd5 7f3c d4a1 be3d 46cf 7c3d
000001a0: 4456 873c c57f db3c 283f 8d3d b1a6 a0bd
000001b0: efcf 453c 3755 143e c1df 8c3d de85 8abd
000001c0: db52 b03d c3c8 ad3c 0bb8 febd 31b1 3f3d
000001d0: 1460 88bb c7af 803d 9c39 2abd 3b94 3d3d
000001e0: ba4d 973d af24 0cbd 5078 343c df52 143d
000001f0: b7e5 5fbc 66ae 1c3e 2649 2e3d 52b1 1cbb
00000200: 664f 713d 51bb af3c 08d3 94bd d746 b33c
00000210: 0d15 92bb 7f05 10bd cfd1 b43d 1743 883c
00000220: 9a8c 003d 40c8 3abd 3f2f 42b8 f72a cabc
00000230: b95d 53bb 6402 123d c9cf acbd 2d82 7d3d
00000240: f0a5 65bc a3a6 c63d 7dc7 3cbd 8f15 a1bd
00000250: 923e 093e b3e7 be3c d617 123d eebb 913d
00000260: 95d4 0c3d 1a91 63bd eac4 323d 141a 07be
00000270: c211 68bd 0bb1 7cbd f9b4 583c 4caa 243d
00000280: 8731 2fbd f9dc 39bd b0db 9dbd 88a5 c0bd
00000290: 8a5d fabb f3ab 08be 2794 563d b700 debc
000002a0: 9dc1 d23c 0272 ad3c 307b 6fbd f074 683b
000002b0: 301b a8bd c561 bdbd 9fd2 fabd baf3 f83c
000002c0: a564 8bbd 499a cb3c f210 87bd ac6f 23bd
000002d0: ea13 153e 50e5 c13d 074c 9abd dfe4 ce3c
000002e0: 2b02 a43c 428e 5cbd 4f1e 153d 6d46 27ba
000002f0: 411c 81bc 0d51 82bd 5cde 883d 2456 9d3c
00000300: 9b04 06be 5e8f 883d 0829 633c 22ba c4bd
00000310: c561 78bb 3617 53bd a977 8d3c 329a 263d
00000320: ca72 1fbc 5b14 48bc a501 783d 2d85 cfbc
00000330: 37af babc 5907 d9bd 8d2b a6bc 394a 063d
00000340: ab72 053e a0b3 d9bd 9561 60bd 4a56 b63d
00000350: e586 c83d 42d1 3cbd 9bb7 bbbb d09c 173e
00000360: d448 3e3d f3f9 fe3c 341c 93bd 160b 253d
00000370: 712d b33b 9193 133d 034a 37be 6102 143c
00000380: d15b c03d 680c 533c e119 3bbc ef41 81bd
00000390: 94a9 b2bd 9cc6 073e 13bf b8bd 6c9c c7bc
000003a0: 1962 803d c38f 913d ae63 823d ed7b b03d
000003b0: be4a 2abd bb16 8d3c bbcd bfbb f591 4bbd
000003c0: 504d 72be 4fe9 093b 3f0d ad3d 1508 b3bc
000003d0: 7f36 4b3d b00f 57bd ac50 eabc b54e 73bd
000003e0: 8dc5 cebc fde4 be3c dfef 4ebc 8036 a53d
000003f0: 0c1e 37bd d11d e6bb b566 833d c268 ccbd
0.042858962 0.06713523 0.00781176 0.02832586 0.028254036 -0.08984601 -0.02348593 0.06513434
-0.028245278 0.032343872 -0.017686155 -0.07903106 -0.090573765 -0.021430684 -0.0017615331 0.03658921
-0.0047416985 -0.045860864 0.05709619 0.028086536 -0.09586558 -0.05191097 -0.059983052 0.031931687
-0.011371494 0.04940539 -0.01909347 -0.031562917 0.018430341 0.032805394 0.008085506 0.043491658
0.033400446 0.016266102 0.05935394 0.026327487 0.03727221 0.042600177 -0.060224704 0.01480998
-0.0465401 0.059063725 -0.013190665 -0.062347144 0.08834955 -0.01676283 -0.009418962 0.04556669
0.0043000933 -0.057688657 -0.12890305 -0.057382967 0.030444887 -0.10213656 -0.016482238 0.03942485
-0.050408565 -0.023472818 0.036550324 0.07809879 0.005300471 -0.040990774 -0.106515095 0.0067138523
0.09688271 0.08169398 -0.03342969 0.015451236 -0.08346465 -0.049039852 -0.039478038 -0.001987588
0.041403405 -0.012678225 0.059958544 0.009366382 -0.052274402 0.13092028 0.07662333 0.045328494
-0.03887231 -0.027986314 -0.030054493 0.0169274 -0.09032307 0.0849093 0.033288643 -0.0731631
-0.0026007819 0.02177089 0.027515328 0.040846 -0.0354513 0.092641875 -0.000845744 0.019195773
-0.0058223926 0.005883123 0.010373851 0.07322705 0.021100394 0.01561479 0.0930821 0.06172111
0.016520627 0.026794324 0.06896812 -0.07844294 0.012073501 0.14485632 0.06878615 -0.067638144
0.086095534 0.021213895 -0.12437447 0.046799842 -0.004161844 0.06283527 -0.041558847 0.04628394
0.07387872 -0.03421467 0.011015013 0.036211845 -0.013665608 0.15300903 0.04255023 -0.0023909402
0.05891361 0.021451624 -0.072668135 0.021884365 -0.004458076 -0.03516149 0.0882908 0.016633553
0.031384088 -0.04560113 -4.6297206e-05 -0.02467869 -0.0032251908 0.03564681 -0.084380694 0.061891723
-0.014016613 0.09699752 -0.046088684 -0.0786544 0.13402775 0.023303842 0.035667263 0.07115923
0.03438242 -0.0555583 0.043644823 -0.13193542 -0.05665756 -0.06169228 0.013226741 0.04020147
-0.042771842 -0.04537675 -0.07707918 -0.094065726 -0.0076405453 -0.13346843 0.052387383 -0.02709995
0.025727088 0.021172527 -0.05846709 0.003547009 -0.082083106 -0.09247164 -0.12247204 0.030389655
-0.06806306 0.024853842 -0.06595029 -0.03990142 0.14558378 0.09467566 -0.07534032 0.025255619
0.020020565 -0.053846605 0.036405858 -0.00063810387 -0.015760543 -0.063631155 0.06683037 0.019206114
-0.13087694 0.0666797 0.013864763 -0.096058145 -0.0037900072 -0.051535808 0.017268972 0.040674396
-0.009731958 -0.012211884 0.060548443 -0.025332058 -0.022788627 -0.105971046 -0.020284439 0.032785628
0.13032024 -0.10629964 -0.05478056 0.08903177 0.09791354 -0.046098 -0.0057286746 0.14805913
0.046456173 0.031125044 -0.07183114 0.040293775 0.0054680635 0.036029402 -0.17899327 0.00903377
0.093925126 0.012881376 -0.011419744 -0.06311404 -0.08723751 0.13259357 -0.090208195 -0.02436658
0.06268711 0.071074985 0.06366669 0.08617387 -0.041575186 0.017222753 -0.0058533824 -0.049699742
-0.23662305 0.0021043604 0.08449792 -0.02185444 0.04961252 -0.052505195 -0.02860292 -0.059401233
-0.025240684 0.02330255 -0.012630432 0.08067036 -0.04470639 -0.0070225974 0.06416074 -0.099809185

encoder.layers.0.linear2.bias f4 [32]
00000000: 981d 72bc 7cd5 803d 1994 6d3d ae71 2f3c
00000010: b1af 35bc e145 97bd 6d48 6e3d 813e 763d
00000020: df20 403d 2bf7 333b 2e81 3bbd 3743 77bd
00000030: c306 a53d dd1d 53bd 56dd abbd 2db1 eebc
00000040: c999 203b 24f0 2cbd 37e4 8e3d 300b 76bd
00000050: fda1 86bc ec47 833d 0ea4 063d faeb d43c
00000060: 2a8d d53a 28f4 aabd 9f19 67bd 0d49 123d
00000070: 6719 393d b1ff 8ebc f31f 78bb 2062 d4bc
-0.0147775635 0.06290719 0.058002565 0.010708256 -0.011089251 -0.07386375 0.05817454 0.060118202
0.04690635 0.0027460556 -0.045777492 -0.060366835 0.0805793 -0.05154215 -0.08391826 -0.029137218
0.0024505726 -0.042221203 0.06977122 -0.060069263 -0.016434664 0.064102024 0.0328713 0.025991429
0.001629268 -0.0834735 -0.05642092 0.035714198 0.04519024 -0.017455908 -0.003786084 -0.025925696

encoder.layers.0.norm1.weight f4 [32]
00000000: f31b 743f 3dd6 843f e232 833f b674 7b3f
00000010: e30b 6d3f 2ca6 853f 09bd 823f 1602 853f
00000020: f68f 733f 5b64 833f fb9c 853f 9741 7b3f
00000030: 9c64 703f 746c 8b3f e5b4 6a3f e45a 7f3f
00000040: 6e61 823f 1699 713f 5fe8 773f ff85 843f
00000050: 50da 803f 88d6 723f 91d2 813f 50d6 833f
00000060: 7175 7b3f 189a 823f a33d 893f 2d09 863f
00000070: b31c 803f 4782 873f 69ac 773f 2dc1 833f
0.9535515 1.037788 1.0249903 0.9822496 0.9259626 1.0441337 1.0213939 1.0391262
0.9514154 1.0265001 1.0438532 0.9814696 0.9390352 1.0892472 0.91682273 0.99748063
1.0185983 0.94374216 0.96838945 1.0353392 1.0066624 0.948586 1.0142385 1.0299778
0.98226076 1.0203276 1.0721935 1.047155 1.0008758 1.0586632 0.9674745 1.0293328
