models/Proposed/antikaon.pt (torch, 167647 bytes, 35 tensors)

emb.layers.0.weight f4 [128, 20]
0	0xbc791a9a	-0.015204096
1	0xbd8e4034	-0.069458395
2	0xbb8cdc9d	-0.00429876
3	0xbe60b7b2	-0.21945074
4	0xbd8b5229	-0.0680278
5	0x3de21577	0.1103925
6	0xbdcbce0c	-0.0995141
7	0x3d08c169	0.033387575
8	0x3a876455	0.0010329584
9	0xbdbdcd06	-0.09267621
10	0x3d97798e	0.073962316
11	0xbe684ec1	-0.22686292
12	0xbdfbb428	-0.122902215
13	0x3e1dbc6d	0.1540391
14	0x3e265ff4	0.1624754
15	0xbd5f24be	-0.0544784
16	0x3e408d05	0.18803795
17	0x3dd7ec25	0.10543088
18	0xbc9ecae7	-0.01938386
19	0x3dce6882	0.10078527
20	0x3db5050b	0.088388525
21	0xbe82cf78	-0.2554891
22	0x3de8729b	0.11349984
23	0xbd929c1f	-0.07158684
24	0x3e449d76	0.19200692
25	0x3e0a47dd	0.13503976
26	0xbe4f4280	-0.20240211
27	0x3d7f3a06	0.062311195
28	0x3d80c9a2	0.062884584
29	0x3cc31eac	0.023818336
30	0x3dbeb9b3	0.09312763
31	0x3b8f565c	0.0043743085
32	0xbdfe223e	-0.12408875
33	0xbcbfeef5	-0.023429373
34	0x3e1330b6	0.1437405
35	0x3e127276	0.14301476
36	0xbbfc958c	-0.007708257
37	0x3df4d4cf	0.119546525
38	0xbce45313	-0.027871644
39	0x3e0c130a	0.13679138
40	0xbe5480bb	-0.20752232
41	0xbdc8c9df	-0.09804129
42	0x3eb7c4c1	0.358923
43	0xbd29b398	-0.04143104
44	0xbe3edbb7	-0.18638502
45	0xbe8aafc7	-0.27087232
46	0x3ded9aed	0.116018154
47	0xbe5c416c	-0.21509331
48	0x3e1fb6a3	0.15597014
49	0x3de49544	0.11161283
50	0xbe5ae035	-0.2137459
51	0x3e772d25	0.24138315
52	0x3e65ff8e	0.22460768
53	0x3e70ac07	0.23503123
54	0x3c49ed0a	0.012324581
55	0xbe394c41	-0.18095495
56	0x3e133360	0.14375067
57	0x3c8c0800	0.017093658
58	0x3e0b0be9	0.13578762
59	0x3e3ddb39	0.18540658
60	0xbd1c0295	-0.0380884
61	0x3e55da3d	0.20884033
62	0xbe399a40	-0.18125248
63	0xbe02c2ef	-0.12769674
64	0x3da506de	0.080579504
65	0xbdce3b25	-0.10069875
66	0x3d4e5c97	0.05038127
67	0x3d33c8f8	0.04389283
68	0xbdd52111	-0.104066975
69	0x3c0e877f	0.008699297
70	0xbc685eef	-0.01418279
71	0x3d1c9d1b	0.038235765
72	0xbe50386c	-0.20334023
73	0xbe9e596b	-0.30927595
74	0xbc9d9214	-0.019234695
75	0xbe2510c8	-0.16119683
76	0x3dcab238	0.09897274
77	0xbf1c5285	-0.61063415
78	0x3deead60	0.116541624
79	0xbe476b98	-0.19474638
80	0xbdf4327e	-0.11923693
81	0x3c812b53	0.015767729
82	0xbe7df843	-0.24801736
83	0x3c3a5adb	0.011374201
84	0xbe0adc80	-0.13560677
85	0x3e1c987e	0.15292546
86	0xbe0b9768	-0.13631976
87	0xbd9d4938	-0.07679981
88	0x3dfc4786	0.123183295
89	0x3d586c87	0.052837875
90	0xbdce9f22	-0.10088946
91	0xbea18b4e	-0.31551594
92	0xbd7a1903	-0.06105901
93	0xbd03e1f9	-0.032197926
94	0xbe6cc3d7	-0.23121582
95	0xbe77db34	-0.24204713
96	0xbd25adf6	-0.040449105
97	0x3d9bdfb9	0.07611031
98	0x3d6f9ae8	0.05849734
99	0x3e3e2041	0.18566991
100	0x3e5d97f0	0.21639991
101	0xbe09a19d	-0.13440557
102	0xbef09d64	-0.4699508
103	0xbe391193	-0.1807311
104	0xbe5bdf9e	-0.21472022
105	0x3dd2c969	0.10292322
106	0x3ca45490	0.020059854
107	0xbdb0e9ad	-0.0863832
108	0xbda11838	-0.078659475
109	0xbdd33fc0	-0.10314894
110	0xbdb6b200	-0.089206696
111	0x3e084bb5	0.1331013
112	0x3dd5f28a	0.10446651
113	0xbcdb3db0	-0.026762813
114	0xbda97f88	-0.08276278
115	0x3d2628b5	0.040566165
116	0xbc727b7c	-0.014799949
117	0xbd21f6e9	-0.039542112
118	0xbbac6b85	-0.0052618408
119	0x3cf98549	0.030459063
120	0xbef9e6aa	-0.48808795
121	0xba9b2ff2	-0.001183985
122	0x3cafd3d2	0.021463308
123	0x3e788498	0.2426933
124	0xbce71d3b	-0.02821218
125	0xbe9ef598	-0.31046748
126	0x3e3b1684	0.18270308
127	0xbe395130	-0.18097377
128	0xbea5f3b7	-0.32412502
129	0xbd484459	-0.048893306
130	0x3e9f4587	0.31107733
131	0x3e533525	0.20625742
132	0xbd904df7	-0.070461206
133	0xbe22086c	-0.15823525
134	0xbcaf4e38	-0.021399602
135	0x3e824b19	0.2544792
136	0x3e42f6e3	0.19039492
137	0x3e23a3e8	0.15980494
138	0x3dac5e3d	0.08416412
139	0x3daae454	0.083443314
140	0x3e3e89f0	0.18607306
141	0xbe58f575	-0.21187384
142	0xbe594502	-0.2121773
143	0xbc5f95d3	-0.013646561
144	0x3d4850e0	0.048905253
145	0xbe47eaf3	-0.1952322
146	0x3c936612	0.017993007
147	0xbe6c2094	-0.23059303
148	0x3e40e3ea	0.18836942
149	0x3d589a16	0.052881323
150	0xbc7ff120	-0.0156214535
151	0x3e295510	0.16536355
152	0xbe379ad7	-0.1793016
153	0xbe62e7a1	-0.22158672
154	0x3e15f2eb	0.14643447
155	0xbe1963c7	-0.14979468
156	0xbe470582	-0.19435695
157	0xbc8b11f2	-0.01697633
158	0x3e1de03f	0.15417574
159	0xbe0b4345	-0.1359988
160	0xbedbd733	-0.4293762
161	0x3df2f012	0.11862196
162	0x3dfe706f	0.12423789
163	0x3e4acaf1	0.19803979
164	0x3e562faf	0.20916627
165	0xbea8a546	-0.32938594
166	0xbe6ce39d	-0.23133703
167	0xbe714957	-0.23563133
168	0xbe822630	-0.2541976
169	0xbd108f27	-0.03529277
170	0xbe0f1840	-0.13974094
171	0xbe2ef482	-0.1708546
172	0xbe504808	-0.20339978
173	0x3e3ac492	0.18239048
174	0xbe0f300d	-0.13983174
175	0xbdb6fc78	-0.08934873
176	0x3c0ab2e4	0.008465502
177	0x3dbf40ea	0.09338553
178	0x3e451d62	0.1924949
179	0x3d768104	0.060181633
180	0x3dc8e48a	0.09809215
181	0x3de94e04	0.113918334
182	0x3dae9c49	0.08525903
183	0xbe5d96eb	-0.21639602
184	0x3d53ca18	0.051706403
185	0x3e24ae1d	0.16082044
186	0xbdd5fc08	-0.10448462
187	0x3e45bc4c	0.19310111
188	0x3db16fac	0.08663878
189	0x3d6a67c4	0.057227865
190	0x3e469573	0.19392948
191	0xbda8f870	-0.08250511
192	0xbdb27a8b	-0.087147795
193	0xbdd7831c	-0.10523054
194	0xbe864101	-0.2622147
195	0xbdb44114	-0.08801475
196	0xbdc6de6a	-0.09710391
197	0x3daf0f66	0.08547859
198	0xbe622cbd	-0.22087379
199	0xbe02e39f	-0.12782143
200	0x3d6003e7	0.05469122
201	0x3da13e50	0.07873213
202	0xbcfba310	-0.030717403
203	0x3d5f93b6	0.054584228
204	0x3d7084db	0.05872045
205	0x3e1c62d6	0.15272078
206	0x3dee9e4a	0.11651285
207	0xbe0ecdf3	-0.13945751
208	0xbd68f2d5	-0.056872208
209	0x3e08307a	0.13299742
210	0x3dfec3ce	0.124396905
211	0xbe791885	-0.2432576
212	0xbb5971db	-0.0033179435
213	0x3dcdfe77	0.10058301
214	0xbe48c534	-0.19606477
215	0xbe4069f7	-0.18790422
216	0x3e317f80	0.17333794
217	0x3e0fe466	0.14051971
218	0xbebb3696	-0.36565083
219	0xbe80ca58	-0.25154376
220	0xbea21f87	-0.31664678
221	0x3e4df598	0.20113218
222	0x3ece0a53	0.40242252
223	0x3e5e5934	0.21713716
224	0x3da3b76f	0.079939716
225	0xbdfd4d22	-0.123682275
226	0xbe44b4c3	-0.1920958
227	0xbe131bf1	-0.14366128
228	0xbdc6014e	-0.096682176
229	0xbcc856fd	-0.024455542
230	0xbd49a62c	-0.04923074
231	0x3e1d8708	0.15383542
232	0x3a09c6af	0.00052557414
233	0x3e647a4c	0.22312278
234	0xbd770558	-0.06030783
235	0xbce333ff	-0.027734755
236	0x3d2f23cd	0.04275875
237	0x3db47303	0.08810999
238	0x3e63e25c	0.22254318
239	0x3d09290d	0.033486415
240	0x3e37e37d	0.17957874
241	0x3d7611e1	0.060075644
242	0xbd3fde65	-0.04684295
243	0x3e26032e	0.1621215
244	0x3daed64a	0.08536966
245	0x3d910ba6	0.070823
246	0xbd3511a0	-0.04420626
247	0x3e47019f	0.19434212
248	0xbe0fc337	-0.14039312
249	0x3decc496	0.11560933
250	0xbeb0a127	-0.3449795
251	0xbd18d381	-0.03731108
252	0xbdad5876	-0.08464138
253	0x3cb863fd	0.022508616
254	0x3dd9e2ba	0.10638948
255	0x3dda4362	0.106573835

emb.layers.0.bias f4 [128]
0	0x3dd9803c	0.10620162
1	0x3d4da03d	0.050201643
2	0x3c93c30b	0.01803734
3	0x3d29eab1	0.041483585
4	0x3e368e68	0.17827761
5	0xbe501bc7	-0.20323096
6	0xbe610807	-0.21975718
7	0x3dd8e2f3	0.10590162
8	0xbe40582b	-0.18783633
9	0x3cdf6648	0.027270451
10	0x3de7c696	0.11317174
11	0xbe8018a0	-0.25018787
12	0x3e01418a	0.12622657
13	0xbdac1d7e	-0.08404063
14	0xbd92e727	-0.07172995
15	0xbe08be42	-0.13353828
16	0xbdb37e50	-0.087643266
17	0xbe409c5d	-0.18809648
18	0x3d2e38ec	0.042534754
19	0xbdc035ae	-0.093852386
20	0xbc6ed34b	-0.014576743
21	0xbd9bd430	-0.07608831
22	0x3d56741b	0.05235682
23	0xbda7f336	-0.08200686
24	0xbd668870	-0.05628246
25	0xb9fa4446	-0.00047734583
26	0x3e42db34	0.19028932
27	0x3c4275e5	0.011868929
28	0x3dce0824	0.100601465
29	0xbc887bfc	-0.016660683
30	0xbdf27958	-0.11839551
31	0x3c87647a	0.016527403
32	0x3dbef223	0.09323528
33	0xbd9db0e3	-0.07699754
34	0xbec00037	-0.37500164
35	0x3da820ef	0.082094066
36	0xbcdd7cdb	-0.027037075
37	0xbcf90e59	-0.03040235
38	0xbeb52ba2	-0.35384852
39	0x3e639f66	0.22228774
40	0xbcf2cede	-0.029639658
41	0xbca14814	-0.01968769
42	0x3e7b846c	0.24562234
43	0xbdd61df1	-0.104549296
44	0x3e487b9b	0.19578402
45	0xbe41d815	-0.18930085
46	0xbe3063f4	-0.17225629
47	0x3b6babd1	0.0035960565
48	0xbd43e9ca	-0.04783038
49	0x3e04e4d2	0.12977913
50	0xbdf7d18d	-0.121005155
51	0x3dae5f06	0.08514218
52	0xbdfb15fa	-0.12260051
53	0x3cfeffe0	0.03112787
54	0xbdb16641	-0.086620815
55	0xbd20c136	-0.03924676
56	0xbdc74cec	-0.097314686
57	0xbdaff925	-0.085924424
58	0xba7e050b	-0.00096900825
59	0xbd0a4933	-0.033761214
60	0xbd2a998d	-0.041650344
61	0xbe208800	-0.1567688
62	0x3e2fe471	0.17176987
63	0x3e33512f	0.17511438
64	0xbd8b6f9d	-0.06808398
65	0xbe811241	-0.2520924
66	0x3d878a73	0.06618204
67	0xbdb330b8	-0.08749527
68	0x3d22d3b6	0.039752685
69	0xbc8cfb96	-0.01720981
70	0x3e12d640	0.14339542
71	0x3d799b84	0.060939327
72	0x3e361c17	0.17784153
73	0x3e457ad3	0.19285135
74	0x3b1bc73a	0.0023769871
75	0x3dc3c05f	0.09558176
76	0xbe3c8137	-0.18408667
77	0xbdc191b7	-0.09451621
78	0xbdce28ab	-0.100663505
79	0xbdd70d9e	-0.10500644
80	0x3cb840c7	0.022491826
81	0x3c824d21	0.015905919
82	0x3d85302c	0.06503329
83	0xbd848466	-0.064705655
84	0x3dab8512	0.083749905
85	0x3dae4b83	0.085104965
86	0x3e34bfbd	0.17651267
87	0x3b6499bb	0.003488167
88	0xbc892b16	-0.016744178
89	0xbd154e5b	-0.03645168
90	0xbd34a2f8	-0.04410073
91	0xbe863a8b	-0.2621654
92	0xbdbec068	-0.09314042
93	0xbe1b8edb	-0.15191214
94	0xbd8155ca	-0.06315191
95	0x3e3f7998	0.18698728
96	0x3dd21ad3	0.102590226
97	0xbcbe07be	-0.023197051
98	0xbe6f517d	-0.23370929
99	0xbd8a8dc0	-0.06765318
100	0x3d46fae2	0.048579104
101	0xbe44a380	-0.19202995
102	0x3dc66193	0.096865796
103	0x3df7cb87	0.12099367
104	0xbdadb477	-0.084816866
105	0xbdf4f45b	-0.119606696
106	0xbdc00325	-0.093756
107	0xbd6b27db	-0.057411056
108	0xbdf3fa64	-0.119129926
109	0xbdc741e4	-0.097293645
110	0x3d30e7c3	0.043189775
111	0xbe1d3cc5	-0.15355213
112	0xbc9db2f9	-0.01925038
113	0xbe87d8d9	-0.2653263
114	0x3da6a38f	0.08136665
115	0xbe8a860c	-0.27055395
116	0xbe6165b3	-0.22011451
117	0xbdbc96fb	-0.09208485
118	0x3d22a523	0.039708268
119	0xbe12c476	-0.14332756
120	0xbdc10906	-0.09425549
121	0x3baa8069	0.005203296
122	0xbd8be429	-0.068306275
123	0xbdd070f0	-0.10177791
124	0x3d6c2777	0.057654824
125	0x3db7cce3	0.08974626
126	0x3d9b912d	0.075960495
127	0xbdbc7908	-0.092027724

emb.layers.2.weight f4 [32, 128]
0	0x3d20882b	0.03919236
1	0x3d665d6b	0.056241434
2	0xbd9d95c5	-0.07694582
3	0x3bdf30b9	0.006811228
4	0xbd946c97	-0.07247274
5	0x3de0be17	0.10973757
6	0x3ddd2e61	0.10799862
7	0xbc8d84a5	-0.017275164
8	0xbdfa49c5	-0.12221102
9	0xbda75ff9	-0.08172602
10	0xbd6789a7	-0.05652776
11	0xbe722f91	-0.23650958
12	0xbd7b122d	-0.06129663
13	0xbc975501	-0.01847315
14	0x3d8a56d8	0.067548454
15	0xbc90aa50	-0.017659336
16	0xbe43b076	-0.19110283
17	0x3d880c6e	0.06642996
18	0x3d47e159	0.048798893
19	0x3d8c5e5f	0.06853937
20	0x3d2cde56	0.042204224
21	0x3d5ad1d0	0.05342275
22	0xbdd0f1c3	-0.102023624
23	0x3db02e1b	0.08602544
24	0x3cae98e7	0.021313144
25	0xbc897057	-0.0167772
26	0xbd74eda2	-0.059796937
27	0x3d072c10	0.033001006
28	0x3d6677d6	0.05626663
29	0x3d9162c6	0.07098918
30	0xbd638606	-0.055547737
31	0xbc9441af	-0.018097727
32	0xbc1ac4b5	-0.009446313
33	0xbd748c27	-0.059703972
34	0xbd9c2d8e	-0.07625876
35	0x3ce49f18	0.027907893
36	0x3d1fe460	0.039036155
37	0x3d943fcc	0.07238731
38	0xbd5a4a7f	-0.0532937
39	0xbd3effbc	-0.046630606
40	0x3c8d1eee	0.017226662
41	0xbd261fdf	-0.04055774
42	0xbd03030e	-0.031985335
43	0x3ddcc833	0.107803725
44	0xbcb75933	-0.0223814
45	0x3df31288	0.11868769
46	0xbcbde6c5	-0.023181329
47	0x3d19fb21	0.03759301
48	0x3d6b59e2	0.057458766
49	0xbd923e74	-0.07140818
50	0xbdb8e0e4	-0.090272695
51	0xbc451b33	-0.012030411
52	0x3dc0a124	0.09405735
53	0x3c8a3b59	0.016874002
54	0x3cd7fd97	0.026366038
55	0x3de2afbf	0.11068677
56	0xbe37e636	-0.17958912
57	0xbd3c8223	-0.046022546
58	0xbd807fdc	-0.06274387
59	0x3d45f1bf	0.04832625
60	0xbd90be90	-0.07067597
61	0xbd84c62a	-0.06483109
62	0x3cb2ceda	0.02182715
63	0x3d411989	0.047143493
64	0xbe3ad3d0	-0.18244863
65	0x3d145282	0.036211498
66	0xbd51aebf	-0.05119204
67	0xbd01ae3d	-0.031660307
68	0x3d15a3f9	0.03653333
69	0x3d66cee1	0.05634964
70	0x3d87ced2	0.06631245
71	0x3c6c1913	0.014410275
72	0x3d1332a5	0.03593697
73	0x3d5106bd	0.051031817
74	0xbd99be5f	-0.075070135
75	0xbcb9d343	-0.022683745
76	0xbd337cdc	-0.043820247
77	0xbaeac893	-0.0017912559
78	0xbe0b4b27	-0.13602887
79	0x3e4ee4ea	0.20204511
80	0xb6eb8b1a	-7.0197393e-06
81	0xbc8c8eda	-0.01715796
82	0x3dcffe6b	0.10155948
83	0x3c8e0ac8	0.017339125
84	0x3c7a6abb	0.015284236
85	0xbd94a66c	-0.07258305
86	0x3cfc19f9	0.030774103
87	0xbcc10d0f	-0.023565797
88	0x3dac6079	0.08416838
89	0xbd4fc598	-0.05072555
90	0xbd70fa9f	-0.05883276
91	0x3d9a774f	0.075422876
92	0xbe278165	-0.16357954
93	0xbd83c306	-0.06433682
94	0x3defc5df	0.11707663
95	0xbd989139	-0.07449574
96	0x3c5810ad	0.01318757
97	0x3d118c5a	0.03553424
98	0x3dceec28	0.10103637
99	0x3d2a270d	0.041541148
100	0x3daf606e	0.085633144
101	0xbdda489f	-0.106583826
102	0xbd1b4619	-0.037908647
103	0xbd21b0a4	-0.0394751
104	0xbd271f7f	-0.04080152
105	0xbc95f214	-0.018303908
106	0xbe34139e	-0.17585608
107	0x3d06e901	0.032937054
108	0x3d4f11fc	0.05055426
109	0xbd3d584a	-0.046226777
110	0x3d0fdf14	0.035124853
111	0x3e0cb23a	0.13739863
112	0x3d500b8a	0.050792255
113	0x3dcf9bf9	0.10137171
114	0xbd97db2b	-0.0741485
115	0xbcb34793	-0.021884715
116	0x3cdeb603	0.0271864
117	0x3d464ff4	0.048416093
118	0xbb9e0624	-0.0048225094
119	0xbe0eacf9	-0.13933171
120	0x3c554961	0.013017983
121	0xbd24974f	-0.04018336
122	0xbc43bc23	-0.011946711
123	0xbe7adb5c	-0.24497741
124	0xbdce388e	-0.10069381
125	0xbda38488	-0.07984263
126	0x3d810532	0.06299819
127	0x3d0f2a09	0.034952197
128	0xbd4feb83	-0.05076171
129	0x3c8481b3	0.016175127
130	0xbd3edbab	-0.04659621
131	0xbd1d4017	-0.0383912
132	0xbd75a6a2	-0.059973367
133	0xbcaee539	-0.021349536
134	0x3e23322b	0.15937106
135	0xbcb49e40	-0.022048116
136	0x3db1a6af	0.086743705
137	0x3de58dc1	0.11208678
138	0x3dec925d	0.11551354
139	0x39ead518	0.00044790725
140	0xbcbc3157	-0.022972746
141	0x3d628a91	0.05530793
142	0xbca707aa	-0.020389397
143	0x3b02d492	0.0019963128
144	0xbe0e3f72	-0.1389139
145	0x3df64380	0.12024593
146	0xbd0e773d	-0.034781683
147	0x3dc1efeb	0.09469589
148	0x3d43a127	0.04776111
149	0xbd16c7c6	-0.036811613
150	0x3bf420e6	0.007450211
151	0x3c9ff106	0.019524109
152	0x3c09f460	0.00842008
153	0xbe0605a4	-0.13088089
154	0xbd2286b1	-0.039679233
155	0x3d9379c2	0.07200958
156	0x3d08d72c	0.03340833
157	0xbddbf120	-0.1073935
158	0x3d63489c	0.055489168
159	0xbd9a73b7	-0.07541602
160	0x3dad496e	0.08461271
161	0xbcf1f92d	-0.029537762
162	0x3e270b17	0.16312824
163	0x3d9ec1b7	0.07751792
164	0x3dade1fa	0.08490367
165	0xbd953e18	-0.07287234
166	0x3e307c27	0.1723486
167	0x3d4b4630	0.049627483
168	0xbd25dbaa	-0.04049269
169	0xbd1c707a	-0.038193204
170	0x3da56adb	0.08077022
171	0x3da33357	0.07968777
172	0xbd80741b	-0.06272145
173	0x3cfdfd14	0.031004466
174	0xbc5b9db8	-0.013404302
175	0xbddcd03c	-0.10781905
176	0x3d16aa33	0.03678341
177	0xbc6bf208	-0.014400966
178	0xbd11510d	-0.035477687
179	0xbcab3240	-0.020897985
180	0xbe1b6d01	-0.151783
181	0xbd3ec3cc	-0.046573445
182	0x3e079736	0.13241276
183	0x3e181c1d	0.14854474
184	0x3dec50a8	0.115388215
185	0x3da7bfb4	0.08190861
186	0xbd3abfcd	-0.04559307
187	0x3a2f7db1	0.00066944497
188	0x3d8eb6bf	0.0696845
189	0x3cc3508e	0.023842122
190	0xbc164c8d	-0.009173525
191	0x3d9794cd	0.07401428
192	0xbe219ec3	-0.15783219
193	0x3d2efa84	0.04271938
194	0x3d464af7	0.048411336
195	0xbd5e0f7f	-0.054213997
196	0x3d80a0b9	0.062806554
197	0x3d793ac7	0.06084707
198	0x3cbf6fc1	0.023368718
199	0x3d17dd7a	0.03707645
200	0xbd9343c8	-0.071906626
201	0xbd91d42a	-0.07120545
202	0xbe01679f	-0.12637185
203	0xbdafb574	-0.08579531
204	0xbda3ede7	-0.08004361
205	0xbd6522d2	-0.05594141
206	0x3d9e3406	0.077247664
207	0xbe27d298	-0.16388929
208	0xbb3feae5	-0.0029284295
209	0xbd0dffa7	-0.034667637
210	0xbc829050	-0.015937954
211	0x3c42994a	0.011877367
212	0xbd53aba0	-0.051677346
213	0xbda0a1f8	-0.07843393
214	0xbd81a750	-0.063307405
215	0xbb03ce7b	-0.0020112086
216	0xbd243c42	-0.04009653
217	0xbd14d9ab	-0.036340397
218	0x3b1152ed	0.0022174672
219	0x3d3a331d	0.0454589
220	0xbc31c4c0	-0.0108501315
221	0xbdfcf3b0	-0.12351167
222	0x3dba885d	0.091080405
223	0xbd94018b	-0.07226857
224	0x3cb12546	0.021624219
225	0x3d665672	0.056234784
226	0x3c6d0fd8	0.0144691095
227	0xbd7bbd2b	-0.0614597
228	0x3bfb72d5	0.007673601
229	0x3dc3db3f	0.09563302
230	0xbc9f7287	-0.01946379
231	0xbd70ebc8	-0.05881861
232	0xbdea3c8b	-0.11437329
233	0x3c3f4fa0	0.011676699
234	0xbded7565	-0.11594657
235	0xb9056a4a	-0.00012723464
236	0x3d53b260	0.051683784
237	0xbdacfd70	-0.08446777
238	0x3dadf43e	0.08493851
239	0x3db7e001	0.08978272
240	0xbcb2a966	-0.021809291
241	0x3c410ff1	0.011783586
242	0xbc18e46d	-0.009331805
243	0x3b3ec238	0.0029107463
244	0xbc894bd5	-0.016759792
245	0x3d8c7fc3	0.06860306
246	0x3c871d46	0.01649345
247	0xbe0748c3	-0.1321135
248	0xbcf5de66	-0.030013274
249	0xbcd379ed	-0.025814975
250	0x3bec99bd	0.0072204755
251	0x3d7c6825	0.061622757
252	0xbc2f2743	-0.010690513
253	0x3cca828e	0.024720456
254	0x3d146f1a	0.036238767
255	0xbd7eacfa	-0.062176682

emb.layers.2.bias f4 [32]
0	0x3cf119d7	0.029431267
1	0x3cc235f3	0.023707366
2	0x3cd64eb4	0.026160575
3	0xbd83d3e3	-0.064368986
4	0xbcaa0fe5	-0.020759532
5	0xbce147b6	-0.027500015
6	0xbd3ffcd0	-0.04687196
7	0x3c38c9ba	0.011278564
8	0xbd5c0a41	-0.053720716
9	0xbd90fb23	-0.070791505
10	0xbd7fb522	-0.0624286
11	0x3c8b50dc	0.01700633
12	0xbda8f72f	-0.082502715
13	0x3c62f0f2	0.013851391
14	0xbd6274c8	-0.055287153
15	0x3d2460a1	0.040131215
16	0x3d4a6278	0.049410313
17	0xbc54dbb8	-0.012991838
18	0xbb23baaf	-0.0024983098
19	0x3d69625d	0.056978572
20	0x3c171dbc	0.009223398
21	0x3daafb28	0.083486855
22	0x3cbf921c	0.0233851
23	0xbd5143ff	-0.051090237
24	0xbd4fbca7	-0.050717022
25	0xbdc1a158	-0.09454602
26	0x3cf94002	0.03042603
27	0xbd32afb0	-0.04362458
28	0xbcbf53af	-0.023355333
29	0xbbb60702	-0.0055550346
30	0x3d6686a2	0.05628074
31	0x3d3eb7c8	0.046561986

encoder.layers.0.self_attn.in_proj_weight f4 [96, 32]
0	0xbed70518	-0.41996074
1	0xbeb88429	-0.3603833
2	0x3d4e46c5	0.05036046
3	0xbddec644	-0.1087766
4	0xbe8f80b5	-0.28027883
5	0x3d92a26f	0.07159888
6	0x3e2c45af	0.16823457
7	0x3e8f655e	0.28007025
8	0xbe64dd2c	-0.22349995
9	0x3f08864e	0.5332993
10	0xbb29747a	-0.002585678
11	0x3e0a1ea1	0.13488247
12	0x3d67bcae	0.056576423
13	0x3d8e128a	0.0693713
14	0xbdfff5d7	-0.12498062
15	0xbdcfd0be	-0.10147236
16	0xbd39354e	-0.04521685
17	0xbde3201b	-0.11090108
18	0x3e2755d6	0.16341338
19	0x3e7d046c	0.24708718
20	0xbe92f7a9	-0.28704575
21	0x3e381aa4	0.17978913
22	0xbe86b4e2	-0.26309878
23	0xbcb71160	-0.022347152
24	0x3e836353	0.25661716
25	0xbe16bb0e	-0.14719793
26	0x3ee7b016	0.4525153
27	0xbe208ea2	-0.1567941
28	0xbe9023fc	-0.28152454
29	0x3d80ccf0	0.06289089
30	0x3b858b2e	0.0040754294
31	0xbe70c977	-0.23514353
32	0x3c8c3cdf	0.01711887
33	0x3e59318d	0.21210308
34	0xbe8a407c	-0.27002323
35	0x3e7115ca	0.23543468
36	0x3dcb8e58	0.09939259
37	0x3e4ffd34	0.20311433
38	0xbd565802	-0.052330025
39	0xbeaf1524	-0.34195817
40	0xbd34a6fd	-0.044104565
41	0xbe9facc3	-0.31186494
42	0x3dcadaed	0.09905038
43	0xbe0af447	-0.13569747
44	0x3d31577b	0.04329632
45	0xbdb2f9d7	-0.087390594
46	0xbd8121ad	-0.06305251
47	0x3e943b19	0.28951338
48	0x3dc63e02	0.09679796
49	0xbd225c2c	-0.039638683
50	0xbe1db939	-0.15402688
51	0xbe4a2112	-0.19739178
52	0x3e76dc26	0.24107417
53	0xbdaf7e52	-0.085690156
54	0x3d7ea22c	0.062166378
55	0xbe052be7	-0.13005029
56	0xbe9eff37	-0.31054088
57	0x3e6d92b5	0.23200496
58	0xbe5a34f9	-0.2130927
59	0x3e4fa7b1	0.20278813
60	0x3e304d0e	0.17216894
61	0x3d36b8ca	0.044609822
62	0x3e4a58ac	0.19760388
63	0x3dbedb62	0.09319188
64	0xbd5d71df	-0.054063674
65	0x3c290a1f	0.010317354
66	0xbd41d8cf	-0.047325905
67	0x3e1eb376	0.15498146
68	0x3e009cf3	0.12559871
69	0x3e653780	0.22384453
70	0xbe30589d	-0.17221303
71	0xbe3171d2	-0.17328575
72	0xbe2cbd4f	-0.1686909
73	0x3d8ff813	0.07029738
74	0x3e1892cf	0.14899753
75	0xbdfa82cc	-0.12231979
76	0xbb36a67b	-0.0027870226
77	0xbc441f1b	-0.011970307
78	0x3e3ef887	0.18649493
79	0xbbb41d07	-0.0054966244
80	0x3e337f0a	0.1752893
81	0x3e3c1ca0	0.18370295
82	0x3da3d76e	0.08000074
83	0xbe8f7446	-0.28018397
84	0x3e6edd44	0.23326594
85	0xbdfd2b6c	-0.12361798
86	0x3e1a1133	0.15045623
87	0x3c6e4640	0.014543116
88	0xbd688091	-0.056763235
89	0xbd6628ed	-0.056191374
90	0xbd5a7d60	-0.053342223
91	0xbd21b106	-0.039475463
92	0x3e98e72f	0.2986388
93	0xbd903299	-0.07040901
94	0x3d16b81c	0.036796674
95	0xbe161279	-0.14655484
96	0xbdb1ff41	-0.08691264
97	0xbd3cf275	-0.046129663
98	0x3d1cd72b	0.038291138
99	0xbe66409d	-0.22485586
100	0x3e12f58f	0.14351486
101	0x3de67d37	0.112543516
102	0x3e16edeb	0.14739196
103	0x3e33c54d	0.17555733
104	0x3dc2ca89	0.09511287
105	0x3e8e0608	0.27738976
106	0x3d951aca	0.072805
107	0x3df01ece	0.117246255
108	0x3c9159f4	0.017743088
109	0x3cc85533	0.024454689
110	0xbda15e3e	-0.078793034
111	0x3cb3fb2d	0.021970356
112	0x3d368f92	0.044570513
113	0x3dc7e918	0.09761256
114	0xbd91dbeb	-0.07122024
115	0x3d9a7f36	0.07543795
116	0xbe3a7584	-0.18208891
117	0xbd2971f3	-0.041368436
118	0xbc9915b2	-0.018687103
119	0x3e43d24e	0.19123194
120	0x3e1c2b22	0.15250829
121	0xbe6fe710	-0.23427987
122	0x3e82c0ad	0.25537625
123	0xbdd35c97	-0.103203945
124	0xbde87fe3	-0.113525175
125	0x3dffb20e	0.12485133
126	0x3d870f90	0.06594765
127	0x3e42ad92	0.19011524
128	0xbd3892e1	-0.04506195
129	0xbcf3392d	-0.02969035
130	0xbb80400f	-0.0039138864
131	0x3e33bd15	0.17552598
132	0x3e00cd70	0.12578368
133	0x3d4cbec1	0.049986605
134	0xbcdcf173	-0.0269706
135	0xbe5283d5	-0.20558102
136	0x3c7628e1	0.015024395
137	0xbdbed613	-0.09318175
138	0x3e0758b9	0.13217439
139	0x3c99a948	0.018757477
140	0x3dd81852	0.10551514
141	0xbe3d1e2e	-0.18468544
142	0xbdf72ad5	-0.120687164
143	0x3e862297	0.26198265
144	0xbe298f65	-0.16558607
145	0xbdf59adc	-0.11992428
146	0x3e1036a7	0.14083348
147	0xbe7bf965	-0.24606855
148	0x3e9b3f9e	0.30321974
149	0x3dc95273	0.09830179
150	0x3dd894ef	0.10575282
151	0x3e1221c0	0.14270687
152	0xbcb363a0	-0.02189809
153	0xbd6f4154	-0.05841191
154	0x3d30a4ce	0.04312592
155	0x3e2ab92c	0.166722
156	0xbdbeda66	-0.09319
157	0x3d4f634d	0.05063181
158	0x3de77785	0.113020934
159	0x3df8a53b	0.1214089
160	0x3b47e372	0.0030500558
161	0x3cfc7413	0.030817067
162	0x3c0ac2fa	0.008469338
163	0x3e09b46b	0.1344773
164	0xbe756ac1	-0.23966505
165	0x3c66e938	0.01409369
166	0x3d7a69d7	0.061136093
167	0x3e85808b	0.26074633
168	0xbd8c8cd1	-0.06862796
169	0x3e059aa3	0.1304727
170	0xbe933fdc	-0.28759658
171	0x3e586656	0.21132788
172	0xbe065176	-0.13117012
173	0x3c82e8be	0.01598012
174	0x3e2c024c	0.16797751
175	0xbe776104	-0.24158102
176	0xbe3cfb75	-0.18455298
177	0x3e384b24	0.17997414
178	0x3d94229e	0.07233165
179	0x3da0045d	0.07813332
180	0xbe7e781a	-0.24850503
181	0xbe25066e	-0.16115734
182	0xbe5be706	-0.21474847
183	0x3e2e402d	0.17016669
184	0xbda473ea	-0.08029921
185	0xbe3c88be	-0.18411538
186	0x3dd192fb	0.102331124
187	0xbddf20c1	-0.10894919
188	0xbe6e1bf4	-0.23252851
189	0x3d94d7ab	0.07267698
190	0xbced66c6	-0.02897967
191	0xbd89fac6	-0.06737284
192	0xbea7ed9a	-0.32798463
193	0xbe19e099	-0.15027083
194	0x3db09a12	0.086231366
195	0x3d279619	0.04091463
196	0xbdbdae9b	-0.09261819
197	0x3dced9d8	0.10100144
198	0xbc577484	-0.013150338
199	0x3e4a85cd	0.19777603
200	0x3d3a8af8	0.045542687
201	0x3eebb109	0.46033505
202	0xbe22d82f	-0.1590278
203	0x3dfb6fd3	0.12277188
204	0x3be2a850	0.006917037
205	0xbdae3038	-0.08505291
206	0xbcfaf97d	-0.030636543
207	0xbe8b6b10	-0.2723012
208	0xbda9bcbc	-0.08287951
209	0x3dbe4fdf	0.09292578
210	0x3e87c645	0.26518455
211	0x3d3b6b15	0.04575642
212	0x3cf75a32	0.030194376
213	0xbe31203a	-0.1729745
214	0x3df1347a	0.11777587
215	0x3d85f9e1	0.06541801
216	0x3e10e222	0.14148763
217	0xbeac901f	-0.33703706
218	0x3d9891ba	0.0744967
219	0xbe45c7ff	-0.19314574
220	0xbe48f523	-0.19624762
221	0x3e9bb1e2	0.3040915
222	0x3d80085f	0.06251597
223	0xbe8119b6	-0.25214928
224	0x3dcc8851	0.09986938
225	0xbe716ad8	-0.23575914
226	0x3e6d8e7e	0.23198888
227	0xbdcbd038	-0.09951824
228	0xbc32d922	-0.010916026
229	0xbe5367f9	-0.20645131
230	0x3d360506	0.044438384
231	0xbd52854a	-0.051396646
232	0xbe317eab	-0.17333476
233	0x3e9a532c	0.3014158
234	0x3dff6e08	0.12472159
235	0x3e1a45d6	0.15065703
236	0xbc1f6a51	-0.009729938
237	0xbda53393	-0.080664776
238	0xbdb520d3	-0.08844151
239	0xbd622bb0	-0.055217445
240	0xbdbd92f1	-0.092565425
241	0xbe618170	-0.22022033
242	0xbd5ed08e	-0.054398112
243	0x3ded26d2	0.1157967
244	0x3d6a54b6	0.057209693
245	0x3ba33c96	0.0049815876
246	0xbd03f213	-0.03221328
247	0xbe170dc9	-0.14751352
248	0x3cbf47e3	0.023349708
249	0x3d1d9f24	0.038481846
250	0x3e878eec	0.26476228
251	0xbe4f03c0	-0.20216274
252	0xbe677c9c	-0.22606128
253	0xbd114e29	-0.03547493
254	0xbd9084fa	-0.07056613
255	0x3db7a8aa	0.08967717

encoder.layers.0.self_attn.in_proj_bias f4 [96]
0	0x3e376f4b	0.17913549
1	0xbe343b47	-0.17600738
2	0xbe55656a	-0.20839468
3	0x3e223b5c	0.15842956
4	0xbe315391	-0.17317034
5	0x3e0f6df3	0.14006786
6	0x3e572a8a	0.21012321
7	0x3e09b633	0.1344841
8	0xbcf4e72a	-0.029895384
9	0x3dd712f4	0.10501662
10	0xbe0eca75	-0.13944419
11	0xbe119d3e	-0.1422014
12	0xbe153501	-0.14571
13	0x3d99a4f9	0.07502169
14	0xbe0d88ea	-0.1382176
15	0x3e2c177a	0.1680583
16	0xbde7617b	-0.1129789
17	0xbe00abb8	-0.12565506
18	0x3dcf75da	0.101299
19	0x3df0f627	0.117657
20	0x3deeeae2	0.11665894
21	0x3cf171fc	0.029473297
22	0xbde56038	-0.11199993
23	0x3df0b479	0.117531724
24	0xbde94907	-0.11390882
25	0xbdf125f5	-0.11774818
26	0xbd8ea8ef	-0.06965815
27	0x3dc3e101	0.095644005
28	0xbdc719c2	-0.0972171
29	0xbe16615d	-0.14685579
30	0xbdd6871c	-0.10474989
31	0x3d9f139b	0.07767411
32	0xb8c246c2	-9.2638205e-05
33	0x397f3bb0	0.0002434093
34	0x398afc74	0.00026509503
35	0xb8ed687c	-0.000113205024
36	0x391029f1	0.00013748535
37	0xb917de65	-0.0001448333
38	0xb9390ac8	-0.00017646991
39	0xb9175b78	-0.00014434557
40	0xb6b71128	-5.4558222e-06
41	0xb91fe998	-0.00015250442
42	0x38be5aa2	9.076788e-05
43	0x396d6681	0.00022640267
44	0x393b478a	0.0001786036
45	0xb7a10fcf	-1.9200057e-05
46	0x38eefde6	0.000113960166
47	0xb945fe46	-0.00018882108
48	0xb89a6f7d	-7.3640585e-05
49	0xb8b7870f	-8.7512766e-05
50	0x389e2381	7.54064e-05
51	0x3888b642	6.5189335e-05
52	0xb81bd82e	-3.7156213e-05
53	0x38312905	4.223829e-05
54	0x37f3ba20	2.9054529e-05
55	0x37b601af	2.1696875e-05
56	0xb805e86d	-3.1926134e-05
57	0xb8729f50	-5.7845667e-05
58	0x3866b3e9	5.5003828e-05
59	0x38990648	7.2967785e-05
60	0x38b1e950	8.4834755e-05
61	0xb8f9872a	-0.000118984215
62	0x380cc709	3.3563967e-05
63	0x3818a78b	3.639566e-05
64	0xb8668241	-5.495758e-05
65	0xbc57479d	-0.0131396325
66	0xbc9379e6	-0.018002462
67	0xbbe3c3b9	-0.006950822
68	0x3bab2c98	0.005223822
69	0xb9dd8236	-0.0004224942
70	0xbb2c73fd	-0.0026314252
71	0x3bf1a534	0.00737443
72	0xbb644674	-0.0034832032
73	0xba1d0826	-0.0005990289
74	0xbca800e2	-0.020508233
75	0x3b0425c8	0.002016412
76	0x3bd09cb7	0.006366338
77	0x3b1ded99	0.0024097918
78	0xbc3e1e7c	-0.011603948
79	0xbcca78fd	-0.024715895
80	0xbcf9d54f	-0.030497221
81	0xbc0818f4	-0.008306731
82	0x3cb9aa81	0.02266431
83	0xbbac1086	-0.005250993
84	0xbce75230	-0.028237432
85	0xbb358b83	-0.0027701564
86	0xba77c05b	-0.00094509654
87	0xbb97cc5d	-0.0046325163
88	0xbb84e009	-0.0040550274
89	0xbd0d2333	-0.034457397
90	0xbc1665a4	-0.009179506
91	0xbc4f438a	-0.01265038
92	0x3b47a69d	0.00304643
93	0xbbfb0457	-0.0076604295
94	0xbc299992	-0.010351555
95	0xbc92e829	-0.017932968

encoder.layers.0.self_attn.out_proj.weight f4 [32, 32]
0	0x3e230dfa	0.159233
1	0x3d1a5e6c	0.037687704
2	0xbe0fcd46	-0.1404315
3	0xbbc0a01b	-0.005878461
4	0x3e0c61d6	0.13709196
5	0xbdbb26fb	-0.09138294
6	0x3d93dbbf	0.072196476
7	0xbdc1a0c1	-0.094544895
8	0xbe076ba6	-0.13224658
9	0x3d6feb7d	0.05857419
10	0xbd47c080	-0.048767567
11	0xbdfab629	-0.122417755
12	0x3d742d29	0.05961338
13	0x3de45674	0.11149302
14	0x3d9645a3	0.07337501
15	0x3cad2e3f	0.021140216
16	0xbe41042f	-0.18849252
17	0xbccf5d40	-0.02531302
18	0xbdaa5b09	-0.08318145
19	0x3c5bf53f	0.01342517
20	0x3e0cca78	0.1374911
21	0x3d16b148	0.036790162
22	0xbd5fbee4	-0.054625407
23	0xbe056ed0	-0.13030553
24	0xbd5f42ec	-0.05450718
25	0xbe023239	-0.12714471
26	0xbcacb70a	-0.021083374
27	0x3e010dc9	0.12602915
28	0xbdb501b9	-0.08838219
29	0x3d15075a	0.036383964
30	0xbdbecd0b	-0.093164526
31	0x3e1c1f5d	0.15246339
32	0xbcfe1610	-0.03101638
33	0x3da52bc2	0.08064987
34	0x3c5cc2f6	0.013474217
35	0xbd9ef3b0	-0.077613235
36	0xbd6b1980	-0.057397366
37	0xbdd8222a	-0.10553391
38	0x3d28d4cf	0.041218575
39	0xbe076706	-0.13222894
40	0x3c137da0	0.009002119
41	0xbde84d38	-0.11342853
42	0x3dfdd6e0	0.123945
43	0x3aaaf804	0.0013043885
44	0x3d14a550	0.036290467
45	0xbe1159e8	-0.14194453
46	0xbe072a54	-0.1319974
47	0xbe17dee0	-0.14831114
48	0x3e116d41	0.14201833
49	0xbda32ecc	-0.0796791
50	0x3e0b68ca	0.13614193
51	0xbc8cac77	-0.017172081
52	0xbe055e01	-0.13024141
53	0x3df5b5c9	0.119975634
54	0xbe2af3eb	-0.1669461
55	0xbe00b663	-0.12569575
56	0x3dc36c15	0.095420994
57	0xbe0d7945	-0.13815792
58	0xbe2316cd	-0.15926667
59	0xbe1b40e5	-0.15161474
60	0xbb019e44	-0.0019778172
61	0xbdc04a52	-0.093891755
62	0x3ac873a4	0.0015293253
63	0x3d825354	0.0636355
64	0x3d6b3a4d	0.057428647
65	0x3cfb121b	0.030648282
66	0xbd7789cb	-0.060434144
67	0x3e1ee73a	0.15517893
68	0x3d8cbb9e	0.06871723
69	0xbda9c4fa	-0.082895234
70	0x3d1d835a	0.038455345
71	0xbb89ebff	-0.004209041
72	0x3e1a7de4	0.15087086
73	0xbd98560b	-0.074382864
74	0x3d46cd76	0.048535787
75	0xbd96567a	-0.07340713
76	0x3e2c827d	0.16846652
77	0xbd9b69fe	-0.07588576
78	0x3cc4e426	0.02403457
79	0x3dab4db6	0.083644316
80	0xbd53566d	-0.051596094
81	0xbe0c615d	-0.13709016
82	0x3e139136	0.14410862
83	0xbb0460d4	-0.0020199316
84	0xbdda6dca	-0.10665472
85	0xbd62018a	-0.05517725
86	0x3c5a973b	0.01334172
87	0xbdff20cc	-0.124574274
88	0x3dc20d68	0.09475213
89	0xbdd4d37b	-0.10391899
90	0x3c1a20cc	0.009407233
91	0x3d366e88	0.044539005
92	0xbd52c98c	-0.05146174
93	0x3d9f271b	0.07771131
94	0x3b1086dc	0.0022053039
95	0x3de5545e	0.111977324
96	0xbe1db4da	-0.1540102
97	0x3de942de	0.11389707
98	0x3d60f2e2	0.05491913
99	0xbd1c451b	-0.03815184
100	0xbd020121	-0.031739358
101	0x3d263dd7	0.04058632
102	0x3e283daa	0.16429773
103	0xbd09dda0	-0.033658624
104	0x3d6ff5cb	0.058584016
105	0xbdac252a	-0.08405526
106	0xbc280378	-0.010254733
107	0xbda1f15c	-0.07907364
108	0x3e14b81c	0.14523357
109	0x3db41ab1	0.087941535
110	0x3df0d885	0.11760048
111	0xbdc38789	-0.09547336
112	0x3df022fd	0.117254235
113	0x3dbe655d	0.09296677
114	0x3e004ba6	0.12528858
115	0x3d61af4c	0.055098817
116	0x3e19f4d3	0.150348
117	0x3e4b0602	0.1982651
118	0x3d116dbf	0.035505053
119	0xbd0c6a16	-0.03428086
120	0x3d635fa2	0.055511124
121	0xbde629eb	-0.11238464
122	0xbde55d76	-0.11199467
123	0x3d43c602	0.047796257
124	0xbdf22880	-0.11824131
125	0xbdc21e1c	-0.09478399
126	0xbd529fa5	-0.05142178
127	0x3e0238c6	0.1271697
128	0x3d4ed3dc	0.050495014
129	0xbd88ba7c	-0.06676194
130	0xbcbfb2e4	-0.023400731
131	0xbdf5de3c	-0.120052785
132	0x3dd9127f	0.10599231
133	0xbe1bcf4a	-0.15215793
134	0xbe15af7d	-0.14617725
135	0xbdd538b9	-0.104112096
136	0x3d56d8bb	0.052452784
137	0xbdbf3b80	-0.093375206
138	0x3d98e2e5	0.07465152
139	0x3dbac9bd	0.0912051
140	0xbc93ace3	-0.018026775
141	0x3e10577f	0.14095877
142	0xbe24e868	-0.16104281
143	0x3d13575b	0.03597198
144	0x3d9c3656	0.07627551
145	0xbda6f6a0	-0.08152509
146	0xbb88beb8	-0.004173126
147	0xbda280e1	-0.07934738
148	0xbd6fce39	-0.05854628
149	0xbdf64606	-0.12025075
150	0x3e1076e8	0.14107859
151	0xbdc586f4	-0.09644881
152	0x3d839d4e	0.06426488
153	0xbd21c918	-0.03949842
154	0xbe125f28	-0.14294112
155	0xbda66da3	-0.0812638
156	0x3e16bc49	0.14720263
157	0x3d87d25a	0.06631918
158	0xbd88af08	-0.066740096
159	0xbbbbcf94	-0.0057315324
160	0xbd155b01	-0.03646374
161	0xbe0e2a8d	-0.1388342
162	0xbe0b104e	-0.13580438
163	0xbdc8bebf	-0.09802007
164	0xbd177f86	-0.03698685
165	0xbd22f955	-0.039788563
166	0xbd22f89a	-0.039787866
167	0x3dda642b	0.10663637
168	0xbdd64d1d	-0.10463927
169	0xbd976fe5	-0.07394389
170	0x3dd856cb	0.105634294
171	0xbe095f67	-0.134153
172	0x3d7ccd4d	0.061719228
173	0x3aab13d5	0.0013052175
174	0xbdf4f88a	-0.119614676
175	0x3de1bf1b	0.110227786
176	0x3d418276	0.047243558
177	0x3e10b422	0.14131215
178	0x3d851343	0.064978145
179	0xbdb08464	-0.086190015
180	0x3dfb806a	0.122803524
181	0xbcc2f530	-0.023798555
182	0x3dc37219	0.09543247
183	0x3e15e2d2	0.14637306
184	0xbdb542fe	-0.08850668
185	0x3e139330	0.14411616
186	0xbe36677d	-0.17812915
187	0x3dc2f940	0.09520197
188	0xbe0b484c	-0.13601798
189	0xbd86837a	-0.06568046
190	0x3cb4ac5f	0.02205485
191	0x3dd7483d	0.10511825
192	0x3e1875c3	0.14888673
193	0x3d19e952	0.037576027
194	0xbd9c05f9	-0.07618327
195	0x3da49f07	0.080381446
196	0xbd6b514b	-0.057450574
197	0x3db6ed0e	0.08931933
198	0x3d81f31b	0.06345197
199	0xbd8963ec	-0.06708512
200	0xbdd4f421	-0.103981264
201	0x3b5b4946	0.0033460422
202	0xbd840fe9	-0.06448347
203	0x3e0be33c	0.13660902
204	0xbddb5a01	-0.10710526
205	0x3db2122e	0.08694874
206	0xbe146d63	-0.14494853
207	0x3d544414	0.051822737
208	0x3d4c3c49	0.04986218
209	0x3e13b753	0.14425401
210	0x3d5e859c	0.05432664
211	0x3d25e926	0.04050555
212	0xbddf5a39	-0.109058805
213	0x3ddec0db	0.10876628
214	0xbdff4af2	-0.124654666
215	0xbd5fb126	-0.0546123
216	0x3d2c70b3	0.042099666
217	0xbdff286a	-0.1245888
218	0xba292f3e	-0.0006453878
219	0xbd8f7c90	-0.0700618
220	0xbb510eae	-0.003189962
221	0x3ba63ce4	0.0050731767
222	0x3d00ca25	0.03144278
223	0x3decda22	0.11565043
224	0x3d5c2e58	0.053755134
225	0xbe0f4180	-0.1398983
226	0xbac360a1	-0.0014906117
227	0xbdbab153	-0.09115853
228	0x3e49348a	0.19648948
229	0xbd83b60c	-0.06431207
230	0x3b9359d5	0.004496793
231	0x3df8e573	0.12153139
232	0xbde7081d	-0.11280844
233	0x3e1b4f5f	0.15166996
234	0x3d709108	0.058732063
235	0xbe3044e0	-0.17213774
236	0xbc6fe2f2	-0.01464151
237	0xbca021f9	-0.01954745
238	0x3e067a05	0.13132484
239	0xbb9734d0	-0.00461445
240	0xbce8f0c7	-0.028435124
241	0xbdc8f2b4	-0.09811917
242	0x3e1cb09a	0.15301743
243	0x3e01dd3e	0.12682053
244	0xbd5ac5b2	-0.053411193
245	0xbde702c1	-0.11279822
246	0xbe07820d	-0.13233204
247	0xbd502041	-0.05081201
248	0x3dde33dd	0.10849736
249	0xbdf5bd2b	-0.119989716
250	0xbe15d3bb	-0.1463155
251	0x3d695ae1	0.056971435
252	0xbe1b68a1	-0.15176632
253	0x3e023500	0.1271553
254	0x3dc7b969	0.09752161
255	0x3df03d5d	0.11730454

encoder.layers.0.self_attn.out_proj.bias f4 [32]
0	0xbbc9cb09	-0.006158237
1	0x3a6c05e4	0.00090035633
2	0x3c3288b1	0.010896848
3	0xbb9b7ebb	-0.004745332
4	0x3948c90a	0.00019148379
5	0x3b2ebe8c	0.0026663868
6	0x3c29c7b9	0.010362559
7	0x3a53b86c	0.0008076492
8	0xb86709f4	-5.508396e-05
9	0x3c1eef7e	0.009700654
10	0xbcb507a4	-0.02209837
11	0x3bba0c4d	0.005677736
12	0x3b74c596	0.0037349216
13	0x3c3219d2	0.010870414
14	0x3be0a019	0.0068550226
15	0xbb4c9a83	-0.0031220026
16	0xbd0b2804	-0.03397371
17	0xbbcd0404	-0.006256582
18	0x3cdcd255	0.026955763
19	0x3bed4764	0.0072411764
20	0xbcc103f6	-0.023561459
21	0x3c98463c	0.018588178
22	0xbc908507	-0.017641557
23	0x3d0b7fac	0.034057304
24	0xbc3842ee	-0.011246426
25	0xbc4dc1dc	-0.012558427
26	0xb89516b8	-7.109105e-05
27	0x3b64ed9d	0.0034931668
28	0xbcb476a0	-0.022029221
29	0x3c41f928	0.011839189
30	0xbcd6a3cf	-0.026201157
31	0x3aeedeac	0.001822432

encoder.layers.0.linear1.weight f4 [128, 32]
0	0xbdc40071	-0.09570397
1	0xbd9929e4	-0.07478693
2	0x3d3bbbd2	0.045833416
3	0x3cb1379f	0.021632968
4	0x3dbc292e	0.09187542
5	0xbdf421f0	-0.119205356
6	0xbdac66ee	-0.0841807
7	0xbdb2f217	-0.08737581
8	0xbdb8b335	-0.09018556
9	0x3d6d3c6f	0.057918962
10	0x3dedf064	0.116181165
11	0xbd31cf32	-0.043410487
12	0x3e4a482b	0.19754092
13	0xbd12bdf4	-0.035825685
14	0xbcddf738	-0.027095422
15	0x392342c8	0.0001556977
16	0x3e04957a	0.12947646
17	0xbc0a7cd5	-0.008452614
18	0xbd959357	-0.073034935
19	0x3dc374cf	0.09543764
20	0x3d9cdab3	0.07658901
21	0x3d027c71	0.031856958
22	0x3dede8eb	0.11616691
23	0xbe85a757	-0.26104233
24	0xbdbfd90b	-0.093675695
25	0x3d4ef2ea	0.05052463
26	0xbdcd2518	-0.10016841
27	0xbe00ada3	-0.12566237
28	0xbc3dfbc2	-0.011595668
29	0xbe037fdf	-0.12841748
30	0xbca6821f	-0.020325718
31	0xbd3a28de	-0.04544913
32	0xbd8960f2	-0.06707944
33	0x3aa54462	0.0012608881
34	0x3de2c9c1	0.11073638
35	0x3e05b3db	0.1305689
36	0xbb5d87a1	-0.0033802765
37	0x3d9c5833	0.0763401
38	0xbd67604e	-0.056488328
39	0x3d80df94	0.06292644
40	0xbd70d041	-0.058792356
41	0x3be3b379	0.006948885
42	0xbd9f7f3d	-0.07787941
43	0x3d846060	0.064636946
44	0x3da23d4b	0.07921847
45	0xbe44881e	-0.1919255
46	0xbde0d03a	-0.10977216
47	0xbdc491a8	-0.09598094
48	0xbc08bc86	-0.008345729
49	0xbda30ec0	-0.07961798
50	0xbdbaa16d	-0.09112821
51	0x3d3a9eef	0.045561727
52	0xba76e531	-0.00094183075
53	0xbd695b70	-0.056971967
54	0x3d98f90c	0.07469377
55	0x3dde097a	0.10841651
56	0x3e48cecb	0.19610135
57	0xbe06899b	-0.1313843
58	0xbd939ba9	-0.07207424
59	0xbc8a58a0	-0.016887963
60	0x3e3acc81	0.18242075
61	0xbd6e29dc	-0.05814539
62	0xbddca5be	-0.107738
63	0xbd8ac7ce	-0.06776391
64	0x3d1d5d27	0.038418915
65	0xbdc3a71a	-0.095533565
66	0x3c19a725	0.009378229
67	0xbe4c6605	-0.19960792
68	0x3d9ee534	0.07758561
69	0x3e219994	0.15781242
70	0x3d95fa41	0.07323123
71	0x3e5ff59e	0.2187104
72	0xbd9fd0a8	-0.0780347
73	0x3e06a135	0.13147433
74	0xbd2b4b8f	-0.041820105
75	0xbe49fffe	-0.1972656
76	0xbd46b3fa	-0.048511483
77	0xbe56b207	-0.2096635
78	0xbb2a6ed9	-0.0026006012
79	0x3d90be7f	0.07067584
80	0x3ddc74ae	0.107644424
81	0x3d07a135	0.033112723
82	0x3dd74ed1	0.1051308
83	0xbd916712	-0.07099737
84	0xbddb02f2	-0.10693921
85	0x3dd170e1	0.10226608
86	0xbd8ee9a6	-0.06978159
87	0x3e1c77b5	0.1528004
88	0x3d103973	0.035211038
89	0x3ccf1f41	0.025283458
90	0x3d2febfd	0.042949665
91	0xbe361473	-0.17781238
92	0xbdae1d50	-0.08501685
93	0xbe155069	-0.14581455
94	0x3dace9c4	0.08443025
95	0xbe0f9799	-0.14022674
96	0xbd2d4c2a	-0.042308964
97	0x3d59c4a3	0.053166043
98	0x3c8d8c32	0.017278764
99	0xbd9f645d	-0.07782815
100	0xbde0d759	-0.10978574
101	0xbd1b170b	-0.037863772
102	0x3d2772a6	0.04088082
103	0x3d98a254	0.07452837
104	0xbe1544f2	-0.14577082
105	0xbc3e2d2b	-0.011607449
106	0x3c9d7f92	0.01922587
107	0xbc8684a9	-0.01642068
108	0xbc19c789	-0.009385952
109	0x3ca83249	0.02053179
110	0x3dcbde3e	0.09954499
111	0xbd35a101	-0.044343
112	0x3d5faa35	0.05460568
113	0xbda0c102	-0.07849313
114	0x3d194041	0.037414793
115	0xbdf6a2b5	-0.12042753
116	0xbc46dacc	-0.012137126
117	0x3dd61c88	0.10454661
118	0x3c403916	0.01173236
119	0x3d3c5be3	0.045986068
120	0x3cb079df	0.021542488
121	0xbdcc77c9	-0.09983785
122	0xbdbfa00c	-0.093566984
123	0x3e21aab8	0.1578778
124	0x3db4052d	0.0879005
125	0x3d6ddcf6	0.058072053
126	0x3e268797	0.16262661
127	0xbda9fae0	-0.08299804
128	0x3e003cf5	0.12523253
129	0xbca8abf8	-0.020589814
130	0x3d9b1ac1	0.07573462
131	0x3d7d015f	0.061768886
132	0x3cb74409	0.022371309
133	0xbd63a90d	-0.05558114
134	0xbc3bb81c	-0.011457469
135	0x3beddcb5	0.0072589763
136	0x3d2a6a35	0.041605193
137	0x3d0d9e6b	0.034574907
138	0x3e1987a0	0.14993143
139	0xbc0013e2	-0.00781724
140	0x3d4e292b	0.05033223
141	0xbe441a83	-0.19150738
142	0xbdae2ae2	-0.08504273
143	0xbe2d8fe6	-0.16949424
144	0x3c94f243	0.018181926
145	0x3cfa4319	0.030549573
146	0xbe5b3ce5	-0.21409948
147	0x3dc1ae1a	0.09457035
148	0x3dd836fe	0.10557364
149	0xbc12b3d3	-0.008954006
150	0x3e10fe0f	0.14159416
151	0xbd4e5d6d	-0.050382067
152	0xbda940d4	-0.08264318
153	0xbdf0a660	-0.117504835
154	0xbe72ee29	-0.23723663
155	0x3cb6f64f	0.022334246
156	0x3e0f0701	0.13967516
157	0x3df2dd1e	0.11858581
158	0x3dc55cec	0.09636864
159	0x3d4c3c24	0.049862042
160	0x3d4c0d41	0.049817327
161	0xbe05e9a6	-0.13077411
162	0xbc508910	-0.012727991
163	0x3d1b6990	0.03794247
164	0xbd7d3741	-0.061820272
165	0xbd8c2937	-0.068437986
166	0xbca8da1c	-0.020611815
167	0x3d7cd763	0.061728846
168	0xbd2ab6a5	-0.04167809
169	0x3daf5907	0.085619025
170	0x3d5ece32	0.054395862
171	0x3ddcd087	0.10781961
172	0xbdee96c3	-0.11649849
173	0x3e1104cd	0.14161988
174	0x3d9619f8	0.07329172
175	0x3c9c587b	0.01908516
176	0x3d0c68a9	0.0342795
177	0x3db9c1e5	0.090701856
178	0x3d331a7c	0.04372643
179	0x3d547074	0.051865056
180	0x3e0946f6	0.13405976
181	0x3e1dd146	0.15411863
182	0xbd53d31c	-0.051715
183	0xbbcbffbb	-0.006225554
184	0xbc56f638	-0.013120227
185	0xbcd12a02	-0.025532726
186	0x3dabd8e8	0.08390981
187	0x3d6af7aa	0.057365097
188	0xbd70d81e	-0.058799855
189	0xbe1cc53d	-0.15309615
190	0x3d0a3fc4	0.033752218
191	0x3dcb4563	0.09925344
192	0x3e45edbd	0.19328971
193	0xbc47a6ba	-0.012185747
194	0xbdf76517	-0.12079828
195	0xbe012e36	-0.12615284
196	0x3a5371a9	0.0008065948
197	0x3df132b0	0.11777246
198	0x3dd5b23c	0.10434386
199	0x3e01311a	0.12616387
200	0xbd00193b	-0.03127406
201	0xbdf2a301	-0.11847497
202	0x3e439ce9	0.19102825
203	0xbdc59a4f	-0.09648573
204	0xbd5f0045	-0.054443616
205	0xbdc798af	-0.09745919
206	0xbc0231c1	-0.007946433
207	0x3d80aa21	0.062824495
208	0x3e90e63c	0.28300655
209	0xbcd6b50d	-0.026209379
210	0xbce2e66a	-0.02769776
211	0xbde8d11b	-0.11368009
212	0x3e5e027c	0.21680635
213	0xbe5929b5	-0.21207316
214	0xbdb6d28a	-0.08926876
215	0xbdd348ae	-0.10316597
216	0xbd115004	-0.0354767
217	0xbd57a17d	-0.05264424
218	0xbc4f7dd8	-0.012664281
219	0xbdf755a4	-0.120768815
220	0x3d735047	0.05940273
221	0x3dc10d46	0.0942636
222	0x3dd6d4f7	0.104898386
223	0x3e1d4248	0.15357316
224	0x3d167286	0.03673031
225	0xbd2a911e	-0.0416423
226	0xbe70e0cb	-0.23523252
227	0xbda27ec6	-0.07934336
228	0x3dc8f9b0	0.09813249
229	0xbd2db2b4	-0.042406753
230	0x3d53d8f5	0.05172058
231	0x3d88cf9c	0.06680223
232	0xbe04de7c	-0.12975496
233	0xbd9a0a4b	-0.075214945
234	0xbd8ee04e	-0.069763765
235	0x3cdb8c1b	0.026800206
236	0x3e0f8df9	0.14019002
237	0xb87422ca	-5.8206533e-05
238	0x3d772a1d	0.060342897
239	0x3e505020	0.20343065
240	0xbb99de2e	-0.0046956753
241	0x3e284370	0.16431975
242	0x3dd98e7a	0.106228784
243	0xbd23821b	-0.039919
244	0x3e007039	0.1254281
245	0xbd44d61f	-0.048055764
246	0xbe867e94	-0.26268446
247	0x3e1ff845	0.15622051
248	0x3df22b27	0.11824637
249	0x3e3da2e3	0.18519168
250	0xbd2f30a1	-0.042770986
251	0x3e025051	0.12725951
252	0xbdd6f7c9	-0.1049648
253	0xbe73a25b	-0.23792402
254	0x3d892cef	0.066980235
255	0xbdcf1c3f	-0.101128094

encoder.layers.0.linear1.bias f4 [128]
0	0x3c8362dd	0.016038353
1	0x3d541725	0.051779885
2	0xbd79948e	-0.06093269
3	0x3da1c523	0.07898929
4	0x3da6c458	0.08142918
5	0xbe12d5ab	-0.1433932
6	0x3de5ae7e	0.11214922
7	0x3de6ae2b	0.11263689
8	0x3d35bfb6	0.044372283
9	0xbdbef272	-0.093235865
10	0xbd66734b	-0.056262296
11	0x3d2cb5b6	0.04216548
12	0x3dae969b	0.085248195
13	0x3d82851d	0.063730456
14	0xbe31c9e9	-0.17362179
15	0x3d324558	0.043523163
16	0x3e0aea24	0.1356588
17	0x3c224ba6	0.009905731
18	0xbcf0f977	-0.02941583
19	0x3de0117b	0.10940834
20	0x3dc6e838	0.09712261
21	0xbd5e8b19	-0.054331873
22	0xbd018b74	-0.031627133
23	0xbe4e76e0	-0.20162535
24	0xbd305eeb	-0.04305927
25	0x3e095540	0.13411427
26	0x3dd2549f	0.102700464
27	0x3cd2e490	0.025743753
28	0x3b86f97f	0.0041190977
29	0x3cd2a5fe	0.025713917
30	0xbe2aed1a	-0.1669201
31	0xbe27bee4	-0.16381413
32	0xbb16b885	-0.0022998166
33	0xbd89a607	-0.0672112
34	0xbd296cc4	-0.041363493
35	0x3d3ddb42	0.04635168
36	0xbd1c3ddc	-0.03814493
37	0xbe5f5335	-0.21809085
38	0xbe0ded4f	-0.13860057
39	0x3dd678b2	0.104722396
40	0x3b6c7415	0.0036079932
41	0x3d934897	0.0719158
42	0xbe16a829	-0.14712586
43	0xbdb444b4	-0.088021666
44	0xbe26242e	-0.16224739
45	0xbdacba2c	-0.08433947
46	0xbc751ea9	-0.014960923
47	0xbd734563	-0.059392344
48	0x3da0ddce	0.07854806
49	0x3e061ef0	0.13097739
50	0x3cc2dcd7	0.023786945
51	0xbe0faac0	-0.1402998
52	0xbaae690a	-0.001330645
53	0x3c5c6a8a	0.013453135
54	0x3e017f54	0.12646228
55	0xbe12327f	-0.14277075
56	0xbe41260c	-0.1886217
57	0xbe3157dd	-0.17318673
58	0x3d1e9122	0.03871263
59	0xbe11ccfc	-0.14238352
60	0xbdf9f1ae	-0.122043
61	0xbe08ca5a	-0.13358441
62	0x3dc3ff9f	0.0957024
63	0xbcb9f572	-0.022700045
64	0x3e13a51d	0.14418454
65	0xbe1ea264	-0.15491635
66	0xbe17f886	-0.14840898
67	0x3de546be	0.111951336
68	0xbbe19fd3	-0.0068855076
69	0xbdbc8f40	-0.0920701
70	0x3df5d1e4	0.12002924
71	0xbe23a9b4	-0.15982705
72	0x3d0a148c	0.033711
73	0xbe5773e5	-0.21040304
74	0xbc88b985	-0.016690025
75	0xbb5c8b26	-0.0033652275
76	0xbd123b53	-0.035701107
77	0xbdc3f560	-0.09568286
78	0x3cef6342	0.029222135
79	0x3ce8e845	0.028431067
80	0xbe032753	-0.1280797
81	0xbd9f3502	-0.07773782
82	0xbdb51d56	-0.08843486
83	0x3e08daea	0.13364759
84	0xbb4c7007	-0.0031194703
85	0xbde67b91	-0.11254037
86	0x3dd01e6a	0.10162051
87	0x3d9bc288	0.07605463
88	0x3d022c3a	0.03178046
89	0xbd7594db	-0.059956413
90	0x3dae5931	0.08513106
91	0xbc7e5294	-0.015522618
92	0xbd5e24a4	-0.054234162
93	0xbe1538db	-0.1457247
94	0xbd04edcb	-0.03245334
95	0x3e14871d	0.14504667
96	0x3e1bba93	0.15207891
97	0x3df60f44	0.120146304
98	0xbdcd5b7f	-0.10027217
99	0x3dab3cf5	0.08361236
100	0xbd025341	-0.03181768
101	0x3dc46a69	0.095906086
102	0xbe173ba9	-0.14768852
103	0x3df9e011	0.122009404
104	0xbe0107c3	-0.12600617
105	0xbdb7670b	-0.08955201
106	0xbd26d327	-0.040728714
107	0xbe2ebf60	-0.17065191
108	0x3e0ca40b	0.13734452
109	0xbe29843b	-0.16554348
110	0xbbb89d3a	-0.0056339772
111	0xbd0a61aa	-0.033784546
112	0xbe036a3e	-0.12833497
113	0xbd391476	-0.04518553
114	0x3c3fe69f	0.011712699
115	0x3e06c3a5	0.1316057
116	0x3e19121e	0.14948317
117	0xbe1f341b	-0.1554722
118	0xbd53497a	-0.051583745
119	0xbdfa058f	-0.122080915
120	0xbd4e3a9d	-0.050348867
121	0x3c684182	0.0141757745
122	0xbdbc27f8	-0.09187311
123	0xbd857e82	-0.0651827
124	0xbdb5e429	-0.08881409
125	0xbe25a141	-0.16174795
126	0x3b41d153	0.002957423
127	0xbe195fb8	-0.1497792
