models/Proposed/kaon.pt (torch, 165191 bytes, 35 tensors)

emb.layers.0.weight f4 [128, 20]
0	0x3c3e61b5	0.011619975
1	0x3e616566	0.22011337
2	0xbc051324	-0.008122239
3	0xbe00a207	-0.12561809
4	0x3e45e628	0.19326079
5	0x3d4d9642	0.050192125
6	0xbdb8b635	-0.09019128
7	0xbe3a1480	-0.18171883
8	0xbe38046a	-0.17970434
9	0xbd42b6a7	-0.047537472
10	0x3e524bb0	0.20536685
11	0xbde8c8fe	-0.11366461
12	0xbdf3cd99	-0.11904449
13	0xbcf48e42	-0.02985299
14	0xbe7186bc	-0.23586553
15	0x3e2dc3aa	0.16969171
16	0x3d3d708b	0.046249907
17	0xbe8767c5	-0.26446357
18	0xbe900fbe	-0.2813701
19	0xbdea4076	-0.11438076
20	0xbe7a6c66	-0.24455413
21	0xbe60e96e	-0.21964046
22	0x3ea0224a	0.3127616
23	0x3d0a8f83	0.03382827
24	0xbd918b08	-0.07106596
25	0x3e040aed	0.12894793
26	0xbe21eb35	-0.1581238
27	0x3df00e43	0.1172147
28	0xbedf8df6	-0.43662995
29	0x3d630018	0.05542001
30	0x3e2b6aa4	0.16739899
31	0xbdea13bb	-0.114295445
32	0xbc2903a0	-0.010315806
33	0x3caa9f1c	0.020827822
34	0x3da1e200	0.07904434
35	0x3b8eaf20	0.0043543726
36	0xbdd53899	-0.10411186
37	0xbe03961a	-0.12850228
38	0x3d320d7f	0.043469902
39	0xbe2c643c	-0.16835111
40	0x3d13e1e5	0.0361041
41	0xbd849086	-0.06472878
42	0xbe508ce4	-0.20366246
43	0xbe2753c6	-0.16340551
44	0xbf061eb5	-0.52390605
45	0xbe4f38cc	-0.2023651
46	0x3e0435b5	0.12911113
47	0xbdc9d110	-0.09854329
48	0xbec0c8a3	-0.37653074
49	0xbe8eac60	-0.27865887
50	0x3e5213ce	0.20515367
51	0xbdcc4292	-0.09973635
52	0xbd75f45a	-0.060047485
53	0xbdbe3b73	-0.09288683
54	0xbe559ebb	-0.20861332
55	0x3d0d1a98	0.03444919
56	0xbe20f378	-0.15717876
57	0x3d3182a9	0.043337498
58	0x3e16e24f	0.14734767
59	0xbe6cf1e7	-0.23139153
60	0x3e07f10c	0.13275546
61	0xbe8bc936	-0.2730195
62	0xbf0401c2	-0.5156518
63	0xbe992d9b	-0.29917607
64	0xbe76b67f	-0.24093054
65	0x3e0d5d59	0.1380514
66	0xbd990545	-0.07471708
67	0x3dccd23b	0.10001036
68	0xbb86147e	-0.0040917983
69	0x3d95c8b6	0.07313673
70	0xbda564c6	-0.08075862
71	0x3c2155fa	0.009847159
72	0xbe7588c3	-0.23977952
73	0x3d759b99	0.059962843
74	0xbe0b3b8f	-0.13596939
75	0xbe413a7b	-0.18869965
76	0xbe8c0bac	-0.27352655
77	0xbee6f882	-0.4511147
78	0x3e0f049d	0.13966604
79	0x3df21a80	0.11821461
80	0x3c6b560f	0.01436378
81	0xbe823021	-0.25427344
82	0x3d57a1ba	0.05264447
83	0xbe4b1eae	-0.19835922
84	0xbbeb6d0e	-0.007184631
85	0x3bbb3398	0.0057129376
86	0xbcedea4b	-0.029042384
87	0xbc578326	-0.013153827
88	0x3db3b10c	0.087740034
89	0xbe146f0e	-0.14495489
90	0x3e21e05e	0.15808246
91	0x3cea7157	0.028618498
92	0x3db80ef4	0.08987227
93	0xbdb2f26d	-0.08737645
94	0x3e27ad73	0.1637476
95	0x3d038520	0.03210938
96	0xbc32a0b4	-0.010902572
97	0x3dd3c04a	0.103394106
98	0xbe4e8093	-0.20166235
99	0xbe367b81	-0.1782055
100	0xbd59a8c1	-0.053139452
101	0xbcc1f1ad	-0.02367481
102	0xbe1ecdc4	-0.15508181
103	0xbe2f5de6	-0.17125663
104	0x3da6fdae	0.08153854
105	0x3dcfa0a4	0.10138062
106	0x3c98b9d0	0.01864329
107	0x3e1bffca	0.15234295
108	0x3de46701	0.11152459
109	0x3e2d92bd	0.16950507
110	0xbe222066	-0.15832672
111	0x3cfeae21	0.03108889
112	0xbe6e6a05	-0.2328263
113	0xbe70bbbe	-0.23509118
114	0x3e3b805f	0.18310688
115	0x3df91434	0.121620566
116	0x3da4560c	0.08024225
117	0xbec895df	-0.39176843
118	0xbe582439	-0.21107568
119	0xbe24fb47	-0.1611148
120	0xbe34c4a2	-0.17653134
121	0xbda6f3e1	-0.08151985
122	0xbe6291a4	-0.2212587
123	0xbdbfbb07	-0.093618445
124	0xbd453309	-0.048144374
125	0xbe296592	-0.16542652
126	0xbd9bb551	-0.07602943
127	0xbe7e3a3c	-0.24826902
128	0xbe4d6b83	-0.20060544
129	0xbe02fd69	-0.12791981
130	0xbe91a947	-0.2844946
131	0xbc8c7998	-0.017147824
132	0xbdcdd7e7	-0.10050946
133	0x3c4d0cd0	0.012515262
134	0x3dcc6cc5	0.09981684
135	0xbe517bc1	-0.20457365
136	0xbe29fc81	-0.16600229
137	0x3e2523d6	0.16126952
138	0x3cfaa1f4	0.030594803
139	0x3d437391	0.047717635
140	0xbe65a3a5	-0.22425707
141	0xbe36b511	-0.17842509
142	0xbe2f9eb0	-0.17150378
143	0x3d8cef76	0.06881611
144	0x3dea644b	0.114449106
145	0xbdcd2e10	-0.10018551
146	0xbe4861cf	-0.19568561
147	0x3d312e4a	0.043257035
148	0xbd3323f3	-0.043735456
149	0x3e08d394	0.1336196
150	0x3ec26c81	0.37973407
151	0x3e48bd52	0.1960347
152	0xbe72d635	-0.23714526
153	0xbca6a8fd	-0.020344252
154	0x3e34d14f	0.1765797
155	0xbe0e1470	-0.13874984
156	0x3ccec4e0	0.025240362
157	0x3d17a0be	0.03701853
158	0x3d05fd1b	0.032712083
159	0xbe8aa72b	-0.27080664
160	0x3cd950ef	0.02652785
161	0xbd9757f4	-0.073898226
162	0x3daf0dac	0.085475296
163	0x3e2d89bc	0.16947073
164	0x3e431ddf	0.19054364
165	0xbb848303	-0.004043938
166	0x3e10d69d	0.14144368
167	0xbd2d2907	-0.042275455
168	0xbe0d5a33	-0.1380394
169	0x3dde0c75	0.1084222
170	0xbc6dfb32	-0.014525222
171	0xbe2641bd	-0.16236015
172	0xbe5ed1d0	-0.21759725
173	0xbe6cb88a	-0.23117271
174	0xbd4f05d7	-0.05054268
175	0xbe92e001	-0.28686526
176	0x3e2d70ae	0.16937515
177	0x3df69cc0	0.120416164
178	0x3e7dd8c8	0.24789727
179	0x3e0cf953	0.13766985
180	0x39e9b635	0.00044576978
181	0x3ea98586	0.33109683
182	0x3e7e1c7f	0.24815558
183	0x3dbd0c5a	0.092308715
184	0x3d19be8a	0.037535228
185	0xbd7030b6	-0.058640204
186	0xbdf6eacd	-0.120565034
187	0xbdfebebf	-0.12438726
188	0x3decb748	0.115583956
189	0x3d94fda8	0.072749436
190	0xbd9d2151	-0.0767237
191	0x3dece825	0.115677156
192	0xbe62fb78	-0.2216624
193	0xbe9cc0ad	-0.3061575
194	0xbe75395e	-0.23947665
195	0x3c119482	0.008885505
196	0xbe479417	-0.19490086
197	0x3e1c6419	0.15272559
198	0xbdc2eee3	-0.0951822
199	0x3e435643	0.19075875
200	0x3de9461f	0.11390328
201	0xbdb05335	-0.086096205
202	0xbd10faa4	-0.03539528
203	0x3d5b3325	0.053515572
204	0x3e98a0df	0.29810235
205	0xbdf2c7b1	-0.11854494
206	0x3e1f900c	0.15582293
207	0x3e1061bd	0.14099784
208	0xbd51100c	-0.051040694
209	0x3e36a56d	0.17836542
210	0xbdfc0b1f	-0.12306809
211	0x3d9dcfe3	0.07705667
212	0x3d44ef47	0.048079755
213	0x3d0f613f	0.03500485
214	0x3e122e6d	0.14275523
215	0xbe3ea293	-0.18616705
216	0xbe36f4e0	-0.1786685
217	0x3e0bc02f	0.13647531
218	0xbe8640c1	-0.26221278
219	0xbe9722d9	-0.29518774
220	0x3cc31a9c	0.0238164
221	0x3d39ba89	0.04534391
222	0xbcfeccbc	-0.031103484
223	0x3e2ea57d	0.17055316
224	0x3e4050b7	0.1878079
225	0x3e252b3c	0.16129774
226	0x3e4fcc12	0.2029269
227	0x3dfa7b8b	0.12230595
228	0x3e20b090	0.15692353
229	0xbe0daf91	-0.13836505
230	0x3d6cf544	0.05785109
231	0x3e06beea	0.13158765
232	0xbe072ccc	-0.13200682
233	0x3db793a9	0.08963711
234	0xbd0b023a	-0.03393767
235	0xbe52c8f0	-0.20584464
236	0x3e32fca6	0.1747919
237	0x3e040827	0.12893735
238	0xbe928c26	-0.2862255
239	0x3d994ad9	0.07484979
240	0xbbac11da	-0.0052511515
241	0xbe20e7cb	-0.15713422
242	0xbf01fe5b	-0.5077874
243	0xbe9033d6	-0.28164548
244	0xbe640105	-0.22266014
245	0xbd3e6888	-0.046486408
246	0xbc52bb27	-0.012862003
247	0x3af523d3	0.0018702693
248	0x3d4cd0ea	0.050003923
249	0x3daad37a	0.08341117
250	0x3da62a86	0.081135795
251	0xbe09eb60	-0.13468695
252	0x3e424824	0.18972832
253	0x3e62e32e	0.22156975
254	0xbd598c3a	-0.053112246
255	0xbe7b4ab9	-0.24540223

emb.layers.0.bias f4 [128]
0	0x3d9b8e18	0.075954616
1	0x3ba5b131	0.0050565233
2	0x3e28b718	0.16476095
3	0xbda42f08	-0.08016783
4	0x3df1fa7a	0.11815353
5	0xbe1dc180	-0.15405846
6	0x3e2dce33	0.1697319
7	0xbddf3a5b	-0.10899802
8	0xbe004afa	-0.12528601
9	0x3dadb046	0.08480887
10	0xbe31623c	-0.1732263
11	0xbdc7f94e	-0.09764348
12	0xbe25b599	-0.16182555
13	0xbdcbef81	-0.09957791
14	0xbdbe0254	-0.09277788
15	0xbe3a5993	-0.18198232
16	0xbda9e1e5	-0.08295039
17	0xbe83df31	-0.2575622
18	0xbd774eac	-0.06037776
19	0xbe21b3c3	-0.1579123
20	0xbd85ac20	-0.06526971
21	0xbddfb8a1	-0.10923887
22	0x3ce4d897	0.02793531
23	0x3d6d89de	0.05799281
24	0x3d8d458b	0.0689803
25	0x3aff79f6	0.0019491303
26	0xbe0f45b5	-0.13991435
27	0x3ae3ecff	0.0017389356
28	0x3d94de53	0.072689675
29	0xbe2afc5b	-0.16697828
30	0xbd13ff5b	-0.036132198
31	0x3e1f599c	0.15561527
32	0x3c2e8732	0.01065235
33	0xbce1de75	-0.027571896
34	0x3e559b8d	0.20860119
35	0xbdcd8ecb	-0.10037001
36	0xbe674f12	-0.22588757
37	0x3d94cccc	0.072656244
38	0x3d85cfac	0.06533751
39	0x3daec21d	0.08533118
40	0xbd00ec6d	-0.031475473
41	0xbe3de9e8	-0.1854626
42	0x3dd83be9	0.10558302
43	0xbd493c6b	-0.049129885
44	0xbdce9ed1	-0.100888856
45	0x3e4c2887	0.19937335
46	0xbe277654	-0.16353732
47	0x3e39518b	0.18097512
48	0x3df9abdf	0.12190985
49	0xbdb45bc6	-0.08806567
50	0x3e26d5d0	0.162925
51	0x3e5bcc58	0.2146467
52	0x3df4cd49	0.119532175
53	0xbd83b293	-0.06430545
54	0xbe659985	-0.22421844
55	0x3cf60914	0.030033626
56	0x3db4ce3c	0.088283986
57	0xbe4eb933	-0.20187835
58	0x3dcc8b00	0.0998745
59	0x3dbf0284	0.09326652
60	0xbe499fdd	-0.19689889
61	0x3df65714	0.120283276
62	0x3cce931b	0.02521663
63	0x3e16da47	0.14731704
64	0x3e0ccee7	0.13750802
65	0xbd2d2fa7	-0.042281773
66	0xbdc941d7	-0.09827011
67	0xbd6be848	-0.057594568
68	0xbe5a2d05	-0.21306236
69	0xbc95fa5f	-0.018307863
70	0xbe524afa	-0.20536414
71	0x3ddca8a1	0.10774351
72	0xbb03b7e6	-0.0020098626
73	0x3dfef3f7	0.12448876
74	0x3dc6d32b	0.09708246
75	0x3e0f9cd3	0.14024667
76	0xbde81bdd	-0.113334395
77	0x3d9867d9	0.07441682
78	0xbde59c94	-0.112115055
79	0xbdd37cb1	-0.103265174
80	0xbca8e22f	-0.020615665
81	0xbd81a118	-0.06329554
82	0x3dbd480a	0.09242256
83	0xbe1964cc	-0.14979857
84	0xbd68fb49	-0.05688027
85	0xbddd4ac8	-0.10805279
86	0xbc762851	-0.015024261
87	0x3db3cb92	0.08779062
88	0x3e20d0a1	0.15704586
89	0x3e1f0b8f	0.15531753
90	0xbc1fb0f3	-0.009746778
91	0x3dd43e62	0.10363461
92	0x3d3af653	0.04564507
93	0xbe0cf60e	-0.13765737
94	0x3d353f20	0.044249654
95	0xbdff4741	-0.124647625
96	0x3ac05a77	0.0014675398
97	0x3e0ea393	0.13929586
98	0x3e1f1967	0.15537034
99	0xbdce3a27	-0.100696854
100	0xbcef3672	-0.029200766
101	0xbda751ed	-0.08169923
102	0x3cb2b01c	0.021812491
103	0xbd75f5d0	-0.06004888
104	0x3d6de8b4	0.05808325
105	0xbde71edc	-0.11285183
106	0x3d3ebaf2	0.046565004
107	0xbe00c67d	-0.12575717
108	0x3d3d9e67	0.046293642
109	0xbd18a31a	-0.03726492
110	0x3d9734a5	0.07383088
111	0x3cd5df30	0.0261074
112	0xbe062cf1	-0.13103081
113	0x3e5ac95b	0.21365874
114	0xbe0710f6	-0.13190064
115	0xbe1e8700	-0.15481186
116	0xbdb15c2e	-0.0866016
117	0xbd951136	-0.07278673
118	0xbe11a2ce	-0.14222261
119	0xbea4d84f	-0.3219628
120	0xbe0a3847	-0.1349803
121	0x3d8e444c	0.0694662
122	0xbe4e71d3	-0.20160608
123	0xbd70928a	-0.0587335
124	0xbe1de55d	-0.15419526
125	0xbd366088	-0.044525653
126	0x3dbecf09	0.093168326
127	0xbe1ce9ed	-0.1532361

emb.layers.2.weight f4 [32, 128]
0	0xbda58704	-0.08082393
1	0x3c664b94	0.014056105
2	0xbcaf7933	-0.021420097
3	0xbbb03b6f	-0.005378179
4	0xbd937abe	-0.072011456
5	0x3bc2da0f	0.0059464048
6	0x3dc22055	0.09478823
7	0x3e01998e	0.12656233
8	0xbdb0969b	-0.08622476
9	0x3d1a9100	0.03773594
10	0x3df1e08f	0.11810409
11	0xbcaf3551	-0.021387728
12	0xbda67a98	-0.08128852
13	0x3d27f627	0.041006234
14	0xbdc880b5	-0.09790174
15	0xbdd7fbfc	-0.10546109
16	0x3e48d181	0.1961117
17	0x3e079d61	0.13243629
18	0x3d7293fc	0.05922316
19	0x3ce581d4	0.028016008
20	0x3d141e47	0.036161687
21	0x3d4e9732	0.05043716
22	0xbc94e4a6	-0.018175434
23	0xbc7b3c74	-0.015334237
24	0xbd2de452	-0.04245407
25	0xbce93132	-0.028465841
26	0x3d3b7adb	0.04577146
27	0x3deba3b1	0.11505831
28	0x3c2cde03	0.010550979
29	0x3dc687be	0.096938595
30	0xbd654ad6	-0.055979572
31	0xbd7c3fb9	-0.06158421
32	0x3dd569db	0.10420581
33	0xbd597f2c	-0.053099796
34	0xbd480140	-0.048829317
35	0x3dc18bf9	0.09450526
36	0xbd82d1e1	-0.063876875
37	0xbd652b37	-0.055949416
38	0xbcc3a9ef	-0.023884742
39	0xbd431914	-0.04763134
40	0x3d867b4a	0.06566484
41	0xbe0b5640	-0.1360712
42	0xba47958f	-0.00076135335
43	0xbc71da2b	-0.014761488
44	0x3c0218a6	0.007940447
45	0x3db202a5	0.08691911
46	0x3e25a23d	0.1617517
47	0xbc635ce9	-0.013877132
48	0xbd93ff58	-0.07226437
49	0xbd22ae58	-0.03971705
50	0x3d9e8165	0.07739524
51	0x3d9b234e	0.07575093
52	0xbdc41079	-0.095734544
53	0xbdcb2782	-0.09919645
54	0xbc9253cb	-0.017862221
55	0x3cff7ef2	0.031188462
56	0xbc39500f	-0.011310591
57	0xb9e503a8	-0.00043681008
58	0x3d04c158	0.03241095
59	0x3a12a2ed	0.0005593736
60	0xbe2264a7	-0.15858708
61	0x3e00623d	0.12537475
62	0x3d069fa8	0.032867104
63	0xbd860292	-0.06543459
64	0x3d62ff3d	0.055419195
65	0x3d520107	0.05127051
66	0xbd169d7a	-0.036771275
67	0x3bccf61e	0.0062549254
68	0xbdad135f	-0.0845096
69	0xbc0a1549	-0.008427926
70	0xbca9347d	-0.020654911
71	0x3d92ec59	0.07173986
72	0x3d9ffcb8	0.07811874
73	0xbd3fe417	-0.046848383
74	0x3d39abbe	0.0453298
75	0x3d7e09c2	0.062021025
76	0xbb041e1f	-0.0020159555
77	0x3d9b7c52	0.075920716
78	0x3db1fcc5	0.0869079
79	0xbe04f4d8	-0.12984025
80	0x3c05c13d	0.008163747
81	0x3cf14ab9	0.029454576
82	0x3ce26dba	0.027640212
83	0xbd896dbd	-0.06710384
84	0x3d19a910	0.037514746
85	0x3dd9eeb3	0.106412314
86	0x3da1337e	0.078711495
87	0x3cf17b35	0.029477695
88	0x3c717a9b	0.014738704
89	0xbde484e8	-0.11158162
90	0x3dd977d7	0.10618561
91	0xbc08d709	-0.00835205
92	0x3d00f9c1	0.031488184
93	0x3d876f67	0.06613045
94	0x3c460ef3	0.012088525
95	0xbd625cf8	-0.055264443
96	0xbe010233	-0.12598495
97	0xbc9c02c0	-0.01904428
98	0xbcf7e367	-0.030259801
99	0xbdb32b36	-0.08748476
100	0xbdd26dba	-0.10274835
101	0x3dbdb0f8	0.0926227
102	0xbda2cb6e	-0.079489574
103	0xbda42950	-0.08015692
104	0xbd471ee7	-0.048613455
105	0x3da073fe	0.07834624
106	0xbcd1c926	-0.02560861
107	0x3d9908a2	0.0747235
108	0x3d01485c	0.031563148
109	0xbb7c68ab	-0.0038514535
110	0x3d1072cf	0.03526574
111	0x3d8ad4bf	0.06778859
112	0x3e3889da	0.18021336
113	0xbdb4d48f	-0.08829605
114	0x3d8009e2	0.06251885
115	0xbdb9d88a	-0.09074505
116	0xbd5fd9a7	-0.05465093
117	0x3dcc3d4d	0.0997263
118	0xbdfcf846	-0.12352042
119	0xbc4129b9	-0.011789733
120	0xbd7a5f27	-0.0611259
121	0xbd4b699d	-0.049661268
122	0x3d8d578a	0.069014624
123	0x3e04b019	0.12957801
124	0x3b5d7429	0.003379116
125	0xbb6039d6	-0.003421416
126	0xbc77cdf9	-0.015124791
127	0x3ded1d10	0.11577809
128	0x3c7d222e	0.015450044
129	0xbd50ccfa	-0.05097673
130	0xbdaa6ffd	-0.08322141
131	0x3ceffc82	0.02929521
132	0xbdb8cf52	-0.09023918
133	0x3e40d570	0.1883142
134	0xbbf13d93	-0.0073620765
135	0xbd724e6f	-0.05915683
136	0xbb74b840	-0.0037341267
137	0x3d29104e	0.041275315
138	0x3db1fbef	0.08690631
139	0xbca80bbd	-0.02051341
140	0xbd0181fd	-0.031618107
141	0xbd8ac88c	-0.067765325
142	0xbcd78dfa	-0.026312817
143	0x3d4e623f	0.050386664
144	0x3dee2c6b	0.11629566
145	0xbd458420	-0.048221707
146	0x3c08af21	0.008342535
147	0x3ba3793b	0.004988817
148	0xbd420c57	-0.04737505
149	0x3cb3642f	0.021898357
150	0xbbd937c6	-0.006628963
151	0x3cabc32f	0.020967094
152	0x3d825f8f	0.063658826
153	0x3d9aabcd	0.075523
154	0x3db1f57e	0.08689402
155	0x3dd89e37	0.10577052
156	0x3c41ba96	0.011824271
157	0xbdfc9046	-0.123322055
158	0xbd291913	-0.04128368
159	0x3ca8d322	0.020608488
160	0x3cf9b615	0.030482331
161	0x3dbd2f50	0.0923754
162	0x3c6b960f	0.0143790385
163	0xbb99915c	-0.0046865176
164	0x3d403387	0.04692414
165	0x3a41f3fe	0.00073987234
166	0xbd3f289f	-0.0466696
167	0xbd1b0da4	-0.037854806
168	0x3d970aa8	0.073750794
169	0xbd03e962	-0.032204993
170	0x3d9a9c9e	0.075494036
171	0x3b65f115	0.0035086323
172	0xbc5d54eb	-0.013509016
173	0x3da0bf07	0.078489356
174	0x3d61e40f	0.055149134
175	0x3d79ca54	0.06098397
176	0xbd983b75	-0.074332155
177	0x3db8fb1b	0.090322696
178	0x3d1fbd19	0.038998697
179	0x3c9ad40f	0.018899946
180	0xbd363395	-0.044482786
181	0xbd3275ea	-0.043569483
182	0xbd2abaaa	-0.041681923
183	0xbcc26b9d	-0.023732955
184	0x3d9dd393	0.0770637
185	0xbd89745a	-0.067116454
186	0x3d93ddd8	0.07220048
187	0xbd1991d8	-0.037492603
188	0xbdaf9d6c	-0.08574948
189	0x3c29d383	0.01036537
190	0xbd6ec706	-0.058295272
191	0x3d270348	0.040774614
192	0xbd1cf57e	-0.038320057
193	0x3cd9a6d8	0.026568815
194	0xbd98e6e6	-0.074659154
195	0xbdec3dc5	-0.11535219
196	0x3d6f5f11	0.05844027
197	0xbd37aab2	-0.044840522
198	0xbdba0a46	-0.09083991
199	0x3a443d56	0.00074859464
200	0x3dced2ff	0.10098838
201	0xba062c31	-0.00051182794
202	0x3daeaeda	0.08529444
203	0x3cf280a7	0.029602362
204	0xbd8a842b	-0.0676349
205	0xbcf5a80a	-0.029987354
206	0xbd736163	-0.059419047
207	0xbc4eec79	-0.012629622
208	0xbdeca7f6	-0.115554735
209	0xbcd0442a	-0.025423128
210	0xbd0277c8	-0.031852514
211	0x3d44f1e3	0.048082244
212	0x3cfd26e6	0.030902337
213	0x3d3e66b6	0.04648467
214	0x3d3f8290	0.046755373
215	0x3d51bfd4	0.051208332
216	0x3c9ba032	0.018997286
217	0x3d26e3f5	0.04074474
218	0x3deb3cc1	0.11486197
219	0x3d952592	0.072825566
220	0xbcce51d6	-0.025185507
221	0x3d242c6b	0.040081423
222	0xbd6bdad1	-0.057581726
223	0xbc8194ae	-0.015817966
224	0x3d0b7d93	0.034055304
225	0x3d319d36	0.04336282
226	0xbd948af3	-0.07253065
227	0xbdf3c508	-0.11902815
228	0xbe344e20	-0.17607927
229	0x3daea216	0.08527009
230	0xbc80b96c	-0.015713416
231	0xbddd137d	-0.10794733
232	0x3dbd090e	0.09230243
233	0x3dc9021f	0.09814858
234	0x3d956af6	0.07295792
235	0x3cfa663b	0.030566325
236	0xbd06e674	-0.03293462
237	0xbd43f5fa	-0.047842003
238	0xbd3cb230	-0.04606837
239	0x3dad5e99	0.08465309
240	0x3d06de42	0.032926805
241	0xbd9adc00	-0.07561493
242	0x3d2d3cac	0.04229419
243	0xbcd7f9b4	-0.026364185
244	0x3d3dacb3	0.046307277
245	0x3e3a05d2	0.18166283
246	0xbd489801	-0.048973087
247	0xbdf0475f	-0.11732363
248	0xbd9ff379	-0.078101106
249	0xbdc14376	-0.09436695
250	0x3d8f3fcd	0.06994591
251	0x3d76224a	0.060091294
252	0xbd82ab36	-0.06380312
253	0x3dbbf7c3	0.09178116
254	0xbd8fa8d7	-0.070146255
255	0x3dc0c997	0.0941345

emb.layers.2.bias f4 [32]
0	0x3c1cb0ad	0.009563607
1	0xbd21911d	-0.03944503
2	0xbd985509	-0.07438094
3	0x3bdff6d4	0.006834844
4	0x3cc15745	0.023601184
5	0xbc12b034	-0.008953143
6	0xbd6899ff	-0.056787487
7	0x3d84dae4	0.064870626
8	0xbd89a869	-0.06721575
9	0x3d3ee4e6	0.046605013
10	0x3d687ba9	0.056758557
11	0xbcb95951	-0.022625597
12	0x3d1953cd	0.037433434
13	0x3da14bae	0.07875763
14	0xbd68d468	-0.05684319
15	0xbd9809c2	-0.07423736
16	0x3ccc3fb6	0.024932723
17	0x3c98e68b	0.018664619
18	0x3cafbd46	0.021452557
19	0x3da05dcd	0.07830391
20	0xbd7aa451	-0.06119186
21	0xbce53633	-0.027979946
22	0xbd2fb735	-0.04289933
23	0xbd93fd1d	-0.07226012
24	0xbdba1975	-0.09086887
25	0x3b07978d	0.0020689697
26	0xbd5d835e	-0.05408036
27	0x3d432323	0.04764093
28	0x3c4ac2fa	0.012375588
29	0xbcabe33f	-0.020982383
30	0xbceeb35c	-0.02913826
31	0x3d5b8ab7	0.053599086

encoder.layers.0.self_attn.in_proj_weight f4 [96, 32]
0	0xbd1c66f7	-0.038184132
1	0xbba0d2ea	-0.0049079554
2	0xbe3bd8b2	-0.18344381
3	0xbd437f39	-0.04772875
4	0xbe114cf3	-0.1418951
5	0x3d43d593	0.047811102
6	0x3d4b4baf	0.049632724
7	0xbe121abf	-0.14268015
8	0x3d1f7d6a	0.038937964
9	0x3d9dbfb5	0.07702581
10	0xbd31c04c	-0.04339628
11	0x3e3d9668	0.18514407
12	0xbe42b449	-0.19014086
13	0x3de89ac3	0.113576435
14	0xbd9200a0	-0.071290255
15	0xbd5a92d7	-0.053362694
16	0xbe36f215	-0.17865784
17	0x3e420f64	0.18951184
18	0xbbfad882	-0.0076552043
19	0xbd287686	-0.041128658
20	0x3e2542e4	0.16138798
21	0xbab34b03	-0.0013678971
22	0xbe0c52ae	-0.13703415
23	0xbe1a902e	-0.15094063
24	0x3e10a83c	0.14126676
25	0x3da8721f	0.08224892
26	0xbd07ea87	-0.033182647
27	0xbd0572ba	-0.032580115
28	0x3e0bf6af	0.13668321
29	0xbd9412e5	-0.07230166
30	0x3e118347	0.14210235
31	0x3d648b5b	0.055796962
32	0x3dc3268f	0.09528839
33	0xbe18a614	-0.14907104
34	0x3dfe68f5	0.12422363
35	0x3ce71ff7	0.028213484
36	0x3dd493cb	0.10379752
37	0x3e062e20	0.13103533
38	0xbd97b052	-0.07406677
39	0xbbb30d6e	-0.0054642474
40	0x3e4d8649	0.20070757
41	0xbe14087c	-0.14456362
42	0xbdfd7506	-0.12375836
43	0xbd9d1708	-0.076704085
44	0x3ddc1be6	0.10747509
45	0x3df76032	0.12078895
46	0xbe35f2fb	-0.17768471
47	0x3df1cf11	0.11807073
48	0xbce806a4	-0.028323479
49	0xbe30e15b	-0.17273466
50	0xbd649777	-0.05580851
51	0x3dfabc0f	0.122429006
52	0x3e89e9bc	0.26936138
53	0xbe613bfb	-0.21995537
54	0xbe65ff9a	-0.22460786
55	0xbd126f8f	-0.03575092
56	0x3e5ff2ba	0.21869937
57	0x3e359513	0.17732649
58	0x3e50466b	0.20339362
59	0xbdc4b5eb	-0.096050106
60	0xbdd64c0f	-0.10463726
61	0x3e03db35	0.1287659
62	0x3e71a7e2	0.23599198
63	0x3cc53231	0.024071785
64	0xbcba87cb	-0.02276983
65	0xbd7413c0	-0.059589148
66	0x3e1020f2	0.14075068
67	0xbe5de701	-0.21670152
68	0xbd29980c	-0.04140477
69	0xbde471fd	-0.11154554
70	0xbd02c84f	-0.03192931
71	0x3d682db1	0.0566842
72	0x3e35cb54	0.17753345
73	0xbe515f17	-0.2044643
74	0xbdc9b958	-0.09849805
75	0x3e352849	0.17691149
76	0xbaf04133	-0.0018329978
77	0xbe355309	-0.17707457
78	0xbe29e802	-0.1659241
79	0xbd4f6569	-0.05063382
80	0xbd81281b	-0.06306478
81	0xbb8cb1ca	-0.004293655
82	0xbe320dcf	-0.1738808
83	0x3da2c4a6	0.07947664
84	0x3dea58bf	0.11442708
85	0xbd691c1a	-0.056911565
86	0xbe2fff5a	-0.17187253
87	0xbcf17e71	-0.029479237
88	0x3e31299e	0.17301032
89	0xbe008d65	-0.12553938
90	0x3e1106fe	0.14162824
91	0x3d1dd348	0.03853157
92	0xbe5abeaa	-0.21361795
93	0xbdd059d8	-0.10173386
94	0x3db169c0	0.08662748
95	0xbb47ec9b	-0.0030506018
96	0xbc4fde24	-0.01268724
97	0xbd75a78a	-0.05997423
98	0x3d3385b2	0.043828674
99	0x3e040f14	0.12896377
100	0x3d08480f	0.033271845
101	0x3c5d6e59	0.013515078
102	0x3ca47131	0.020073505
103	0x3c3a44e9	0.0113689685
104	0xbdd4ebbf	-0.103965275
105	0x3d3e75a2	0.046498902
106	0xbc648c9c	-0.0139495395
107	0xbd8e7ea7	-0.06957751
108	0x3d41274f	0.04715663
109	0x3d292194	0.04129179
110	0x3daa01f6	0.08301155
111	0xbdacc102	-0.08435251
112	0x3d1ed97e	0.038781635
113	0xbe2f1344	-0.17097193
114	0xbe8237e7	-0.25433275
115	0xbdb42f88	-0.08798128
116	0xbe6d3c28	-0.23167479
117	0xbe09bb3d	-0.13450332
118	0xbe15193f	-0.14560412
119	0xbd804084	-0.062623054
120	0xbe8d3b87	-0.27584478
121	0x3c75d922	0.015005382
122	0xbc995d73	-0.018721318
123	0x3e575200	0.21027374
124	0xbd7199c5	-0.058984537
125	0x3d96efa0	0.073699236
126	0xbe2ebc77	-0.17064081
127	0xbe0f6a27	-0.14005338
128	0x3b6f8e20	0.003655322
129	0x3d0884bd	0.033329714
130	0xbe3ca598	-0.18422544
131	0x3dbff0b1	0.0937208
132	0xbc36be9d	-0.011153844
133	0x3d5a40d2	0.053284474
134	0xbda322bf	-0.07965612
135	0xbc6a48b3	-0.014299559
136	0xbce03484	-0.027368791
137	0xbd8f623f	-0.07001161
138	0xbe982ae6	-0.2972023
139	0x3db9c15b	0.09070083
140	0x3e623dfc	0.22093958
141	0x3d02fa44	0.031976953
142	0xbc0660a5	-0.008201753
143	0xbe536d52	-0.20647171
144	0xbd198c73	-0.03748746
145	0x3e074171	0.13208558
146	0x3e24cdd1	0.16094138
147	0xbd895a22	-0.067066446
148	0xba57068b	-0.0008202574
149	0x3d8f8fed	0.070098735
150	0x3e35a85f	0.1774001
151	0xbe28cfa4	-0.16485459
152	0xbd2df390	-0.042468607
153	0x3d32c016	0.04364022
154	0x3d6b2710	0.0574103
155	0xbdcd9132	-0.100374594
156	0x3e545ffa	0.20739737
157	0xbe4b1f5b	-0.1983618
158	0xbe4011b9	-0.1875676
159	0x3e16fdc2	0.14745238
160	0xbd118803	-0.0355301
161	0xbb8ff032	-0.004392647
162	0xbdad1b6e	-0.084524974
163	0xbd81430d	-0.06311617
164	0xbe2b03d9	-0.16700687
165	0x3d4dc97a	0.05024097
166	0x3e56383c	0.20919889
167	0x3c4aa710	0.012368932
168	0xbc7fb389	-0.015606769
169	0x3e26a32c	0.16273183
170	0x3e0055e8	0.1253277
171	0x3da594b2	0.08085002
172	0x3e80d254	0.25160468
173	0x3d769766	0.06020298
174	0xbe1ecb2e	-0.15507194
175	0xbe58e86e	-0.21182415
176	0xbe0ef12b	-0.13959186
177	0xbb95661b	-0.004559291
178	0x3b684dd7	0.0035446787
179	0x3e67ea7a	0.2264804
180	0x3c17cae3	0.009264681
181	0xbce09218	-0.027413413
182	0x3e7f00f7	0.24902712
183	0xbe320f69	-0.17388691
184	0x3c4e2003	0.012580874
185	0xbcf01895	-0.029308597
186	0x3dd77721	0.10520769
187	0x3ddfb976	0.10924046
188	0x3dfca2b1	0.123357184
189	0xbe3374d5	-0.17525037
190	0x3d7a4f8f	0.06111103
191	0x3c881323	0.016610688
192	0x3d951e3a	0.07281156
193	0xbb062321	-0.0020467716
194	0xbd99dc6b	-0.075127445
195	0xbd671056	-0.056412064
196	0x3dc08816	0.09400956
197	0x3dc025a2	0.09382178
198	0x3e03a6b6	0.12856564
199	0xbde6c9c5	-0.11268953
200	0x3da786ac	0.081799835
201	0x3e042992	0.12906483
202	0xbe310f60	-0.17291021
203	0xbe1ec67f	-0.15505408
204	0xbc5106d6	-0.0127579775
205	0xbbe8ca30	-0.0071041808
206	0xbda08309	-0.07837493
207	0xbd14804a	-0.03625516
208	0xbe57a172	-0.2105768
209	0x3d82a50d	0.06379137
210	0xbd6563b0	-0.056003273
211	0x3d9dd7b8	0.07707161
212	0x3da73738	0.08164829
213	0x3e255f00	0.16149521
214	0xbe32c557	-0.17458092
215	0x3e0e8c67	0.13920747
216	0xbe6c4f10	-0.23077035
217	0xbdd2522f	-0.102695815
218	0xbe4aed36	-0.19817051
219	0x3e8bffea	0.27343684
220	0x3e35206f	0.17688154
221	0x3b99213a	0.0046731504
222	0xbd617897	-0.055046644
223	0x3e51a309	0.20472349
224	0x3db96a3b	0.09053465
225	0x3e51574d	0.20443459
226	0x3c27f90e	0.01025225
227	0xbd18b282	-0.037279613
228	0xbe15b976	-0.14621529
229	0x3c357c9b	0.011077072
230	0x3e0332ff	0.12812422
231	0x3e0c9725	0.13729532
232	0xbe00b6a4	-0.12569672
233	0xbe37c76d	-0.17947169
234	0x3e1c4c84	0.15263563
235	0x3d295873	0.041344117
236	0xbe5d3460	-0.2160201
237	0x3e181317	0.14851032
238	0xbdb1e1fd	-0.08685682
239	0x3e5ca38c	0.21546763
240	0x3dfe390d	0.12413225
241	0x3e2e5b5c	0.17027038
242	0xbe03c44e	-0.12867853
243	0xbe046e24	-0.1293264
244	0xbd52f2ed	-0.051501203
245	0xbe028779	-0.12746991
246	0x3dd6348a	0.1045924
247	0xbe3f7814	-0.1869815
248	0xbe45a0a6	-0.19299564
249	0xbdcfe38e	-0.101508245
250	0x3c28938f	0.010289087
251	0xbe014671	-0.12624528
252	0x3d6b94ed	0.057515074
253	0x3d880623	0.066417955
254	0xbd8787ed	-0.06617723
255	0x3da2a449	0.07941491

encoder.layers.0.self_attn.in_proj_bias f4 [96]
0	0xbdda0409	-0.10645301
1	0xbe6eedeb	-0.23332946
2	0xbe1629ca	-0.14664379
3	0x3dfc82d8	0.12329644
4	0x3e536617	0.20644413
5	0x3e1fd71c	0.15609401
6	0x3e0d6dba	0.13811389
7	0xbd92385c	-0.07139656
8	0xbe2bc65c	-0.16774887
9	0x3e27efa5	0.16400011
10	0x3d180fa8	0.037124306
11	0x3e30d255	0.17267735
12	0xbe2c2f13	-0.16814832
13	0x3dea7e93	0.11449923
14	0xbe44b515	-0.19209702
15	0x3e6071f7	0.21918474
16	0xbdfbd5dd	-0.122966506
17	0x3e0a5bd7	0.13511597
18	0xbdf1a551	-0.1179911
19	0xbd954f89	-0.07290561
20	0x3df1b5b4	0.11802235
21	0xbdeb615a	-0.11493178
22	0xbe044fd0	-0.12921071
23	0x3dbf07c9	0.09327657
24	0xbdc8e5f5	-0.09809486
25	0xbdf86773	-0.121291064
26	0x3e1aab21	0.15104343
27	0x3df0bbaf	0.11754548
28	0x3db542b7	0.088506155
29	0x3e4ba32b	0.19886462
30	0x3de57823	0.11204555
31	0xbe00eaa2	-0.12589505
32	0xb82313a7	-3.888053e-05
33	0x3893fa12	7.0560855e-05
34	0xb6fd5917	-7.550359e-06
35	0x37907b79	1.7223634e-05
36	0x380fe0de	3.430328e-05
37	0x36f599fb	7.3194947e-06
38	0x37c692e1	2.3671835e-05
39	0xb765387d	-1.3662616e-05
40	0xb7cfc067	-2.4765917e-05
41	0x3799eee5	1.8350265e-05
42	0x37a2d809	1.9412504e-05
43	0x36438da5	2.9139712e-06
44	0xb83292ad	-4.257511e-05
45	0x37a3a6e9	1.9508838e-05
46	0x374e832b	1.2309097e-05
47	0x36a51f3c	4.9210194e-06
48	0xb8595848	-5.181905e-05
49	0x3742d4ab	1.1612817e-05
50	0x37a84717	2.0060264e-05
51	0xb7fca6ac	-3.0118354e-05
52	0x38b00588	8.393364e-05
53	0xb835ed93	-4.337502e-05
54	0xb8136059	-3.5137262e-05
55	0xb70f48ed	-8.540444e-06
56	0x36803a8f	3.8215144e-06
57	0xb7be6688	-2.269751e-05
58	0xb79069c2	-1.7215385e-05
59	0x382483d8	3.9223436e-05
60	0xb797c810	-1.8093764e-05
61	0x3882456b	6.211813e-05
62	0x35241c8c	6.11363e-07
63	0xb6eca828	-7.052924e-06
64	0x3ce02d14	0.027365245
65	0xbcc8fbe3	-0.024534171
66	0xbc055c8e	-0.008139743
67	0xbcf236f5	-0.029567221
68	0xbb1090d9	-0.0022058992
69	0xbc9e4aaf	-0.019322721
70	0xbc83b39c	-0.016076855
71	0x3ca51a96	0.020154279
72	0x3cb5cf77	0.022193654
73	0xbbb59661	-0.005541608
74	0xbcc4093b	-0.023930183
75	0xba80d554	-0.0009829202
76	0x3c50b4cc	0.012738418
77	0x3a16356e	0.00057300075
78	0xbc2e750c	-0.010648023
79	0x3b423790	0.0029635169
80	0xbc18c959	-0.009325349
81	0xbc5341b5	-0.012894084
82	0x3cad0f08	0.021125332
83	0x3b084821	0.0020794945
84	0x390fee7f	0.0001372639
85	0xbcdd2397	-0.02699451
86	0xbc2fd5f0	-0.010732159
87	0xbd1ad4f5	-0.037800748
88	0xbc8687db	-0.016422203
89	0x3cd45c02	0.025922779
90	0x3c8add8f	0.01695135
91	0x3b4169f2	0.0029512611
92	0x3ca17a49	0.01971163
93	0x3bad5633	0.0052898168
94	0x3bc09d79	0.005878147
95	0x39a10b42	0.000307167

encoder.layers.0.self_attn.out_proj.weight f4 [32, 32]
0	0xbd490bc4	-0.049083486
1	0xbdae2b0d	-0.08504305
2	0xbdc3291b	-0.095293246
3	0xbdcb1251	-0.09915603
4	0x3ddf05ed	0.10889802
5	0xbd2cdbac	-0.042201683
6	0x3d0e25fa	0.034704186
7	0x3d942321	0.07233263
8	0xbdfe2b2b	-0.124105774
9	0x3da8391e	0.08214019
10	0x3e0f3441	0.13984777
11	0xbbe213a7	-0.0068993154
12	0xbc44464c	-0.011979651
13	0x3e020911	0.12698771
14	0xbd9ff461	-0.078102835
15	0x3dbca069	0.09210283
16	0xbd6ee476	-0.058323346
17	0xbdb3535f	-0.08756136
18	0x3e725a8d	0.23667355
19	0x3da3a1b9	0.079898305
20	0x3db6eea0	0.08932233
21	0x3d053b5a	0.032527305
22	0xba40ae14	-0.00073501584
23	0xbe243d65	-0.16039045
24	0xbd86818b	-0.06567677
25	0x3d66e658	0.056372017
26	0xbd9a7c97	-0.07543295
27	0x3e1cb43f	0.15303133
28	0xbde0f8c3	-0.109849475
29	0xbd881fb3	-0.06646671
30	0x3d451597	0.048116293
31	0x3e05562e	0.13021156
32	0x3d429ccc	0.047512814
33	0xbe1bac05	-0.15202339
34	0x3e05488a	0.13015953
35	0xbdee22f6	-0.11627762
36	0x3cfa6988	0.0305679
37	0x3d41433c	0.04718326
38	0x3e0d2386	0.13783082
39	0x3d8c45b6	0.06849234
40	0x3d9e9c2d	0.07744632
41	0x3cdca12d	0.026932323
42	0x3de37d18	0.11107844
43	0xbe199ba5	-0.1500078
44	0xbdf5662f	-0.119823806
45	0x3d2d9d1f	0.04238617
46	0xbe273f1e	-0.16332671
47	0x3d04fb57	0.03246626
48	0x3de306c5	0.110852756
49	0x3d865cbc	0.065606564
50	0x3b4cc386	0.003124447
51	0xbde1466a	-0.109997585
52	0x3dae288d	0.08503828
53	0xbdecd7d3	-0.11564603
54	0xbdffab5e	-0.124838576
55	0x3da1c10f	0.07898151
56	0xbcbc3d92	-0.022978578
57	0x3d568d01	0.052380566
58	0x3d2d85cc	0.042363927
59	0xbe0b77e9	-0.13619961
60	0xbe03df91	-0.12878253
61	0x3df7b414	0.12094894
62	0xbd278477	-0.040897813
63	0xbcc102a0	-0.023560822
64	0xbdb5b0d7	-0.0887162
65	0xbe19e49e	-0.15028617
66	0xbd4386a1	-0.047735814
67	0x3d4a0dca	0.049329557
68	0xbe3d2ba1	-0.18473674
69	0x3cdb484c	0.026767872
70	0x3da08f8a	0.07839878
71	0x3de96480	0.11396122
72	0x3dd7a570	0.105296016
73	0xbc96ac15	-0.018392602
74	0x3e1a10ab	0.15045421
75	0xbd54ecf5	-0.051983792
76	0xbe18e031	-0.14929272
77	0xbc8eb028	-0.017417982
78	0x3e03161a	0.128014
79	0xbd88992c	-0.0666984
80	0xbdf2b251	-0.118504174
81	0xbdc6d7a4	-0.09709099
82	0x3e0a7eee	0.13524982
83	0x3ce9e203	0.028550154
84	0xbe21de27	-0.158074
85	0xbd1f923f	-0.03895783
86	0x3bd3304c	0.0064449664
87	0xbdec7efe	-0.11547659
88	0x3ca479aa	0.020077545
89	0x3db02be9	0.08602125
90	0xbe240db3	-0.16020851
91	0xbced26c6	-0.028949153
92	0xbd01850f	-0.031621035
93	0x3d2b114d	0.041764546
94	0x3d2aa7ae	0.041663818
95	0xbe14c016	-0.145264
96	0xbc712ac6	-0.014719671
97	0xbd63c32a	-0.055606045
98	0x3db822a9	0.08990986
99	0x3da0f821	0.07859827
100	0xbd3511c1	-0.044206385
101	0x3dfdbc51	0.12389434
102	0x3e1e2ffc	0.15447992
103	0x3d01a606	0.031652473
104	0xbccd0f1e	-0.025031622
105	0xbd246286	-0.04013302
106	0x3dbe1be7	0.09282666
107	0xbd3a3760	-0.045462966
108	0x3dbb26b5	0.09138242
109	0x3e18c5da	0.14919224
110	0x3e24edce	0.1610634
111	0x3d0d985f	0.03456914
112	0x3dd67382	0.1047125
113	0x3bda5c04	0.006663801
114	0xbdf378ed	-0.11888299
115	0x3e30aaca	0.17252651
116	0xbaed084d	-0.0018084139
117	0xbdc2fffe	-0.09521483
118	0xbe2782f0	-0.16358542
119	0x3e22c489	0.15895285
120	0xbd8e78c4	-0.06956628
121	0x3e3a8e18	0.18218267
122	0xbddfb6af	-0.10923516
123	0xbd6be538	-0.057591647
124	0xbd16327a	-0.036669232
125	0xbd424260	-0.04742658
126	0xbd69cccd	-0.05708008
127	0xbdda5857	-0.10661381
128	0x3de9e363	0.11420324
129	0x3d76f317	0.060290422
130	0x3e3d227e	0.18470189
131	0x3c642dc6	0.013926929
132	0xbd01058b	-0.031499427
133	0xbdac0693	-0.083996914
134	0xbdab11c5	-0.08352999
135	0x3d9c4eec	0.07632241
136	0x3c971c48	0.018446103
137	0xbcdfb37c	-0.027307265
138	0xbc9b4a9f	-0.01895648
139	0x3ac1736b	0.0014759129
140	0x3a026c9f	0.0004975292
141	0x3d382f92	0.04496724
142	0x3d1b2d61	0.037885074
143	0xbdc125d0	-0.0943104
144	0xbc4d6c3d	-0.012538013
145	0xbdcda514	-0.10041252
146	0x3d935f3b	0.07195898
147	0xbc2377e3	-0.009977314
148	0xbdc7c530	-0.097544074
149	0x3e1739be	0.1476812
150	0xbc83a27f	-0.016068695
151	0x3d089409	0.033344302
152	0x3d834230	0.06409109
153	0xbe375665	-0.1790405
154	0xbdcd1a06	-0.10014729
155	0xbe275807	-0.16342174
156	0xbdd67578	-0.10471624
157	0xbe2ba316	-0.16761431
158	0x3b37d0d8	0.0028048065
159	0xbe1496e2	-0.14510682
160	0xbda3bc29	-0.07994873
161	0xbd87c83e	-0.0662999
162	0xbd8a0e68	-0.06741029
163	0xbdcd6743	-0.10029461
164	0xbdcc55f2	-0.0997733
165	0xbdee22f9	-0.11627764
166	0x3e198c8a	0.14995018
167	0xbe14e7b3	-0.14541511
168	0xbe261ad4	-0.16221172
169	0x3c7c3e2e	0.015395684
170	0x3e024092	0.12719944
171	0x3d375532	0.044758983
172	0x3dae1e9a	0.085019305
173	0xbdabae20	-0.08382821
174	0xbe0eebc4	-0.13957125
175	0xbd21741b	-0.039417367
176	0x3defb6ef	0.11704814
177	0xbc4f490e	-0.012651695
178	0x3d87f3d6	0.06638305
179	0xbd377ca9	-0.04479662
180	0xbe1fec32	-0.15617445
181	0xbbeb5b49	-0.007182513
182	0xbc91918a	-0.017769594
183	0xbc2083be	-0.009797035
184	0x3e35e3be	0.17762658
185	0xbe36a65d	-0.178369
186	0x3a1d2c52	0.0005995679
187	0xbe099472	-0.13435534
188	0xbe35e140	-0.17761707
189	0xbd985489	-0.07437999
190	0xbda2269a	-0.07917519
191	0x3e51a387	0.20472537
192	0x3d1faf26	0.038985394
193	0x3caaca46	0.020848405
194	0xbc6bd6f4	-0.014394511
195	0xbc9af90a	-0.01891758
196	0x3d739a0c	0.059473082
197	0x3d901cb1	0.070367225
198	0xbdf72530	-0.1206764
199	0xbd093b25	-0.03350367
200	0x3e0f2d30	0.13982081
201	0xbd0a5b7e	-0.03377866
202	0xbd0d7626	-0.034536503
203	0xbdf03481	-0.11728764
204	0xbd4bae50	-0.049726784
205	0xbcd09c4c	-0.025465153
206	0xbc30cf26	-0.010791576
207	0x3cd0b81e	0.025478419
208	0xbd9c4d2d	-0.076319076
209	0x3d5725c7	0.05252626
210	0xbbeac8f3	-0.0071650683
211	0x3cd7e60d	0.026354814
212	0x3e0ecf71	0.1394632
213	0x3d327ed2	0.043577977
214	0xbd551cb2	-0.05202932
215	0xbd48be78	-0.04900977
216	0x3d5b39b6	0.053521834
217	0x3e1142b9	0.14185609
218	0x3e1b8cd3	0.15190439
219	0xbd6af090	-0.057358325
220	0x3d17f781	0.037101272
221	0x3dc5a218	0.096500576
222	0xbb65a754	-0.0035042362
223	0xbc5dbcfb	-0.013533826
224	0xbca9e6f1	-0.020740004
225	0xbcb950be	-0.022621509
226	0xbce42ba7	-0.027852846
227	0xbd9c2231	-0.07623709
228	0xbd3b6974	-0.045754865
229	0xbc827e47	-0.015929354
230	0x3d695f13	0.056975435
231	0x3e19fb4b	0.15037267
232	0x3e07d9c3	0.13266663
233	0xbd848a1e	-0.06471656
234	0x3bbd25b2	0.005772316
235	0x3cfc6e7e	0.030814406
236	0x3d174568	0.036931425
237	0x3d0626f2	0.032751985
238	0xbd0537ce	-0.032523923
239	0xbd586a33	-0.052835654
240	0x3de5d337	0.11221927
241	0x3e032fff	0.12811278
242	0x3e052b09	0.13004698
243	0xbdf905ef	-0.12159335
244	0x3d8f0041	0.0698247
245	0xbddc4b46	-0.10756545
246	0x3de49b08	0.11162382
247	0xbd996017	-0.07489031
248	0x3de9862d	0.11402545
249	0x3e08cf5f	0.13360356
250	0xbdf715f0	-0.12064731
251	0x3d95393c	0.07286307
252	0xbdc18dfd	-0.0945091
253	0x3e2502b0	0.16114306
254	0x3dcfcf01	0.10146905
255	0xbd923f7a	-0.071410134

encoder.layers.0.self_attn.out_proj.bias f4 [32]
0	0x3be34d54	0.0069367085
1	0xbba3c719	-0.0049980995
2	0xbac2449f	-0.0014821476
3	0xbca76dad	-0.02043804
4	0xbc0def2f	-0.008662983
5	0xbbceea4e	-0.0063145524
6	0x3c39ddf3	0.011344421
7	0x3bf35331	0.0074256887
8	0xbc59b735	-0.013288309
9	0xbbddc8c7	-0.0067683193
10	0xbbe872f3	-0.007093781
11	0x3c724ef7	0.0147893345
12	0x3ca1de46	0.019759309
13	0x3b9b59a7	0.004740912
14	0xbc5350e8	-0.0128977075
15	0xbc0dcdd7	-0.008655033
16	0x3cd22f7a	0.025657404
17	0x3b7caa3a	0.0038553611
18	0x3c6dbbef	0.014510139
19	0x3a2675ee	0.00063499704
20	0x3b1a799d	0.0023571022
21	0x3b984b08	0.0046476163
22	0x3cff43f2	0.031160329
23	0xbc2aba7f	-0.010420441
24	0xbcc2950d	-0.023752714
25	0x3bc8cbf3	0.0061278283
26	0xbb04012e	-0.0020142305
27	0x3c104e2f	0.008807703
28	0x3cde0e89	0.02710654
29	0xbd18335c	-0.037158355
30	0xbcbdd16a	-0.023171145
31	0xbc62d8c4	-0.013845626

encoder.layers.0.linear1.weight f4 [128, 32]
0	0x3d9d5846	0.076828524
1	0x3bef9f5b	0.007312698
2	0xbdeb0a4d	-0.11476574
3	0x3e61a723	0.22036414
4	0xbdb302de	-0.08740781
5	0xbe00b06c	-0.125673
6	0xbe1ff42d	-0.1562049
7	0x3d5cadc7	0.053876664
8	0x3b3d27ee	0.0028862911
9	0xbd00a7da	-0.031410076
10	0x3e2323f2	0.15931681
11	0x3e0d4b28	0.13798201
12	0xbded43a7	-0.11585169
13	0x3d77e9f6	0.060525857
14	0xbe28b524	-0.1647535
15	0x3d70700b	0.058700603
16	0xbda86559	-0.082224555
17	0xbe1884e0	-0.14894438
18	0x3da2ea9d	0.07954905
19	0xbdf5898c	-0.119891256
20	0xbe225ff5	-0.15856917
21	0xbe059efd	-0.1304893
22	0x3e0056bf	0.12533091
23	0xbd49429f	-0.0491358
24	0x3cf056f7	0.029338343
25	0xbd00d8b2	-0.031456657
26	0x3dfe44de	0.12415479
27	0x3bbc7f55	0.005752484
28	0xbd431a9b	-0.047632795
29	0x3e52b80f	0.20578025
30	0x3e67d3fb	0.22639458
31	0xbdabd481	-0.08390141
32	0x3d14ebcc	0.036357686
33	0x3dfd3aa9	0.12364704
34	0xbe2ebd4f	-0.17064403
35	0x3d2f5d69	0.042813692
36	0x3d1a8660	0.037725806
37	0x3cd00143	0.025391227
38	0x3dd857f1	0.105636485
39	0xbe3749b5	-0.17899211
40	0xbe048330	-0.12940669
41	0x3c577aca	0.013151834
42	0xbde2d75e	-0.11076234
43	0xbd24effe	-0.040267937
44	0xbdf2cc34	-0.11855355
45	0xbbe86fa9	-0.007093389
46	0xbd2c2832	-0.04203052
47	0xbd81bd4d	-0.063349344
48	0x3d1baad5	0.038004715
49	0xbd8fd694	-0.070233494
50	0xbe2b7465	-0.1674362
51	0x3d6e68b4	0.05820532
52	0xbe515346	-0.20441923
53	0x3e024d4f	0.12724803
54	0x3cd65c2a	0.026166994
55	0xbdcce6ac	-0.10004935
56	0xbd18bdd9	-0.037290428
57	0xbe1b945d	-0.15193315
58	0x3d4e6579	0.05038974
59	0xbe0eb786	-0.13937196
60	0xbe198cac	-0.14995068
61	0x3d2fb7aa	0.042899765
62	0xbccadabb	-0.024762502
63	0x3c4208af	0.011842891
64	0x3cc8f178	0.024529204
65	0x3d885f0d	0.066587545
66	0x3c6bda24	0.0143952705
67	0xbcb7ac99	-0.022421168
68	0xbdc2d81c	-0.09513876
69	0x3e108d46	0.14116392
70	0xbcd113b2	-0.025522087
71	0xbdf905e8	-0.1215933
72	0x3d4abb15	0.04949482
73	0x3ce5973a	0.028026212
74	0xbd4384f4	-0.047734216
75	0x3d8ba2b3	0.06818142
76	0xbe261473	-0.16218738
77	0xbe3a2e5d	-0.18181749
78	0x3cfdc809	0.030979173
79	0x3ca57431	0.020197006
80	0x3ddd50fd	0.10806463
81	0xbd448e76	-0.047987424
82	0xbd6e76c7	-0.058218744
83	0xbe20b778	-0.15694988
84	0x3e0d3132	0.13788298
85	0xbe88df14	-0.26732695
86	0xbe66e390	-0.22547746
87	0xbcf84e87	-0.030310882
88	0xbcf5ceff	-0.03000593
89	0xbb0b0567	-0.0021212937
90	0xbb57a17f	-0.0032902656
91	0xbe0e2775	-0.13882239
92	0x3e1ad05a	0.15118542
93	0xbd1960f2	-0.03744597
94	0x3e34dfab	0.17663448
95	0x3c858d16	0.016302627
96	0xbdc8d0d1	-0.098054536
97	0xbd9aba13	-0.07555022
98	0x3ca07202	0.019585613
99	0xbd9a8e31	-0.07546652
100	0xbd5afb0a	-0.053462066
101	0xbe0a0ca1	-0.1348138
102	0x3e17e68b	0.14834039
103	0x3dd324f1	0.103097804
104	0x3d1905f0	0.037359178
105	0x3e51b930	0.204808
106	0x37af6005	2.0906338e-05
107	0xbe129ffc	-0.14318842
108	0x3ca6a509	0.020342367
109	0xbe17f06b	-0.14837806
110	0x3d270cf4	0.040783837
111	0xbcfa2738	-0.03053628
112	0x3dfaebc4	0.12252
113	0xbd9b838f	-0.07593452
114	0xbd804515	-0.06263176
115	0x3d26e93e	0.04074978
116	0xbe10c8e1	-0.14139129
117	0xbe55334b	-0.20820348
118	0xbca6625a	-0.02031057
119	0xbdd4c1d8	-0.10388535
120	0x3beb9d10	0.007190354
121	0x3e0db83e	0.13839814
122	0xbe054b7a	-0.13017073
123	0x3dd6fcd7	0.10497444
124	0x3c7d5c2a	0.015463868
125	0xbcb4b204	-0.02205754
126	0x3dca2aed	0.09871469
127	0xbe027193	-0.12738638
128	0xbdc2a0eb	-0.09503349
129	0x3dd6e7df	0.10493445
130	0x3cbc3834	0.022976018
131	0x3e203e5c	0.15648788
132	0xbdaf41b3	-0.08557453
133	0x3d8379e8	0.06419736
134	0xbdf7f142	-0.12106563
135	0x3caa0315	0.020753423
136	0xbd2d3cf4	-0.042294458
137	0xbd779de9	-0.06045333
138	0xbe207b4a	-0.15672031
139	0x3e172266	0.14759216
140	0xbcdf1f2e	-0.027236547
141	0x3e399155	0.18121846
142	0xbd363c52	-0.04449112
143	0x3e3387dc	0.17532295
144	0x3e0b53a4	0.13606125
145	0xbdeb1029	-0.11477692
146	0xbd1907e8	-0.037361056
147	0x3df3efd7	0.1191098
148	0xbca429c6	-0.02003945
149	0x3d2d0a2a	0.04224602
150	0xbb6905c0	-0.0035556406
151	0xbd6d8918	-0.05799207
152	0x3e3072b7	0.1723126
153	0x3df24e65	0.11831359
154	0x3e51f0fe	0.20502087
155	0x3d8a608b	0.06756695
156	0xbd60d087	-0.054886367
157	0x3dffc283	0.12488272
158	0xbdb7bcdf	-0.08971571
159	0x3d18f02c	0.03733842
160	0xbc923cf0	-0.017851323
161	0x3d97ff7f	0.07421779
162	0xbdadf421	-0.084938295
163	0x3da2a923	0.079424165
164	0xbd2875bf	-0.041127916
165	0xbe3b24cd	-0.18275757
166	0xbe137396	-0.14399561
167	0x3d60f189	0.054917846
168	0x3d1e9156	0.038712822
169	0x3dc3e99c	0.09566042
170	0xbd9eade4	-0.07748011
171	0xbd50c790	-0.050971568
172	0x3d5ad360	0.05342424
173	0x3bbac7bb	0.0057000793
174	0xbd1b0aea	-0.037852205
175	0xbdcbbeeb	-0.09948524
176	0xbd8b0d89	-0.06789691
177	0x3d3d226f	0.046175417
178	0x3d8a9332	0.067663565
179	0xbcdd6e78	-0.027030215
180	0xbcc9b9cc	-0.024624728
181	0xbd2062f2	-0.03915686
182	0xbd7fc1e7	-0.06244078
183	0xbe0ad9ba	-0.13559619
184	0x3dea5978	0.11442846
185	0xbca7397f	-0.020413158
186	0x3d01ef0d	0.031722117
187	0x3e1092e4	0.14118534
188	0xbe276c4e	-0.16349909
189	0xbd83fe86	-0.06445031
190	0xbda67ca3	-0.08129241
191	0xbd6fc765	-0.058539767
192	0x3ddef6ce	0.10886918
193	0xbb3783a6	-0.0028002053
194	0x3d88abc0	0.06673384
195	0x3c8c2179	0.017105805
196	0x3d02526b	0.03181688
197	0xbb64d27d	-0.00349155
198	0xbe8f3b39	-0.2797487
199	0xbdd1935a	-0.10233183
200	0x3c257346	0.010098284
201	0x3dc0f675	0.09422008
202	0xbe2a3046	-0.16619977
203	0x3ce3cd67	0.027807904
204	0xbda5118e	-0.08059989
205	0x3d78130c	0.06056504
206	0xbddf63f5	-0.10907737
207	0x3dee08ad	0.116227485
208	0x3e09c31b	0.13453333
209	0x3e1e3ec2	0.15453628
210	0x3e17d111	0.14825846
211	0xbdace316	-0.08441751
212	0x3ea344d7	0.31888458
213	0xbd5a0e15	-0.053236086
214	0x3d1f4531	0.038884345
215	0xbe2c541f	-0.16828965
216	0xbb958a4a	-0.0045636045
217	0xbd9864f8	-0.07441133
218	0x3e226363	0.15858226
219	0x3d882e1f	0.06649422
220	0xbd9f5882	-0.077805534
221	0x3e1cd5ec	0.1531598
222	0x3e4e2fb7	0.2013539
223	0x3e22ac30	0.15885997
224	0xbddf9e23	-0.10918834
225	0xbd801db3	-0.06255665
226	0x3d32e921	0.04367936
227	0xbe1ff391	-0.15620257
228	0x3d6ead08	0.058270484
229	0xbc70a1fc	-0.014687058
230	0x3e1cfb28	0.15330184
231	0xbe49c546	-0.1970416
232	0x3e0061b3	0.1253727
233	0xbda8c53a	-0.08240743
234	0x3dbb5284	0.09146598
235	0x3dfc9540	0.12333155
236	0x3d4523d2	0.048129864
237	0x3d061acd	0.032740403
238	0x3ce706c2	0.028201465
239	0xbe0e345c	-0.13887161
240	0x3e67fadc	0.22654289
241	0xbe1b665a	-0.15175763
242	0xbd2d5d22	-0.042325146
243	0xbcd93d65	-0.026518533
244	0x3e0f10b7	0.1397122
245	0xbdc90379	-0.098151155
246	0x3de1805c	0.11010811
247	0x3d078c4a	0.033092774
248	0xbe1417d2	-0.14462212
249	0x3cef6d51	0.02922693
250	0x3dbe8a17	0.09303682
251	0x3e1f12eb	0.1553456
252	0xbdd792b6	-0.1052603
253	0x3dd0dd52	0.101984635
254	0x3d3f206a	0.04666177
255	0xb84047be	-4.5843182e-05

encoder.layers.0.linear1.bias f4 [128]
0	0x3d1b6f53	0.037947964
1	0xbcd1d41a	-0.025613833
2	0x3dfd17d6	0.12358062
3	0xbdd0690d	-0.10176287
4	0xbd312bce	-0.043254666
5	0x3d32fea8	0.04369989
6	0x3c5270d2	0.012844281
7	0xbe0c670a	-0.13711181
8	0x3d106206	0.035249732
9	0x3dca3743	0.098738216
10	0x3d594933	0.053048324
11	0x3d117198	0.035508722
12	0xbd1a1fb6	-0.0376279
13	0xbe12915a	-0.1431326
14	0xbde134d6	-0.10996406
15	0x3da6a115	0.08136193
16	0xbc1af45e	-0.009457676
17	0xbda6e4de	-0.08149122
18	0xbe3aa0b8	-0.18225372
19	0xbe134e50	-0.14385343
20	0xbde30dfb	-0.11086651
21	0x3c6a6d9f	0.014308362
22	0x3db18439	0.086677976
23	0x3df5d225	0.120029725
24	0xbe2a07a1	-0.16604473
25	0xbd5aa413	-0.05337913
26	0xbdeb01bc	-0.1147494
27	0x3d8c9b6d	0.068655826
28	0xbe1b6752	-0.15176132
29	0x3d29a588	0.04141763
30	0x3cbae17e	0.022812601
31	0xbd1d3d96	-0.03838881
32	0xbe0baff6	-0.13641343
33	0x3db611b8	0.08890098
34	0xbd89e77f	-0.067336075
35	0x3deb30eb	0.1148394
36	0x3d9cdf7e	0.07659815
37	0xbce1942b	-0.027536472
38	0x3d3f0b76	0.04664179
39	0xbddf6650	-0.109081864
40	0xbe209adb	-0.15684073
41	0x3c96984c	0.018383168
42	0xbda827b4	-0.08210698
43	0xbe0b56b7	-0.13607298
44	0xbe3dc2bc	-0.18531317
45	0xbe5e2477	-0.21693598
46	0x3db785da	0.08961077
47	0xbc8a05a0	-0.016848385
48	0xbcd9dc0c	-0.026594184
49	0xbcdde088	-0.027084604
50	0x3d67f373	0.056628656
51	0x3de9c5bc	0.11414668
52	0xbd6ca8a9	-0.057778034
53	0x3d9a4750	0.07533133
54	0x3d54ba2a	0.051935352
55	0xbdd0340b	-0.101661764
56	0x3d83da03	0.06438067
57	0xbe0957d2	-0.13412407
58	0xbe13f457	-0.14448677
59	0x3da64e3d	0.081203915
60	0xbe2fe891	-0.17178561
61	0xbe4a2626	-0.19741115
62	0xbd0b4daf	-0.03400963
63	0xbe0ba0b0	-0.13635516
64	0xbdf1caef	-0.11806285
65	0x3d7e5dc3	0.062101137
66	0x3e1da6aa	0.15395609
67	0xbda0d1c6	-0.07852511
68	0x3d653106	0.055954956
69	0xbdaac83c	-0.08338973
70	0x3e169960	0.14706945
71	0xbdceacef	-0.10091578
72	0xbd7b1ff8	-0.061309785
73	0xbc4d5ee1	-0.012534828
74	0xbdd0e6a8	-0.10200244
75	0xbb9d153c	-0.004793791
76	0xbdbe0ef5	-0.092801966
77	0xbdf70252	-0.120609894
78	0xbe21a84c	-0.15786856
79	0x3d4aa9d6	0.049478374
80	0xbd4fd774	-0.05074258
81	0x3d8cd16f	0.06875884
82	0x3d9bd726	0.07609396
83	0x3e1859e6	0.14878044
84	0xbd2b9e48	-0.041898996
85	0xbd8a762f	-0.06760823
86	0x3dd993f4	0.10623923
87	0xbd5ace3e	-0.053419344
88	0xbc98b464	-0.018640704
89	0xbb89bf5d	-0.0042037205
90	0x3dfa7ce7	0.122308545
91	0x39b93cc3	0.0003533122
92	0xbb91e47f	-0.0044522877
93	0xbe466fa4	-0.19378525
94	0x3d92a800	0.0716095
95	0xbd6de84e	-0.05808287
96	0xbc7db62a	-0.015485326
97	0x3e11118c	0.1416685
98	0x3d03611e	0.03207504
99	0x3d6c9671	0.05776066
100	0x3e23b537	0.15987097
101	0xbcfa2956	-0.030537289
102	0xbdf69e63	-0.120419286
103	0xbe22149c	-0.15828174
104	0x3c343ca9	0.011000791
105	0x3c907a8a	0.017636556
106	0xbdebbd42	-0.115107074
107	0xbd83df1c	-0.06439039
108	0xbe2a84c2	-0.16652206
109	0xbcba3254	-0.022729076
110	0xbdf3ace1	-0.118982084
111	0xbe31b92d	-0.17355795
112	0xbd904e8e	-0.07046233
113	0xbb9facd7	-0.004872899
114	0x3dac4b3a	0.08412786
115	0xbde0b7c4	-0.109725505
116	0xbe6bee1c	-0.2304005
117	0xbd20074c	-0.03906946
118	0x3dc939ee	0.09825502
119	0x3d91bb2d	0.07115779
120	0x3d6fc06e	0.058533125
121	0x3c8c89f1	0.01715562
122	0xbe1f2013	-0.15539579
123	0x3dc78317	0.097418
124	0x3db0a5ba	0.0862536
125	0x3d8e4863	0.069474004
126	0x3db1d66e	0.08683477
127	0xbda7b871	-0.08189476
