models/Proposed/pion.pt (torch, 165191 bytes, 35 tensors)

emb.layers.0.weight f4 [128, 20]
000000 59 a4 10 bf c4 4e 9a be 75 d6 26 be 5a 5b 3b be
       -0.56500775 -0.30138218 -0.16292746 -0.18296567
000010 b5 00 89 be 86 24 42 3e a5 5e dd 3d 21 53 ef 3d
       -0.26758352 0.18959245 0.10809068 0.116857775
000020 46 76 c9 3c e9 d8 bc 3d 9f 0f 35 3e 91 c7 b3 bd
       0.02459253 0.0922106 0.1768174 -0.08778299
000030 7f 54 09 bd 52 fb 20 be 8d 53 85 be 71 66 a8 3d
       -0.033527847 -0.15720871 -0.26040307 0.08222664
000040 79 fc a1 be a0 0a e8 bd 1e fd d6 3d 3f d5 8d 3e
       -0.31637934 -0.113301516 0.10497497 0.27701756
000050 e0 9d 97 3b f8 8c 8c 3d 36 b8 4c be f5 2c 40 3e
       0.0046269745 0.06862825 -0.19992146 0.1876715
000060 65 e1 de bd cc fb 24 3e 8c cd e7 3d b2 a3 15 3e
       -0.10882834 0.16111678 0.11318502 0.14613226
000070 0a 8f 29 3d e2 18 45 3e 2e 31 10 be 01 ed 5a bd
       0.04139618 0.19247773 -0.1408126 -0.05344868
000080 c7 de 34 3e 58 78 4f 3e 59 d8 cb bd a8 d2 d7 3c
       0.17663108 0.20260751 -0.099533744 0.026345566
000090 b5 c4 98 3e e7 f1 d4 3d 1b 4a 70 3e 03 d0 8f bd
       0.29837576 0.10397702 0.23465769 -0.07022097
0000a0 31 c0 3d bc a2 9e f9 bd b1 1d 3e be 6e 8a 70 be
       -0.0115814665 -0.1218846 -0.18566014 -0.23490307
0000b0 b4 47 42 be 60 44 f0 3d 70 18 1f be 6e 47 e8 bd
       -0.18972665 0.117317915 -0.15536666 -0.11341749
0000c0 03 a0 6d 3e f6 36 6c be 27 23 1d be c3 a7 e3 bd
       0.23205571 -0.23067841 -0.15345441 -0.111159824
0000d0 7d 58 12 3d c5 56 5c 3e ae d3 21 bd 1c 41 c0 be
       0.03572892 0.21517475 -0.039508514 -0.37549675
0000e0 48 4d e8 bd 08 e4 8a be a1 34 1c bc 0b 2c f2 3d
       -0.11342865 -0.271271 -0.009534032 0.11824807
0000f0 28 13 07 3e d1 60 1f bd 4d 4e 43 3c 89 50 01 3e
       0.13190901 -0.03891069 0.011920524 0.12628378
000100 3d 03 b3 bd c3 ab d8 3c bc fc c3 3d 7a 9e 23 3e
       -0.08740852 0.02644909 0.0956969 0.15978423
000110 91 e4 85 3e 2f a2 cb 3d 70 b9 f7 3b 6d 8d 9b 3d
       0.26150945 0.099430434 0.0075599477 0.07595334
000120 ee f8 94 be e8 7c 1c 3e 2c 0f 93 bc 08 6f e3 bc
       -0.29096168 0.15282023 -0.01795157 -0.027762905
000130 fc 46 64 be 8c 34 33 3d 91 eb cd bd 10 a4 13 be
       -0.22292703 0.043751284 -0.10054696 -0.14418054
000140 59 f9 9f 3d 8e 47 c0 bd b0 a2 5b 3e f2 20 86 be
       0.07811231 -0.09388648 0.21448779 -0.2619701
000150 6c a5 b7 bd 87 70 11 3e 7f 4a 85 3d df 96 af bc
       -0.089670986 0.14203082 0.065083496 -0.021434246
000160 0c 45 1c 3b 2e 86 14 3d a0 7c 13 3e ce d7 96 bd
       0.0023844866 0.036260776 0.1440301 -0.0736538
000170 cf 06 10 3e 91 b9 6f be c1 65 24 be 68 60 2e be
       0.14065097 -0.23410632 -0.16054441 -0.17028964
000180 63 8a a1 3d 40 75 e5 bc d2 ee fb bc ef bf 58 be
       0.07887723 -0.02801001 -0.030753527 -0.21166967
000190 c1 3b 38 be 96 bc cf 3c 30 61 f7 3c 4e 98 90 bd
       -0.17991544 0.02535848 0.03019771 -0.070603
0001a0 71 5d bd 3d 74 4b 09 be 83 2b c1 3d 2a 30 8c be
       0.09246338 -0.1340769 0.09432127 -0.27380496
0001b0 8b a7 ab 3d a3 6c 3b 3e 14 91 20 be f5 a6 1a be
       0.08381566 0.1830316 -0.15680343 -0.15102752
0001c0 27 92 3a bd 7a 2e 52 be 59 cb 62 3d 82 39 2d 3e
       -0.045549538 -0.20525542 0.05536971 0.16916469
0001d0 48 2e 4e 3d fa c1 67 3e a3 d0 f5 3d 01 11 0a be
       0.050337106 0.2263259 0.12002685 -0.13483049
0001e0 0a ee 40 bd 44 f8 50 bd bd a1 3a 3e ad 4b 37 3e
       -0.04710201 -0.051018015 0.18225761 0.17899962
0001f0 55 5d 04 be 97 37 18 3e 70 e3 66 bd 96 0d 08 3e
       -0.12926228 0.14864956 -0.056369245 0.13286433
000200 91 b1 42 3c a6 39 66 bd 21 7f 4b be 88 a0 1e 3e
       0.011883155 -0.05620732 -0.19872715 0.15490925
000210 34 0b 61 3e ec 8d a1 3d 35 1b 5a 3e e8 8f b3 3d
       0.2197693 0.078883976 0.21299441 0.08767682
000220 6a 3f 0a be 3b c7 30 3e af 81 29 bd ce 1c f8 bd
       -0.13500753 0.172635 -0.04138344 -0.12114869
000230 05 f8 54 3e 34 98 1c 3d 25 b2 2a 3e e6 0e 66 3d
       0.20797737 0.03823109 0.16669519 0.056166552
000240 ee 68 0d 3e 5c 0a 34 bf 9d 60 3f bf 11 22 aa be
       0.13809559 -0.7032831 -0.74756795 -0.33229116
000250 b2 2e e8 be ae 91 d4 be 17 0a 61 be 56 f6 95 bc
       -0.45348126 -0.41517395 -0.21976505 -0.018305939
000260 d7 75 0c 3e bb 4b 04 bc b0 cd 07 3c c7 83 67 3e
       0.13716827 -0.008074696 0.008288786 0.22608863
000270 20 64 5b 3e a4 89 c1 be 92 d6 f9 be 61 65 cb 3d
       0.21424913 -0.37800324 -0.48796517 0.09931446
000280 6e 76 05 3e 67 ad af 3d a6 02 c0 bc 66 13 2d 3e
       0.13033459 0.08577996 -0.023438763 0.16901931
000290 13 4a 14 3d cc eb 56 bc 03 ab d3 bd e9 4d 70 3c
       0.036203455 -0.013117742 -0.10335352 0.014667013
0002a0 1a a2 83 bd ae fb a7 bd e0 5d 41 be c7 99 e4 bd
       -0.06427403 -0.08202301 -0.18883467 -0.11162143
0002b0 3a 23 4c be 49 52 80 3d 80 f6 68 be e2 ed b0 be
       -0.19935313 0.06265695 -0.22750282 -0.3455649
0002c0 43 4c ab 3d 5f 1d 4f bd 83 fc 29 be e9 1a e2 3d
       0.08364155 -0.05056512 -0.16600232 0.11040289
0002d0 f0 62 a7 3c 78 7f 1f be 90 a7 ad 3d bc b7 a2 bd
       0.02043292 -0.15575969 0.08479226 -0.07945201
0002e0 98 fa 0c 3e 95 44 df bd 48 10 8f 3c 21 15 0a be
       0.13767469 -0.10901753 0.017463818 -0.13484623
0002f0 3d f7 a7 be 53 54 2e be e0 13 4f 3d 67 59 77 3d
       -0.32805815 -0.17024355 0.050556064 0.060387995
000300 a6 a1 70 3e a3 ff 86 3e 00 86 86 3e 74 cf 09 bd
       0.23499164 0.2636691 0.2627411 -0.03364511
000310 5c 8a 5a bd aa b6 83 bc b1 6e 05 bc 79 09 41 bd
       -0.053354606 -0.016078312 -0.008144067 -0.047128174
000320 25 a2 2a be 90 ad 0a bd c9 15 f9 3d 52 a9 a5 bd
       -0.16663416 -0.03385693 0.12162358 -0.08088936
000330 7d d3 51 be 2c 1e 5e bd 36 b7 0b be 90 d3 79 3d
       -0.20490833 -0.054227993 -0.13644108 0.060992777
000340 c6 3a 30 3e df 9e e2 3d 73 e4 ca 3e 5e 39 6e 3e
       0.1720992 0.110654585 0.39627418 0.23264071
000350 f8 70 bb bd 47 27 ed 3d 0b 31 6c 3e 38 17 f7 bc
       -0.091524065 0.11579757 0.23065583 -0.030162439
000360 27 ca b6 be a1 9a e8 3c a4 3b 78 3d 0a a9 7d 3d
       -0.35701105 0.028394045 0.060603753 0.061928786
000370 8e f7 07 3e ec cf 59 be a4 4d 5c be 87 68 e2 bd
       0.13278028 -0.21270722 -0.21513993 -0.11055093
000380 21 b9 86 be 4a 89 3a 3e 03 af e4 3d 11 00 f9 3c
       -0.26313117 0.18216434 0.11166193 0.03039554
000390 c0 ff 63 bd c5 dd ae ba d6 23 0c 3d e3 f9 e9 3d
       -0.055663824 -0.0013341239 0.034213863 0.11424615
0003a0 0f c5 12 be 73 03 59 3e ea 91 15 3e 65 7b 17 bd
       -0.14332984 0.21192722 0.14606443 -0.036982913
0003b0 0d a5 0f 3e 3e 5d 63 be 74 6a a5 be 40 c2 72 3e
       0.14027806 -0.22203538 -0.3230778 0.23706913
0003c0 2a cf 6b bc 9d 5d 97 3d b5 8f e6 3c f2 e5 00 bd
       -0.0143926535 0.07390902 0.028144697 -0.031469293
0003d0 bf e7 c4 3d 08 d3 c6 3d 7e e6 f4 3d eb 12 19 3e
       0.096145146 0.0970822 0.119580254 0.14948623
0003e0 46 60 88 3c 0d b5 0f 3d 34 04 e4 bd 60 0b 02 3e
       0.01664747 0.035084773 -0.11133614 0.12699652
0003f0 6d 02 ef 3c 4a 7e aa 3d ba 51 0c be ef d4 20 3e
       0.029175961 0.08324869 -0.13703051 0.15706228

emb.layers.0.bias f4 [128]
000000 ee 59 68 be 80 7a 1f be 45 7d 34 3e ee ee 45 3e
       -0.22690555 -0.15574074 0.17625912 0.19329426
000010 7e 43 2d 3e 84 be b9 bd 21 72 c5 bb 3e d4 64 be
       0.16920277 -0.09069541 -0.006025568 -0.22346589
000020 a6 fb 28 3e 50 cb 2e be 5e 9e 11 3e 11 52 4c bd
       0.16502246 -0.17069745 0.14220569 -0.049882952
000030 aa f9 19 3c 91 7c 0e 3e 83 8c 33 3d 80 37 bf 3d
       0.009397903 0.13914706 0.043835174 0.09336758
000040 54 b4 79 be 2a f0 58 3e ed b9 7b 3c 82 bc ac bc
       -0.24385196 0.21185365 0.015364152 -0.021085981
000050 dd f3 e2 bc 88 ab c5 bc 15 b0 ba bd 9e b9 02 3d
       -0.027704174 -0.024129644 -0.09115616 0.0319153
000060 3b ef 03 3d 83 b4 71 be 72 e9 0d 3e 92 88 00 be
       0.03221057 -0.23604016 0.13858584 -0.12552097
000070 ee f8 eb bd 4f 2d af bd b9 b4 58 3d cc e7 12 3d
       -0.11522089 -0.08553564 0.052906726 0.03586559
000080 3a f1 3e be dd 9d 05 be 9e d3 a7 bd 9b 6b ff bc
       -0.18646708 -0.13048501 -0.0819466 -0.03117924
000090 6f 3a 10 3e 91 ab 90 3d 4d 30 cd 3d b8 62 97 bd
       0.1408479 0.07063974 0.10018978 -0.07391876
0000a0 bf b2 3f 3e b8 db 9b 3d 8d bc a3 bd fd 9a 3d 3e
       0.1872053 0.076102674 -0.079949476 0.18516155
0000b0 47 98 02 3e dd cf 62 be ae 94 90 bd ac 9c 03 be
       0.12753402 -0.22149606 -0.070596084 -0.12852734
0000c0 4f 49 e9 bd 7f c2 0a bf e2 ff e3 3c df bf a7 bd
       -0.11390936 -0.5420303 0.027831975 -0.081908934
0000d0 06 95 33 3e 67 06 5e 3d 6a 02 21 3d 22 25 f1 bd
       0.17537317 0.054205325 0.039308943 -0.11774661
0000e0 b4 8d c2 3d 74 b2 7b be 5e 23 80 bd 9d f2 28 bd
       0.09499684 -0.24579793 -0.06256746 -0.041247
0000f0 24 d0 ff 3c 15 a0 12 3e 1e 65 36 bd c2 d7 45 be
       0.031227179 0.14318879 -0.044530027 -0.19320586
000100 e8 11 05 3e 1b 3f 4a be 76 31 14 3e 74 ce a4 bc
       0.12995112 -0.19750635 0.14471993 -0.020117976
000110 a7 5c 31 be c0 0e 39 3d 69 f4 41 be 21 61 52 3d
       -0.173205 0.045180082 -0.18940891 0.05136216
000120 d2 69 b0 3c f3 0a 04 3e 30 d4 5d 3d 3f 5f cb 3d
       0.021534834 0.12894802 0.054157436 0.09930276
000130 60 63 20 3c 64 1c aa 3d 2e dc 63 be f3 86 49 3c
       0.009789318 0.08306196 -0.2225196 0.012300241
000140 8c 62 08 be 9e e0 b9 3d 2a a1 5b 3c ad c5 55 3e
       -0.13318843 0.090760455 0.013405124 0.20876189
000150 42 db 5a 3d 9b d1 78 3d fb bf 2a be 8a c9 a3 be
       0.053431757 0.06074677 -0.16674797 -0.319897
000160 42 d7 ac 3d 10 3f 07 3d 50 c7 87 bd 65 ce ce bd
       0.08439495 0.033019125 -0.06629813 -0.100979604
000170 06 6d be 3d 35 a2 3e bd 43 31 66 3d 12 dd 29 bd
       0.09298138 -0.04654141 0.056199323 -0.041470595
000180 9b 3f 7c bb 01 14 72 be af 6f af bd be 46 c9 bd
       -0.003849006 -0.23640443 -0.08566224 -0.09827946
000190 c8 c0 9b 3c e9 70 6d be b5 ac 91 be 21 3b 2b 3e
       0.019012824 -0.23187603 -0.28452078 0.16721775
0001a0 4d 81 c3 3c fb 35 97 3c 44 49 2c be 26 d1 ea 3d
       0.023865366 0.018458357 -0.16824824 0.11465673
0001b0 3a d0 3f 3b fd 83 fa 3d 0f 09 3b bd d5 28 0c be
       0.00292684 0.12232206 -0.045662936 -0.13687451
0001c0 a8 c4 31 be 43 89 df 3d d8 2a 2a be af d9 96 be
       -0.17360175 0.109148525 -0.16617906 -0.29462954
0001d0 3b d1 13 3b 89 cb 47 3e fd 5f 0d 3e 7f 62 53 3e
       0.002255513 0.19511236 0.13806148 0.20643042
0001e0 7a 73 82 be f7 63 e1 3d ab 30 0f be 37 e9 b7 3c
       -0.25478727 0.11005395 -0.13983409 0.022450073
0001f0 bb 62 10 3e 8c 50 49 3e bf 92 59 be 0a af c9 bd
       0.14100163 0.19659632 -0.21247385 -0.09847839

emb.layers.2.weight f4 [32, 128]
000000 6d 85 24 3d 23 79 2f 3d 0e 5f 9d 3b 1d 47 b8 bd
       0.040166307 0.042840134 0.004802591 -0.08997939
000010 d2 c6 dd bd 75 d0 76 bd 00 67 67 3d b6 b5 74 bc
       -0.108289376 -0.060257394 0.056494713 -0.014935901
000020 1d 5b 49 bd 7e 84 c4 3d 6b 94 8f bd cf 78 f4 3d
       -0.049159158 0.095955834 -0.0701073 0.11937105
000030 28 82 c7 3c 09 73 9c ba 5c 4f 15 3d ee 00 37 bc
       0.024354056 -0.0011936139 0.036452636 -0.011169655
000040 c3 d8 09 3d fd 9a e3 3d 0e 78 b4 ba a1 28 24 3c
       0.033653986 0.11113546 -0.0013768689 0.010019452
000050 02 97 c6 3c 1e b9 f6 3a 8b cf aa bc 4a a2 98 3d
       0.024241928 0.001882348 -0.020850917 0.07452829
000060 6e 5f 8c 3d 8a 36 0d 3d 6e 1e df bc 5c 52 d0 3d
       0.06854139 0.03447584 -0.02723619 0.10171959
000070 6c 21 72 3d df 3d cf bc 6d 61 b3 3b 52 a7 81 3d
       0.059113905 -0.025298057 0.0054742605 0.06330742
000080 c0 95 67 bd 96 87 75 3d 87 74 48 3d 48 ee a2 3d
       -0.056539297 0.059943758 0.048939254 0.07955605
000090 bd 72 3f bc c7 9a bd bd b3 99 9f 3d 29 20 27 3d
       -0.011685071 -0.09258037 0.07792988 0.040802155
0000a0 11 44 e0 3c 48 5a 89 3d b4 a2 03 3d 15 4b 84 bc
       0.027376207 0.06706673 0.032137588 -0.016149083
0000b0 62 a5 b2 3d 4b 65 12 3c 7a d3 74 3d 40 77 7f 3d
       0.087229505 0.008935283 0.059771992 0.062369585
0000c0 98 ff c8 bd 86 c7 d8 3d 85 0a 5a 3d ef 19 35 3b
       -0.09814376 0.10584931 0.05323269 0.0027633866
0000d0 7f 30 68 bd 16 d4 53 3d b9 45 22 bd e0 e4 06 3e
       -0.056686874 0.051715933 -0.039617274 0.13173246
0000e0 00 df 34 3d 21 48 a8 bc 70 7e 9e 3b 66 06 52 bd
       0.044157982 -0.020542206 0.00483685 -0.051275633
0000f0 30 da 8d 3d 4d 67 d8 3b 46 5b 2c 3d b3 58 5c 3c
       0.069263816 0.0066041113 0.042079233 0.013448882
000100 1e ed 95 bd 0f ee e2 bb cf ff 84 bd 80 1a 44 3d
       -0.07320617 -0.0069253515 -0.06494104 0.047876835
000110 0c b8 bc 3d af ba d6 bb ee 1e d1 3d b7 60 9d 3b
       0.09214792 -0.006553016 0.102109775 0.004802789
000120 a0 03 24 3d 11 6f 7a 3d 75 70 6d bb 46 93 63 bd
       0.04004252 0.061141077 -0.003623036 -0.055560373
000130 a7 d8 c7 3b cd cc ab bd 09 94 97 bd 2d 13 83 3c
       0.006098825 -0.08388672 -0.07401282 0.016000355
000140 68 f5 51 3d 11 8d dd 3c 14 9b a2 bc ac 69 a9 bd
       0.05125943 0.027044805 -0.019849338 -0.082721084
000150 1b f9 9b bc 11 98 d1 bc bb 81 0e 3c de 1b 40 3d
       -0.019039681 -0.025585206 0.008697922 0.046901576
000160 80 95 1b bd ff 1d 1d bc 95 e0 16 bc 0c 10 80 3d
       -0.03798437 -0.009589671 -0.009208818 0.06253061
000170 fc 6a ae bc 6f a5 cf 3d 9e 75 e2 bb 27 25 25 bc
       -0.021291249 0.10138976 -0.0069109937 -0.010079659
000180 66 53 58 bd 70 75 11 be fa 55 40 bd 9f 69 06 3d
       -0.05281391 -0.14204955 -0.046956994 0.032815572
000190 3a ae ce bd 75 c8 fd 3d e5 41 4d 3d 22 eb 4e bd
       -0.10091825 0.1239175 0.05011167 -0.05051721
0001a0 fd 8b cb 3d 8b 88 f9 bb d0 82 eb bd 55 61 8a 3d
       0.0993881 -0.007615154 -0.1149956 0.06756846
0001b0 24 3b 01 bd 08 bd c6 bd c3 f1 b8 3d f0 a5 c0 3d
       -0.03155054 -0.097040236 0.090304874 0.0940665
0001c0 ef 52 81 bd 43 c0 cb bc 90 59 44 3e 3e ea 4b 3d
       -0.063146465 -0.024871951 0.1917479 0.049783938
0001d0 59 8f f2 3c 54 b5 a3 3d ae 2d 6d bd 2e 6f 4e 3d
       0.02960937 0.0799357 -0.05790489 0.050398998
0001e0 aa 0a 19 3d 28 15 16 3d 7a be f8 3d c2 98 90 3d
       0.037363686 0.03664127 0.121457055 0.07060386
0001f0 a3 de 7d 3d 6b 77 a9 bd 07 7c 0e 3d 08 b2 5c bd
       0.0619799 -0.0827473 0.03478625 -0.05388072
000200 22 33 80 3e d6 6b 72 bc d2 f3 6e 3c 15 ec ef 3c
       0.2503901 -0.014796218 0.0145844985 0.029287377
000210 20 45 01 bd b0 4d 7f 3c ec 43 c1 3d 1e 1a 6e be
       -0.031560063 0.015582487 0.09436783 -0.2325215
000220 70 a9 a2 3d 61 e2 b1 3d 02 b1 98 3d 97 ee b5 3d
       0.07942474 0.086857565 0.074556366 0.08883398
000230 a0 e3 a1 3d 1f fe 5b 3d cc 3c 1c 3d 6c 88 b9 bb
       0.07904744 0.053709146 0.038143918 -0.0056620147
000240 77 a8 a0 3b 73 26 89 3d 95 74 27 bd 1b bd 1f 39
       0.004902895 0.06696787 -0.040882666 0.00015233869
000250 51 d8 92 bd 05 ce 2f 3d ac fb e0 3d 57 ef 8f 3d
       -0.07170165 0.042921085 0.109855026 0.07028072
000260 39 f6 32 bc 6f 26 a7 bd c7 8b 3e 3c 85 32 b0 3d
       -0.010922962 -0.081616275 0.011630005 0.08603386
000270 bd 5b 69 3d bc 11 0f be 9c b4 3f bc 7b 5e 49 bc
       0.056972254 -0.13971609 -0.0117007755 -0.012290592
000280 14 6c 88 bd 06 66 1a 3e 1f 69 b3 bc d1 01 a1 3d
       -0.06661239 0.15077981 -0.021900712 0.078616746
000290 9a b4 82 bc e3 c4 7e bd 71 97 64 bd 59 61 66 3d
       -0.015955258 -0.062199485 -0.05580849 0.05624518
0002a0 73 dd 2b bc 29 30 9a 3c 86 89 8a bd 05 53 3b bc
       -0.010489809 0.018821793 -0.06764512 -0.011433368
0002b0 36 fe 98 3d 84 af 6d be 19 03 4f 3d 77 bd 62 3d
       0.07470362 -0.23211485 0.050540064 0.05535647
0002c0 cc 21 1b be af d9 47 be de 9e c9 bd 19 aa 71 bd
       -0.15149611 -0.19516633 -0.09844755 -0.05900011
0002d0 50 d4 94 3d bc 7a a7 bd 8c c5 c2 bc 38 20 18 3c
       0.07267058 -0.081777066 -0.023775838 0.009285025
0002e0 66 c7 e5 3c 6c a7 a7 bc 0f 23 70 3c 8c d2 54 ba
       0.028049182 -0.020465575 0.014656796 -0.0008118532
0002f0 cb 17 4f bc 81 5b b3 3c 9d 93 8c 3d 4c 20 09 3d
       -0.01263995 0.021894218 0.068640925 0.033478066
000300 e3 30 b1 3a 80 c4 12 3e ee 6d 45 3d f1 6d fc 3d
       0.0013518598 0.14332771 0.04820054 0.12325657
000310 74 fa 4f 3e e3 ce 23 bb 97 6f 0f be 08 31 05 3e
       0.20310384 -0.002499514 -0.14007412 0.13006985
000320 ac 4a 08 3d c7 76 26 bd c2 b9 4e bd 61 f2 5e 3d
       0.033274338 -0.04064062 -0.05047012 0.05443037
000330 39 90 c0 3d 5e c2 8c bd ea 1a 7a bd 96 d8 77 bc
       0.09402508 -0.0687301 -0.061060824 -0.015127322
000340 d7 6f b6 bc 75 8e 64 3d aa c2 a2 3b 1c e6 8e 3d
       -0.022270126 0.05579992 0.0049670534 0.06977484
000350 d0 50 ce bd a0 79 a0 3d 82 7c 66 bc 53 68 29 be
       -0.100740075 0.07835698 -0.014067771 -0.16543703
000360 97 5c 52 bc 1c 7d 8b bc 03 62 d3 bd ed 27 25 bc
       -0.012839458 -0.01702743 -0.103214286 -0.01008032
000370 05 95 53 bb f4 3c e6 3d cb 58 58 3d b6 14 ca 3d
       -0.0032284867 0.11242095 0.052819055 0.098672315
000380 82 0d 05 3d 71 aa 48 be 55 a0 52 bd a1 b8 d8 bd
       0.032483585 -0.19596268 -0.051422436 -0.1058209
000390 0b 01 be 3c 7b 7e 48 3e 5b 89 09 be f5 28 42 bb
       0.023193857 0.19579498 -0.13431303 -0.0029626463
0003a0 ae bd 8d 3d 2b 8c c6 bd 65 bd c5 bd 7c bc a3 3a
       0.06920944 -0.09694704 -0.09655265 0.0012492086
0003b0 10 41 64 3c 01 96 90 bd 85 8f dc 3d fc f0 b4 3c
       0.013931528 -0.07059861 0.10769562 0.022087567
0003c0 ec 40 b8 3d 94 fd 86 3d 83 b0 f3 3d 93 fd 61 bd
       0.08996758 0.06591335 0.11898901 -0.055173468
0003d0 bd 8d f6 bc 2f 22 70 3d d3 72 b5 bd 42 53 96 3d
       -0.030096883 0.05862635 -0.088597916 0.07340099
0003e0 cc 9e 71 bd 0c ec 10 3d f5 e8 ae 3d 80 ab 81 bb
       -0.05898933 0.03538136 0.08540527 -0.003957212
0003f0 9f bf 45 bd 38 30 44 bd c1 2d e1 bd b5 c1 87 3d
       -0.048278447 -0.047897547 -0.10995055 0.066287436

emb.layers.2.bias f4 [32]
000000 36 63 23 bc 17 ea fc bc 11 6d 0c bd c8 d4 85 3d
       -0.009972384 -0.030873341 -0.0342837 0.065347254
000010 39 a7 23 bd 8d e3 12 3d 9d 8a 9e bc 75 9e b2 3d
       -0.039954398 0.03586154 -0.019353205 0.087216295
000020 bb f7 9b bd b3 af 7d 3d a5 d2 02 3c 69 30 82 bc
       -0.0761561 0.061935138 0.007984792 -0.015892224
000030 eb 67 50 3d 89 de 73 3c 0f b2 8b bc 35 20 09 3d
       0.050880354 0.0148845995 -0.017052678 0.03347798
000040 ec e1 82 bd 0a cb 10 bd 6f ae 0e 3c 84 db 1f 3d
       -0.063907474 -0.035349883 0.00870858 0.039027706
000050 82 6f e3 3c 7e 49 93 3c 14 fa 72 3d 9f 2f 18 bd
       0.027763132 0.01797938 0.059320524 -0.03715479
000060 13 74 42 3c c9 2c 05 3b 5b 9c 0e bd 1c 32 9f 3d
       0.011868495 0.0020320883 -0.03481708 0.077732295
000070 72 3d a1 bd df 60 5d 3d f0 a7 b6 bc 34 5c a4 3d
       -0.07873048 0.05404746 -0.022296876 0.08025399

encoder.layers.0.self_attn.in_proj_weight f4 [96, 32]
000000 20 aa 2b be 8a 3b fb 3d fe 90 8b be 65 9e 4d be
       -0.16764116 0.122672155 -0.27259058 -0.20079954
000010 8a 5e 11 bd 54 55 1b 3e 75 ba aa 3b b5 ca 0b 3e
       -0.03549055 0.15169269 0.0052102157 0.13651545
000020 e9 80 18 3e 7d 7d 41 3e d9 1a cb bd 89 53 29 3e
       0.14892925 0.18895526 -0.0991723 0.16535772
000030 1a 1e 5c bd ca 4c 4c 3e c1 66 1f be f1 f7 54 be
       -0.053739645 0.19951168 -0.15566541 -0.20797707
000040 a3 6d b8 bd f6 02 ff bd 88 1e 6a 3e 9e a2 14 3e
       -0.090052865 -0.12451737 0.22863209 0.14515159
000050 a1 7e fb 3c f1 fa 3b be 42 87 17 3d 44 fb 06 be
       0.03070003 -0.18357445 0.036994226 -0.13181788
000060 92 df 2c 3d b8 3a 22 bd 13 dd 1d 3c a2 6f 63 3c
       0.0422054 -0.03960678 0.009635228 0.013881596
000070 2e 3e 8c bd fd 75 68 bc 99 2c 47 3d 19 a4 3c bd
       -0.06847797 -0.014188287 0.048626516 -0.046054933
000080 9d bb 47 3d 68 96 43 be b1 7d c0 3c ac ca 12 bc
       0.048762906 -0.19100344 0.023497434 -0.008959454
000090 8c 93 77 3b e1 9f ad bd 9d 9b 53 3e 6f fc 3a bc
       0.0037777154 -0.0847776 0.2066483 -0.011412724
0000a0 5b 8a 2c bc 2c 31 2b be 75 26 13 3e 47 8b 92 3c
       -0.010531033 -0.16717976 0.14370139 0.017888678
0000b0 da 0b df 3d 8e 12 a8 bd 39 52 55 3e 6b b4 10 3e
       0.108909324 -0.08206664 0.20832147 0.14131324
0000c0 ed b2 be bd b3 99 ea 3d 35 ed 44 3e 21 d0 cd bd
       -0.09311471 0.11455097 0.19231112 -0.10049463
0000d0 cf 52 06 be d4 7f 97 be 03 1c 0f bd ca 6c 3d 3e
       -0.13117526 -0.29589713 -0.034938823 0.18498531
0000e0 30 2b 30 be a1 6e 02 be 62 49 46 3e bd 80 c4 bd
       -0.17203975 -0.12737514 0.19363931 -0.095948674
0000f0 72 a2 09 3d e3 5f 90 be 84 d5 a1 bd 9a b5 25 3e
       0.033602186 -0.28198156 -0.07902053 0.16182557
000100 bc cc 29 3e 70 e4 ea bc 12 bf 85 be ab c9 a1 bd
       0.16582006 -0.02867338 -0.26122338 -0.07899793
000110 9e 3d b2 3c af 74 27 be 55 3e 2c bd 22 81 3b be
       0.021757897 -0.16353105 -0.042051632 -0.18310979
000120 03 98 8b 3e fe 05 b3 bd 61 fc 38 3e ec 6a c0 bd
       0.27264413 -0.08741377 0.18065025 -0.09395394
000130 ff b8 c9 bd e9 c7 1b bd ca 9f 78 3e b1 fa 09 be
       -0.09849738 -0.038032446 0.24279705 -0.13474537
000140 10 9a db 3d 2a b1 b8 3c c5 94 be 3b 7e d5 7e 3c
       0.107227445 0.022545416 0.0058160746 0.01555383
000150 81 8a 40 be 95 ae 92 3d 92 58 53 3e fc db c4 bc
       -0.18802835 0.07162205 0.20639256 -0.024030678
000160 bc 23 55 be a6 0a 45 3e 87 0a 02 3e b4 03 04 be
       -0.20814413 0.19242343 0.12699328 -0.12892038
000170 2f 2d 3d be c8 9c 96 3c bc d7 45 b9 86 12 71 be
       -0.18474267 0.018385306 -0.00018867751 -0.23542222
000180 03 d4 cf 3c 51 1d 6d 3e 6b 0e 25 be 78 df f4 bd
       0.02536965 0.23155715 -0.16118781 -0.11956686
000190 09 f8 df bd 9e a4 2e 3a 7a 55 7c be fa fd 2f 3e
       -0.10935981 0.0006662103 -0.24641982 0.17186728
0001a0 69 15 3b be 5b 79 0f be 88 73 db bd 1a c9 dd 3d
       -0.18269886 -0.14011137 -0.10715395 0.10829373
0001b0 16 64 27 3e 26 8c 24 be 38 68 24 bd a9 87 7c 3c
       0.16346774 -0.16069087 -0.040138453 0.015413203
0001c0 ed 96 75 3e 2c 95 95 3d ea 18 16 be 12 02 3a 3e
       0.23983355 0.07303843 -0.14657941 0.18164852
0001d0 ce 93 91 3d a6 d9 b7 bd d1 25 64 bd 5f 52 a8 3c
       0.0710827 -0.0897706 -0.055700127 0.02054709
0001e0 26 45 6f 3d 14 05 4a 3e da 56 15 3e e8 dc 48 be
       0.058415554 0.197285 0.14583912 -0.19615519
0001f0 5b ba 46 be b0 ed 8f bd 91 bf 96 bd 86 7d 1f 3e
       -0.19407026 -0.07027757 -0.07360757 0.15575227
000200 d7 df 08 be 1c 71 04 be 5c 52 65 be 12 f7 05 3c
       -0.13366638 -0.12933773 -0.22394699 0.008176582
000210 55 8b 8b 3c f5 fc 8e 3d cf 6c db bd dd 2b 4d be
       0.017034212 0.069818415 -0.10714113 -0.20036264
000220 a4 38 bb 3c fc 05 5a bd c7 89 3e 3e 74 e7 63 be
       0.022854157 -0.053228363 0.18607245 -0.22256261
000230 25 c8 1b 3e ca ad 68 3e 7c f7 98 bd 73 87 27 bc
       0.15213068 0.22722545 -0.07469079 -0.010225165
000240 1c 77 de 3c 41 eb 9c bd 57 32 78 3e a5 1e 4d 3d
       0.027156405 -0.076620586 0.24237953 0.050078053
000250 a4 22 2c 3e ff 71 d1 3c 13 24 4f 3e c4 f2 17 be
       0.1681009 0.025567053 0.20228605 -0.14838701
000260 72 e4 7b bd da 0d 11 3e fc cd c0 bd c7 f9 68 bc
       -0.06149716 0.1416544 -0.094142884 -0.014219708
000270 9b 62 18 3d 28 07 66 be 67 93 08 3d fc f8 29 3a
       0.037203413 -0.22463667 0.0333437 0.000648394
000280 fd 77 3a 3e 1d a1 0c be 3f 0d b7 3d 1f c7 86 bd
       0.18209834 -0.13733335 0.08938073 -0.06580948
000290 5a f5 2f 3e 4a 30 da bd ce 81 cb 3d c8 be 34 bb
       0.17183438 -0.10653742 0.09936868 -0.0027579535
0002a0 44 9d 96 3e 6a 8e 14 be d2 b4 cc 3d f3 b6 04 be
       0.2941686 -0.14507452 0.09995426 -0.12960415
0002b0 36 ae be bc 01 40 d1 bd f1 74 d7 3c 57 ae 37 3e
       -0.02327643 -0.10217286 0.02630088 0.17937599
0002c0 bf 3d 0f 3e 5a d5 42 bd 0f 80 5a 3d f4 c9 6a be
       0.13988398 -0.04756675 0.053344782 -0.22928602
0002d0 ca 67 e9 bd ee 2c c5 bb 52 a8 3b 3d 33 ba 06 3d
       -0.11396749 -0.006017319 0.04581482 0.032892417
0002e0 85 3d 1a 3e 5a 68 02 bd 3d c2 cc 3b c8 a1 eb bd
       0.1506253 -0.0318378 0.006248741 -0.11505467
0002f0 30 99 82 be 6b e1 39 bd 82 35 ce bd 28 10 96 3b
       -0.25507498 -0.04538099 -0.100687996 0.0045795627
000300 0d 1b ea 3d 10 4f 2d be 38 14 42 bd a6 c9 3e 3e
       0.11430941 -0.16924691 -0.047382563 0.1863161
000310 fe 5f ae bd 6e ce a4 3d 41 af 3c be 66 14 bd bd
       -0.08514403 0.08047186 -0.18426229 -0.09232406
000320 5f ab cd bd 2c 54 23 3e b5 77 4f be 70 5d 5f 3e
       -0.10042452 0.15950078 -0.20260508 0.21812987
000330 b8 74 1a 3e 93 b4 0f be 27 e9 4c be e4 df ff 3d
       0.15083587 -0.14033727 -0.20010816 0.124938756
000340 f9 11 75 bb 09 e3 08 be 4e 26 84 be 8e 0b e1 bd
       -0.0037394746 -0.13367857 -0.25810474 -0.10988532
000350 1a c2 66 3e bf 56 80 3e 84 e0 4f be 64 49 15 bd
       0.22534981 0.25066182 -0.2030049 -0.036446944
000360 19 85 e0 bd 97 a0 14 3e 1a b7 0d be da 7d af bc
       -0.10962886 0.14514385 -0.13839379 -0.021422315
000370 3d 1a 2f 3e 9b d0 3b bd 92 a3 07 3e 1f af 00 be
       0.17099853 -0.04585324 0.13245991 -0.12566803
000380 10 fb d0 3b 6a 67 1e 3e 57 56 1d 3d cb 5c 8e be
       0.006377585 0.15469137 0.03841242 -0.2780517
000390 8e 1f 14 3d a6 f4 2f be 71 55 d6 3d b0 d1 80 3c
       0.036162905 -0.1718317 0.104655154 0.015724987
0003a0 21 ed 9c bd 3f 3d 0a be 6e 8c a5 3c 2c 66 33 3e
       -0.07662416 -0.13499926 0.020208564 0.17519444
0003b0 41 d3 3b be 55 69 34 3e a0 13 90 bd 60 f9 d3 bd
       -0.18342306 0.17618306 -0.07034993 -0.10350299
0003c0 26 b6 fd 3b 9f b2 1a 3e 05 50 90 3e 3a 27 3e be
       0.007742661 0.15107201 0.2818605 -0.18569651
0003d0 d6 0e 38 be ea 3c a6 be 3e 3c 39 3e aa 81 36 3c
       -0.1797441 -0.3246835 0.18089387 0.011139313
0003e0 20 fc 0c 3e 00 b0 05 3e 5a 6a 91 3b 00 3d 06 3e
       0.13768053 0.1305542 0.004437727 0.13109207
0003f0 df 0f 29 3d d4 6f 99 be 3a a5 e7 bd f0 5f b1 3d
       0.0412749 -0.2996813 -0.11310811 0.08660877

encoder.layers.0.self_attn.in_proj_bias f4 [96]
000000 d8 22 39 bd 00 cd 5b bd c0 04 bc bd 4e d9 6c 3c
       -0.045199245 -0.0536623 -0.091805935 0.014456106
000010 b1 9c 6b bd af 9e af bd 16 75 8a 3d 5c 81 d0 bd
       -0.05752248 -0.08575188 0.067606136 -0.10180923
000020 0c 09 bd bd 33 8f 90 bd a5 d2 92 3d c3 84 9a 3d
       -0.09230241 -0.07058563 0.071690835 0.075448535
000030 13 0e b3 bd 9e aa ba 3d 6b 10 a5 3d 05 9d b3 bd
       -0.08742919 0.09114574 0.08059772 -0.087701835
000040 3e b7 8c 3d ea a1 cf bd 0a f6 a0 3d 44 00 af bd
       0.06870888 -0.101383045 0.07859428 -0.085449725
000050 89 3f a6 bd e3 ff 98 3d fe 0f 92 3d 24 89 a8 3d
       -0.08117587 0.074706815 0.071319565 0.082292825
000060 9e d5 67 3d e9 6b 87 3d ed 85 a2 bd c4 a9 bc 3d
       0.056600206 0.06612379 -0.079357006 0.09212068
000070 c7 37 88 bd 06 c6 88 bd ef b1 6c bd 61 43 e3 bd
       -0.06651264 -0.06678395 -0.05778688 -0.11096836
000080 c2 be 35 36 55 44 b2 37 aa 2f e1 b8 d1 3f 60 b6
       2.7082137e-06 2.1251073e-05 -0.00010737714 -3.3415747e-06
000090 ba 45 9f 37 25 3c 78 b7 d4 0a 06 38 c2 1b 64 38
       1.8986746e-05 -1.4795955e-05 3.1958174e-05 5.4385288e-05
0000a0 aa ed c9 38 bf f4 28 37 bc ab 4c 38 5d 8a 98 b7
       9.628695e-05 1.0070565e-05 4.879733e-05 -1.8184242e-05
0000b0 66 74 7a 38 98 55 a7 38 27 55 54 37 f6 97 19 35
       5.971305e-05 7.9791236e-05 1.2656011e-05 5.7218074e-07
0000c0 99 d1 40 b7 ca 97 33 39 53 8d ac b7 51 59 95 b8
       -1.1492893e-05 0.00017127316 -2.0569807e-05 -7.12151e-05
0000d0 e1 7a 47 b8 63 77 3b 38 d3 54 cf b4 81 92 5d b9
       -4.7559737e-05 4.4695462e-05 -3.8618472e-07 -0.0002113078
0000e0 75 c2 0d b8 e0 ad 0e 38 ee e7 04 39 7e d0 25 b9
       -3.3798122e-05 3.4017372e-05 0.00012674902 -0.00015813296
0000f0 fe 7d cf 38 c7 7a 06 b8 31 b1 9e b7 60 27 bd 38
       9.893997e-05 -3.2062435e-05 -1.8917579e-05 9.0195565e-05
000100 b2 2d 43 bc b4 a6 04 bd fd d0 86 3c 65 36 cb bc
       -0.01191275 -0.032385543 0.016457075 -0.02480621
000110 89 40 da 3c d4 0b a5 3c 35 47 de bc 81 e1 b7 bc
       0.0266421 0.020147242 -0.027133564 -0.022446396
000120 64 6f a8 bb 82 a1 86 3c aa ec 2d 3c 46 bf 4e ba
       -0.005140232 0.016434435 0.010615507 -0.00078867783
000130 fc ba bd 3b bb 1c d3 3c ae e3 0d 3c 27 2b 7b bb
       0.0057901125 0.025770536 0.00866024 -0.0038325281
000140 8f 26 9d 3c 8c 8d 25 bc bc 47 9e bc bb 3c 68 3c
       0.019183425 -0.010104548 -0.019321315 0.0141746355
000150 b4 05 01 3c 94 34 97 3b 8f e3 1b 3d b5 21 e9 bc
       0.007874895 0.004614422 0.038058814 -0.028458456
000160 5b 12 73 3a e4 90 73 3c ff 15 e4 3c a2 2e e8 bb
       0.00092724495 0.014866088 0.02784252 -0.007085637
000170 fc 0d b0 bb e4 d1 2d 3c ad fb 55 bc 75 29 1b bc
       -0.005372761 0.010609124 -0.013060492 -0.009470333

encoder.layers.0.self_attn.out_proj.weight f4 [32, 32]
000000 84 48 cb 3d 15 5d 20 3d 89 43 cb bd a3 67 c8 3c
       0.09925941 0.03915127 -0.09924991 0.02446348
000010 34 f4 9b bd e0 ae 92 3d c6 9f d4 3c c8 5e 27 3d
       -0.076149374 0.07162261 0.025955092 0.040861875
000020 4d 70 82 3d c6 4e 19 3d 57 88 23 3e f8 e5 d6 bc
       0.06369076 0.03742864 0.15969978 -0.026232705
000030 8e be 30 bd 13 10 4c bd f3 9d 16 3e 45 0b 5e bd
       -0.043150477 -0.049820017 0.1470869 -0.054209966
000040 83 9e 9b 3c e0 e5 b7 3d 3e 1b f6 bc 62 15 9d bd
       0.018996483 0.08979392 -0.030042287 -0.07670094
000050 eb 61 9a bd 8e 02 0b 3e 45 82 77 bc 27 d3 01 bd
       -0.075382076 0.13575193 -0.015106742 -0.03169551
000060 64 6d 96 bd e1 da 8b bd f9 ab 6c be 47 63 9c ba
       -0.07345083 -0.06828857 -0.23112477 -0.0011931442
000070 89 37 af bd 2c 87 8c bd e5 ce e9 3d f2 53 73 bd
       -0.08555514 -0.068617195 0.11416415 -0.05940623
000080 4a 38 ef bd 46 f4 7f bb 23 f7 88 bc fe dd 5a bd
       -0.11680658 -0.003905551 -0.016719406 -0.053434364
000090 3b 6c 75 3d 34 2d bb 3d bb 2b 45 3d 55 4e 13 3e
       0.05991767 0.09139481 0.048137408 0.1438535
0000a0 1b 80 64 3d 5b 90 12 bd fe 40 98 bc b1 52 05 bd
       0.055786233 -0.0357822 -0.018585678 -0.032549564
0000b0 7e a3 81 3d 31 17 82 bd 2d 45 2f 3d 0e dc 30 3e
       0.06330012 -0.0635208 0.04279058 0.17271444
0000c0 dc aa a0 3d 5b bb d8 3d 1e b0 bd bc e1 e9 5a bd
       0.07845089 0.1058261 -0.023155268 -0.0534457
0000d0 b6 96 11 3e 72 82 15 bd 61 1b d1 3d 76 74 24 bd
       0.14217648 -0.036501355 0.102103 -0.04015013
0000e0 6e 4b 2d bd 49 e6 bc 3d 21 81 a4 3d b6 e6 da 3c
       -0.042308263 0.09223611 0.08032442 0.02672134
0000f0 38 e7 14 be de 6b 7c 3d 1e 6d fc 3d 67 cb 2d 3d
       -0.14541328 0.061626308 0.123255 0.042430308
000100 ec 5a b8 3b 65 27 38 3e d8 3b 58 3d 5c c5 1b bd
       0.005626073 0.17983778 0.052791446 -0.038030013
000110 f7 6f 0a be f9 89 a6 3d d8 6e 28 3d 10 4d 17 3d
       -0.13519274 0.08131785 0.041121334 0.036938727
000120 44 af 0e be cb e7 1d 3d 6b 89 98 bd d9 9d fa 3d
       -0.13934046 0.038551133 -0.074480854 0.12237138
000130 d3 cf f8 3d e2 b6 03 be 79 b2 d9 bd 27 3d 6a 3d
       0.12149014 -0.12862733 -0.10629744 0.057187226
000140 84 c8 e1 3d 12 10 69 3d 6e c9 f1 3d 5b f6 bd bc
       0.110245734 0.05690009 0.11805998 -0.02318876
000150 01 14 00 3e 2a 3b 0c be e6 70 0b be 21 03 24 3e
       0.12507631 -0.13694444 -0.13617286 0.16016819
000160 3c 0a 81 bd 13 8e 1f 3d b9 50 37 bd 0c 34 a1 bc
       -0.0630078 0.038953852 -0.044754717 -0.019678138
000170 e7 d1 8d 3b 38 99 49 3d 0d 8e c0 3c a0 3d b0 3d
       0.004328001 0.049218386 0.023505235 0.08605504
000180 3a d3 9c bd ab 74 1c 3e 9e 18 3c 3d e0 3a 92 bd
       -0.07657476 0.1527888 0.045921914 -0.07140136
000190 7b 68 07 3e dc 21 d4 bd 91 a7 09 3d 1d f5 54 3e
       0.1322345 -0.10358021 0.03360707 0.20796628
0001a0 bb d0 8b bd 54 44 8b bd 34 88 c3 3d 62 9d 68 bd
       -0.068269216 -0.06800142 0.09547463 -0.056790717
0001b0 6b bf a5 3d fa 87 c3 3c de 9b 4b be 45 8b 90 bd
       0.08093151 0.02386855 -0.19883677 -0.070578136
0001c0 34 d2 09 be 91 0d 01 be c8 8f 38 3e d3 c2 3c be
       -0.13459092 -0.12602831 0.18023598 -0.18433695
0001d0 d0 24 21 3d d9 14 1c 3d 41 4a f1 bc 75 bf 16 3e
       0.039341748 0.03810582 -0.029454352 0.14721473
0001e0 a9 53 7d 3d 2f 47 be bd c9 1f 19 be 6a 47 7b 3e
       0.061847363 -0.09290921 -0.14953531 0.24538961
0001f0 99 ff 3c 3d e2 dd d5 3d 13 ac 3e be a7 10 50 be
       0.046142194 0.104427114 -0.18620329 -0.20318852
000200 ac bb be 3d 25 b0 11 3e cb b4 22 3e ad 71 8a 3a
       0.09313139 0.1422735 0.1588928 0.0010562442
000210 09 d7 c2 bd ae c9 03 3d 60 e2 ec bd 8a 59 2f 3d
       -0.09513671 0.03217476 -0.11566615 0.04281
000220 f8 e7 12 3d 10 fe 55 3d 28 7c a2 bd d8 50 aa bd
       0.035865754 0.052244246 -0.07933837 -0.08316201
000230 d7 42 19 3d 14 75 a4 3c ea 30 3f 3d 01 63 67 bd
       0.03741726 0.020075358 0.046677507 -0.0564909
000240 f0 9c dc bd bb 2f a8 bc 3d 46 1a bc 52 2c ef 3d
       -0.10772121 -0.020530572 -0.00941616 0.11678375
000250 4a d9 f5 bc 65 ad 09 be 5e f1 bd bd cd 6d cc 3d
       -0.030010838 -0.13445051 -0.09274553 0.0998188
000260 d7 92 80 bd 55 35 22 3d 6a 32 27 bd 68 85 47 bd
       -0.062780075 0.039601643 -0.040819563 -0.04871121
000270 a6 ee 0a be 73 57 7a bd 27 69 35 3e 56 99 a5 3d
       -0.135676 -0.061118554 0.17715894 0.08085887
000280 42 6b 21 bc 30 56 77 3d ad 93 37 be 7b 41 d8 3c
       -0.009852232 0.06038493 -0.17927428 0.026398411
000290 9b 5e 6e 3c 68 9a fa 3d 43 ec 13 bc 10 21 cb 3d
       0.014548923 0.12236482 -0.009028497 0.099184155
0002a0 13 3b 03 be 88 3a ae 3c 40 c2 8c 3d 6b f9 d7 bc
       -0.12815504 0.021268144 0.06872988 -0.026364049
0002b0 c1 2f 06 bd 7e ce c6 3c eb 42 9c 3d d9 0c f3 3c
       -0.032760385 0.024268385 0.07629951 0.029669212
0002c0 32 87 f1 bd 4e df 00 3e 7e 59 83 bd ec 04 7d 3d
       -0.117933646 0.12585184 -0.06413554 0.061772272
0002d0 29 ff cc 3b f8 a1 20 be 6e f8 c3 3d 7d e3 ac bd
       0.0062560034 -0.15686786 0.095688686 -0.084418274
0002e0 98 ef c6 3d 33 fb 1a 3e 12 01 a3 bd 26 31 0a 3c
       0.09713668 0.15134887 -0.079591885 0.008434569
0002f0 7e 29 15 be 7a 8a 1d 3e da 49 11 3e 16 33 80 bd
       -0.1456661 0.15384856 0.14188328 -0.06259744
000300 29 01 83 3d c8 fe ca bc d0 c0 43 bd 53 e9 88 bd
       0.06396706 -0.024779692 -0.047791302 -0.06685128
000310 b7 54 ae 3d cc dc 2d 3e 93 e8 28 bb 6d 5f f2 3c
       0.08512252 0.16978759 -0.002577339 0.029586518
000320 cf 0a 89 3d 27 a0 fd bc 6f d1 12 bd fb 73 66 bd
       0.06691515 -0.030960156 -0.035844263 -0.05626295
000330 a2 d2 e4 3d b6 a4 7c 3d 25 8c e4 3b b0 1d 90 3d
       0.111729875 0.061680518 0.0069747143 0.070369124
000340 47 43 0a bd cc e5 3a 3c 4e 7d 01 3e 6b 2a 1b 3e
       -0.033755567 0.011407327 0.12645456 0.151529
000350 bb a6 f3 bc 02 f1 05 3e 28 e2 f5 b7 75 5b 3a bd
       -0.02974259 0.13080218 -2.9311588e-05 -0.045497376
000360 48 f0 0d 3b 5d f9 2b be 6e 87 5d 3c 94 38 0e 3e
       0.0021658111 -0.16794343 0.0135210585 0.1388877
000370 a9 3a 3b 3d 46 e0 ee 3d 4f 2c f3 bd 4d 1e c0 3c
       0.04571024 0.116638705 -0.118736856 0.023451949
000380 52 be 78 3d 5e e9 8e bd ae 00 7e 3d 64 2f 02 3e
       0.06072838 -0.06978105 0.062012367 0.1271339
000390 bd ba de bd 51 e5 d6 3d 92 02 ea 3b ff 35 91 3d
       -0.10875461 0.104929574 0.0071414197 0.07090377
0003a0 1c 3e 35 3c 4d 86 3f be 0c e2 55 bd 34 8f fb bd
       0.011062171 -0.18703575 -0.05221753 -0.12283173
0003b0 14 03 a0 bd d8 f1 72 3d 69 df 17 3e 73 e0 2c be
       -0.07813087 0.05931267 0.14831318 -0.16882496
0003c0 9b 27 80 3d cc 9e c4 bd 32 0a b5 3c db 77 37 3e
       0.06257554 -0.096006006 0.022099588 0.17916815
0003d0 0e 77 e7 bd 93 52 a2 bc b9 75 11 be ae bf 4b bd
       -0.11302005 -0.019814765 -0.14205064 -0.049743347
0003e0 fb 61 c9 3d 3d 91 35 be 07 7f ac 3d 0c b0 54 bd
       0.098331414 -0.17731185 0.08422666 -0.051925704
0003f0 97 40 7e 3d a3 3e d2 bd fd e1 ea 3d 59 79 ee 3d
       0.062073316 -0.10265853 0.11468885 0.11644239

encoder.layers.0.self_attn.out_proj.bias f4 [32]
000000 5e 09 bd 3a b4 9c a9 3a 6e ac f7 bb ad 44 3b 3b
       0.0014422347 0.0012940378 -0.007558397 0.002857487
000010 14 89 3f bc 62 5c ee bb 0a a5 12 bb 74 ce a4 bb
       -0.011690397 -0.0072741965 -0.0022376203 -0.005029494
000020 d2 9f bc bc db 4d c0 3b 1f 47 07 3c a3 4e 2e bb
       -0.023025427 0.005868656 0.008256703 -0.0026597164
000030 ee 5d e0 39 5e f7 7b bc f8 66 19 bc 80 bb 10 3b
       0.00042794592 -0.015378801 -0.009362929 0.0022084415
000040 67 59 25 3a 58 d3 90 3c 5b 81 d8 3b f0 13 d4 3b
       0.00063075725 0.017678902 0.0066072172 0.0064721033
000050 0a e9 08 3c 31 20 9b 3a 80 e5 8f bb c3 fa 00 bd
       0.008356342 0.0011835155 -0.004391372 -0.031489145
000060 82 e9 f5 3b 7a 3d 84 3c 30 ad d3 ba 7e 60 66 bc
       0.007504643 0.016142596 -0.0016149636 -0.0140610915
000070 28 03 83 bc a9 cb 77 3c 28 22 87 bb 02 81 ab 3c
       -0.015992716 0.01512424 -0.004123945 0.02093554

encoder.layers.0.linear1.weight f4 [128, 32]
000000 d8 66 bb 3d e4 2f 84 bd d1 68 d3 bd a2 9d 0b 3e
       0.09150475 -0.06454447 -0.103227265 0.13634351
000010 13 64 a1 bd 9d 7d b5 3d da 3e a6 bc e4 85 f3 bb
       -0.07880416 0.088618495 -0.020293642 -0.0074317325
000020 ab bb e4 3d 0d 9c da 3d 99 3f a7 bd bc ad 11 3d
       0.11168607 0.106742956 -0.08166427 0.035566077
000030 88 27 15 3e b9 4b 6e 3d 82 99 19 be 48 43 34 3e
       0.14565861 0.058177684 -0.14999965 0.17603791
000040 99 7b 15 3d 67 79 c8 3d 4a 66 64 3e 8a 53 53 3d
       0.036494825 0.09788781 0.22304645 0.05159334
000050 bd d2 60 be 18 bc c8 bc b7 2a 29 bc 14 34 3d bd
       -0.2195539 -0.024503753 -0.010325125 -0.046192244
000060 ee bf 83 3c a0 a0 39 3e c7 ac dd bb fd 87 9c bd
       0.01608273 0.1812768 -0.0067649814 -0.07643125
000070 f6 09 68 3c 80 52 10 be a2 67 d5 ba 15 9e 49 be
       0.014162531 -0.14093971 -0.0016281495 -0.1968921
000080 78 bf 4a be 90 2f d2 bd 30 eb 3d bd 91 cf ab 3d
       -0.19799602 -0.10262978 -0.04636687 0.083891995
000090 54 06 a6 bd 99 25 09 be 25 c3 96 3d 25 0b c2 bd
       -0.08106676 -0.13393249 0.073614396 -0.09474782
0000a0 dc f2 9b 3d fb 99 a7 3d f2 e9 06 3e 04 0f fc 3c
       0.07614681 0.08183666 0.1317518 0.030768879
0000b0 a7 6d 60 3c f5 a0 27 be 94 20 27 3e 20 c4 65 3d
       0.013698018 -0.16369994 0.16321021 0.056095243
0000c0 a3 8a 6c bb 9e 41 bf 3a 67 e0 2a 3e 08 2c aa bc
       -0.0036093376 0.0014591699 0.16687165 -0.020772949
0000d0 18 ee 82 bd fa dc 14 3e 42 6f 16 3e 62 14 41 be
       -0.06393069 0.14537421 0.14690879 -0.18855432
0000e0 41 e0 a4 bd 96 92 db 3d 11 4f fb 3c c4 c9 41 be
       -0.080505855 0.107213184 0.03067735 -0.18924624
0000f0 c5 2a 66 bd 67 fb be 3d ac 7a c5 bb 44 05 08 be
       -0.056193132 0.09325295 -0.0060265865 -0.13283259
000100 a0 de fe 3d da 0f 2f be c5 2c 42 bd a3 29 22 bc
       0.12444806 -0.1709589 -0.047405977 -0.009897622
000110 89 63 10 be ee 76 50 3a 23 eb 14 be 5d 15 2f be
       -0.1410047 0.0007952292 -0.14542823 -0.17097993
000120 82 b4 c9 3d 62 a1 ec 3d f6 73 9e 3d fe 4c 39 3d
       0.09848882 0.11554219 0.077369615 0.04523944
000130 7b cc 16 3d 99 bf f1 3a b9 c1 fa bd 59 e3 1d 3d
       0.0368161 0.0018443941 -0.12243981 0.038546894
000140 50 cd fb bd 77 58 60 3e 64 74 86 bd e1 1b a2 bd
       -0.122950196 0.21908747 -0.065651685 -0.07915474
000150 92 28 3e 3c 0f 5b 0e bd 02 9d 83 3a bb e7 7d bd
       0.011606352 -0.03475481 0.0010041299 -0.061988574
000160 4e 01 30 bd e0 5c a9 ba cd f3 1a 3e 10 72 33 be
       -0.042969994 -0.0012921356 0.15132065 -0.1752398
000170 ac b5 09 be f8 4a 09 be ef 49 57 bc 7b 51 0a 3e
       -0.13448209 -0.13407505 -0.013140186 0.13507645
000180 82 61 dd 3d 22 29 a8 3c dc a8 09 3d 11 e0 72 bd
       0.10809614 0.020527426 0.033608302 -0.059295718
000190 c0 cb 03 3c 55 10 98 3d 0a 0e 51 3e 34 68 f6 3b
       0.008044183 0.0742499 0.20415512 0.007519746
0001a0 39 fe 32 3e 49 2f 13 3e 8a d2 e3 3d f0 fa 2d 3d
       0.17479791 0.14373507 0.111241415 0.04247564
0001b0 44 ed 2e be 60 f6 be 3d 0c 70 56 bd d6 fc 81 3c
       -0.17082697 0.09324336 -0.05235295 0.015867632
0001c0 fa 72 6e bc 81 46 0d 3e b1 fa 8b 3e 6d 0e 8d 3d
       -0.01455378 0.13796426 0.273397 0.06887517
0001d0 7e f6 d6 bc af 1d 14 bd 81 ac 72 3d 4a e4 66 3d
       -0.026240584 -0.03616112 0.059246544 0.056370057
0001e0 d4 a3 94 bd 45 de 1b 3e ce 5d 54 3d 56 36 eb 3d
       -0.0725781 0.15221508 0.05184727 0.11484973
0001f0 61 d5 4b bc 19 ab 44 be e1 42 17 bd b3 52 8d be
       -0.01244101 -0.19205894 -0.036929015 -0.27602157
000200 17 d4 a0 3d 43 78 00 be 6c 16 6b 3c f2 6c d2 bd
       0.07852953 -0.12545876 0.0143486075 -0.10274686
000210 a9 58 c8 bd 43 fc 04 3e c1 a5 29 3d 9f 56 b8 3d
       -0.097825356 0.12986855 0.04141784 0.09000897
000220 a0 f5 5d 3d d0 4e 2d be 98 ea 1f 3e 2e 7a a2 bc
       0.054189324 -0.16924596 0.15616834 -0.01983365
000230 de cd 71 bd 65 c8 8e 3d a2 ba 9f bd 98 ad f8 bd
       -0.05903422 0.06971816 -0.07799269 -0.121424854
000240 43 8f 00 be 05 cb 99 3d 4e 0d 07 3d 9a 5f 6a bd
       -0.1255465 0.07509426 0.032971673 -0.05722008
000250 56 ea fd 3d e8 24 13 3e 53 db 92 3d 09 11 11 be
       0.12398212 0.14369547 0.07170739 -0.14166655
000260 a6 08 b0 bd 0c a4 e2 3d 59 50 73 3e 6d b2 32 bd
       -0.085953996 0.11066446 0.23761119 -0.04362719
000270 e0 59 a0 3d b2 c7 87 3d a9 4c 3a 3d ff 4a 31 3d
       0.07829642 0.06629886 0.045483265 0.043284412
000280 6a 43 ba bb 0d a4 68 bd de 2d 1d be c8 3a 16 3e
       -0.005684306 -0.056797076 -0.15349528 0.14670861
000290 72 56 0a be 45 ad 2f bd 77 c0 24 bd 1f 70 e6 bc
       -0.13509539 -0.042889852 -0.04022261 -0.028129635
0002a0 ec 8f 70 bd 30 3e 7f 3d 05 e1 d5 3d 8e 85 fa bc
       -0.058731005 0.062315166 0.1044331 -0.030581262
0002b0 1e 9d b9 bc a8 43 c2 3d 81 35 25 bd d2 01 05 be
       -0.022657927 0.09485561 -0.04033423 -0.12988976
0002c0 93 1b 0b be d8 33 c4 3d 06 8e cb bd 23 8e 1a 3e
       -0.13584737 0.09580201 -0.09939198 0.15093283
0002d0 a9 f4 84 bd e6 8e 84 bd 8c 1c e2 bd ac d8 61 3d
       -0.06491978 -0.06472568 -0.11040601 0.055138275
0002e0 48 9d 63 3e 00 78 12 be 7b 2f 2a bd ce 1c 4d bd
       0.22227967 -0.14303589 -0.041549187 -0.0500763
0002f0 d8 1b 3b bc db 3e df bd d8 b3 63 bd 52 f6 4e 3c
       -0.011420213 -0.109006606 -0.055591434 0.0126319695
000300 b1 64 b5 3d 31 c0 5f 3e e9 7a 00 3e e1 67 f6 3d
       0.08857096 0.21850659 0.12546887 0.12031532
000310 e6 a4 b7 bd 63 af 33 be 19 41 04 3e 0c 29 23 3e
       -0.08966999 -0.17547373 0.12915458 0.15933627
000320 56 d0 1f 3e 79 9e 29 bd 4a 51 5c be d3 cd c2 bd
       0.15606818 -0.041410897 -0.21515384 -0.09511914
000330 a7 ac 6d be fb 54 0d 3d e7 7e 0d 3d 32 78 0a 3d
       -0.23210393 0.03450487 0.03454485 0.033806033
000340 c9 51 07 3e 6b 9b 37 3d 6a db 9c bd c6 3a a4 3b
       0.13214792 0.044825953 -0.076590374 0.005011889
000350 87 62 d0 3b 41 62 1d bd 62 54 19 3e 40 cc 88 bc
       0.0063594016 -0.03842378 0.14973596 -0.016698956
000360 c6 f2 71 bb d8 cd 16 be 11 ec f5 3d 22 5b 58 bd
       -0.0036918386 -0.1472696 0.12007917 -0.052821286
000370 f3 2b 20 be 64 46 e9 bd 54 15 ee 3d aa ee dc bb
       -0.15641765 -0.11390379 0.11625162 -0.006742318
000380 ad b8 1d 3e 6d 1e 53 3d 82 fd e7 3d e1 aa 91 3d
       0.1540248 0.05154269 0.1132765 0.07112671
000390 de df 8f bd da 3d 6b bc f4 3b 1b 3e cb cd 4a 3e
       -0.07025121 -0.014358008 0.15159589 0.19805066
0003a0 58 cd 0d 3d 9b d7 ac bd 63 e6 45 3d b0 53 d9 3d
       0.03461966 -0.08439561 0.048315417 0.10611665
0003b0 77 ab 0a 3e 0d 6b de bd b1 91 12 3d 61 04 52 be
       0.13541971 -0.10860262 0.035783473 -0.20509483
0003c0 e8 8b db bc 89 53 17 3d b2 09 79 ba f9 24 a5 bd
       -0.026800111 0.0369449 -0.0009500041 -0.080636926
0003d0 9f 18 a7 3d ea 83 24 3d e0 da a2 bd 42 c2 a6 3d
       0.08158993 0.040164866 -0.07951903 0.081425205
0003e0 a1 57 50 be 00 fd 62 bd 66 a4 01 be fa cd 4e 3e
       -0.20345928 -0.05541706 -0.1266037 0.20195761
0003f0 51 d8 45 bd bc 80 29 be e6 8f 01 3e 82 13 ae 3d
       -0.048302 -0.16553015 0.12652549 0.084998146

encoder.layers.0.linear1.bias f4 [128]
000000 0d 2d 39 be 8a 5e a4 bc 9e 66 64 bc d4 ce 59 3d
       -0.18083592 -0.020064611 -0.0139404815 0.053175762
000010 ea 8b a3 3d 58 e1 b2 bd f9 0d 4f bc de a5 1a be
       0.07985671 -0.08734387 -0.012637609 -0.15102336
000020 af db e6 bd 50 56 6b bd 6b f9 73 3d 71 69 67 3d
       -0.1127237 -0.05745536 0.059564035 0.05649704
000030 2a 0b df 3d 57 0f 30 3d f4 fb 12 3e 1e 19 02 be
       0.10890801 0.04298338 0.14353925 -0.12704894
000040 94 65 0d be 5c a2 64 3d 4e c6 9d bd 1c 2c 14 be
       -0.1380828 0.0558189 -0.07703839 -0.14469951
000050 f5 e2 bd bd 9d 8e 7c bc 55 42 2c bd 66 1b 13 be
       -0.09271804 -0.015414861 -0.042055447 -0.1436592
000060 8c be 91 3d 2e 4d 3f be 32 c7 f5 3d 7a 36 69 3d
       0.07116422 -0.18681785 0.12000884 0.05693672
000070 e1 2f 1b 3e f6 f2 ee bd 00 81 cf bd 37 85 d2 bd
       0.15154983 -0.11667435 -0.10132027 -0.10279315
000080 e1 73 22 be 24 cb 0d be 79 14 77 3d 75 d3 95 3d
       -0.15864517 -0.13847023 0.06032226 0.07315723
000090 89 f5 12 be 19 92 d1 3b 27 fe bf 3b 4c d7 fe bd
       -0.14351477 0.00639559 0.0058591547 -0.12443408
0000a0 8d fc 14 be 92 a3 10 3e 40 d5 fe bd 13 1c 25 be
       -0.14549465 0.14124897 -0.12443018 -0.1612399
0000b0 d1 97 ba ba 13 39 03 be 2e 29 b4 3d df b7 1f bd
       -0.0014235919 -0.12814741 0.08796917 -0.038993713
0000c0 ac 48 38 3c 7e 1a 2c be 34 f8 47 be 27 5f 49 be
       0.011247795 -0.16806981 -0.19528276 -0.19665204
0000d0 1c 36 1b bd 20 25 43 bc 95 f6 ef bc bb 9a d3 bd
       -0.0378934 -0.011910707 -0.029292384 -0.10332247
0000e0 d7 4e 68 bd a5 78 90 3d 7c 46 04 3e e4 31 59 3b
       -0.056715813 0.07054261 0.12917513 0.003314131
0000f0 d8 b3 e4 3d 83 d0 32 be d7 db 9f 3d c4 47 3f be
       0.11167115 -0.17462353 0.07805603 -0.1867972
000100 58 c9 36 be 13 fa f0 3d 15 72 a6 bc 4e cb c1 3d
       -0.17850244 0.11766448 -0.02031807 0.094626054
000110 eb 76 cd 3d a7 45 1e be 48 6c 2b be c9 56 07 be
       0.100324474 -0.15456258 -0.16740525 -0.132167
000120 b0 38 fe ba 98 8a 1c be 0d 8d a2 3d 7d 04 0f be
       -0.0019395556 -0.15287244 0.079370596 -0.13966556
000130 ad a4 d3 3c 24 45 b4 bb 5b 99 9f bc f6 cd 42 be
       0.02583536 -0.0055014063 -0.019482305 -0.1902388
000140 e1 03 e7 3d b2 4c a9 bd 9e 20 8f 3d 9e 63 04 bd
       0.11280037 -0.082665816 0.06988643 -0.032321565
000150 2f 05 fe 3d 9e c6 26 3c a9 a6 1c be fb d6 a3 3d
       0.124033324 0.01017919 -0.15297951 0.07999989
000160 ee 9b 15 be 4d fc df bc 16 5d 41 3e 51 1d c1 bc
       -0.14610264 -0.027341986 0.18883166 -0.02357355
000170 55 e7 5f be 29 71 e4 3d bc 28 ce bd 20 27 18 be
       -0.2186559 0.11154396 -0.10066363 -0.14858675
000180 21 17 22 be ae 84 15 3d 2e 29 ab 3d 3e 48 c4 bd
       -0.15829135 0.036503486 0.08357464 -0.095840916
000190 bd 99 fe bd 7a 1e 8d bc 80 6f cf bd 00 33 16 3e
       -0.12431667 -0.017226446 -0.10128689 0.14667892
0001a0 bd bd 68 3d 46 e9 f4 3d c0 32 65 bd 53 1a 14 be
       0.056821574 0.11958556 -0.055956602 -0.14463167
0001b0 b4 2b ba 3d b0 43 6a 3d 0e 96 05 be 45 0e 14 3d
       0.09090367 0.057193458 -0.13045523 0.03614642
0001c0 ba f8 0e be 0a 38 39 be ad c6 06 3d 74 7c 14 bd
       -0.13962069 -0.18087783 0.032904316 -0.0362515
0001d0 6f 13 cb bd 4a 91 94 3d 63 fe f5 bd 6a 72 a0 3d
       -0.09915816 0.07254274 -0.12011411 0.07834323
0001e0 16 40 7a 3d 97 bb 8f 3c 63 e6 1c be ba 5d 17 3d
       0.061096273 0.017545504 -0.1532226 0.03695462
0001f0 62 0f 11 be b1 48 10 be 65 ae 16 be 19 fb 85 3c
       -0.14166024 -0.1409023 -0.14714964 0.016355084
