models/Proposed/proton.pt (torch, 165267 bytes, 35 tensors)

emb.layers.0.weight f4 [128, 20]
000000 27 b3 1d be 28 84 ff 3d 9e 22 ef bd bb ea 3a 3c
       -0.15400372 0.12476379 -0.116765246 0.011408503
000010 b9 9d 58 3e 55 c3 4c 3e 66 e1 ce bc 62 91 21 3e
       0.21153916 0.19996388 -0.025253963 0.15778115
000020 70 8c 07 3e d4 09 29 be d2 a0 66 3e 94 95 9e be
       0.13237166 -0.16507655 0.22522286 -0.30973494
000030 ce 62 35 3d 86 c0 b2 be 48 4f 10 be 77 7e 61 be
       0.04428368 -0.3491251 -0.14092743 -0.22020899
000040 7e 6e 4a 3c 10 24 3b be 4b 44 87 be 52 ac 07 be
       0.012355445 -0.18275476 -0.2641929 -0.13249329
000050 b8 f6 f2 bd 33 55 cb 3d d0 d8 9a 3d 79 94 cf 3d
       -0.11863464 0.0992836 0.07560885 0.10135741
000060 47 60 c5 bd a6 c9 69 3e b6 82 84 3e 0e 09 9d bd
       -0.09637504 0.22830829 0.25880975 -0.07667743
000070 b8 79 d1 3d 45 6c 58 bd 49 80 04 3e dd bb 9a bd
       0.10228294 -0.05283763 0.12939562 -0.07555363
000080 12 48 a6 bd 79 cb 27 be 81 83 c6 bd c2 53 b2 bd
       -0.08119215 -0.16386212 -0.09693051 -0.08707382
000090 ea 98 e3 bd f5 00 a1 3d ea 37 74 bd 09 46 9a bd
       -0.111131504 0.07861511 -0.059623636 -0.075328894
0000a0 31 47 29 3e 85 50 ca 3d b9 c3 66 3d 8e 8d a2 3d
       0.16531064 0.09878639 0.056339 0.07937156
0000b0 39 33 69 3e 86 ad 25 3e dc d3 4f bd 73 ad 1f 3e
       0.22773446 0.16179475 -0.050739154 0.1559351
0000c0 6e 45 96 be de bd ce 3d 64 08 64 3e 69 be 59 be
       -0.29349846 0.10094808 0.22268826 -0.21264042
0000d0 32 dd 66 be 14 78 ff bc 04 1f 45 be 3b f0 5f ba
       -0.22545317 -0.031185187 -0.19250113 -0.0008542572
0000e0 4e df 85 be 4c 22 0d 3e 25 cd 5d be 87 1d b9 3d
       -0.2614693 0.13782614 -0.21660288 0.09038835
0000f0 f4 d0 25 3e 80 36 51 3e da 1a 65 3e 62 31 ad bd
       0.1619299 0.20430946 0.22373524 -0.08456685
000100 50 4b 07 3e 3e f0 e9 3d 3f 44 ab bd bb bd 73 bd
       0.13212323 0.11422776 -0.08362626 -0.059507113
000110 11 3b 1e be 9b d8 35 be 7a 61 05 3d 69 5e 11 be
       -0.1545222 -0.1775841 0.032563664 -0.14196171
000120 23 aa ba 3d 7d 59 3d 3c a9 5d 38 3e 74 14 c9 bd
       0.09114482 0.01155698 0.18004479 -0.09818354
000130 61 89 0b bd 43 2b 5d bd d0 15 57 3e 7d 4d a5 3c
       -0.03406656 -0.053996336 0.21004415 0.02017855
000140 d5 e7 0a 3d 3f 3e 05 3e 06 fc 0b be 20 34 1a be
       0.0339125 0.13012026 -0.13670358 -0.15058947
000150 dd 6c bc 3d 81 ad 56 be e0 b1 be bd 1c 86 24 bd
       0.092004515 -0.20964624 -0.09311271 -0.04016696
000160 eb 94 52 3e 06 52 6c 3d d8 59 4c be 21 d5 ab 3d
       0.2056462 0.05769541 -0.19956148 0.083902605
000170 2b 91 62 bd 89 50 47 be c9 46 3a 3e c8 3b f1 bc
       -0.055314224 -0.19464315 0.18191065 -0.029447451
000180 2a 43 3d be 13 6b 65 be 10 9c d2 bc 64 3e 30 be
       -0.18482652 -0.22404127 -0.025709182 -0.172113
000190 05 13 6b be e0 6e 83 be c3 6f 09 bf ee 3f 9b be
       -0.22956474 -0.25670528 -0.5368616 -0.30322212
0001a0 ea 12 16 be e1 40 97 bd e3 e0 4b 3e 69 67 19 3e
       -0.14655653 -0.073854215 0.19910006 0.14980854
0001b0 af 22 10 3e bc 43 37 3e a0 5b c5 bc 57 36 e3 bd
       0.1407573 0.17896932 -0.024091542 -0.11094349
0001c0 ab fe a8 bd 0d 9c 47 be 6b 45 ed 3c 51 68 80 3e
       -0.08251699 -0.19493122 0.028963765 0.25079587
0001d0 3d 58 7e 3e 39 a8 dc be 7f 40 dc bd 68 da cc 3d
       0.24838348 -0.43097094 -0.10754489 0.10002595
0001e0 ad e3 ac 3d 5e c0 95 3d 77 d5 55 bd 7c 5a 90 be
       0.08441863 0.07312082 -0.05220553 -0.28194034
0001f0 13 66 67 3e 4c 29 bb bb 48 0d 0b be 0b 56 6c 3c
       0.22597532 -0.00571171 -0.13579285 0.014424811
000200 09 e5 93 bc e3 5a 5a bd 0e 33 41 bc 7d 92 cb 3d
       -0.018053548 -0.053309333 -0.011791958 0.0994005
000210 fe ec 14 be e7 f5 15 3e 79 e6 0c be dc a1 30 3e
       -0.1454353 0.14644586 -0.13759793 0.17249244
000220 ff 1c ee 3d 6a 18 01 be 32 f4 2f bd 4f 3a 40 3c
       0.11626624 -0.1260697 -0.042957492 0.011732652
000230 16 a8 68 3c 68 ce 83 bd 6d 10 43 3e 28 f0 a4 bd
       0.014200231 -0.06435853 0.19049235 -0.08053619
000240 0b 22 39 3e ca 0b 46 be d5 74 74 be 25 cc be be
       0.18079393 -0.19340435 -0.23872693 -0.37265125
000250 e9 90 ae be 5d d4 83 be cf 12 37 bd 20 45 8a be
       -0.34094933 -0.25747958 -0.04469567 -0.27005863
000260 e3 a4 d0 3d 5f da 34 be fa a5 a1 39 40 23 9e 3d
       0.101877 -0.17661427 0.00030831975 0.07721567
000270 ed 1b 2c 3d cc 02 07 3e 3a 06 fd bc c0 57 52 3e
       0.04201882 0.1318466 -0.030886758 0.20541286
000280 e1 a6 82 3d 33 09 22 3e 00 a8 75 bd 44 c0 9b 3d
       0.06379486 0.15823822 -0.05997467 0.07605031
000290 40 14 e7 bd e8 92 b0 bd f6 92 f3 3d 93 ef 9a bd
       -0.11283159 -0.0862177 0.11893265 -0.075652264
0002a0 2d 7c 0e 3e 54 de 4b 3e 4e ec ea bd 3c 26 00 be
       0.13914557 0.1990903 -0.11470853 -0.12514585
0002b0 81 89 dd bd d5 82 a2 3d 4a 72 52 3d 4a 37 52 be
       -0.108172424 0.079351105 0.051378526 -0.20528904
0002c0 62 d3 dc bc 3a 82 cf bb ab 2b 37 be 7b 63 c5 3d
       -0.026956264 -0.006332663 -0.17887752 0.09638115
0002d0 eb 3d 3f be b4 da 12 be cc 28 43 3e a0 e5 e2 3c
       -0.18675964 -0.14341241 0.19058532 0.027697384
0002e0 de ca c0 bd bc e3 9c 3d 54 cb c5 3d 02 19 b4 bd
       -0.09413694 0.076606244 0.096579224 -0.08793832
0002f0 1a 2a e5 bd b0 37 d4 3d d8 9a d2 3d ac 1e 59 bd
       -0.11189671 0.10362184 0.1028344 -0.053007767
000300 6d 2d 10 be 46 6f 24 be be cb 06 be a0 4b 92 bc
       -0.14079829 -0.16058072 -0.13163659 -0.017858326
000310 ff 4b 54 3e 28 67 b1 bc fc fc e3 bd 78 2a 43 bb
       0.20732115 -0.021655634 -0.11132237 -0.0029779952
000320 33 c0 6b be 95 76 47 3d 3d c5 7a be 2c 14 fe bb
       -0.23022537 0.048697073 -0.24489303 -0.0077538695
000330 a7 3d 4c 3e 29 9d 10 3e 12 84 cb bd 6d dc 29 3d
       0.19945394 0.14122452 -0.099373 0.04146998
000340 f0 ab c1 3d de 83 3e 3c 2d 50 ab 3e 8b ad 36 be
       0.094566226 0.011628119 0.33459607 -0.17839639
000350 fb 28 18 3d 6a 19 2d be 80 dc f2 bd 3d 62 b3 3b
       0.037148457 -0.16904226 -0.11858463 0.0054743574
000360 6e 9e 85 be da d5 db 3d 52 74 a5 be d4 9b f3 3d
       -0.26097435 0.10734148 -0.32315308 0.11894956
000370 ec bc 1c 3e 80 37 63 be 1e ea 0c be a8 f0 04 bd
       0.15306443 -0.2218914 -0.13761184 -0.03245607
000380 8e d9 43 be d3 17 6f bd 04 d4 4d bd 40 e3 01 be
       -0.1912596 -0.05837233 -0.050251022 -0.12684345
000390 73 98 01 3e 8a 9c c6 3d af a1 08 3e e4 9f 48 3e
       0.12655811 0.09697826 0.13342927 0.19592243
0003a0 bd 2c 09 3d 58 79 49 be 3f e0 d9 3d b1 e6 8e 3d
       0.03348993 -0.19675195 0.10638475 0.06977595
0003b0 85 5a e7 be e5 ad a5 be ea 20 8e be 78 fe 49 3e
       -0.45186248 -0.32359233 -0.27759486 0.19725978
0003c0 17 ed 3d 3e e3 b3 4c 3e f5 6d 9e 3d bc 70 8b 3e
       0.18547474 0.19990496 0.077358164 0.27234447
0003d0 09 26 cb 3d bd d2 80 be 01 b1 aa be 3d d1 06 3e
       0.09919364 -0.2516078 -0.33338168 0.13165756
0003e0 d2 07 88 be 56 a3 a1 be b1 03 f0 3d db 90 c0 bc
       -0.26568466 -0.31569928 0.11719454 -0.023506572
0003f0 b6 b0 1a be 85 68 30 3e 0b 4d 99 3d 7b 84 1c be
       -0.15106472 0.17227371 0.07485398 -0.15284912

emb.layers.0.bias f4 [128]
000000 62 d7 3d 3e f9 64 d1 3d 69 dd 8a 3c 73 4c 80 3d
       0.18539193 0.10224337 0.01695128 0.062645815
000010 8a 58 b1 3c 06 cb 32 be 3b 51 1b 3e 07 dd d5 bb
       0.021648664 -0.1746026 0.15167706 -0.0065265927
000020 3b 68 d2 bc da 13 59 be ae b3 19 be 81 f1 a0 bc
       -0.025684467 -0.21198979 -0.15009949 -0.019646408
000030 1c 79 1d be 50 d4 7d be ad 31 71 3b 16 c9 1e 3e
       -0.15378231 -0.24788022 0.003680329 0.15506396
000040 4b ae 22 3e 07 8c ba 3d 83 4f 1e be d7 9d 1a 3d
       0.158868 0.09108739 -0.15460019 0.037748184
000050 e8 1d ef bd cd 6c 8d 3c 21 fa f3 3d 67 b2 0a 3e
       -0.11675626 0.017263794 0.11912943 0.13544618
000060 a6 f9 20 3e d3 32 2c be 62 64 cf bd 26 19 54 bd
       0.15720233 -0.16816263 -0.101265684 -0.051781796
000070 98 3a b4 bd a5 6c 54 3e 49 1e bd bc 69 de 42 be
       -0.08800238 0.2074457 -0.02308573 -0.19030155
000080 c7 42 f4 bd 2c 61 47 3e f1 79 7a bd 7a 59 ac bd
       -0.11926799 0.19470662 -0.06115145 -0.08415504
000090 28 0e 65 3e 43 4e 16 bc 67 80 9f bd 21 de 88 bc
       0.22368681 -0.0091739325 -0.07788163 -0.016707482
0000a0 14 12 20 be e0 c7 d8 bd 3e e7 ec bd 54 d4 02 bd
       -0.15631896 -0.10584998 -0.115675434 -0.031940773
0000b0 6a 51 16 3e 19 a8 a5 bd 42 14 4a be 84 79 b7 ba
       0.14679495 -0.08088703 -0.1973429 -0.0013998006
0000c0 88 e3 37 be 0d bd 51 3e 47 3b 26 3e 88 a6 b4 bd
       -0.1795789 0.20482273 0.1623355 -0.08820826
0000d0 15 e8 99 3d 7e 23 1e bc a0 49 3e 3d 2d ae 9d bd
       0.07514969 -0.009652017 0.046456933 -0.07699237
0000e0 22 3a e6 3d 7d 4f 9c 3d e5 5d f0 bd 32 25 df bd
       0.11241557 0.07632349 -0.11736659 -0.10895766
0000f0 7d af 62 3e 12 63 dc 3d b4 ba 69 3d 4d c0 af bc
       0.22137256 0.10761084 0.05706282 -0.021454
000100 e1 5c 45 3e 25 c1 7a bd 16 5b 0c be 32 42 0f 3e
       0.19273712 -0.061219353 -0.13706622 0.13990095
000110 2e 35 90 3d f3 f9 20 3e 2b 7f d0 bd 1e 6a af 3d
       0.07041393 0.15720348 -0.10180505 0.08565162
000120 99 22 a8 3c 55 33 83 3d c1 73 0f 3e 88 72 c8 3d
       0.02052431 0.06406275 0.14009 0.0978747
000130 b5 c6 20 3e ec e3 02 bc a4 c3 e7 3d dd 86 db 3d
       0.157008 -0.007988911 0.11316612 0.107190825
000140 88 f0 32 3c 52 bf 97 3d 37 f1 4e be 39 39 70 3d
       0.010921605 0.07409538 -0.20209204 0.05864832
000150 ad 25 a9 bd 23 84 91 3d f6 6c e3 bd fe 75 12 3e
       -0.08259139 0.07105281 -0.11104767 0.14302823
000160 b5 23 6e 3d d4 7d 0f be 93 0e 02 be d3 3f 14 be
       0.05813952 -0.14012843 -0.12700872 -0.14477472
000170 70 05 f3 3d be 99 9d 3d 34 56 1b bd 5d 87 8d bd
       0.118662715 0.076953396 -0.037924007 -0.06910584
000180 ec 09 01 3e cd 31 3b bd 6b ef b3 bd a4 35 15 3e
       0.12601441 -0.04570179 -0.087859 0.14571244
000190 5c 61 35 3e fa 30 07 3e f7 2b 18 be a5 09 df 3d
       0.17712921 0.13202277 -0.14860521 0.108905114
0001a0 24 6e a2 3d 13 30 91 bd 76 03 34 be 64 8b de bd
       0.07931164 -0.070892476 -0.17579445 -0.108664304
0001b0 d2 d0 44 bd 11 76 26 bd ca ce 2a be 41 f1 3c 3d
       -0.04805071 -0.04063994 -0.16680446 0.046128515
0001c0 3c 63 1c bd 7d 87 c1 bd 55 22 e8 3c 38 32 35 be
       -0.038180575 -0.094496705 0.028336683 -0.17694938
0001d0 52 ea 0d be 6d 71 e7 bd 97 e8 35 3e 87 5b 23 be
       -0.13858917 -0.11300931 0.17764507 -0.15952884
0001e0 f8 d7 21 be 18 ed 2b 3d 9c 2c 70 3d c6 2f 2a be
       -0.15805042 0.041974157 0.058636293 -0.16619787
0001f0 ec 0d 29 3e d4 27 e2 bc 2c ad c4 3d 97 33 a6 bd
       0.16509217 -0.027606882 0.096033424 -0.08115309

emb.layers.2.weight f4 [32, 128]
000000 16 57 5a 3c 51 e2 f2 3c a4 32 8c bd a2 7f c9 3c
       0.013326427 0.029648932 -0.068455964 0.024596993
000010 5b e2 87 bd 8c 0c c6 bd 43 ef 76 3d 76 f6 7a bc
       -0.06634971 -0.09670362 0.06028677 -0.01531755
000020 92 0e c3 bd 5a b3 2c bb c7 3c e1 bc af d1 8f 3c
       -0.095242634 -0.002635202 -0.027494801 0.01755604
000030 1b 81 23 bd fc 34 e1 bd b5 d8 16 3d 46 5c 95 3c
       -0.039918046 -0.10996434 0.03682776 0.018232476
000040 45 d0 87 3d 38 3c a3 3d 2e 61 6d bd a1 bc e2 bc
       0.06631521 0.0797047 -0.057954006 -0.027677836
000050 00 a8 41 3b 4c 31 26 bd 1e 9c 7a 3c 1a bc 93 3a
       0.0029549599 -0.040574357 0.01529601 0.0011271269
000060 3e fd 16 bd 06 cc ab bc 40 06 f8 3c 8b a8 04 3d
       -0.036862604 -0.02097131 0.030276418 0.032387298
000070 8a 62 1f be b3 c8 4c 3d a3 c0 42 3d 86 c5 38 bd
       -0.15564933 0.04999609 0.047546994 -0.045110248
000080 4d c5 63 3d 0d 40 93 3c 59 49 62 3d f0 ab bf 3c
       0.055608083 0.017974878 0.05524573 0.023397416
000090 e5 14 6f bc 7a 37 4e bd 95 78 74 bc 2e 68 b0 bc
       -0.014592384 -0.050345875 -0.014921327 -0.021534052
0000a0 60 83 dc bd 8b 7a 17 3d 25 cb b0 3b 0c 5a 3c bd
       -0.10767245 0.0369821 0.0053953105 -0.045984313
0000b0 ae 2a c0 bd d0 5a 08 be 27 66 ff ba 12 4c ad bd
       -0.093831405 -0.13315892 -0.00194854 -0.08461775
0000c0 41 97 3a 3c 82 02 a7 3c d4 46 a7 3d bc 43 4b bc
       0.011388601 0.020386938 0.08167806 -0.012406286
0000d0 64 b2 ae bd ab 2b ec ba f2 90 27 3d 15 17 da 3c
       -0.08530119 -0.0018018385 0.040909715 0.026622334
0000e0 69 01 fa bc 68 8c b6 bc 3f 76 89 3c ac 10 b0 bd
       -0.03051825 -0.022283748 0.016780017 -0.0859693
0000f0 e6 2b f7 bb 8e 0d 9a bd 34 31 4a 3d 25 d0 dd bc
       -0.007543075 -0.075221166 0.04936333 -0.02707679
000100 7a 1a 86 bd 4f d6 22 bd 8d a7 e6 bd c6 05 b6 bc
       -0.06548019 -0.03975516 -0.112624265 -0.02221955
000110 51 89 97 3c 1b 04 70 bd f6 fa 24 bd 0a 68 58 bd
       0.018498095 -0.058597665 -0.040278398 -0.052833594
000120 e3 2b 89 3b 02 39 93 bd 0d 86 29 3d 99 f5 26 bc
       0.00418614 -0.07188608 0.041387606 -0.010190391
000130 cf 61 9b 3d 75 08 be 3b 98 52 be bd 56 4b 95 bd
       0.07587015 0.005799348 -0.09293097 -0.0728976
000140 8e ea b6 bd c5 58 1e bc 70 86 92 bd 55 4a 2f 3c
       -0.089314565 -0.009664719 -0.07154548 0.0106988745
000150 5e d6 bf 3c 13 71 11 3d 8b fb 50 3d 8a fe 84 bc
       0.023417648 0.035508227 0.05102114 -0.016234655
000160 e4 12 96 bd b8 f4 15 3e bb 2f 5c be ed 81 ae 3c
       -0.07327822 0.14644134 -0.21502583 0.021302188
000170 1d 64 ae 3d ed c7 b9 bb 22 8c dd bd 59 73 db bd
       0.08515189 -0.005669585 -0.10817744 -0.1071536
000180 d3 f2 f8 3c 67 c3 77 bc bc 3c 8f 3c 59 b6 2e 3d
       0.030389225 -0.015122271 0.017485015 0.04265437
000190 bc de 9d 3d 40 2c aa 3d a0 c3 88 bd e4 65 79 bd
       0.07708499 0.08309221 -0.066779375 -0.060888186
0001a0 1f 5b 43 bd 15 90 0e 3d 6c da a7 bc ff de 9f 3c
       -0.04769432 0.034805376 -0.020489894 0.019515513
0001b0 e1 5e 40 bd a7 2d bb bd 97 45 a2 bc a4 27 bd bd
       -0.046965484 -0.09139567 -0.019808574 -0.092360765
0001c0 cc d1 c0 bd 7f 23 89 3d 3f b5 a1 3c eb 18 48 39
       -0.094150156 0.066962235 0.019739745 0.00019082769
0001d0 de ee 0c 3c 6d 1c 05 be 4f f1 61 bd 58 e6 04 be
       0.008601872 -0.12999125 -0.05516177 -0.12978494
0001e0 81 09 34 3d 5b b7 0f 3c a0 bd a9 bd 88 bd 85 bd
       0.043954376 0.008771743 -0.08288121 -0.06530291
0001f0 a8 99 5f 3d e5 e3 e2 bd 29 76 a0 bd 73 4a 41 3e
       0.054589897 -0.11078624 -0.07835037 0.18876056
000200 13 52 75 3c 60 50 8c bd 2f 92 2f 3c e8 75 4c 3d
       0.014973181 -0.06851268 0.010716005 0.04991713
000210 86 e0 0f bd 95 d9 f3 bd 32 9c 62 3d 25 5a 17 be
       -0.03512623 -0.11906735 0.05532474 -0.14780481
000220 1e 1b 65 3c 52 d0 13 bd ac 49 be bd 25 24 b9 3d
       0.013983516 -0.03608734 -0.092913955 0.09040097
000230 be 61 02 3d e3 8b bc 3c 6d dc 01 bd b5 9c b2 b9
       0.031831495 0.023015922 -0.031704355 -0.00034067562
000240 92 06 2d 3c a9 6e 98 bd 0c 64 f0 3a f9 8b 15 bd
       0.0105606485 -0.07442982 0.0018340363 -0.03651044
000250 aa 0c a5 bc d1 ce 00 be 29 dd e8 3c 37 1d 8d 3c
       -0.02014764 -0.12578894 0.02842577 0.017225845
000260 af 88 3b bd 32 5d d8 3d 54 73 49 bd b9 7f d6 bd
       -0.04578465 0.105646506 -0.04918225 -0.1047358
000270 09 87 df 3d 12 80 e0 3c d2 cd 4a bd 4d cd e6 3c
       0.10914428 0.027404819 -0.04951269 0.028174067
000280 68 8e 49 bd 99 38 1c 3c bf 2a 73 bd d5 37 3d bc
       -0.049208075 0.009534978 -0.059366938 -0.011548956
000290 e1 7a ab bb 8e 1d 48 3c 6e 8f c5 bc b2 f8 fb bc
       -0.005233154 0.012214078 -0.024116244 -0.030758236
0002a0 45 38 28 bd 65 36 81 3d f3 7c 1a 3d 5e 31 96 3d
       -0.041069288 0.06309203 0.037716817 0.07333635
0002b0 59 74 09 3d f7 3f 96 bd ac 4f 4f be d2 ef 9f bd
       0.033558223 -0.07336419 -0.20245236 -0.07809414
0002c0 f4 d1 99 bd 3e fa 42 bc 2a f7 2b 3d fc 29 9f 3c
       -0.075107485 -0.011900483 0.04198376 0.0194292
0002d0 0c 70 99 bd e8 c4 a8 3c 3a f1 7b 3d b2 27 db bd
       -0.07492074 0.020601705 0.06150935 -0.10700931
0002e0 cf 53 eb bd de c4 0b 3d d9 ae 88 3c 91 cf 41 3d
       -0.114905946 0.034123294 0.016684936 0.04731709
0002f0 08 01 aa 3d 42 7b 49 3d cd 59 94 bd 0a 69 81 bd
       0.08300978 0.049189813 -0.07243691 -0.06318863
000300 ee b1 1b bd 70 7f 44 bc 91 7c f6 bd 52 60 86 3d
       -0.038011484 -0.011993274 -0.12035478 0.065613404
000310 af 77 5b bd d1 2c e8 bd 4c 2b 94 bd 99 15 a0 bd
       -0.053580936 -0.11336673 -0.07234821 -0.078166194
000320 ea da 09 3d 17 6b 57 3c 90 e7 13 bc f7 17 58 3d
       0.03365604 0.013148091 -0.009027377 0.05275723
000330 dd f3 10 3d 9f 04 a6 3d f2 94 b8 3d 74 c9 38 3d
       0.035388816 0.0810635 0.09012784 0.045113996
000340 6e fc 66 bd a2 ed ce bd 1d cc f9 bd 5f c9 c0 3c
       -0.05639308 -0.101039186 -0.12197135 0.023533521
000350 e5 95 83 bc 9f 70 05 be e3 6b 79 3d f4 14 0a bd
       -0.016062686 -0.13031243 0.060893904 -0.03371139
000360 87 d6 95 bc 5d 82 a7 bd b0 75 d2 bd 30 46 8f 3c
       -0.018290771 -0.08179162 -0.10276353 0.017489523
000370 28 c3 dc bc 52 d3 d0 bc 55 ff ca bd 94 a2 20 3d
       -0.026948527 -0.02549139 -0.09911982 0.039217547
000380 46 b0 08 3d 03 d1 af 3d 6d 34 ab 3b 4d c7 40 bd
       0.033371232 0.08584788 0.0052247555 -0.047065068
000390 67 44 ca bc 38 cc a4 bc d6 20 e7 bd cd f1 f4 ba
       -0.02469082 -0.02011691 -0.1128556 -0.0018687785
0003a0 4f 33 40 bd d6 db 29 bc 06 b9 59 3d db 64 a0 3c
       -0.04692393 -0.010367354 0.053154968 0.019579342
0003b0 e0 86 95 3d 92 b5 53 3d a8 a9 d1 bd 41 29 fe bc
       0.07301116 0.05168683 -0.102374375 -0.03102553
0003c0 dd 94 8d bd e4 6c 64 bb 3a 36 fd 3c 47 0b 40 bd
       -0.06913159 -0.0034854943 0.030909646 -0.046885755
0003d0 96 8a 93 3d 3d 11 13 3d d7 7e 8d bd f5 c7 88 bd
       0.072041675 0.03590511 -0.069089584 -0.06678764
0003e0 5f e5 1f 3d 4c 06 32 3d b6 bd 8b 3d 8d f9 44 bb
       0.039037105 0.043463036 0.06823294 -0.003005597
0003f0 c0 d4 69 3d 3f d6 ba bb 58 0a 5d bc 95 08 bc bd
       0.05708766 -0.0057018097 -0.013491236 -0.091813244

emb.layers.2.bias f4 [32]
000000 88 ca 3d 3d cf 03 9a 3d 97 64 87 3d 27 bd 62 bc
       0.046335727 0.07520258 0.06610983 -0.013839043
000010 5a 32 80 bc 52 4b 40 bc d3 30 88 3d bb 9f ec bc
       -0.01564901 -0.011736708 0.066499375 -0.02888476
000020 75 30 c2 bc 32 aa 30 bd 9f 90 3e 3d ac cf a7 3d
       -0.023704747 -0.04313106 0.04652464 0.08193907
000030 79 72 a9 bc 71 a3 94 bd 65 34 3e 3d 8f bb be 3d
       -0.020684468 -0.072577365 0.046436686 0.09313118
000040 c7 39 95 bd 52 76 eb bc f3 e6 93 3b b4 46 36 3d
       -0.07286411 -0.028742943 0.0045136153 0.04450102
000050 4f 3c 1b bc 9a 90 c0 bd c5 1f 21 bc fd 81 ee 3b
       -0.009474828 -0.094025806 -0.009834235 0.0072786794
000060 a5 4d 7b 3d 14 3e 69 bc b2 ab a4 3d f2 44 c9 3d
       0.061353344 -0.014235992 0.08040561 0.098276034
000070 f0 22 74 bd 7d 03 51 bd 5b 47 af bd 7a 54 96 3d
       -0.05960363 -0.051028717 -0.08558532 0.073403314

encoder.layers.0.self_attn.in_proj_weight f4 [96, 32]
000000 7d 57 0a 3e f0 fa 8e be eb 6a c8 bd 38 e1 15 be
       0.13509937 -0.27925825 -0.09786018 -0.14636695
000010 b0 da 48 3d 9a 19 32 be c1 92 3d 3d f4 f3 81 be
       0.04903668 -0.17392579 0.046282534 -0.25381434
000020 dc 2f 57 3e 09 ce 7e 3c e1 81 ff bb df 48 4c 3e
       0.2101435 0.015552052 -0.007797465 0.19949673
000030 32 c3 5c be 9c aa 2b 3d 85 f3 43 3e ff 03 94 bd
       -0.21558836 0.041910753 0.19135864 -0.07227325
000040 ca 8e d9 ba a5 19 ed bd 66 07 a8 3d 45 a1 66 be
       -0.0016598341 -0.11577157 0.08204536 -0.22522457
000050 3b 88 8b 3c 37 5f 3e 3c b8 ac 9f 3d eb 26 be 3c
       0.017032733 0.011619381 0.07796615 0.023211917
000060 aa ff 56 3e 0b c2 f0 3c 20 a8 ce 3c 7e c4 26 be
       0.20995966 0.029389402 0.025226653 -0.16285893
000070 e5 49 25 bd 03 9a 33 3e 51 c4 27 3e 61 25 32 be
       -0.040353674 0.1753922 0.16383483 -0.17397071
000080 bb 58 0a 3d c6 b7 46 be 50 11 ec bd 28 7e 7e 3c
       0.033776026 -0.19406042 -0.115267396 0.015533008
000090 20 3f 5c be ad 32 38 3d cd d3 2e bd fb b6 ac 3c
       -0.21508455 0.044970203 -0.042682458 0.021083346
0000a0 c1 1e d8 3c 66 2e 54 be fa 27 b1 bd 66 ef 55 be
       0.026381852 -0.20720825 -0.08650203 -0.20892105
0000b0 9c d7 79 bc b7 b2 94 3d e5 c1 e4 3d 32 dc 4a bd
       -0.015249159 0.0726065 0.11169795 -0.0495264
0000c0 44 55 31 3e ca 61 52 3d 38 42 07 3e 5b 16 10 3e
       0.17317683 0.05136279 0.13208854 0.14071028
0000d0 17 f0 81 be f2 79 17 be 4f d6 23 be f2 b1 1d be
       -0.25378487 -0.14792612 -0.15999721 -0.15399912
0000e0 ea 7f 1e 3d 2e 1e c2 3d c3 fc 48 be 6d e0 1b 3e
       0.038696207 0.094784126 -0.19627671 0.1522233
0000f0 90 3b 84 bd 57 34 1e 3e b6 20 45 3e ad 95 ad 3d
       -0.06456673 0.15449654 0.1925076 0.08475814
000100 fb 22 ee ba a7 57 10 bd 1b 3e 0d 3e 1b 02 16 3d
       -0.0018168384 -0.03523984 0.13793223 0.0366231
000110 85 a8 bf 3d d8 99 05 be c3 85 90 3d 92 f3 6b be
       0.093583144 -0.13046968 0.07056763 -0.23042133
000120 bb 05 43 3d e2 bd 18 3e 3f b1 7b bc 2b b7 2d 3e
       0.047612887 0.14916185 -0.015362083 0.16964404
000130 cf 53 f2 bd e3 3a 84 3d b9 5a 78 3c 03 b5 57 3e
       -0.118323915 0.06456544 0.015158349 0.21065144
000140 3a 78 73 3d 73 4b 40 3d 53 c2 db bc a2 c8 2d 3e
       0.05944083 0.046946954 -0.02682606 0.16971067
000150 d0 46 6b be 40 3e 3a be 6a 05 3c 3e e2 13 cf bd
       -0.22976232 -0.18187809 0.1836144 -0.10111214
000160 94 cb f0 3d 10 c4 76 3e 78 20 d4 3d 0b 99 0c be
       0.117575794 0.2409823 0.103577554 -0.13730256
000170 64 24 87 3d ad ce 04 3d 82 61 98 3c b7 66 3c 3e
       0.06598738 0.032423664 0.018601183 0.18398558
000180 cf 8a 34 bd 33 c2 8f be 40 67 4a 3e 2d a4 17 3e
       -0.04407769 -0.2807785 0.19765949 0.14808722
000190 b9 05 3e 3d a9 d3 71 be f4 87 1e 3e 04 31 66 be
       0.046392176 -0.23615898 0.1548155 -0.22479635
0001a0 b6 22 04 be 2f a7 57 be 58 fd 21 be 3e 2c 97 3c
       -0.12903866 -0.21059869 -0.15819299 0.018453714
0001b0 76 1d ae 3d de 80 26 3e 9f 47 10 3e f0 18 b8 3d
       0.08501713 0.16260096 0.14089821 0.089891315
0001c0 84 f1 47 be bd c2 d4 bd 21 67 37 3e b1 e2 ca bc
       -0.19525725 -0.10388706 0.17910434 -0.024766298
0001d0 99 26 b9 bd 8c ff 28 bc c4 93 5c be 26 6f 28 3e
       -0.09040565 -0.010314833 -0.21540743 0.1644865
0001e0 34 4a 06 3e 19 9b 13 3e f1 42 02 bc f7 9a b5 bc
       0.13114244 0.14414634 -0.00795053 -0.02216862
0001f0 7a 12 a1 3d 4b 3c 33 be 25 da 81 3e 68 34 44 3e
       0.07864852 -0.17503469 0.25361744 0.19160616
000200 de fa 29 3d c0 fc 8e be 8e db 5d 3e 1a 08 9e bd
       0.04149901 -0.27927208 0.21665785 -0.07716389
000210 e6 c2 bf bd d1 9e 20 be a4 14 1c 3e f6 cd 12 3e
       -0.09363346 -0.15685584 0.15242249 0.1433638
000220 d6 d9 88 bc 2a e7 91 bd 57 eb 2f 3e 97 d2 58 3c
       -0.016705435 -0.07124169 0.17179619 0.013233802
000230 72 92 02 bd 80 79 8e bc ce ca d9 bd ed 78 2f be
       -0.031877942 -0.01739192 -0.10634385 -0.17135973
000240 91 01 cd 3d 93 74 8a 3c ba 3f 62 be 1c b1 75 3b
       0.100100644 0.01690129 -0.22094622 0.0037489599
000250 50 37 68 be 68 6e 16 3e 37 94 6d be ca ed 1f 3e
       -0.2267735 0.14690554 -0.2320107 0.15618053
000260 41 39 68 bd 59 91 a6 3d 52 2a f9 b9 c9 bb e6 bb
       -0.056695227 0.081331916 -0.00047524512 -0.0070414287
000270 66 75 55 3d 4d 59 e3 bc 25 77 17 3e fe 1e 7b be
       0.052113913 -0.027752543 0.14791544 -0.24523541
000280 07 97 1e be d2 f5 0a bc b2 5b 57 bd f9 f9 3d be
       -0.154873 -0.00848146 -0.05257768 -0.18552388
000290 69 33 8b 3e ff 1d 54 3e 25 a5 fa 3d 87 ef 55 bd
       0.2718766 0.20714568 0.1223853 -0.052230384
0002a0 1a 2c 3a 3e fb 36 71 3e b9 47 1e be 08 51 03 3e
       0.18180886 0.2355613 -0.15457048 0.1282388
0002b0 80 33 0b 3e 72 b5 1b 3d 2c 52 8d be c4 ba 19 bc
       0.13593864 0.038014837 -0.27601755 -0.009382907
0002c0 a9 20 09 bd 37 8c 89 3a d4 80 4d be ba 0e 24 be
       -0.033478413 0.0010494058 -0.20068675 -0.16021243
0002d0 13 49 fd 3d f6 c7 0c 3e 63 54 53 be f5 31 d7 3d
       0.123674534 0.13748154 -0.2063766 0.105075754
0002e0 d4 8f 34 bc a1 02 be 3d ea 6f 31 3e 49 ac b0 3d
       -0.011020619 0.09277845 0.17327848 0.08626611
0002f0 ee 86 2b be e3 a2 6e bd 61 d3 20 3d b9 b2 22 bc
       -0.1675069 -0.05826081 0.039264087 -0.009930306
000300 05 a9 d0 3a 6c 58 a6 bd 74 ab d7 bd 49 ec c5 3c
       0.0015919512 -0.08122334 -0.10530749 0.024160521
000310 b9 68 06 3e 39 d8 26 3e 53 4e 91 3d 42 11 ee bd
       0.13125886 0.1629342 0.07095017 -0.116243854
000320 bb 19 f2 bd e7 d8 a1 bd d6 d0 61 bc 66 69 c4 bd
       -0.11821314 -0.07902699 -0.0137827005 -0.09590416
000330 15 0d 39 3e e5 3e 2e be 1e 27 b7 bc 7c 59 53 be
       0.18071397 -0.1701618 -0.02235752 -0.20639604
000340 ae d6 bc 3d a3 a3 e5 3d c6 3a 29 3e f5 c2 0b be
       0.092206344 0.11212852 0.16526327 -0.13648589
000350 06 68 83 3e 96 fb b3 bd 7d 9c 24 3a 43 ef 59 3c
       0.256653 -0.087882206 0.0006279422 0.013301673
000360 f3 9f 12 bd 52 89 cb 39 21 5a 13 3d bf 81 c5 bd
       -0.03579707 0.0003882149 0.035974625 -0.09643888
000370 99 2f 8d bd 29 fa 0e be 27 87 b7 bd 52 5b 24 3d
       -0.06893844 -0.13962616 -0.08961325 0.040126152
000380 95 ef 01 be 45 7a 96 3e 40 7b 81 be 9e b1 d2 bd
       -0.1268905 0.2939016 -0.25289345 -0.10287784
000390 ed b3 55 3e f2 79 d6 bd f3 74 b7 bd 8f 52 0f 3e
       0.20869417 -0.10472478 -0.08957853 0.13996337
0003a0 5f e5 c6 bb 6a 37 28 3e 25 8e 10 be 3e b9 9e 3d
       -0.0060698236 0.16427389 -0.14116724 0.07750176
0003b0 93 21 43 3e 93 0a 8d 3a 5c 6d 57 be 1f 02 48 be
       0.19055776 0.0010760598 -0.21037811 -0.19532059
0003c0 b0 2c fa 3d 43 a5 20 be c8 b8 5f 3e 43 0a b1 3d
       0.12215555 -0.15688042 0.21847832 0.086445354
0003d0 ab 95 fe bd a7 1a 53 be d4 6e 0e 3e 16 63 15 3e
       -0.12430891 -0.20615636 0.13909465 0.1458858
0003e0 a9 ef 2b 3e d8 06 72 be aa 9b 04 3e 40 1d a5 bc
       0.16790642 -0.23635423 0.12950006 -0.020155549
0003f0 47 df e0 3c ca 13 1f 3a ed 23 10 3e 86 01 29 3e
       0.027450217 0.00060683175 0.14076205 0.16504487

encoder.layers.0.self_attn.in_proj_bias f4 [96]
000000 9b 46 e5 bd d3 97 ff bd f5 9a e7 bd e0 d6 f3 bd
       -0.111951075 -0.1248013 -0.113088526 -0.119062185
000010 ee 96 02 be 8f df bf 3d bc 4e e6 3d 62 8e e1 3d
       -0.12752888 0.09368812 0.11245486 0.110134855
000020 9f ac d3 bd 30 b9 0d be 7c e4 de bd e2 14 cc 3d
       -0.10335659 -0.13840175 -0.10883424 0.099649206
000030 8a 2e e9 bd f1 54 54 3d 76 97 91 bd 00 93 cd bd
       -0.1138583 0.05183882 -0.07108967 -0.10037804
000040 00 81 aa 3d 0d 47 9a bd 27 bd 89 bd e8 e7 94 bd
       0.08325386 -0.07533083 -0.06725531 -0.07270795
000050 5e 59 ab 3d 6f c3 9d 3d 34 0a a6 3d 89 c6 a1 bd
       0.08366655 0.077032916 0.08107415 -0.07899196
000060 2d e7 ce 3d 48 a8 af bd 42 7f 52 bc 49 38 cc 3d
       0.10102687 -0.08577019 -0.012847723 0.09971673
000070 78 d3 df bd 23 3e 87 3d f2 2a a3 bd 61 6e 15 3d
       -0.10929006 0.066036485 -0.079671755 0.03648222
000080 b5 f8 b3 36 d9 57 c0 37 98 c4 a0 b7 ba 2b 14 b8
       5.363569e-06 2.292909e-05 -1.9165032e-05 -3.5326673e-05
000090 1e a3 9c 37 ce 88 7a b6 bb 6a 85 b7 9f f6 b6 37
       1.8672607e-05 -3.7332534e-06 -1.5904536e-05 2.1810933e-05
0000a0 58 96 06 36 df 9c aa 37 bb 9f 2f b7 17 e6 cf 37
       2.0055068e-06 2.0338628e-05 -1.0468003e-05 2.4783467e-05
0000b0 9e 15 08 b7 b6 ca 30 37 3e 49 91 b7 8b b2 ea b6
       -8.111265e-06 1.0537615e-05 -1.7319453e-05 -6.9945286e-06
0000c0 1d 78 e1 b5 35 24 9f 36 97 b8 e9 36 bf 2d a3 b6
       -1.6798764e-06 4.7427843e-06 6.96543e-06 -4.863104e-06
0000d0 84 82 f0 b6 21 ec c7 36 d2 28 e6 b6 40 a7 41 b7
       -7.1677514e-06 5.958151e-06 -6.8592863e-06 -1.1542637e-05
0000e0 84 6d 29 38 e7 19 1e 37 37 76 c0 37 39 40 61 37
       4.0394734e-05 9.423565e-06 2.2943232e-05 1.3425998e-05
0000f0 ed b5 88 b6 6d 31 2b b5 be a9 84 b7 8d 68 10 b6
       -4.074295e-06 -6.377439e-07 -1.5814669e-05 -2.1518529e-06
000100 74 ae ac 3c b0 48 79 3c 00 be 81 3c a3 f8 da bc
       0.02107928 0.015215084 0.01583767 -0.026729887
000110 fd 32 52 3b f2 87 36 3c 76 b4 ae 3c 48 53 a2 bc
       0.0032073848 0.01114081 0.021326285 -0.019815102
000120 78 2d 91 3c dd f9 da bc f8 a9 bc bb 9f 29 1b 3d
       0.017721877 -0.026730472 -0.0057575665 0.03788149
000130 11 66 96 3b cf 5a e3 3b d4 99 b5 3c 34 b3 e2 bc
       0.004589804 0.0069383155 0.022168078 -0.027673341
000140 bc c2 5b bc 98 46 2b 3d b7 ee 45 bc 0d 9d 12 bc
       -0.0134131275 0.04181537 -0.01208084 -0.008948577
000150 da 22 b1 3c 33 90 17 3b 4e 57 8f bc 8d 7b e5 bc
       0.021623064 0.002312672 -0.017497685 -0.028013015
000160 c1 f1 ea bc eb 1a d6 3c f6 42 a9 bb 93 43 fb bc
       -0.02867973 0.026135882 -0.005165453 -0.03067187
000170 bb 3a b7 bb 67 6c 9e bc 2d 9d d2 bc d6 b3 09 bd
       -0.005591718 -0.0193388 -0.025709713 -0.03361877

encoder.layers.0.self_attn.out_proj.weight f4 [32, 32]
000000 ac 97 2b 3e ea 05 a5 3d 71 63 12 be b2 d6 90 bd
       0.16757077 0.08057769 -0.14295746 -0.070722
000010 c7 4b 03 3e bc 86 38 3d 2b 03 f7 3c 67 e1 fc bd
       0.12821876 0.045050368 0.030152878 -0.123476796
000020 dc 20 1c be 61 98 f6 3c 8e ef 3b 3d c7 88 9b 3d
       -0.1524691 0.030101957 0.045882754 0.075944476
000030 3a ab 21 be a7 b7 ce 3d 9f 41 1f be fe bc 00 be
       -0.15787974 0.10093623 -0.15552376 -0.12572095
000040 e4 07 8b 3d 23 91 40 bd be e2 45 be 00 01 1d bd
       0.067886144 -0.047013413 -0.19324777 -0.03833103
000050 97 f9 3a 3d 55 0e 27 bd 78 ff 02 be 5f 45 14 bd
       0.045648184 -0.040785152 -0.12792766 -0.03619897
000060 a3 7b db bc 92 5f 1c 3e be 71 fa 3c 69 42 11 bd
       -0.026792353 0.15270832 0.030571815 -0.035463724
000070 6c c3 f1 3d 94 dd b5 bd 9f 0b 79 3d 39 21 d9 bd
       0.11804852 -0.08880153 0.0608021 -0.1060204
000080 2d 15 80 bd 06 aa 1c be 2c a6 ed bd 1c 77 ea bc
       -0.06254039 -0.15299234 -0.116039604 -0.028621249
000090 06 8c d4 3a 04 3c a9 bd 7e 80 7a 3d 87 a4 b3 ba
       0.0016216047 -0.082634 0.061157696 -0.0013705649
0000a0 37 37 e7 3d 32 8f f5 bd 97 5c dd bd ac f9 22 3e
       0.11289828 -0.11990203 -0.10808676 0.15915555
0000b0 b5 e4 2a 3d 31 0d ee 3d 3c fd f2 bb 06 c6 ee bd
       0.04172202 0.1162361 -0.007415442 -0.11658864
0000c0 71 e4 ce bc ae f7 11 3d 30 54 9a bd b7 21 96 3d
       -0.025255414 0.035636596 -0.07535589 0.07330649
0000d0 42 2d 6b 3c 54 14 7f 3d 7a d5 34 3e fd 04 b1 3d
       0.014354052 0.062275246 0.1765956 0.086435296
0000e0 b1 0e 86 3d c8 d5 82 3d e6 22 f5 bd 1e 35 a6 bd
       0.06545771 0.06388432 -0.11969547 -0.081156
0000f0 9f 57 9f 3d 52 f2 45 3c b5 92 4a bc 0b fa 14 bd
       0.07780384 0.012081699 -0.012364079 -0.036371272
000100 f6 5c 4b 3d 3a 94 5e bc e5 bc 1e 3e 8a 7d a8 bd
       0.0496492 -0.013585145 0.15501745 -0.0822707
000110 3b fa b6 bd b6 c8 9f 3d e1 fc 83 3d c5 23 15 be
       -0.089344464 0.078019544 0.06444717 -0.14564426
000120 91 4e c4 3c 8b b9 8d b9 80 a6 ae 3d c0 23 a8 3d
       0.023963245 -0.00027031856 0.08527851 0.08209944
000130 46 d6 9b bc 06 66 7d bd 30 8e be 3d 25 0d fb 3d
       -0.019023072 -0.061864875 0.09304464 0.122583665
000140 42 6b 18 bd a9 65 15 3d 70 a6 be bc 70 60 a8 bd
       -0.037211664 0.036473904 -0.023272723 -0.08221519
000150 99 40 07 3e ec 90 82 3d 71 a9 8c 3d f7 b5 e4 3d
       0.13208236 0.06375298 0.06868256 0.111675195
000160 6c 33 8a bc c2 a4 38 be 31 6a d9 bc 62 5e c4 3d
       -0.016870223 -0.180316 -0.026539894 0.095883146
000170 d8 6b 5b bd 75 3d 2d be c3 c5 e2 bd 53 7b 63 3d
       -0.053569645 -0.16917975 -0.11072876 0.055537533
000180 e0 01 97 bd 88 96 01 be a9 76 73 3d 18 96 dc 3d
       -0.073734045 -0.1265508 0.059439335 0.107708156
000190 dc 66 07 be 15 5e da 3d d8 52 f7 bd 5f 9e 30 be
       -0.13222831 0.10662476 -0.12076348 -0.17247914
0001a0 c6 45 1a 3e 07 c4 9a bd 63 7e b4 3d 1e af 0c bd
       0.15065679 -0.075569205 0.08813169 -0.034346692
0001b0 c0 d9 b2 bd a9 e1 5d 3e c4 fb a3 bd c1 cf 31 3e
       -0.08732939 0.21668114 -0.08007005 0.17364408
0001c0 f3 25 55 bc d0 74 82 3d 71 b3 3e bd 46 ff 12 3c
       -0.013009536 0.063699365 -0.046557847 0.008971995
0001d0 a1 db de bc 4b 9d e6 bd cf 0a 19 3e 39 7d e4 3d
       -0.027204337 -0.1126047 0.1494553 0.11156697
0001e0 8c 5e 8b 3c 5a 75 84 3d ad ad af bd d8 f7 e0 3c
       0.017012857 0.064676955 -0.08578048 0.027461931
0001f0 75 1f 50 3d 2d e4 11 3e 7e 1b be bd bb b2 16 bd
       0.05081125 0.14247198 -0.092825875 -0.036791544
000200 17 be 3e bd a2 a7 5a 3e 64 ad fc 3d fe 49 12 be
       -0.046568003 0.2135301 0.12337759 -0.14286038
000210 6a a7 89 bd 89 d4 36 3e 16 bb 5d 3e 64 20 13 bd
       -0.06721385 0.17854513 0.21653399 -0.035919562
000220 ed c4 95 bd e7 8d 3f 3c 76 dc b8 bd 19 02 02 3e
       -0.07312951 0.011691547 -0.090264246 0.12696113
000230 ac 24 64 3d 3d f1 6a 3d d1 29 66 bd 10 5f 9b bb
       0.055699036 0.05735897 -0.056192223 -0.004741557
000240 1f 9a c6 bd 24 dc b4 3d bf d1 26 3e 22 66 95 3b
       -0.09697365 0.08831051 0.1629095 0.0045592943
000250 d3 e4 17 3e cd 0c 96 3d ea ae f5 bd 5b 84 04 be
       0.14833383 0.0732666 -0.11996253 -0.12941115
000260 36 32 37 be d7 0d b1 3d 1c 09 0c be 5a f6 16 be
       -0.17890248 0.08645218 -0.1367535 -0.14742413
000270 32 4a 23 be 83 1d 57 be 33 b1 21 be f2 01 f3 bb
       -0.15946272 -0.21007352 -0.15790252 -0.0074160034
000280 01 cd 3d 3e 20 f3 e4 bd 59 45 d1 bd f1 3b b8 bd
       0.18535234 -0.11179185 -0.10218305 -0.08995808
000290 7d 25 7b 3c 6f 64 4d bd d8 bb 56 3e bc c0 ec 3b
       0.015328762 -0.05014461 0.20970094 0.007225124
0002a0 1c 06 2c 3e 4f 49 96 bd 1c 10 c1 3c d8 34 9e bd
       0.16799206 -0.07338201 0.023567252 -0.07724923
0002b0 19 71 36 3e 5a b6 cb bd fe 7a 1a bd 31 c2 08 3e
       0.17816581 -0.0994689 -0.03771495 0.13355328
0002c0 3f d8 63 3c 12 08 87 bd 0f 44 05 3e 19 8d 87 bd
       0.013906538 -0.06593336 0.13014244 -0.06618709
0002d0 f8 92 41 bb eb 43 bc 3d f0 86 cb 3d 0e 6d d5 bd
       -0.0029537063 0.09192642 0.09937847 -0.10421191
0002e0 d7 a0 43 be 3c 3d 15 3b 09 29 07 bd 9a 47 10 3d
       -0.19104324 0.0022772094 -0.03299812 0.035224535
0002f0 a8 b3 ba 3c 05 c7 0d be f6 c2 03 3e 66 11 50 bb
       0.022790745 -0.13845451 0.1286734 -0.0031748652
000300 dd 30 10 be ce 73 4f 3d e6 f1 e4 3c 06 e6 d6 3d
       -0.1408114 0.05064755 0.027947377 0.10493092
000310 73 0b c5 3d a6 28 1b bb 24 40 16 3e a6 c1 1f 3e
       0.096213244 -0.0023675351 0.14672905 0.15601215
000320 fe 83 fa 3d c5 37 fc bb 61 f3 cb 3d 58 3c 44 3c
       0.12232207 -0.007697078 0.0995853 0.011977278
000330 ba 4b 1c 3d d3 48 df 3d 2f e6 bd 3c b5 99 ca bd
       0.038158156 0.10902562 0.02318105 -0.098925985
000340 18 de 42 bd 53 e6 77 bd 56 f2 96 3d 8d eb 05 3e
       -0.047575086 -0.06052239 0.07370441 0.13078137
000350 19 b5 23 bd d5 b9 71 3c 2c dd 1d 3e 22 b0 e6 3d
       -0.03996763 0.014753778 0.15416402 0.112640634
000360 5b 65 e9 3d 92 c1 06 bd 83 f8 f4 bd 0d 30 81 bc
       0.11396285 -0.032899447 -0.11961462 -0.015769983
000370 dd f0 01 3e df 0d 31 3d f4 9c cd bc 98 1e c6 bd
       0.12689538 0.04322612 -0.025099255 -0.09673804
000380 95 68 a5 3d 1e d6 c7 bc b8 c5 2f be e2 4a b3 3d
       0.08076588 -0.024394091 -0.17165267 0.08754517
000390 6f 77 6b bd ec e4 ce 3d e2 37 fc bd 1f 06 06 be
       -0.057486948 0.10102257 -0.12315346 -0.13088273
0003a0 b7 a6 80 bc bb b3 71 3d 03 5e 5d bd cc fc b7 bd
       -0.015704496 0.059009295 -0.054044735 -0.08983764
0003b0 12 62 f6 3d cb d5 20 3e 78 6e a2 3d c4 4f f3 3d
       0.12030424 0.15706556 0.079312265 0.118804485
0003c0 75 f1 b9 3d 51 35 0e be 71 f1 0a 3d 2b 97 2f 3e
       0.090792574 -0.13887526 0.033921663 0.1714751
0003d0 cb dd 3e 3e 04 4e ab 3d 9e ac f3 3c bf d6 ae 3d
       0.18639295 0.0836449 0.029745396 0.08537053
0003e0 96 0b 5c bd a5 12 50 3d 4f 60 5f bd 9b ae 52 3d
       -0.053721987 0.05079903 -0.054535206 0.051436048
0003f0 fe c2 14 bd a0 46 f0 3c 42 c7 27 3c aa 2a 45 be
       -0.03631877 0.029330552 0.010240378 -0.19254556

encoder.layers.0.self_attn.out_proj.bias f4 [32]
000000 1f 5b 2a 3c 07 8a 32 3d da 19 32 bb b4 cc af bb
       0.0103977015 0.043588664 -0.0027176053 -0.0053649787
000010 fa 60 ce 3c 1d 64 ca 3c 55 7c 28 3b 3e 1a 6f bb
       0.025192726 0.02470594 0.0025708873 -0.0036484147
000020 d9 b8 ee bb 37 52 73 bc 06 76 6a 3c 52 5a 40 bb
       -0.007285219 -0.0148511445 0.014310366 -0.002935071
000030 60 47 21 3c aa 54 6b bc b3 fa bf bc 41 28 89 bc
       0.009843677 -0.014363447 -0.023434972 -0.016742827
000040 a2 1e 08 b9 20 e5 26 3c 9c db 63 3b e4 50 97 3c
       -0.00012981382 0.010186464 0.0034768349 0.018471189
000050 b9 1d 22 3c a0 f5 4e bc 35 2f 6b 3b a4 69 ba 39
       0.009894782 -0.012631804 0.0035886292 0.00035555393
000060 a8 da b6 3b 75 1e f5 bb 30 0c d0 3c b1 d4 8b bb
       0.005580265 -0.0074804374 0.025396436 -0.004267298
000070 9a f1 a7 bc 3e 60 f2 bc 6b c3 84 bc 6d 49 87 3c
       -0.020500947 -0.029586907 -0.016206464 0.016514504

encoder.layers.0.linear1.weight f4 [128, 32]
000000 36 88 8e bd 2a ee 3b bd 23 8a 3a 3d 13 45 3f 3e
       -0.06959574 -0.045881428 0.045541894 0.18678693
000010 c4 f5 00 3e 9e e3 44 bb 9c 3d ad 3d e8 ea 95 bd
       0.12593752 -0.0030042897 0.08459017 -0.073201954
000020 f0 47 ac bd d4 28 23 bd 19 c6 00 be 92 c8 c4 3c
       -0.084121585 -0.03983386 -0.12575568 0.02402142
000030 80 33 3a 3e be 18 14 3e 09 9c 15 bd 53 ca 70 bd
       0.18183708 0.14462563 -0.03652576 -0.0587867
000040 d3 a7 83 bd 8a 84 e7 bd 29 94 37 be 78 6b 81 bd
       -0.06428494 -0.11304577 -0.17927612 -0.06319326
000050 15 7c e4 bd f2 bc 9e bd b6 2a a4 bd c7 99 e6 3d
       -0.11156479 -0.07750882 -0.08015959 0.112597995
000060 16 20 73 3d 10 c9 8f 3d b1 0c a3 3c 79 89 e0 3c
       0.05935677 0.070207715 0.019903513 0.027409302
000070 10 8d ee bd 9d 84 1b 3e 6c 67 c1 bd 08 ff 0b be
       -0.11647999 0.15187307 -0.09443554 -0.13671505
000080 8b be c4 bd 65 e1 2b 3e f8 02 9c 3d bc af 48 bc
       -0.09606656 0.167852 0.07617754 -0.01224893
000090 26 3d d7 3d 0a 4d 32 be c6 c2 88 3d d3 1d 63 be
       0.1050971 -0.174122 0.06677775 -0.22179346
0000a0 d2 5c 08 3e 95 a5 99 3d 7c 70 cc 3d f1 bb 49 bd
       0.13316658 0.075022854 0.09982392 -0.0492515
0000b0 04 1a 04 be 62 ba 0b be f8 c9 1b 3e 8b 1e c3 bb
       -0.12900549 -0.13645318 0.15213764 -0.0059545687
0000c0 fd 9d 79 bc e3 b5 15 be 8d 37 23 be 34 b4 ab bd
       -0.015235421 -0.14620166 -0.1593916 -0.083839804
0000d0 de 50 83 bd e1 05 03 be 0e ea bf bd 31 5f 94 bd
       -0.064119086 -0.12795211 -0.09370814 -0.07244719
0000e0 dc da 1b 3d 70 a9 22 be 73 7e f7 bd f0 7d cd 3d
       0.038050517 -0.15884948 -0.12084665 0.10033786
0000f0 1d 11 13 be b9 78 51 3c c0 9d 80 3d ec 01 1a bd
       -0.14361997 0.01278513 0.062800884 -0.03759949
000100 52 0f 18 3d 90 0a d7 3d ec 95 da 3d f4 49 14 be
       0.037123986 0.105000615 0.106731266 -0.14481336
000110 1b da cf 3d 47 da 63 3d 82 03 38 3e 12 f8 2d 3d
       0.10149022 0.055628087 0.17970088 0.042472906
000120 a7 62 7e 3c 64 cf e4 bd 61 3d 3f 3e 2b 0f 85 bc
       0.01552645 -0.11172369 0.18675758 -0.016242584
000130 80 41 f0 bd ba f8 05 3e 09 8e 1a 3d db 26 65 bd
       -0.11731243 0.13083163 0.03773311 -0.05594526
000140 63 9b 3c 3e 02 78 2e be 16 3a 9a 3d 6b 89 24 bb
       0.1841865 -0.17037967 0.0753061 -0.0025106322
000150 a4 5c 0f be 04 1e 0e 3e a2 5d 78 3d 2c 6c 1f 3e
       -0.14000183 0.13878638 0.06063617 0.15568608
000160 c8 9b 0a 3e bc 27 d6 bd 9d b4 d1 3d 4b 02 12 3e
       0.13535988 -0.104567975 0.102395274 0.14258687
000170 cb 77 bb bd 9b 2c 05 3d a3 32 00 be 27 4a fe 3d
       -0.09153708 0.032513242 -0.12519316 0.12416487
000180 9c 72 38 3d 3c d0 cf 3d 8f 2a b7 bd 83 a7 14 3e
       0.045031175 0.101471394 -0.08943664 0.14517026
000190 5f 51 12 bd 44 da 34 3d 60 56 f7 3b 95 28 f3 3d
       -0.035722133 0.044153467 0.0075481385 0.11872975
0001a0 1a 78 08 3c 59 2d 2d be f3 9b e8 3d 10 dd df bd
       0.008329416 -0.1691183 0.1135787 -0.10930836
0001b0 db 89 18 3e 30 e8 e1 3d 92 5e 28 3e 11 ff 1b 3e
       0.14896338 0.110306144 0.16442326 0.15234019
0001c0 64 ef 8a 3d 90 43 d9 bd 6f dc 80 bc 3f 21 71 bd
       0.067839414 -0.1060859 -0.01573011 -0.058869597
0001d0 97 c6 df bc 3e 78 25 be a2 9f 80 3b 6f 10 0a 3e
       -0.027316375 -0.1615915 0.0039252797 0.13482831
0001e0 84 ff f5 bd 01 25 44 3e 9c 19 1e bd 5b a8 4d 3d
       -0.12011626 0.19154741 -0.03859864 0.050209384
0001f0 b7 94 00 be 35 48 19 3e 35 47 30 3d 3b 4c f4 3d
       -0.1255673 0.14968951 0.04303666 0.11928602
000200 9f 58 17 3d 26 ed aa bd d9 db 71 3c bc a5 f6 3d
       0.03694975 -0.08346014 0.014761888 0.1204333
000210 f2 4e 82 bd 19 54 2b be 1d eb 9f 3d cd 58 c3 bd
       -0.06362714 -0.167313 0.07808516 -0.09538422
000220 1d fd d7 3c 33 c5 48 3c ce 64 cf bd 0c cb 82 3c
       0.026365811 0.012254047 -0.10126649 0.01596596
000230 9c 2c b7 bc 4e f1 22 3e 2e d7 b0 3e 49 ed 9d 3d
       -0.022360139 0.15912363 0.3453917 0.07711274
000240 96 ed a1 bd 95 5c a4 3d 64 2f 01 be ae f1 0d 3e
       -0.07906644 0.08025471 -0.12615734 0.13861725
000250 fb 85 58 3d 60 e2 93 3d 6e 3a 76 3d 27 5c 4a be
       0.05286215 0.07220912 0.060114317 -0.19761716
000260 cb b0 e8 3d ca 2c e7 bd 87 be 83 bc 4d 30 cd 3d
       0.113618456 -0.1128784 -0.016082061 0.10018978
000270 4f 87 14 3d ba 9d c3 3d d9 17 1f 3e b3 ab 0f be
       0.036261853 0.09551568 0.15536441 -0.14030342
000280 9c 01 16 3e ad bc 5b be 29 1a be 3d ec 70 b2 bd
       0.14649051 -0.21458693 0.092823334 -0.087129444
000290 00 92 73 bc a0 2e e6 bd 26 67 f3 bd fa 31 2a 3d
       -0.014866352 -0.11239362 -0.118849084 0.041551568
0002a0 ab 4a e7 bb 60 81 0e bd db d2 d2 bd dc 60 d5 bc
       -0.0070584617 -0.03479135 -0.10294124 -0.026047163
0002b0 c9 36 e0 3d 99 38 35 bd 4d fc 54 3e d8 d0 94 bc
       0.109479494 -0.04424343 0.2079937 -0.01816599
0002c0 0f b7 19 3e 25 f7 70 bd 4d 59 ef 3d 1e 52 32 3e
       0.15011238 -0.058829445 0.11686955 0.17414138
0002d0 99 e4 3b bd ed e6 4f 3d 00 31 45 3d 76 46 dc 3c
       -0.045872305 0.050757337 0.048142433 0.026889067
0002e0 22 5c d4 3d 7e a6 c2 bb 5b ec 02 be 85 e4 cf 3a
       0.103691354 -0.0059402576 -0.12785475 0.0015860951
0002f0 e4 3b 3a 3e 5f 21 38 3e a9 1a 6c 3d 11 e2 02 3d
       0.18186909 0.1798148 0.057642613 0.031953875
000300 b4 93 20 be 80 95 24 be 08 9e 2f 3e 32 5a b9 3d
       -0.15681344 -0.16072655 0.17150128 0.090504065
000310 ce f9 43 be 0b c9 16 bd fe 00 1f 3e d0 28 01 bd
       -0.19138262 -0.036812823 0.15527722 -0.031533062
000320 ab e8 82 3d ef ed 34 3e 5f a9 04 3c 22 09 23 3e
       0.06392034 0.1766889 0.008097022 0.15921453
000330 a3 f8 87 bd e9 bd 19 3e 85 1b 85 bc f1 15 f6 3d
       -0.066392206 0.15013851 -0.016248474 0.12015904
000340 f8 14 dc 3d fb 85 dd 3d 2a 2f 29 be c1 f6 31 be
       0.10746187 0.1081657 -0.16521898 -0.17379285
000350 0c d8 99 3d 75 66 14 be 42 40 31 bd 46 08 ac bd
       0.07511911 -0.1449221 -0.04327417 -0.084000155
000360 8b a4 da 3c 65 bb 26 3d ce 14 13 3e f6 b1 bf bd
       0.026689788 0.040706057 0.14363405 -0.09360115
000370 4c 80 0c 3e 88 cd 34 3e d3 24 9c 3e 95 fe c3 3b
       0.13720816 0.17656529 0.30496845 0.0059812763
000380 07 be 00 3c b2 13 94 bd 17 d5 1d 3e 48 c8 11 3e
       0.007857806 -0.07230319 0.15413319 0.14236557
000390 9b 67 4e be 75 b0 fd bd f2 f1 40 bd b3 99 31 3d
       -0.2015671 -0.12387172 -0.047105737 0.04335947
0003a0 a3 cb df 3d d4 5b 63 3d 1d 0e 42 be df ad d5 bd
       0.109275125 0.055507496 -0.18950696 -0.10433554
0003b0 9e 18 08 bc 63 61 d4 3b ff 5f a8 3e 9f 85 33 3e
       -0.00830665 0.006481336 0.3288574 0.17531441
0003c0 c5 43 1e be 47 6b 9e 3c 81 34 57 be db c7 45 3d
       -0.1545554 0.019338263 -0.21016122 0.0482863
0003d0 60 58 8e 3d 7c 11 7c 3d b9 73 34 3d f6 80 eb bd
       0.0695045 0.061540112 0.044055674 -0.11499207
0003e0 17 1f 05 3e 54 e1 08 be d6 3c 11 be 15 e8 84 3d
       0.13000141 -0.13367206 -0.14183363 0.06489579
0003f0 ae 66 e9 3d c9 39 d3 3d 00 6c 2b 3e 93 22 c9 3d
       0.11396538 0.10313756 0.16740417 0.09821048

encoder.layers.0.linear1.bias f4 [128]
000000 37 fa d0 3d 9c 41 0c be ea 7f 32 be 5c 6d eb bb
       0.10203975 -0.13696903 -0.17431608 -0.0071846675
000010 13 45 d4 bd af de a2 3d d0 34 06 be c3 3f 9a bd
       -0.10364737 0.0795263 -0.13106084 -0.07531693
000020 dd d3 9e bd b3 0c 39 3c ed 4e 2f bd c2 c7 ff bd
       -0.077552535 0.011294532 -0.04279988 -0.12489273
000030 37 56 81 3d ea 19 95 bd fb fc 54 bd 9e 44 e5 bd
       0.06315272 -0.07280333 -0.051999073 -0.11194728
000040 5e da 5a 3d 6a 0a fc bd 50 bc 06 3e 23 e0 e4 3c
       0.053430907 -0.12306674 0.13157773 0.027938908
000050 c5 5d 31 be 76 7c 4d be a9 c6 03 3e a0 8e 42 be
       -0.17320926 -0.2006701 0.12868752 -0.1899972
000060 38 4e c2 3d ca 8a 1c be 2b 64 9e bd b4 ad ce bd
       0.09487575 -0.15287319 -0.07733949 -0.10091725
000070 c5 ba b2 bc 1a e1 c7 bd ed ad 4a be cf 43 c9 3c
       -0.021817574 -0.097597316 -0.1979291 0.024568466
000080 2f 9e 20 3b a6 8d 25 3e d0 91 db bd c3 26 2d be
       0.0024508347 0.16167316 -0.10721171 -0.16909318
000090 07 d7 7e 3d 6b 00 14 be 1c d1 86 bd bc 73 a9 3d
       0.062216785 -0.14453284 -0.06582853 0.08274028
0000a0 52 fd 12 be e1 cb 1f be f3 09 33 be 2d 97 e2 3c
       -0.14354447 -0.15605117 -0.17484264 0.027659977
0000b0 02 0b c4 bd 6d d0 87 3d 48 75 84 bc 94 f2 4b bc
       -0.09572412 0.06631551 -0.016169205 -0.012447972
0000c0 57 34 fc bc bc 66 9a bd e7 2d 6c bd 67 13 11 bd
       -0.030786676 -0.07539126 -0.057660963 -0.035418894
0000d0 33 20 69 bd 4b 8a e2 bc 11 00 d4 bc 59 c0 4e 3d
       -0.056915473 -0.027653834 -0.025878938 0.050476406
0000e0 cd 7e 90 bd 45 59 2b be 0f 43 de bb 5b f0 1d be
       -0.07055435 -0.16733272 -0.0067828964 -0.1542372
0000f0 09 c8 df 3d 6b 53 d1 3d 78 43 90 3d 21 40 e7 3b
       0.109268256 0.10220989 0.07044119 0.0070572053
000100 17 bd d1 bd 93 b0 92 3d d2 10 3a bd e5 c2 f8 bc
       -0.10241144 0.07162585 -0.045426197 -0.03036637
000110 c7 64 b4 3d 30 6b 06 3e a0 72 f6 bd 52 ac d2 bd
       0.08808284 0.13126826 -0.12033582 -0.10286774
000120 88 ac e1 3d 4b 36 0a be 1c 14 c2 3d e7 74 2a be
       0.11019236 -0.13497274 0.09476492 -0.16646157
000130 53 a6 9a 3d 00 e6 f7 bd a2 98 07 3a 13 b8 f8 bc
       0.07551255 -0.12104416 0.00051725854 -0.03036121
000140 d6 2e 3d be 53 d5 0b bc e4 89 00 be a7 16 2c 3d
       -0.18474898 -0.008534747 -0.12552601 0.04201379
000150 bd 67 af bd 91 39 8b 3c 58 9e 47 be 8f 60 bc bb
       -0.085647084 0.016995223 -0.19493997 -0.0057488154
000160 88 22 18 be bc 5a 04 3e 63 23 bd 3d 5a e7 54 be
       -0.14856923 0.12925237 0.09235265 -0.20791379
000170 6c 95 dd bc 14 69 99 3d d6 77 2a be 3a f8 3a 3e
       -0.027048789 0.07490745 -0.16647276 0.18258753
000180 15 69 b5 bc 00 10 1d 3d 20 97 97 3d 3c 3a d3 3d
       -0.022144834 0.038345337 0.07401872 0.10313842
000190 b3 70 2f 3c f1 53 d8 3d 0c 43 43 3d 45 96 58 3d
       0.010708022 0.105628856 0.047671363 0.052877683
0001a0 de 73 1a bc 5d 2e 14 be 9a 15 fc bc 91 4f e9 3d
       -0.009427039 -0.14470811 -0.03077202 0.11392129
0001b0 76 11 dc bd a9 71 2e 3d c4 5f 42 be 18 88 a1 3c
       -0.10745518 0.042588864 -0.18981844 0.019718215
0001c0 ce 36 47 be 0f 24 02 3e 71 41 f4 bd e0 f1 98 3d
       -0.194545 0.12709068 -0.119265445 0.07468009
0001d0 8d 14 19 3e 58 74 98 bd 3a 8b 49 be 8a 6c 13 3e
       0.14949246 -0.07444066 -0.19682017 0.14396873
0001e0 65 d6 8f 3d b5 4a 25 be 2e 03 2f 3c a4 0f 03 3e
       0.070233144 -0.1614178 0.01068191 0.12798935
0001f0 ca 3f d1 bc c4 b1 38 bd 64 25 0a bd 8a 94 90 3d
       -0.025543112 -0.045091406 -0.033727065 0.070595816
